experiments_multi/Brain_Tumor_Segmentation_Separate_Train_Val_20260208_103839/best_model_state.pth (torch, 494373 bytes, 56 tensors)

enc1.0.weight f4 [16, 4, 3, 3]
000000 e3 ce 1e bd 02 af b0 3d a0 32 82 3d 23 5a c3 bc
       -0.03877152 0.0862713 0.06357312 -0.023846691
000010 fa 5e 9e 3b 29 5c 97 bd 28 36 41 3d 50 ce 7c 3e
       0.0048330994 -0.07390625 0.047170788 0.24688077
000020 48 20 54 be 9d ce 4d 3d d3 4f a0 3d b0 74 2f be
       -0.2071544 0.05024587 0.07827725 -0.17134356
000030 b3 c8 26 3e ab e6 fc 3d 38 a8 8f 3c 28 c6 51 bd
       0.16287498 0.12348684 0.017536268 -0.051214367
000040 67 49 b8 bc f9 60 c9 3d 01 f2 c8 bd 79 c6 39 be
       -0.022495938 0.09832949 -0.098117836 -0.18142118
000050 b8 d1 ec 3c d9 cb 24 be 25 23 7d 3c 19 f2 01 be
       0.028908595 -0.16093387 0.015450274 -0.12690009
000060 41 33 25 3d 63 b8 45 3e 68 24 77 bb 3c a4 47 3e
       0.040332083 0.19308619 -0.0037710909 0.19496244
000070 b2 05 74 bb 6f b2 8d bd 22 16 69 3e ab 28 67 be
       -0.003723484 -0.06918799 0.22762349 -0.22574107
000080 27 dc 23 bd db cc bc 3d 39 60 9b bc c0 1c c9 bd
       -0.040004876 0.092187606 -0.018966781 -0.09819937
000090 e3 03 b0 bb 04 8f 2e bd 56 fa 39 3d 3a fd ef 3d
       -0.005371557 -0.04261686 0.045404755 0.11718221
0000a0 e2 79 10 3e d9 8b 69 3d 0b 95 b4 3d 39 42 7f bd
       0.14108995 0.057018135 0.0881749 -0.062319014
0000b0 9e 09 a0 3d 60 86 bd bc c9 8f d9 bd 92 40 be bd
       0.07814334 -0.023135364 -0.10623128 -0.092896596
0000c0 db 98 25 3e 56 9a 20 3e 72 06 09 3e fd 2b 2b ba
       0.16171591 0.15683874 0.13381365 -0.0006529687
0000d0 1c 26 03 3e 35 f3 8f bb 4b 8a c4 bc 11 b6 b9 3d
       0.12807506 -0.004393006 -0.023991724 0.090679295
0000e0 df 08 05 be 58 ee 6c bd a6 4e 10 3d 03 08 cb bd
       -0.12991665 -0.05784449 0.035231255 -0.099136375
0000f0 c3 88 83 be f7 26 8c 3d be 6d 9b 3d 10 02 ec bc
       -0.25690278 0.068433695 0.07589291 -0.028809577
000100 5c a6 2b be 75 14 03 be 04 3f 8a bd 2e 82 ee bd
       -0.1676268 -0.12800772 -0.067503005 -0.116459236
000110 0f ee 3f 3e dc 30 2f bd 90 14 8e 3e ee 02 f3 bd
       0.18743156 -0.042771205 0.27750063 -0.11865793
000120 d6 cb 75 3d 8e 28 1a 3d 5f 34 b2 bd dc d0 bd 3b
       0.060008846 0.037636332 -0.08701395 0.0057927202
000130 a2 ec d0 bd 48 1a 92 3d 89 24 2c bd b9 e4 8c bd
       -0.10201384 0.07133919 -0.04202703 -0.06879563
000140 16 8b fa bd e2 34 83 bc a8 af 16 3e 31 3a 3d be
       -0.1223356 -0.016016427 0.14715445 -0.1847923
000150 3d 11 15 3e 10 bb 46 bd 10 65 b7 bd 09 7b 14 bd
       0.14557357 -0.04851824 -0.08954823 -0.036250148
000160 43 4d 12 be f0 86 f3 3d 27 dc 0a be 8d 53 fb bd
       -0.14287286 0.11890972 -0.13560544 -0.122717954
000170 57 f1 c2 3c 08 55 02 3e a4 93 e4 3b a5 fd 8c 3e
       0.02379672 0.1272775 0.006975608 0.27537265
000180 d7 74 e4 3c 1f 6a 40 be e6 52 45 be fc 65 98 bc
       0.027887745 -0.18790482 -0.19269904 -0.018603317
000190 29 a2 18 bd d5 b1 ae 3d 3c 9e 59 be d9 72 ed bd
       -0.037264023 0.085300125 -0.21251768 -0.11594171
0001a0 02 78 47 3e c3 98 25 bd b8 c0 a5 3d 72 3a da bb
       0.19479373 -0.040428888 0.08093399 -0.0066597993
0001b0 59 61 06 3d 4b fc 54 be 81 2f eb bd be d4 84 bd
       0.03280768 -0.20799367 -0.1148367 -0.0648589
0001c0 5d 9a 56 bd 2d 19 0b bd 21 6c d5 3d a4 78 87 bd
       -0.052393306 -0.033959556 0.104210146 -0.06614807
0001d0 26 00 48 3d 3b 5d 86 bc df 86 32 3e ba 84 97 3d
       0.048828267 -0.016401878 0.17434262 0.073983625
0001e0 32 b3 19 be e7 d1 59 3e 31 df cd bd 19 20 15 3e
       -0.15009764 0.21271478 -0.10052336 0.14563026
0001f0 21 a4 85 3e ac d5 05 3e 61 67 9d 3d 3a 9c 82 3e
       0.26101783 0.1306979 0.076857336 0.25509816
000200 05 6a a8 bd 91 2b cc bd 02 4c 3c 3e 3b 6b 70 bd
       -0.082233466 -0.09969247 0.1838837 -0.058696013
000210 a2 0b 36 be ac 38 80 be 50 33 82 3d 7a 56 e2 3c
       -0.17777875 -0.25043237 0.06357443 0.027629126
000220 ff 48 25 3d 2c 99 1b bd ac 6c e8 3c 53 41 4e be
       0.040352818 -0.037987873 0.028372131 -0.20142107
000230 07 30 19 3d e1 3a 6b bd 3c 07 fa 3d a5 a5 15 bd
       0.037399318 -0.0574292 0.12208411 -0.036534924
000240 41 41 86 bd f3 c6 73 3d a1 a9 14 bd c3 30 b0 be
       -0.06555415 0.059515905 -0.036294583 -0.34412202
000250 32 91 d0 bd ff 57 73 3d d0 a0 15 be d4 6a 12 3d
       -0.10183944 0.05941009 -0.14612126 0.03574641
000260 98 d3 c4 3d 14 d7 f9 bc e4 7f 1f 3e 97 f9 54 bc
       0.09610671 -0.030498065 0.1557613 -0.01299896
000270 98 33 2f 3e 95 74 af bd 9e 9b c2 3d ff da 4d be
       0.17109525 -0.08567158 0.09502338 -0.20103072
000280 3c 18 a2 3b 4f f7 a6 bc f8 de 82 3c 67 c8 a8 3d
       0.0049467366 -0.020381598 0.01597546 0.08241349
000290 67 10 c2 bd 1c 2f 7c 3d b7 25 0a 3e 07 bd d7 3d
       -0.09475785 0.061568365 0.1349095 0.10534101
0002a0 17 35 6d bd eb ad 33 3e e3 f6 f8 3a 9f 3f 91 be
       -0.05791196 0.17546813 0.0018994476 -0.28368852
0002b0 ba c5 27 3e e8 01 04 bd 58 f3 14 be 47 e0 a7 3d
       0.1638402 -0.03222838 -0.14545953 0.081970744
0002c0 be 51 9e bd d8 30 43 3e ef ed 96 3d 26 a3 f0 3d
       -0.07730435 0.19061601 0.07369601 0.11749868
0002d0 02 fc ad 3d 0b 02 82 bd 58 72 64 3d af 63 74 3c
       0.08495332 -0.06348046 0.05577311 0.014916345
0002e0 78 44 b4 3d e7 2a 19 be 90 dc cd bd 2f 12 82 3e
       0.08802122 -0.14957772 -0.100518346 0.25404498
0002f0 12 34 c3 3d 49 e4 a8 bc da a3 38 be b2 c5 b8 3a
       0.09531416 -0.020616667 -0.18031254 0.0014097004
000300 19 a9 00 bd 2e 78 92 bd d9 5f b3 3d d2 36 1d 3d
       -0.031411264 -0.07151829 0.08758516 0.03838236
000310 e6 33 d2 3d dc db 45 bd 0f 70 90 3e a0 de 58 be
       0.10263805 -0.048305377 0.28210494 -0.21178675
000320 ea 72 15 3d 70 de 8d 3e cb 6d 54 3e db 04 38 bd
       0.036486544 0.2770877 0.20745008 -0.044926506
000330 93 30 a1 bd 1d 1e 77 3d 75 d6 e8 bc e9 5f a4 bd
       -0.07870593 0.060331453 -0.028422574 -0.08026106
000340 8f 84 ec 3d 30 d0 2c 3e e7 68 85 3d 04 42 d1 bd
       0.11548721 0.16876292 0.06514149 -0.102176696
000350 47 c3 1b bd 7c 16 a8 bd 02 90 f1 3c e4 0e 7a bd
       -0.038028028 -0.082074136 0.029487614 -0.061049357
000360 41 0d fe 3c e4 e3 64 3e 85 1f 74 3d f6 89 e8 3b
       0.03101218 0.22352558 0.059600372 0.0070965244
000370 63 8a 37 bd c1 5f 1d be fe 30 80 3d 03 32 46 bd
       -0.04480971 -0.15368558 0.062593445 -0.04838754
000380 0d b8 9f bc d8 ac a3 bd e4 83 9d bd 9e 0b d9 3d
       -0.019496942 -0.07991952 -0.07691172 0.10597919
000390 6e f1 b0 bd 6a 58 ec bd 63 5d 83 3e c3 4f 47 3d
       -0.08639799 -0.11540301 0.25657186 0.04866005
0003a0 9d a3 a0 bd f9 4f 7a bd 05 20 c1 bc ff 6c 82 3d
       -0.07843707 -0.061111424 -0.023574838 0.063684456
0003b0 21 55 70 bd da a6 1c 3e 42 df f1 bb 8a 96 20 be
       -0.058674935 0.15298024 -0.0073813507 -0.15682426
0003c0 b5 be 98 3d 9f a6 13 3e 08 5b 43 3e f6 12 a2 3c
       0.074582495 0.1441903 0.19077694 0.019784432
0003d0 5b b2 d6 3d 79 61 bb bd c8 2c 70 3c 36 2f 00 3e
       0.10483237 -0.09149451 0.014659114 0.1251801
0003e0 19 0a f4 3c 0e a1 95 bd bc 36 21 3e d4 2d 12 3d
       0.029789971 -0.07306109 0.15743536 0.035688236
0003f0 39 7d 55 bc 30 50 58 3e e1 9c 1c 3d a7 fb a3 bd
       -0.013030344 0.21124339 0.03823555 -0.08006983

enc1.1.weight f4 [16]
000000 1a 05 80 3f 1b 45 81 3f 3e 8a 80 3f ad db 80 3f
       1.0001557 1.0099214 1.0042188 1.006704
000010 49 8b 7f 3f 54 66 7d 3f 01 d9 7e 3f bb e7 80 3f
       0.9982191 0.98984265 0.9954987 1.0070719
000020 a7 38 7f 3f 72 53 81 3f 23 eb 7f 3f 9a 8c 7d 3f
       0.9969582 1.010359 0.99968165 0.99042666
000030 8b 71 81 3f 3d b2 81 3f bb de 7e 3f 08 f4 82 3f
       1.0112776 1.0132519 0.9955861 1.0230722

enc1.1.bias f4 [16]
000000 e9 8c 57 3b c7 8b 01 3c e7 2e 83 3b e3 bb 2d ba
       0.0032890385 0.007906861 0.004003394 -0.00066274236
000010 ee f1 a5 39 ec 6e e7 ba 30 d0 27 3b 35 b4 0b 3c
       0.00031651504 -0.0017656959 0.0025606267 0.008526851
000020 96 40 ad 3b 57 61 2d 3c 60 05 91 b7 6b b2 f2 3a
       0.0052872403 0.01058229 -1.728785e-05 0.0018516307
000030 34 ee 41 3c d9 7d 72 3c be ed 90 bc 14 ee c9 3c
       0.011836577 0.014800512 -0.01769149 0.024649657

enc1.1.running_mean f4 [16]
000000 35 2b 3c 3d 46 b8 a2 3d 3b 4a d4 bd 22 83 55 3d
       0.045939643 0.079453036 -0.10365721 0.05212701
000010 ac 55 2a 39 2b b4 cc 3d 9c 14 d5 3d 94 d2 7d 3e
       0.00016244379 0.09995302 0.104043216 0.2478736
000020 c5 47 b3 3d d6 7d 15 3e 80 63 ad 3c 27 90 07 3c
       0.08753923 0.14598784 0.02116561 0.008274115
000030 93 59 b7 bc d4 39 35 be c5 a6 5e bd 44 ad ec bc
       -0.02238158 -0.17697841 -0.054358263 -0.028891213

enc1.1.running_var f4 [16]
000000 e7 f0 1d 3c 76 e5 d2 3c 72 30 f7 3c fd 68 26 3c
       0.009639955 0.025744181 0.030174468 0.010156867
000010 02 14 ce 3b 95 ad f2 3c 72 9e 08 3d ad 74 31 3e
       0.006289006 0.029623786 0.03335423 0.17329665
000020 77 6f 04 3d 8b 5b a4 3d 62 db 70 3b 9a 2c 0e 3b
       0.032332864 0.08025273 0.0036751856 0.0021694065
000030 73 08 35 3b 13 99 c7 3d 01 8d 81 3c aa 5c 96 3b
       0.0027623444 0.097459935 0.015814306 0.004588683

enc1.3.weight f4 [16, 16, 3, 3]
000000 b4 72 8a bc 7a 91 62 3e a2 45 30 bc 38 a4 a6 3d
       -0.016900398 0.22125807 -0.010758789 0.08136791
000010 78 c7 53 3c b8 4f 80 3d 27 90 be 3d f2 03 4e bd
       0.012925975 0.06265205 0.09304839 -0.05029673
000020 8a 4a 96 3d cc 0f be bd dd 1b 9e 3d a3 45 a0 3d
       0.07338436 -0.09280357 0.07720158 0.07825782
000030 2b b2 0f bd f7 cb 07 3d 40 e4 07 be ba 3d a9 3c
       -0.035082024 0.0331535 -0.13270664 0.020659316
000040 0c 64 77 be 42 12 6d bd ce f3 39 3e 60 9f ba bd
       -0.24159259 -0.05787874 0.1815941 -0.091124296
000050 ad 5b 7f 3d 0e 1e 15 be bd 85 1f be 89 d1 b2 3d
       0.06234329 -0.14562246 -0.15578361 0.08731372
000060 f0 49 81 3c 57 69 8b bc 33 ec 20 3d af 1e 74 bb
       0.015782326 -0.017018003 0.039287757 -0.0037249734
000070 12 6d 95 bd 34 9d 06 3d e7 eb 45 3e 38 da 37 3e
       -0.07296194 0.032864764 0.19328271 0.17954338
000080 3a 23 96 3c bd 4c 06 3e 0e c7 00 bd 55 ea ec bd
       0.018327344 0.13115211 -0.031439833 -0.11568133
000090 14 3d b4 3c dd 7e 53 be 35 bb 5e bc a9 90 39 be
       0.02200178 -0.20653863 -0.013594438 -0.1812159
0000a0 49 34 66 bc 20 e5 e1 bc 44 f3 96 bd ec ac 34 bd
       -0.014050552 -0.027575076 -0.07370618 -0.044110224
0000b0 a8 a1 a4 bb 96 4e 6c bc b9 75 3e 3e fd c2 6e bd
       -0.0050241537 -0.014423033 0.18599595 -0.058291424
0000c0 f7 96 48 bd d2 82 20 bd 68 ed 82 be 1c fb 61 3c
       -0.048972096 -0.03918726 -0.25571752 0.013792779
0000d0 d3 08 04 ba 0a 81 17 bd 9e 09 13 bc bf 5b 05 3c
       -0.00050367153 -0.036988296 -0.008974461 0.00813955
0000e0 dc ce 95 3e 34 78 25 be a7 b2 27 bb f1 89 e1 bc
       0.29259384 -0.16159135 -0.0025588663 -0.027531596
0000f0 d4 08 1f be 0b cd 85 bb b6 24 bb 3d bf db 7b be
       -0.15530711 -0.004083281 0.091378614 -0.24595545
000100 fd 6a 02 be 74 a5 ae 3d 06 29 87 bd 8d 89 a8 bd
       -0.12736125 0.085276514 -0.065996215 -0.08229361
000110 16 36 01 3c 2c 48 5a bd 1e 58 f4 bc 0e e7 9f 3d
       0.00788643 -0.053291485 -0.029827174 0.07807742
000120 e2 3f 0d bd aa 57 7e bd 46 bc fc 3c 07 d0 52 3b
       -0.03448475 -0.06209532 0.030851495 0.003216745
000130 e8 f2 52 be 12 31 fe bd 6a 64 3b be 2d 6a 68 3c
       -0.20600474 -0.12411703 -0.18300024 0.0141854705
000140 21 0b f5 bc 9b ee b4 3d 1e 9f 8a bc cf 75 71 3d
       -0.029912533 0.08834573 -0.016921576 0.05895024
000150 b2 9c da 3e 5e f3 dd bd 74 53 2a be 07 d2 80 3d
       0.42697674 -0.10837434 -0.16633397 0.062900595
000160 8c bf 45 be 21 8a 6c bd dd df a7 3d e2 73 0d be
       -0.1931135 -0.057748917 0.081969954 -0.13813737
000170 7a 96 8d be ff 7f 6a 3d 49 d6 c4 3d b8 02 19 be
       -0.27653867 0.057250973 0.09611184 -0.14942443
000180 ab 96 92 bc 6c 0f af bd 95 28 45 bc 13 c6 aa bc
       -0.01789411 -0.08547863 -0.012033601 -0.020846402
000190 32 8d be bd e8 2e ea 3d 0e d9 d6 3d 93 c5 12 3e
       -0.093042746 0.11434728 0.10490619 0.14333181
0001a0 4c 77 09 3e c3 e8 49 3e e7 ae 86 bc 8d 15 9c bd
       0.13424414 0.19717698 -0.016440822 -0.07621298
0001b0 35 98 c7 bd 78 a1 d7 bd e9 a5 65 be 4f 7d 05 3e
       -0.09745828 -0.105288446 -0.22426571 0.13036083
0001c0 c4 e5 be 3e 68 f5 08 bd 97 9c 92 3d f8 19 0a be
       0.37284672 -0.033437163 0.071587734 -0.13486469
0001d0 66 82 85 3d a3 24 38 3e 43 61 3e bc 1d ae dc 3c
       0.06519012 0.17982726 -0.011619869 0.026938492
0001e0 b0 ee 84 bd e0 9d 8e 3d 08 9d 78 3d 1a b3 ef bd
       -0.064908385 0.06963706 0.06069663 -0.11704083
0001f0 64 ac 06 3e 9e 7d 1c be d4 04 d2 bb 12 d0 d3 bd
       0.131517 -0.15282294 -0.006409267 -0.10342421
000200 e9 c7 e2 bd 76 ec 46 3d 91 38 0e 3e 89 1e 0f 3d
       -0.11073286 0.04856535 0.13888766 0.03494123
000210 bd e9 32 3d 9e 4e 21 3e 35 c3 04 3e e2 76 a2 bc
       0.04367994 0.15752646 0.1296509 -0.019832078
000220 06 a1 42 be f3 88 95 3c 45 08 94 3d 8f 65 b4 3d
       -0.19006738 0.018253779 0.0722814 0.08808433
000230 d1 25 a4 bd 33 09 b8 bd 53 80 41 3e 8a 0d 3f 3e
       -0.080150254 -0.089861296 0.18896608 0.18657508
000240 f5 9c 94 bc f9 e3 c6 bd 75 d9 70 3c 3a 3f 0e 3d
       -0.01814125 -0.09711451 0.014700283 0.034728266
000250 5d 31 dc 3c 92 e0 3f 3e 9c 43 ff 3c 69 58 a3 be
       0.026879007 0.1873801 0.031160168 -0.3190339
000260 75 7b dc bd 8a c7 19 bc 85 ae 10 bd a0 90 b1 3c
       -0.10765735 -0.009385953 -0.035322685 0.021675408
000270 82 99 1f bc 94 a8 fc bc 45 77 25 bd 84 14 ba 3d
       -0.009741189 -0.030842103 -0.040396947 0.09085944
000280 6f ac d7 bd 8d 61 4d 3d eb 07 79 bd f4 c8 1f be
       -0.10530936 0.05014186 -0.060798567 -0.15604001
000290 b3 7b 2a 3d 71 a8 07 be b2 d3 9b 3d 20 f2 b2 bd
       0.041621875 -0.13247849 0.07608737 -0.08737588
0002a0 82 12 88 3d 2f 1a a6 3d fb 6c d0 3c 0e 00 d1 bd
       0.06644155 0.08110463 0.025442591 -0.102050886
0002b0 e3 b5 9f 3e ac 8e 76 be 7c 05 e6 3d 94 44 b3 bd
       0.31193456 -0.24077863 0.11231515 -0.087533146
0002c0 58 99 6b 3c cb e8 8c 3c 0b 30 08 3d 03 ab 60 be
       0.014379822 0.017200848 0.033248942 -0.21940236
0002d0 62 0a 1a 3c 9e 17 86 bd ef 77 2d be cb b3 11 be
       0.0094018895 -0.06547473 -0.16940282 -0.14228742
0002e0 5d 06 ec 3c 02 bb f9 3d 49 10 28 bd 98 c5 0b 3e
       0.028811628 0.12193872 -0.041031156 0.13649595
0002f0 5c d7 09 bd 4b 00 c5 bd 9d 0a 1c be f4 0f c7 3c
       -0.03365265 -0.096191965 -0.15238424 0.0242996
000300 6d 62 2a bd da 1b a3 bc 44 f9 2a be 5a 98 8d 3d
       -0.041597772 -0.019910742 -0.1669665 0.069138244
000310 80 ba 1c be c7 f0 6a bd ad ae 81 bc 2e 41 df 3d
       -0.15305519 -0.05735853 -0.015830362 0.10901104
000320 9b 6a b8 bd cc c0 76 bd 23 fb 84 be da f6 28 bb
       -0.090047084 -0.06024246 -0.25972852 -0.00257819
000330 bf ca 85 3d dd a7 7f 3d ce d5 29 3e 75 8c 19 3d
       0.065328114 0.062415946 0.16585466 0.037487466
000340 18 5c 9d bd 4e c8 e0 bc 74 35 54 bd 3c e2 8a bd
       -0.07683581 -0.027439263 -0.05180879 -0.06781432
000350 be 25 d3 3d 01 32 ac bd b3 b2 3b 3e 85 b9 dc bd
       0.10309933 -0.08407975 0.18329887 -0.107775725
000360 75 95 f6 bd 52 4c fd bd ab 80 8f bd 29 d5 15 be
       -0.120402254 -0.123680726 -0.07006963 -0.14632095
000370 6b 75 06 3e c7 4b 16 3e 4e 61 4e 3d 6c 7d d1 bc
       0.13130729 0.14677344 0.050385766 -0.025572501
000380 e4 45 81 be 05 1a 9e bd 6e 5a 11 be c6 6e 83 3c
       -0.25248635 -0.077198066 -0.14194652 0.016044032
000390 25 25 01 3e 16 51 57 3c b3 a3 a6 3d b4 4c 84 3e
       0.12611826 0.013141891 0.08136692 0.2583977
0003a0 d1 c8 7c bd c5 cc a6 3c 9b 7e 48 bd 99 d0 12 be
       -0.06171495 0.020361314 -0.048948865 -0.14337386
0003b0 cf 8c 05 3e fc 2a 6d bd ae 96 03 3e 0e a6 31 be
       0.13041995 -0.05790232 0.12850448 -0.17348501
0003c0 a4 43 9e 3d 4a e0 49 bd de 84 af bd 82 53 99 bd
       0.07727745 -0.049286164 -0.08570264 -0.07486631
0003d0 21 37 c0 bd 70 55 82 bc a7 a3 b2 bd 88 c9 aa bd
       -0.09385515 -0.01590988 -0.087226205 -0.0833922
0003e0 c4 67 f6 bd 8b 3d 51 3e 64 46 b7 3d 07 98 d0 bc
       -0.120315105 0.20433633 0.08948973 -0.025463117
0003f0 80 39 3d 3e 9f 14 9a 3c 75 1e 70 bd 91 c2 c2 3d
       0.18478966 0.018808661 -0.058622796 0.09509767

enc1.4.weight f4 [16]
000000 eb f4 7d 3f cf ae 80 3f 8e aa 7d 3f 38 e4 7d 3f
       0.9920184 1.0053347 0.9908837 0.9917636
000010 20 4a 7d 3f 46 f2 7d 3f 6a 20 7f 3f 82 d9 81 3f
       0.9894123 0.99197805 0.99658835 1.0144503
000020 84 37 81 3f e8 93 7d 3f ff 7b 7f 3f 0d da 80 3f
       1.0095067 0.9905381 0.9979858 1.0066544
000030 c7 6e 7c 3f 5a 5e 7f 3f a0 a8 7e 3f 5d 34 80 3f
       0.9860653 0.99753344 0.9947605 1.001598

enc1.4.bias f4 [16]
000000 16 49 06 bb da f0 8a 3b a3 08 d3 bb e9 3c ed 3b
       -0.002049034 0.0042401375 -0.0064402386 0.007239927
000010 7f 49 0d bb 33 c0 29 bc f0 8f d3 3b 5b 65 c7 ba
       -0.00215587 -0.010360765 0.0064563677 -0.0015212701
000020 ec da ae 3c 68 4e 1c bc e5 55 c2 3b aa 01 22 3c
       0.021344624 -0.009540178 0.0059306496 0.009888092
000030 2c 74 6f bc 6d fb aa bb 68 ec 94 3a e5 7f 57 3c
       -0.0146151 -0.0052179606 0.0011361958 0.013153051

enc1.4.running_mean f4 [16]
000000 f1 e8 4f be ce fa 41 bf c7 fa c9 3e 5b b8 d5 be
       -0.20303704 -0.7577332 0.3944914 -0.41742215
000010 3d 03 2b be f2 86 69 bf 0d 99 40 bf 7f 36 c0 3d
       -0.16700454 -0.91221535 -0.75233537 0.09385394
000020 e1 5d 16 3f ac b5 e9 be 1c 86 93 be 7b 1e 21 be
       0.58737 -0.45646417 -0.28813255 -0.15734284
000030 22 d8 a4 be bf 08 b6 3f 66 d6 42 bf 35 5e 7d 3e
       -0.32196146 1.4221419 -0.76108396 0.24742968

enc1.4.running_var f4 [16]
000000 ec 5d a0 3f bb 82 b7 3f 44 95 89 3f 87 af 37 3f
       1.2528663 1.4336771 1.0748677 0.7175221
000010 29 08 bf 3e 0b 88 30 3f a8 cb 2d 40 9e 4b 93 3f
       0.37310913 0.68957585 2.7155552 1.1507452
000020 e5 d3 64 40 bc 17 57 3f d0 0b 58 3e 2c d5 0f 3f
       3.575433 0.8402059 0.21098256 0.5618465
000030 a2 d5 7f 3f 67 2c a5 3f 50 b3 69 3e 38 5d 84 3f
       0.9993535 1.2904176 0.22822309 1.0340948

enc2.0.weight f4 [32, 16, 3, 3]
000000 67 d4 f3 bd ed db 9f 3d 34 93 2f be 71 94 4e 3d
       -0.11905747 0.078056194 -0.17145997 0.050434534
000010 21 75 75 bd ea ee 82 3d 9b 1a 07 bd 9c b6 ca bd
       -0.059926156 0.063932255 -0.032984357 -0.09898111
000020 2d 08 04 be 11 0c f3 bb 66 51 87 bd ec 5e 38 be
       -0.12893744 -0.00741721 -0.066073224 -0.1800496
000030 86 60 ee bd d6 82 79 bc 94 33 e0 bc 36 96 a3 3d
       -0.11639504 -0.015228948 -0.027368344 0.07987635
000040 95 f3 0c be 5f a8 c0 bd d4 4a 4d 3a 59 73 75 bd
       -0.13764794 -0.09407114 0.00078312797 -0.059924457
000050 7e 55 2b be 88 59 07 3c 4a 79 33 3c 59 d4 f4 3d
       -0.16731831 0.008261092 0.010954211 0.119545646
000060 8f 3f af 3d d0 41 b6 3c e7 68 8c 3d b8 dd 83 bc
       0.08557045 0.022248179 0.06855946 -0.016096935
000070 68 ea 87 bc 59 e9 34 3d 2f 0d 4d bd 12 a7 93 bd
       -0.016591266 0.04416785 -0.0500614 -0.072096005
000080 65 a9 40 bd 68 06 af 3d db c4 dd bd 8b e2 13 bb
       -0.047036547 0.08546144 -0.10828563 -0.002256545
000090 02 52 21 bd 7a 0c 37 bd 37 ac d8 bd 37 dc 55 bd
       -0.03938485 -0.044689633 -0.105797224 -0.052211966
0000a0 15 76 e5 bd bd e4 ed bd d9 11 74 3d d1 4c 16 bd
       -0.11204163 -0.11615894 0.059587333 -0.03669435
0000b0 a0 31 93 3c 25 2a 8b bd be 15 0f bd 83 f3 bc bd
       0.017967999 -0.06795148 -0.034932844 -0.09226134
0000c0 b8 fe 38 be fc 6f af 3d 85 e5 40 3d af b9 8d bc
       -0.18065917 0.08566281 0.047093887 -0.017300455
0000d0 e5 56 6a 3d c7 e3 a3 3d cb 92 8e 3c 64 49 5c bd
       0.057211775 0.080024295 0.01740398 -0.05378093
0000e0 d5 a8 a4 3d 8d 58 da bd 29 05 11 be 12 20 51 bd
       0.08040015 -0.10661421 -0.14162125 -0.051055975
0000f0 78 70 a9 bd 4c 35 b8 bc b8 d4 ef bd 8d c9 7e 3e
       -0.08273405 -0.022486351 -0.11710495 0.24881573
000100 88 71 50 bd 23 e0 89 bd b7 b5 a1 3c 58 88 d0 3c
       -0.05088952 -0.06732204 0.019739969 0.025455639
000110 07 01 07 3e 90 64 ae bd cd 41 29 3d c2 3f d1 3d
       0.13183986 -0.085152745 0.04132252 0.10217239
000120 1a a7 7d bd 24 97 5d bd 52 42 34 bd 02 5f 05 bd
       -0.06192694 -0.054099217 -0.04400856 -0.03256131
000130 a5 08 00 3d 43 ab 05 3e df 38 05 be 2e 08 29 3e
       0.031258244 0.13053612 -0.13009976 0.16507027
000140 45 2a 6d 3d f0 d8 80 b6 2b 2d 63 3e 15 ae 81 bc
       0.05790164 -3.839952e-06 0.22185199 -0.01583008
000150 24 ff 66 3d 0d eb f2 bd 0b d3 b8 3d 0c 50 e3 3d
       0.056395665 -0.11861239 0.09024628 0.11099252
000160 a8 ff 5d bd 38 ae 9a bd 4e 4e a5 bd cd b2 c5 bd
       -0.05419889 -0.07552761 -0.08071576 -0.09653244
000170 ac 57 b9 3d 8a cb 00 3e 24 df 4d 3d bf 49 5c bd
       0.09049925 0.12577644 0.05026163 -0.053781267
000180 98 38 de 3c fe e6 2f bc b4 1f f6 3d 73 9f 2d 3d
       0.027126595 -0.010736225 0.12017766 0.04238839
000190 72 4a 7b bd 96 24 bd bc b8 07 1a 3e 56 f5 63 3d
       -0.061350293 -0.023088735 0.15042007 0.055653892
0001a0 6d 66 00 3e 34 bc c7 3d 3b 9f 43 bd 27 d0 ba 3d
       0.12539072 0.09752694 -0.047759276 0.09121733
0001b0 9b 14 1b 3d f6 8c bb 3c 3b 29 94 bd 06 35 b8 3b
       0.037861448 0.022894364 -0.072344266 0.0056215553
0001c0 da 52 40 bd 16 1c 27 b9 ce 5a 0e 3c 57 c3 d4 3c
       -0.046954013 -0.00015936824 0.008688642 0.025972052
0001d0 17 90 ec bb e3 0a 79 bd c9 b5 2e 3d ad d1 59 bc
       -0.0072193253 -0.060801398 0.042653833 -0.0132946195
0001e0 97 b3 f5 bd 4b b4 dd bd 32 dc 47 bd 85 39 11 bb
       -0.11997145 -0.10825404 -0.04879398 -0.0022159528
0001f0 a7 59 3e be e0 ef 04 3e 27 cf 95 bc 21 c6 a1 bd
       -0.18588887 0.1298213 -0.018287254 -0.07899118
000200 97 db c6 3b ef 6f 41 3d 19 e7 e3 bd 39 62 61 bd
       0.0060686576 0.04722589 -0.11128063 -0.055025313
000210 2f 6e 19 3d fb 17 33 bc 08 ee 7e bc ef f1 d8 3d
       0.037458595 -0.01093101 -0.015559681 0.1059302
000220 cc c2 20 bd be d3 59 3d 29 dd 81 bd a8 5b 59 bc
       -0.039248273 0.05318045 -0.06341011 -0.013266481
000230 16 23 c8 bd 7d bb 2b 3c 28 fc b1 3c 4a b6 31 bc
       -0.09772317 0.010481712 0.021726683 -0.010846684
000240 ff b6 4e bd c6 70 1d 3d 9a ca 6f bd 16 66 19 bc
       -0.050467487 0.038437627 -0.058542825 -0.009362718
000250 fa ee de 3c b3 bf 9e 3d 40 b6 f1 bd 91 fc b7 3d
       0.027213562 0.077514075 -0.118023396 0.0898372
000260 41 06 f1 bd ab 20 af 3c 5a 8c 1a 3d 79 13 86 3d
       -0.11768771 0.021377882 0.037731506 0.06546683
000270 a0 10 c5 3c 84 d2 bf bd 6c f9 2d 3d 51 18 53 bd
       0.024055779 -0.093663245 0.042474195 -0.05153686
000280 59 f4 b7 bc 4a 5a 16 3e 91 3b 48 bd c9 25 d7 3d
       -0.022455381 0.1468288 -0.048884932 0.10505254
000290 c7 c3 33 3d 97 1b e4 3c 2b 76 b9 bd 0d 3f 1b 3c
       0.04388788 0.027845187 -0.09055742 0.009475482
0002a0 de 8f 96 3c 46 96 a6 3d ea 54 2f bd 09 7f 09 3e
       0.018379148 0.08134131 -0.04280559 0.13427366
0002b0 86 d7 fe bd d0 99 76 3d 50 99 64 3c 95 dc 99 3d
       -0.124434516 0.06020528 0.013952568 0.07512776
0002c0 5b 02 ea bc bf 78 58 bd af 03 56 3c 71 85 13 3d
       -0.028565576 -0.052849527 0.013062402 0.03601593
0002d0 31 f4 19 bc ab 6a df bd 00 28 05 be 0d 9f b2 3d
       -0.009396599 -0.10909017 -0.1300354 0.08721743
0002e0 fb b4 34 3d 00 c6 d7 bb 08 a8 e2 bd 24 b3 8c bd
       0.04411791 -0.0065848827 -0.11067206 -0.06870106
0002f0 56 d0 00 bd f3 9d 08 3e 25 6c 83 3d 41 a3 16 3e
       -0.031448685 0.13341503 0.06417111 0.14710714
000300 c3 de d4 bc 23 98 81 3d 02 4d 36 bd ab 15 7c 3c
       -0.025985127 0.06327846 -0.044507034 0.015386025
000310 f1 c8 6a 3b a2 3e 4e bd a2 67 86 3c 85 a2 e7 3c
       0.0035825337 -0.0503527 0.016406838 0.028275738
000320 24 af db bd a3 e6 5e bc 22 da 7c bd 7f 21 76 3d
       -0.10726765 -0.013604793 -0.061731465 0.060090538
000330 68 a2 49 3d 0a 45 d5 3a b5 fb 90 3c cb 2a 2d be
       0.04922715 0.0016271186 0.017698148 -0.16910855
000340 d5 34 ca bd 93 dd 69 3d b3 ce dc bd 73 9f 15 bc
       -0.09873358 0.057096075 -0.10781612 -0.009132254
000350 e7 15 aa bb 79 34 95 bc a6 65 8a 3d c9 54 f7 bc
       -0.0051905992 -0.018213497 0.06757669 -0.030191796
000360 8f 70 7c 3d 48 04 44 3e 9d 84 f3 bd 06 16 3c bc
       0.06163078 0.19142258 -0.11890528 -0.01147986
000370 2a 8c a2 bd cd fe f5 3c 12 e7 34 bd 40 ae d4 3d
       -0.079368904 0.030028725 -0.04416568 0.10384798
000380 89 e2 81 3d 4a a6 57 bc bd 80 d1 3c 60 a5 a5 3d
       0.06342036 -0.013162205 0.025574083 0.080881834
000390 5c d0 eb 3c 46 f7 8b 3d a0 92 4e bc ff 40 15 3d
       0.028785877 0.06834273 -0.0126082 0.03643894
0003a0 28 ce 48 bd e3 d9 d6 bd fb 3d e1 3d ba 1b 1a be
       -0.04902473 -0.10490777 0.1099815 -0.1504964
0003b0 4c 0c 5c bc e8 30 c2 bb a1 5f 69 bb dd 59 7a 3d
       -0.013430666 -0.0059262402 -0.0035609978 0.061120857
0003c0 01 4d bf bd 22 fa ba bd 9b b5 2b 3d 74 bd ed bc
       -0.09340859 -0.0912974 0.04192124 -0.029021002
0003d0 6c d7 d1 3d 25 d2 87 3d 3e a9 90 3c c1 15 30 bd
       0.102461666 0.06631879 0.017658826 -0.042989496
0003e0 33 6f 96 bd a3 78 13 be 63 9a bf bc ad 43 20 3d
       -0.07345428 -0.14401488 -0.023389047 0.03912704
0003f0 0a 19 a0 3d a0 3a 28 bc b3 2d 58 3d 85 0d da 3d
       0.07817276 -0.010267884 0.052777957 0.1064711

enc2.1.weight f4 [32]
000000 f9 e8 81 3f 53 b6 7e 3f 91 5c 7f 3f 6a ef 7d 3f
       1.0149223 0.99496955 0.9975062 0.9919344
000010 55 0d 7f 3f c9 84 80 3f 61 df 7e 3f 2d a1 81 3f
       0.9962972 1.0040523 0.995596 1.0127312
000020 59 6b 81 3f 6c 93 7e 3f ab 0f 80 3f c4 1c 7e 3f
       1.0110885 0.994437 1.0004781 0.9926264
000030 d7 c5 80 3f 6b 0e 81 3f 29 d0 82 3f cf 3d 81 3f
       1.0060376 1.0082525 1.0219775 1.0096987
000040 cd b9 81 3f d7 8b 7f 3f c1 11 81 3f 11 56 82 3f
       1.0134827 0.99822754 1.0083543 1.0182515
000050 20 4d 7e 3f 54 e8 7e 3f 8c ca 80 3f 1f 91 7e 3f
       0.99336433 0.99573255 1.0061812 0.9944019
000060 34 65 80 3f 2f 73 81 3f 57 90 7e 3f 11 27 7f 3f
       1.0030885 1.0113276 0.99438995 0.99668986
000070 3d 29 7d 3f 63 cc 7c 3f 3c 1c 80 3f b2 0a 81 3f
       0.9889105 0.9874937 1.0008616 1.0081389

enc2.1.bias f4 [32]
000000 98 75 3f 3b 5e 27 ef 3a 4a ce 50 38 0c 2c 8f bb
       0.0029214378 0.0018245985 4.9783186e-05 -0.0043692645
000010 c0 18 f4 bb 2c 06 04 3c 68 6b 4f bb 1b 73 2f 3c
       -0.0074492395 0.008058112 -0.0031649712 0.010708596
000020 00 aa 43 3b a3 8b 30 bb b9 54 f1 3b ac 44 d3 bb
       0.0029855967 -0.0026938699 0.007364836 -0.0064473953
000030 79 e1 ab 3b 8b cd a2 3b 47 5f 9c 3c 50 1c 16 3c
       0.0052453843 0.0049683503 0.0190884 0.009162024
000040 43 f3 3b 3c b2 84 be 3b 3e fb 4c 3b 27 31 8b 3c
       0.011471572 0.0058141584 0.0031277682 0.016991211
000050 4a 97 cb bb af 38 c6 3b 31 1e 2c 3c 15 49 91 bb
       -0.0062131034 0.0060492377 0.010505245 -0.004433761
000060 9c e6 30 3c c6 2f 96 3c 1e 9a b8 bb af 7c 2b 3a
       0.010797169 0.018333327 -0.0056336066 0.00065417116
000070 52 04 53 bb 84 71 82 bc 39 32 5d 3b 0f 87 3a 3c
       -0.003219862 -0.01592327 0.003375186 0.01138474

enc2.1.running_mean f4 [32]
000000 cc f9 24 bf 5f e9 08 be 7a 7b 79 3e ce cd bd 3e
       -0.6444366 -0.13370274 0.24363509 0.3707108
000010 e3 0d ac 3e d7 6a cb bd 1b d3 69 3f 37 ff 36 be
       0.33604345 -0.099324875 0.91337746 -0.17870794
000020 4d 26 e4 bd 55 35 97 be 6c 46 e9 3e c6 b8 f0 bd
       -0.11140118 -0.29532877 0.4556154 -0.11753993
000030 50 5b 30 bf cb 83 83 3f 40 29 e8 be d1 cd 04 3e
       -0.6888933 1.0274595 -0.4534397 0.12969138
000040 14 7b 40 bf 87 ad 7b bd a6 6d 4a 3f 7a fe 08 bf
       -0.751878 -0.061444785 0.7907356 -0.535133
000050 1a fb 4a be c5 11 89 bf 45 6f 14 3f e9 5e 6c 3e
       -0.1982235 -1.0708548 0.57982284 0.2308308
000060 8f c1 21 3f a8 11 dc be 77 54 23 3f fe bc 42 3e
       0.6318597 -0.4298222 0.6380076 0.19017407
000070 6a ee 23 bf dc 60 c7 be 94 67 83 3e 52 e0 43 bd
       -0.64035666 -0.38941085 0.2566496 -0.04782135

enc2.1.running_var f4 [32]
000000 52 c7 e6 3e 49 9b db 3e 1e 3a 4a 3e e1 1e 2b 3f
       0.45073944 0.4289191 0.19748732 0.6684399
000010 0f 91 bd 3e d0 ec 9b 3e b9 ae 28 3f 77 95 e5 3d
       0.37024733 0.3045411 0.65891606 0.11210149
000020 6c 4a b6 3e ce a3 1a 3e 48 7c e6 3e ac 59 4e 3e
       0.35603654 0.15101549 0.45016694 0.20151395
000030 15 0e 68 3f e1 94 8a 3f 66 2d b9 3f af 65 6c 3e
       0.9064649 1.0826684 1.446698 0.23085664
000040 7c 12 9a 3f ea 26 c4 3e 96 ed 1a 3f 33 c2 a0 3f
       1.2036891 0.3831094 0.6051878 1.2559265
000050 37 e9 3f 3e 2b 32 d7 3e 67 cf c6 3e 6d 3b 6d 3f
       0.18741308 0.42030463 0.3883011 0.926688
000060 62 5a 49 3e d7 5c e5 3e 1d 0f 80 3e 30 8a 8f 3e
       0.19663385 0.44797394 0.2501153 0.28035116
000070 06 5f 3c 3e 38 9c 3c 3e 7c c8 06 3f 5b 3b dc 3e
       0.18395624 0.18418968 0.52649665 0.43014035

enc2.3.weight f4 [32, 32, 3, 3]
000000 28 e1 5f bd b2 ad 35 3c 85 b7 11 3e 20 ef da 3d
       -0.054658085 0.0110887755 0.14230163 0.10690141
000010 26 15 22 3e 20 ea ee bb cf f7 a6 bb cf 7c 8e 3d
       0.1582838 -0.0072910935 -0.005095459 0.06957399
000020 d9 87 58 3d 87 69 71 3d 59 d9 fb 3d e6 5c 93 3d
       0.05286393 0.05893853 0.12297315 0.07195453
000030 41 2a 0d bd f8 05 22 3e 96 ea eb 3d 41 95 e6 bd
       -0.034464125 0.1582259 0.11519353 -0.11258937
000040 ee ef 5f 3d 49 95 77 3d d0 a6 96 3a 10 3b eb 3c
       0.054672174 0.060445104 0.0011493806 0.028714687
000050 23 30 a2 bc c6 08 72 3b 1f c6 db bd f1 86 0a 3e
       -0.019798344 0.00369315 -0.10731148 0.13528039
000060 51 ca a9 3b 99 23 66 3d f9 07 ff bd 5c eb 96 3d
       0.0051815887 0.056186292 -0.124526925 0.0736911
000070 a2 d9 51 bd 54 6e d8 bd 70 b0 de 3d f0 c7 3e bd
       -0.05123294 -0.105679184 0.108734965 -0.046577394
000080 55 08 23 3d 84 48 41 bd 43 2e 81 3d db f9 3c bd
       0.039802868 -0.047188297 0.06307652 -0.04613672
000090 ca d9 ad 3c 69 3f 9c 3c e0 05 69 bd f8 cf 06 bd
       0.021222014 0.019073205 -0.05689037 -0.03291318
0000a0 fb f9 93 bd 88 fb 4e bd b1 59 0e 3c ed ef 7b bd
       -0.07225414 -0.050532848 0.008688376 -0.061508108
0000b0 9b 82 31 be 61 f1 85 bd 9c 10 d0 3c 8c d1 00 be
       -0.17334978 -0.0654018 0.025398545 -0.12579936
0000c0 c3 9a d5 3d c2 41 13 bd 5d 6a 4e 3d 62 b7 18 3d
       0.10429909 -0.035951383 0.050394405 0.037284262
0000d0 22 17 dc 39 07 af 5a be 59 1d 24 bc 57 78 50 3d
       0.00041978905 -0.2135583 -0.010016763 0.050896015
0000e0 cc 38 dc 3b 99 1a 9b bd e7 38 07 3c 64 bc de bd
       0.006720638 -0.075734325 0.008253313 -0.108757764
0000f0 eb 1d 9d 3c 38 a8 6f bd b8 72 24 3d c1 39 60 3d
       0.019179305 -0.058510035 0.040148467 0.05474258
000100 ad 02 db 3a d4 3c 3f bd d0 4f e4 3c 38 36 df 3d
       0.0016709171 -0.04668887 0.027870089 0.10899013
000110 b7 a2 11 3e bb 05 02 3e 23 e5 98 3b be 94 06 bd
       0.14222227 0.12697499 0.004665987 -0.032856695
000120 87 3b d6 3b 03 b1 be 3d ee 04 1e 3a ee 05 a5 bc
       0.006537858 0.09311106 0.0006027956 -0.020144429
000130 3a 7c 82 bd fd 35 93 3d 11 df f4 bd a4 75 a2 3d
       -0.063713506 0.07188032 -0.11956609 0.079325944
000140 16 66 09 3d da c7 77 bd 77 fd 3e bc f2 7f 54 3d
       0.033544622 -0.060493328 -0.01165711 0.05187983
000150 82 01 bc 3d 8d d1 a2 3d b6 9d 61 bd a7 71 d5 bc
       0.09179975 0.07950125 -0.055082045 -0.02605517
000160 c0 a3 c4 bd 07 6d 05 bc b6 b6 82 3c 71 e4 ab bd
       -0.09601545 -0.00814367 0.015956264 -0.08393181
000170 fe f0 c1 bd 45 5a 6f bd 9a 7e 9e bd 0a 3c 8f bd
       -0.09469794 -0.058435697 -0.07738991 -0.069938734
000180 b6 62 52 3d 86 75 8a bd ea e9 76 bd 60 62 76 be
       0.05136367 -0.06760697 -0.06028167 -0.24060965
000190 0c d2 e2 bd 73 19 10 3d 25 4f c2 3c ac 22 a6 3d
       -0.110752195 0.03518052 0.02371938 0.08112082
0001a0 51 13 88 3e 83 2c c0 bd 91 6c b1 bd bf 9a 40 be
       0.26577237 -0.0938349 -0.086632855 -0.18809031
0001b0 b0 26 f3 3d f9 f6 a4 bd 01 00 84 bd 3f ac 5b be
       0.118726134 -0.08054919 -0.06445313 -0.21452425
0001c0 56 a2 b2 bd b2 50 e9 3a 46 9e 27 3c 2f 0e 85 bc
       -0.087223694 0.0017800538 0.010230606 -0.016242115
0001d0 dd 99 0c 3e cd 24 f7 3c 1e de 26 bd 44 b5 a4 3d
       0.13730569 0.030168915 -0.04073917 0.08042386
0001e0 43 c1 1b bd 7a 06 6e bc 88 84 1f 3c 4e af 0d bd
       -0.038026106 -0.014527911 0.009736188 -0.03459101
0001f0 ab e9 80 3d 5b d4 1e bd 21 aa 6b bb ce cb 25 be
       0.06294569 -0.038776737 -0.003595956 -0.16191027
000200 6c d8 ba 3d c2 25 91 bc f8 3d 70 bc 5f ff 51 bd
       0.091233104 -0.0177182 -0.014663212 -0.05126893
000210 dc c8 0e 3d 85 3b ce 3d 27 f1 2d 3d 5d 8d c9 3c
       0.034859523 0.10069946 0.04246631 0.02460354
000220 bf 9a de ba 6e 37 c0 3d 92 d1 81 3c 4f 3b 97 bc
       -0.0016983374 0.093855724 0.015847001 -0.018460898
000230 ad 90 bc 3d 1e 91 cc bc 3a 19 22 3d 31 39 3a 3e
       0.09207282 -0.024971541 0.03957484 0.1818588
000240 87 7a 4c bd 6f 54 21 bc ae 6a b8 3d 7f c0 15 3e
       -0.04992154 -0.009846791 0.090047225 0.14624213
000250 d7 a3 bf bd 9b 8f 2f 3d 60 a8 55 bc 1b 87 8a 3c
       -0.09357422 0.042861562 -0.013040632 0.016910126
000260 df 7f 8d 3b 63 84 70 be 23 13 ef 3d 37 ca 3f 3d
       0.004318222 -0.23488002 0.11673572 0.046823706
000270 b1 61 4d be 38 bb f9 3d 70 84 1a bd 38 c2 f4 bc
       -0.20056798 0.12193912 -0.03772396 -0.029877767
000280 22 4d e3 3c 1b 1a 07 3d 11 3b fe bc 37 bd 41 3d
       0.02774674 0.03298388 -0.031034024 0.04729959
000290 b3 96 9e bd da af 18 3e df 76 3b bd 97 09 c4 bd
       -0.07743587 0.14910832 -0.04576766 -0.095721416
0002a0 9a b3 91 bd 57 0b 83 bd 6e 69 38 3c d3 1e e0 bb
       -0.071143344 -0.06398647 0.011255605 -0.006839612
0002b0 46 47 b1 3d b7 34 d0 3d f2 8a 26 3e 72 d9 21 3e
       0.086561725 0.101663046 0.16263941 0.15805605
0002c0 c5 6b 57 3d 04 5f 9b bd 3e f2 bb bd a3 e3 bc 3d
       0.05259301 -0.07586482 -0.091770634 0.09223106
0002d0 fa cd a7 bc 93 ce 95 3d 74 28 d9 bd 81 f7 9e bd
       -0.02048396 0.073147915 -0.10603419 -0.077620514
0002e0 76 58 ad 3c e0 f3 eb bd 40 80 6c bd 5e c4 1e be
       0.021160346 -0.11521125 -0.057739496 -0.15504596
0002f0 b1 dc 8c bd b4 62 bd bd e0 78 b1 bd 7d 45 30 3d
       -0.06878031 -0.09247342 -0.08665633 0.04303502
000300 1d ad 83 be 99 47 47 3c 6f 2c fd 3c 4d c1 61 bc
       -0.25718012 0.012163066 0.030904977 -0.013778997
000310 f2 7a a8 bc 61 69 93 3d 67 ba 94 bd 47 a3 5f ba
       -0.020566437 0.07197834 -0.07262116 -0.0008531105
000320 8c b3 04 be d9 ed a8 3d 08 5f a5 bd 0a 2c 07 3e
       -0.12959117 0.08248491 -0.080747664 0.13200393
000330 69 6c a2 ba 86 00 1e bd ba 24 04 3d 5a b1 00 bd
       -0.0012391928 -0.038574718 0.032261588 -0.031419136
000340 81 aa de bc 3f 9b d5 3d 1d 90 b3 bd 78 bc 40 bd
       -0.027180912 0.104300015 -0.08767722 -0.047054738
000350 28 4a 2b bb ff b4 6f 3c 42 37 b9 3d 31 c8 83 bd
       -0.002613673 0.014630555 0.09043743 -0.06434668
000360 e8 f2 b6 3d df 79 b2 bd 15 12 b1 3d 91 42 39 3d
       0.089330494 -0.08714651 0.08646027 0.0452295
000370 dd d7 e2 bc 74 80 e9 bc aa 11 b1 bd 27 ad 4a 3d
       -0.027690822 -0.028503634 -0.08645947 0.049481537
000380 84 f6 04 bc 82 c4 4f ba 76 0a 68 be a7 0b 8f bc
       -0.0081154145 -0.0007925705 -0.2266024 -0.017461611
000390 53 3f 3c bb c7 0f ef bc 50 30 eb 3d f2 34 92 3d
       -0.0028724268 -0.029182328 0.11483824 0.07139005
0003a0 ce da 54 bd 30 d9 a0 bd 85 e9 1c 3d d6 0f a3 3d
       -0.05196648 -0.07853925 0.03830864 0.07962005
0003b0 ab 92 a2 3d f9 83 48 3d a3 10 22 3d a9 d4 d4 bb
       0.07938131 0.048953984 0.039566647 -0.0064950776
0003c0 aa 57 2b be b2 e8 10 3e fe 7c 9a bd bc 9e 23 3e
       -0.1673266 0.14151266 -0.075433716 0.15978521
0003d0 1a 1f d1 bc 9e bd a5 bd 56 f6 8a 3d 58 a3 c6 3d
       -0.025527526 -0.08092807 0.06785266 0.09699124
0003e0 ff c7 e2 bd ca 67 8f bc 5b bf 1e 3c 8d 6d 8b bd
       -0.110733025 -0.017505545 0.009689177 -0.068080045
0003f0 27 f0 8b 3d 7a fd df 3c 8b ed 15 bd 22 32 69 3d
       0.06832915 0.027342547 -0.03660349 0.056932576

enc2.4.weight f4 [32]
000000 68 d8 81 3f 79 c2 81 3f 9b a5 81 3f ec 52 7e 3f
       1.0144167 1.0137473 1.0128664 0.9934528
000010 43 70 7e 3f ec b5 7f 3f d6 b4 7f 3f a3 a1 7e 3f
       0.9939005 0.99886966 0.9988531 0.9946539
000020 f0 00 7d 3f 2e 48 80 3f f3 76 7d 3f 74 fd 7e 3f
       0.98829556 1.0022027 0.9900963 0.9960549
000030 51 ed 7f 3f 49 c7 7f 3f 1c e1 81 3f 9b 2d 7d 3f
       0.9997149 0.9991346 1.0146823 0.98897713
000040 e2 eb 7f 3f d5 05 7f 3f 77 af 7e 3f be fa 7d 3f
       0.99969304 0.99618274 0.9948649 0.9921073
000050 46 f9 7f 3f ac b1 7e 3f bb 0d 80 3f ca 91 80 3f
       0.99989736 0.99489856 1.000419 1.0044491
000060 70 e0 7f 3f 28 8a 7f 3f e9 e6 7f 3f e0 07 7f 3f
       0.9995184 0.99820185 0.99961716 0.9962139
000070 fb ac 82 3f 8e c6 81 3f 9c e1 7d 3f 59 94 80 3f
       1.020904 1.0138719 0.9917238 1.0045272

enc2.4.bias f4 [32]
000000 dc eb 50 3c 9e 9f 71 3c c3 29 3f 3c f0 f6 c0 3b
       0.012751546 0.014747528 0.011667672 0.0058888122
000010 61 88 e6 bb 42 3f 5f 38 d4 bc 60 bc c7 82 4e 3c
       -0.0070353006 5.3226257e-05 -0.013716895 0.012604422
000020 d0 6b a2 bb bf 68 f2 3a 69 b8 6a bc 04 65 26 bc
       -0.0049567 0.0018494352 -0.014326193 -0.01015592
000030 d9 91 0b 3c 23 06 92 bc 45 c4 81 3c 94 87 61 3c
       0.0085186595 -0.017825192 0.015840659 0.0137652345
000040 77 78 94 3b 1c 04 83 bc 30 0b 0b bc 5c 3a 24 bc
       0.004530962 -0.01599317 -0.008486554 -0.01002368
000050 ac 2b 53 37 33 6c 9c 3b 33 f1 b6 39 5d 96 31 3c
       1.2586748e-05 0.0047736405 0.00034893453 0.010839072
000060 2b d0 39 3b 4c b5 5f 3c 2a 63 08 ba 2a 6a 52 bb
       0.0028352838 0.013654064 -0.0005202765 -0.0032106736
000070 c2 3c 64 3c e3 e1 0b 3c b9 45 03 bb 49 d0 fe 3b
       0.013930501 0.008537742 -0.0020030572 0.0077762944

enc2.4.running_mean f4 [32]
000000 f2 e8 91 bd 29 77 03 bd 38 41 07 be e2 65 52 3f
       -0.07124509 -0.03209606 -0.13208473 0.8218671
000010 ed 31 11 be 59 29 2b 3f 92 7a b9 be d9 cb 1b 3f
       -0.14179201 0.66859967 -0.36226326 0.6085792
000020 74 ed f8 3e b4 70 5b be 84 49 cb be 7b 60 1a bf
       0.48618662 -0.21429712 -0.39704525 -0.6030347
000030 32 66 58 bf 10 a3 90 3e c2 8b 2e bf d1 ee 6e be
       -0.8453094 0.28249407 -0.68182003 -0.23333289
000040 dc 96 82 bf 5e 26 9b 3f 0e 65 65 bf 85 87 cb be
       -1.0202289 1.2121084 -0.8960732 -0.3975183
000050 27 b3 65 bf 8e 46 bb be 7b be 33 3f e8 be 37 3f
       -0.8972649 -0.36577266 0.70212525 0.71775675
000060 5f b9 45 bd 4e e2 b9 bd 16 e7 76 3d 9d a3 20 bc
       -0.048272487 -0.09076367 0.060278974 -0.009804633
000070 f4 98 41 bf 71 c6 36 bf f5 bb 96 3d 38 97 a0 bd
       -0.7562401 -0.7139655 0.07360069 -0.07841343

enc2.4.running_var f4 [32]
000000 49 45 62 40 2b 22 8e 3f 10 29 e7 3f 44 04 c5 3f
       3.5354788 1.1104177 1.8059406 1.5391927
000010 ed ec b9 3e 46 92 36 3f 3e 36 18 3f ad dc 99 40
       0.36313573 0.71316946 0.59457767 4.808188
000020 d9 3b cf 3f 30 65 c5 3f d5 b0 ad 3f c0 0c f0 3e
       1.6190139 1.5421505 1.356959 0.46884727
000030 4b da 1f 3f 86 a1 f6 3e 00 c7 a2 3f 25 87 4d 3f
       0.62442464 0.48170108 1.271698 0.8028434
000040 b6 f3 9e 3f 26 10 9f 3f ca c0 68 3f 2a 6d b4 3f
       1.2418125 1.2426803 0.9091917 1.4095814
000050 07 38 7a 3f f0 32 9b 3f 9d 10 b3 3f c1 05 16 40
       0.9774174 1.212492 1.3989445 2.3441012
000060 56 b9 21 3f a1 84 09 40 9f c4 5c 3f ca 44 1e 3f
       0.63173425 2.14872 0.8623752 0.61823714
000070 2b 15 af 3f 33 47 b2 3f 0c ec 07 3f b8 4c 95 3f
       1.3678335 1.3927978 0.53094554 1.1664038

bottleneck.0.weight f4 [64, 32, 3, 3]
000000 86 5f 1c bd 71 50 53 3d 62 e8 84 bd d7 5d 5c 3d
       -0.038177036 0.051590387 -0.06489636 0.05380043
000010 27 1e 98 3d c3 21 46 bd 15 43 b2 3d a9 84 c3 bb
       0.07427626 -0.04837204 0.08704201 -0.005966742
000020 b0 3b 49 bd ca 7b 99 3d 07 62 37 bd 2e 19 02 3d
       -0.049129188 0.07494314 -0.04477122 0.031762294
000030 5e e2 6b bd 42 93 4c 3c de 47 6a 3d 53 17 ba bd
       -0.057588927 0.012486281 0.057197444 -0.0908648
000040 71 c0 fc 3d 50 50 46 3c 8e 51 05 3c e6 3f cd 3d
       0.12341393 0.012104109 0.00813712 0.10021953
000050 1d 49 c2 bd 2d ac 91 3c 73 82 a0 3c 56 4e 90 bd
       -0.094866015 0.017782295 0.019593453 -0.070461914
000060 57 a2 3b bc ff 60 df bc 09 96 c1 bd dd 6d 85 bd
       -0.011452279 -0.027267931 -0.09452445 -0.065150954
000070 94 f2 2e bd 70 d6 eb bd a0 71 87 3d 9b 65 c8 3d
       -0.04271181 -0.1151551 0.06613469 0.09785005
000080 09 27 09 bd 88 f9 05 3d 18 f1 9f 3d 04 78 e6 ba
       -0.033484492 0.032708675 0.07809657 -0.0017583375
000090 13 c3 e3 3d f6 26 b4 3d 93 fe 9d 3c a8 f5 54 bd
       0.11121192 0.08796494 0.01928643 -0.05199209
0000a0 a6 18 30 bd 73 7e 79 bb 00 df d3 bc 4c 22 92 bd
       -0.042992257 -0.0038069754 -0.02586317 -0.07135448
0000b0 75 a9 87 bd 0d 13 62 bd 56 24 bd 3d b7 4b 82 bd
       -0.06624118 -0.05519395 0.09235446 -0.06362098
0000c0 bc 8b e0 bd 5b c4 07 3d 0f a4 aa 3c 39 c5 b9 bd
       -0.10964152 0.033146244 0.020830182 -0.0907082
0000d0 c9 36 87 3c 25 8c d1 3d 44 6d 7e bc 06 ae 2c bd
       0.016505616 0.102318086 -0.015528981 -0.04215815
0000e0 27 42 0d bd 7c cc 15 3e f7 b3 25 3d 97 12 a6 3c
       -0.034486916 0.14628786 0.04045483 0.020272536
0000f0 22 92 63 3a 3a d1 e6 bb e7 51 05 bd b8 93 32 bd
       0.0008681138 -0.0070439847 -0.03254881 -0.043597907
000100 69 b3 1e 3d 68 0c 4e 3d 3a 83 a4 3c 6b fc 25 bd
       0.038745318 0.0503048 0.020082105 -0.040523928
000110 05 b6 1c 3c 30 93 4b bc 6a cf 05 bb 25 8b 60 3d
       0.009564881 -0.012425229 -0.0020417818 0.0548202
000120 b1 08 91 bd 21 4f 98 bc 3c 2f 02 be 50 6b 8b 3d
       -0.07081736 -0.01859242 -0.12713331 0.068075776
000130 ac 51 39 3c 5f fa 29 3d b1 56 b1 3c ef aa cd 3d
       0.011310976 0.041498538 0.021647783 0.100423686
000140 c7 ff 35 3d 9e ed d7 3d 17 b0 51 bd cd 9e 29 3d
       0.04443338 0.10543369 -0.051193323 0.04141121
000150 ec 86 31 3d ff cf b5 bc 27 4d 50 bc ba ba da bc
       0.043341562 -0.022193907 -0.012713707 -0.026700366
000160 de fa 38 bd 4f b7 b7 bc 4b 60 bb bd e4 44 2b be
       -0.04516112 -0.022426276 -0.09149226 -0.16725498
000170 aa 65 aa bd d8 ee 10 3d 14 96 07 be 44 5f 56 3d
       -0.08320172 0.03538403 -0.13240844 0.052336946
000180 ab a4 02 bd 6a f5 9a bd 2b fa 80 bc 8c 25 b0 bc
       -0.03189532 -0.0756634 -0.01574429 -0.021502279
000190 22 f2 99 3c 42 e9 30 be ef 4c 15 bd 2a b2 17 3d
       0.018792216 -0.17276481 -0.036450323 0.037035145
0001a0 e5 1d 50 3d e0 6a 25 be c1 5b e8 3a 79 a8 af bd
       0.05080976 -0.16154051 0.001772754 -0.085770555
0001b0 9c 3e 07 3d 8f dd 21 bd be 5a 40 bc 5a 04 19 3d
       0.033018693 -0.039517935 -0.011740385 0.037357666
0001c0 df 49 01 3d 52 6f 90 3d fb 74 15 bd 59 24 45 3c
       0.03156459 0.07052483 -0.036488514 0.012032592
0001d0 ef 6f 89 bd f7 95 48 3d dc c5 a8 bd c5 1b 34 bc
       -0.06710803 0.048971143 -0.08240864 -0.010992949
0001e0 77 f6 08 3d f7 5b e1 3c 03 a1 07 3d 36 b9 89 bb
       0.033438172 0.027509673 0.033112537 -0.004202987
0001f0 5f 29 59 3d 54 4c d1 3c 51 12 cd 3c dd 08 e6 3c
       0.05301797 0.025549091 0.025033148 0.028080398
000200 70 e9 43 3d b5 70 31 3d 0a 94 64 3d 71 9a 58 3d
       0.047830045 0.043320376 0.055805244 0.05288166
000210 8b 31 c9 3d 44 04 bd bc 97 b2 b8 bc 49 d7 92 3d
       0.09823903 -0.023073323 -0.022546096 0.07169969
000220 37 5c 8e bd 95 c9 26 bd b6 bc 29 3d ba d5 98 3a
       -0.06951182 -0.040719587 0.041439734 0.0011660375
000230 e7 bb 5b bd 4d 53 29 3e 9b 60 6d 3d d8 1f bf bc
       -0.053645995 0.16535683 0.05795346 -0.023330614
000240 3d b3 eb bc 32 60 fd 3d dc c0 94 bc 4b b3 d8 bc
       -0.02877199 0.123718634 -0.018158369 -0.026452681
000250 77 78 fb 3c 06 e2 1d 3e 60 ec 9d bb 39 4f 4c 3c
       0.03069709 0.15418252 -0.004819438 0.01247006
000260 02 89 80 bc 3b 1a c7 3d 44 ba 43 3d 4c 3b b0 bd
       -0.01569033 0.097218 0.04778506 -0.0860506
000270 0b d3 26 3e 8d 29 ab 3d 9d e1 d9 3d 55 dc e9 3c
       0.16291444 0.083575346 0.106387354 0.028547445
000280 c2 17 ac bd 7a 8b 1e 3d ad 12 82 3b 27 91 5c 3d
       -0.08402969 0.038707234 0.0039695115 0.053849366
000290 24 9d a7 3d e7 1f c5 bd 02 c1 50 3d d8 49 85 bd
       0.08184269 -0.096252255 0.050965317 -0.06508225
0002a0 58 cb ba bc a2 9e 20 bd 7c b7 21 3d ec ed 0e 3d
       -0.02280204 -0.039213784 0.039481625 0.03489487
0002b0 03 20 34 bd 3e 3a d8 3d 23 21 25 3d 7b 30 f4 3c
       -0.04397584 0.10557984 0.040314805 0.029808274
0002c0 c6 c9 bb 3b c7 46 51 3d fe c6 a6 3c 6f 69 90 bd
       0.0057308404 0.05109289 0.020358559 -0.0705136
0002d0 1b dd 6c bc b3 dd 9e 3c d1 c0 93 3c d5 1c 56 bc
       -0.0144570125 0.019392824 0.018036278 -0.0130683975
0002e0 e6 0b 25 bc d2 83 90 bd 89 31 f8 bc 8e 12 08 3d
       -0.010073638 -0.07056393 -0.030297058 0.03322082
0002f0 5f 75 ff 3d a5 cf 26 bd 46 07 b6 bc 7a 96 8d 3d
       0.12473559 -0.04072537 -0.022220265 0.06913467
000300 5f 0b d4 3c 2f 12 11 3d 1d 66 2d bc d2 43 f7 3b
       0.025884328 0.03541773 -0.010583428 0.0075459266
000310 6b 5e ec bc 11 59 33 bc 11 f1 d6 3b 50 76 55 bc
       -0.028853616 -0.010946528 0.006559499 -0.013028696
000320 a7 22 96 3c 60 ab 46 3c 65 7d 84 bd 07 71 1d 3e
       0.01832707 0.01212582 -0.064692296 0.15375148
000330 18 6f be bd 39 ff c4 bd 45 3c 9f bb 60 a5 5b 3c
       -0.09298533 -0.09618992 -0.0048594796 0.013406128
000340 ad 47 ce bb 1d a8 ba 3b c1 fa 7a 3d 3e 12 95 ba
       -0.0062951655 0.00569631 0.061274294 -0.0011373234
000350 56 2b ea 3c 59 92 b3 3d 90 e5 19 bc 01 cf b1 bd
       0.028585117 0.08768148 -0.009393111 -0.08682061
000360 ad 5c 02 3d c9 1b 48 3d 1d 7a b8 3d cc 49 f2 bb
       0.031826664 0.048854623 0.09007666 -0.007394051
000370 da 34 46 bd 40 cf ff bc 13 d6 21 bd 61 25 0a bd
       -0.048390247 -0.031226754 -0.039510798 -0.033727054
000380 77 19 32 3d 4c 88 8c bd 4a 2a 84 3a 77 4b a6 3d
       0.043481316 -0.06861934 0.0010083404 0.081198625
000390 3a ed 8c bd ae 53 ef 3c 34 3e 9e 3d 03 45 21 bb
       -0.06881185 0.029214706 0.07726708 -0.0024607785
0003a0 84 4d bd bd 9c 38 02 bd b6 8f 44 3c 7a 6b 82 bd
       -0.092433006 -0.03179227 0.011997154 -0.06368156
0003b0 a1 f0 8f 3d 43 b2 84 3c d4 1c 8f bd 0a 5e af bd
       0.07028318 0.016198283 -0.069879204 -0.085628584
0003c0 b0 f7 65 bc 15 07 8e 3c 25 27 46 3c 7e ce 41 3d
       -0.014036104 0.017337361 0.012094294 0.047316067
0003d0 6e 41 9e 3d 11 b7 b3 bd 5c b0 17 bc b4 a3 26 3e
       0.077273235 -0.087751515 -0.009258356 0.16273385
0003e0 d1 74 34 3d 2c 6c e4 bb ab f0 3c bc 42 9a 99 bd
       0.044056717 -0.006970903 -0.011531989 -0.075001255
0003f0 5b 79 5c 3d 85 e4 97 bd b8 bb 1c be 4d b2 a1 3d
       0.05382667 -0.074166335 -0.15305984 0.07895336

bottleneck.1.weight f4 [64]
000000 b6 d6 7d 3f 51 51 80 3f ab 2c 7e 3f 8c 59 7f 3f
       0.9915575 1.0024816 0.9928691 0.9974601
000010 5b a8 7e 3f d7 d5 81 3f 49 62 7d 3f f1 d3 80 3f
       0.9947564 1.0143384 0.98978096 1.0064679
000020 3c 3f 80 3f 92 57 80 3f c0 1e 7f 3f fc a8 80 3f
       1.0019298 1.0026724 0.99656296 1.005157
000030 6b 2c 80 3f 6d 83 80 3f 9e 91 80 3f 32 01 7d 3f
       1.0013555 1.0040108 1.0044439 0.9882995
000040 95 ea 80 3f 7c dd 80 3f c3 38 7f 3f 3b c7 80 3f
       1.0071589 1.0067592 0.99695987 1.00608
000050 39 3e 80 3f 78 90 80 3f 40 17 7d 3f c0 a1 7e 3f
       1.0018989 1.0044088 0.988636 0.9946556
000060 e4 1b 81 3f 54 a6 81 3f c9 45 7f 3f 68 3a 7d 3f
       1.0086637 1.0128884 0.9971586 0.98917246
000070 d4 c4 7f 3f a7 6a 7f 3f 37 40 80 3f a5 74 82 3f
       0.9990971 0.99772114 1.0019597 1.0191847
000080 9b 57 81 3f b3 65 80 3f 99 7a 81 3f 22 b5 7e 3f
       1.010486 1.0031036 1.0115539 0.99495137
000090 88 0a 80 3f 56 c4 7d 3f a4 bc 7f 3f 24 87 80 3f
       1.0003214 0.9912771 0.9989722 1.0041242
0000a0 69 21 7e 3f 08 24 7e 3f 75 a6 7e 3f 38 b0 7c 3f
       0.9926973 0.9927373 0.99472743 0.9870639
0000b0 55 e2 80 3f 3d 28 7e 3f bb 93 7e 3f 06 92 81 3f
       1.0069071 0.9928015 0.9944417 1.0122688
0000c0 7b ff 7e 3f e6 52 80 3f f4 de 7f 3f 01 70 80 3f
       0.9960858 1.0025299 0.99949574 1.0034181
0000d0 9a 14 81 3f 50 f9 7d 3f 1f 53 80 3f db 03 81 3f
       1.0084412 0.99208546 1.0025367 1.0079302
0000e0 19 f9 7e 3f c2 f5 80 3f cd 09 80 3f 23 19 80 3f
       0.9959884 1.0074999 1.0002991 1.0007671
0000f0 79 9b 80 3f c5 59 7f 3f bd 30 80 3f e2 00 81 3f
       1.0047446 0.9974635 1.0014874 1.0078394

bottleneck.1.bias f4 [64]
000000 15 63 c9 bb 91 f1 11 3c 3f 69 d1 bb 49 28 95 bb
       -0.0061458447 0.008907692 -0.00639072 -0.0045519215
000010 9a bf 47 3c b9 d6 5b 3c ad a2 11 bc d5 59 7a 3c
       0.0121916775 0.013417893 -0.008888883 0.015280207
000020 c1 5f 4e 3b 2e 8f 1b 3b c7 b0 a3 3b 92 d8 ec bb
       0.003149018 0.0023736465 0.0049954387 -0.0072279656
000030 93 7c 22 bb ed 35 d3 39 76 47 18 3c e3 19 19 bb
       -0.002479349 0.00040285234 0.009294381 -0.0023361377
000040 ef 4e 84 3b 0a 59 cd 3b a3 fc 4e 3b bb 6f bd 3b
       0.00403773 0.006266718 0.0031583689 0.0057811416
000050 a6 ab 18 bb ba b0 a4 3b 15 ee 06 bc e0 6a 0d bc
       -0.002329567 0.0050259503 -0.008235474 -0.008631438
000060 53 21 5c 3c ae 8b 33 3c 1b ca 41 bb 6a de 55 bc
       0.0134356795 0.010958595 -0.0029569927 -0.013053516
000070 f7 c9 61 3b 90 a6 69 bb 92 8f 0a 3b b3 aa 6c 3c
       0.0034452656 -0.0035652258 0.0021142703 0.014444995
000080 f8 6c 36 3c 39 75 14 3c 06 a0 0c 39 d3 3a ed 3b
       0.011134379 0.009061151 0.00013411054 0.0072396784
000090 d6 9d 11 bb 60 7e b9 bb 55 7a 8b 3c ff ac 8c 3b
       -0.0022219322 -0.005660817 0.017026106 0.0042930837
0000a0 88 3a 90 3a 23 c7 f0 bb b1 0d 74 bb 2c a0 86 bb
       0.0011003772 -0.0073479577 -0.0037239606 -0.0041084494
0000b0 a5 36 65 3c bb ba 38 bc 14 a4 d9 ba 7f aa e3 3b
       0.013990079 -0.011274989 -0.0016604685 0.006947815
0000c0 b2 4f 1e 3c 61 f9 7e 3a b3 9b 82 bb c4 ac 30 bb
       0.0096625555 0.00097264914 -0.003985846 -0.0026958445
0000d0 c9 a3 7a 3c 6f 36 19 bb db 3b cf 3b 98 f3 2f 3b
       0.0152978385 -0.0023378392 0.006324274 0.0026848074
0000e0 2f 2f b2 bb 0f a1 0e 3c 2a fb e2 3b 6e fd b4 3a
       -0.0054377536 0.008705392 0.0069269137 0.0013808438
0000f0 87 0c 3f ba 14 d9 6b bb 6f 99 27 3c 11 6f e8 3a
       -0.00072879385 -0.0035987543 0.0102294525 0.0017733296
