experiments_multi/Brain_Tumor_Segmentation_Separate_Train_Val_20260208_103839/checkpoint_epoch_10.pth (torch, 494589 bytes, 56 tensors)

enc1.0.weight f4 [16, 4, 3, 3]
00000000: 9740 34bd 9975 a93d 55b5 703d 8325 dcbc
00000010: 7f27 6f3b 8f54 9abd f663 313d 7910 7c3e
00000020: 0e48 53be d8ba 703d d432 b83d fbcb 2fbe
00000030: e61d 333e b2a8 0a3e 5e3d 843c 3f07 60bd
00000040: c4af c0bc 799f bc3d a582 b3bd f161 30be
00000050: a1c3 3c3d fb6e 1ebe b162 a33c c4f4 e3bd
00000060: f12b 413d 0d50 4b3e 78f3 493c 7273 513e
00000070: 100f 183c 9ed6 5ebd 0741 733e 606a 5abe
00000080: 726e cbbc 10c0 c73d eee9 22bc 70cf abbd
00000090: 93fb 0dbc 68c5 6fbd 6214 a53c c799 e03d
000000a0: 8e73 003e 93a8 f23c 30a2 a33d 8ae9 9bbd
000000b0: 5b4d 5c3d 154e f9bb d513 e2bd 28b4 e9bd
000000c0: 4329 2d3e a8bf 283e 9ffd 083e 6004 b63b
000000d0: 238a 0e3e aa0f 843b 36b0 eabc 1df1 c13d
000000e0: e77f efbd 96e3 7bbd e2e0 123d d85e bdbd
000000f0: d6e8 85be 1852 883d 8d22 9e3d 086b 82bc
00000100: 8b75 21be 6f3c 00be 8615 59bd d747 d7bd
00000110: 78f3 433e ab2a f7bc 624d 933e 4de4 e8bd
00000120: ef6d 873d 5ef5 283d 5234 b9bd d2e3 093c
00000130: 057a dbbd a5e9 6f3d 81db 34bd 5c48 a6bd
00000140: 7147 11be c36d 44bb d4de 1e3e f434 3fbe
00000150: 2910 203e 646d 4fbd 4870 d1bd 8311 08bd
00000160: ffd5 1cbe 2356 cf3d 455b 0ebe 17a2 01be
00000170: b69a 433c fe7b f83d b464 e2ba ed52 843e
00000180: 038d d23c 36f5 41be dbcb 53be a51a dbbc
00000190: ce50 44bd a9d0 8c3d d3f9 5cbe 20fe 01be
000001a0: 10c0 2b3e 3df2 29bd 18ca 963d f195 f7bc
000001b0: 90a2 9b3c 0701 60be e524 01be 3fea 97bd
000001c0: 7bc9 6ebd 8f8b 2cbd f292 c03d 4657 95bd
000001d0: 5a59 2b3d c8d4 9c3c 743f 553e a1ad 9f3d
000001e0: 9ad3 e1bd ba23 813e 418c d4bd 5a34 153e
000001f0: 325f 863e 9611 d83d baeb 843d 225b 773e
00000200: e6db aebd 4ac0 dcbd a655 333e 2c4c 6dbd
00000210: 7046 36be 3e17 81be db49 8a3d e2b9 d93c
00000220: a861 173d d15a 2abd 8484 d33c ee3a 52be
00000230: 37e1 033d 860b 8abd 80f2 e33d 3350 3dbd
00000240: 2ee2 94bd 50d0 653d 4423 18bd 6cbd b2be
00000250: b79b d4bd 7651 773d 3660 1abe 5889 083d
00000260: d41f c53d 2756 fdbc 3b00 263e 8bff 90bb
00000270: 90a8 2d3e 5590 aabd 7181 ce3d e971 52be
00000280: 442b 8339 008c c0bc ebac 8f3c 34f4 a03d
00000290: 03d2 cebd f635 7d3d 93cf 043e f78e c73d
000002a0: a36f 69bd 8478 2f3e 5d88 8ebb fbd1 8ebe
000002b0: 7212 2c3e 2cb6 ebbc d0da 11be 5c44 ac3d
000002c0: 877f 9bbd 5bbb 423e 7c3b 923d 0f86 e93d
000002d0: d968 c73d 130a 51bd be83 8c3d 67c0 d03c
000002e0: 7cf1 c43d 4149 11be f596 bebd f69e 843e
000002f0: 2f5e cc3d c9e6 f3bb 4cb7 2cbe 7903 4b3c
00000300: ec8c bcbc 45b2 a1bd bfe0 983d be97 0b3d
00000310: a183 b33d 69af 85bd 47b4 913e 1992 57be
00000320: 125f 083d ae65 8e3e 56bb 5a3e 0458 1cbd
00000330: 7f8f a1bd e88b 8a3d 7ecb 9bbc a619 9ebd
00000340: faae ec3d 7638 2a3e 50b5 7c3d f093 dfbd
00000350: 8232 3abd bd47 bbbd 1de7 9f3c c939 90bd
00000360: 8bca 1e3d 372b 6d3e 1ae9 8a3d bd2b 6e3c
00000370: 8e27 18bd 8288 15be 0816 8f3d e5e3 26bd
00000380: 0c89 41bc 5a22 90bd a46c 8ebd fea9 df3d
00000390: 1f2d a6bd 9550 e5bd 3605 843e 7a92 523d
000003a0: 3f2c 98bd 1b91 66bd 9f0a babc 1c3b 893d
000003b0: bdcc 38bd 4b75 223e 1574 3b3b dc6a 0bbe
000003c0: 55d8 a93d d65d 223e 2942 573e 8a7e a43c
000003d0: 6aa5 dc3d 0e08 b0bd f488 3c3c c1c6 ff3d
000003e0: 2b21 043d 7737 a2bd 51c9 1e3e d762 153d
000003f0: cf8a d7bc 57e6 4b3e 00e3 c73c 1f48 b6bd
-0.04400691 0.08274383 0.05876668 -0.026873356 0.0036492047 -0.075356595 0.04330822 0.24615659
-0.20632955 0.058771938 0.0899407 -0.17167656 0.17491874 0.13540915 0.016142543 -0.05469441
-0.023521312 0.092101045 -0.08765153 -0.17224862 0.046085004 -0.15472023 0.01994452 -0.1113067
0.047161046 0.19854756 0.012326114 0.20454195 0.009280935 -0.054403894 0.23755275 -0.21329641
-0.024832938 0.0975343 -0.0099434685 -0.08389175 -0.008665937 -0.05853787 0.02015132 0.10966831
0.1254408 0.029621398 0.07989919 -0.076129034 0.05378471 -0.007608185 -0.11038939 -0.11411315
0.16910271 0.16479361 0.13377999 0.0055547208 0.13919882 0.0040301876 -0.028648477 0.09469817
-0.11694317 -0.06149634 0.035858996 -0.09246606 -0.26154202 0.06656283 0.07721434 -0.015920177
-0.15767495 -0.12523054 -0.052999042 -0.10511749 0.19135845 -0.030171713 0.28769976 -0.1137167
0.06612765 0.041249625 -0.090431824 0.008416133 -0.10716633 0.05857243 -0.044154648 -0.0811927
-0.14187409 -0.002997265 0.1551469 -0.18672544 0.15631165 -0.050641432 -0.10226494 -0.033219825
-0.15316008 0.10123851 -0.13902004 -0.12659489 0.011938741 0.12133025 -0.0017272444 0.25844517
0.025702005 -0.18941197 -0.20683233 -0.026746104 -0.047928624 0.06875736 -0.21579675 -0.12694597
0.16772485 -0.041490782 0.07362765 -0.030222865 0.018998414 -0.21875392 -0.1261173 -0.07417726
-0.058297615 -0.04212528 0.094030276 -0.07292037 0.04183326 0.01914443 0.20824987 0.07796789
-0.11026688 0.2522257 -0.10378314 0.14570752 0.26244503 0.10550229 0.06490274 0.24155858
-0.08538036 -0.10778864 0.17513141 -0.05793397 -0.17800307 -0.25213045 0.06752368 0.026577894
0.036958367 -0.041590516 0.025820024 -0.20530292 0.032197203 -0.06740479 0.111302376 -0.046219062
-0.07269703 0.056106865 -0.037143007 -0.34910142 -0.10381263 0.06038042 -0.15075764 0.033334106
0.09625211 -0.03092487 0.16211025 -0.0044249943 0.16958833 -0.083283104 0.10083283 -0.20551266
0.00025018502 -0.023504257 0.017538508 0.07859078 -0.1009865 0.06181904 0.12969808 0.09744065
-0.05699123 0.17135817 -0.004349752 -0.27894577 0.16803911 -0.02877339 -0.14243627 0.08411476
-0.07592683 0.19016783 0.07140252 0.11402523 0.09736795 -0.051035 0.06861065 0.02548237
0.09616372 -0.141881 -0.093061365 0.25902528 0.099789016 -0.007443283 -0.16866797 0.012390965
-0.023016416 -0.0789533 0.07464742 0.03408026 0.087653406 -0.065275975 0.28457853 -0.21051826
0.03329379 0.2781195 0.21360525 -0.038169876 -0.07888698 0.06764966 -0.019017931 -0.07719736
0.11556812 0.166231 0.06169635 -0.10916889 -0.045458324 -0.09144542 0.019519383 -0.07042272
0.03876738 0.23161016 0.06782742 0.014536795 -0.037147097 -0.14602855 0.06986624 -0.04074468
-0.01181246 -0.07037802 -0.06954315 0.10921095 -0.08114075 -0.111970104 0.25785226 0.051409222
-0.07430314 -0.056290727 -0.022710143 0.06700727 -0.04511713 0.15865056 0.0028603126 -0.13614982
0.08293215 0.15856108 0.21021332 0.02007987 0.10773738 -0.08595286 0.011507262 0.12489081
0.032258194 -0.07920735 0.15506484 0.036471214 -0.026311306 0.19912086 0.024400234 -0.08900475

enc1.1.weight f4 [16]
00000000: f86e 823f 3af6 803f a4b2 803f 7a61 803f
00000010: a8e2 7f3f 9389 7d3f 9f88 7d3f 09ad 803f
00000020: e6f1 7c3f bdf8 803f 59ee 803f 1de5 7b3f
00000030: da3c 813f ea10 843f d89c 803f f942 843f
1.0190115 1.0075142 1.0054517 1.0029747 0.99955225 0.99038047 0.9903659 1.0052806
0.9880661 1.0075909 1.0072738 0.98396474 1.0096695 1.0317662 1.0047865 1.0332938

enc1.1.bias f4 [16]
00000000: 4b29 443c f220 8b3c 097f c33b d808 f9ba
00000010: 4f18 deba 653c 0d3c 73dd 3f3b b282 5a3b
00000020: 8fd4 773c 15e8 fe3c ae4d 87bb a076 503c
00000030: 9ee5 493c 23f5 f63c 947c d9bc 7cf2 103d
0.011972736 0.016983483 0.0059660715 -0.0018999828 -0.00169445 0.008620356 0.002927628 0.003334206
0.0151263615 0.031116525 -0.004129133 0.012723595 0.012322811 0.030146187 -0.026548661 0.0353875

enc1.1.running_mean f4 [16]
00000000: 8920 863d c905 803d 4887 04be f3ca e43c
00000010: 8c1d f7bb dfc7 dc3d d01c 093e f5f3 6e3e
00000020: d99f 183e 0aef 293e 528b 713c 00a0 623b
00000030: f53e a5bc ec13 5abe bfb4 7abd abf6 58bd
0.06549174 0.062511034 -0.1294223 0.027928805 -0.007541364 0.1078031 0.13389897 0.2333525
0.14904727 0.16595092 0.014742689 0.003458023 -0.020171622 -0.21296662 -0.06120753 -0.052969616

enc1.1.running_var f4 [16]
00000000: a4ae 853c b9e9 943c c948 5a3d e654 e33b
00000010: f330 bb3b a76b 1c3d 98d5 733d da49 323e
00000020: 6c4b a63d 5363 da3d 19ff 493b 5e15 053b
00000030: 248c 273b 21df 1c3e 5f80 9c3c 29b1 313c
0.016318627 0.018177854 0.05329207 0.006937611 0.0057126223 0.038188603 0.05952987 0.17410985
0.08119854 0.10663476 0.0030822216 0.0020306925 0.0025565708 0.15319492 0.01910418 0.010845461

enc1.3.weight f4 [16, 16, 3, 3]
00000000: 69d4 bdbc 8db2 5c3e 18be 5ebc 4caf 963d
00000010: b100 cc3b a196 733d 421b b23d 5d5e 61bd
00000020: 1ffa 8f3d 9986 c8bd 048e 973d 33ff 993d
00000030: b6d3 1cbd 038d f53c f489 0bbe 18b5 8e3c
00000040: 3fe7 7bbe 8f69 80bd 9063 3b3e 5773 b7bd
00000050: 78a8 803d eeea 12be b757 1dbe da50 b23d
00000060: 591b a03c 96c6 5ebc 47c6 3a3d c825 2abc
00000070: cffc 98bd 2230 0b3d 95a2 403e 3fdb 373e
00000080: 4229 9e3c b0e0 023e 1d57 01bd 445e f0bd
00000090: b33c d43c c16c 50be 4466 40bc 39f5 36be
000000a0: 3bd6 31bc 2b08 ccbc d238 90bd 02fd 27bd
000000b0: da8d d7ba 760a 2dbc 754a 433e 8985 5fbd
000000c0: 3fa5 3bbd 04ac 14bd 8036 82be 88c0 7c3c
000000d0: 5b90 46ba cf60 1bbd f7af c8bb 9ef7 383c
000000e0: 5512 973e 3496 23be 93dc a5b9 4cda dbbc
000000f0: 8729 1ebe 36da 71bb a3eb b93d 552f 79be
00000100: f92f 00be 5030 b23d 290d 83bd 8949 a4bd
00000110: 0595 103c 0021 56bd 4104 ecbc 3c5a 9f3d
00000120: 6cb6 06bd c30b 78bd 88cc 013d fe55 573b
00000130: e229 55be 1d85 00be c8ea 3cbe 44d4 323c
00000140: 71de 07bd 1891 c03d 0ecb 41bc c382 803d
00000150: 70ab dc3e a5c4 d7bd 2dff 27be 589c 843d
00000160: 7046 44be ce19 68bd 3c8e 9c3d 706c 0fbe
00000170: c9b4 8cbe d5d0 4b3d 03a3 b73d aaf7 16be
00000180: 40de abbc 59d3 b3bd b631 66bb 6679 97bc
00000190: e4ac b8bd 18d8 f23d d053 d73d 74e5 143e
000001a0: 3a2f 0f3e 2769 4c3e 391d 30bc 666c 8bbd
000001b0: 9fc8 c4bd 9719 e0bd 5531 58be e012 0a3e
000001c0: c807 c33e 9365 c2bc dace a03d 2eae febd
000001d0: 0569 913d ae0c 3a3e 2498 0bbc 59d4 e73c
000001e0: fc6d 7fbd 76ff 953d 50fe 803d 4d67 e3bd
000001f0: a258 0c3e 67df 11be c53e c2ba 753d cabd
00000200: cb99 dabd 828c 5a3d 4037 123e 9438 1a3d
00000210: 9d49 473d ecff 243e bb7e 073e 1850 b2bc
00000220: 4658 42be 7191 9d3c 41a5 903d a111 b53d
00000230: ac69 98bd e04f b3bd 74ca 463e e97b 473e
00000240: f2bf 88bc fd76 c8bd c9d2 873c c9d0 073d
00000250: d5d1 be3c 45bf 3d3e e70d fb3c 4d16 a5be
00000260: 34f4 e7bd 2f7d d1bb 85b3 09bd 031c ba3c
00000270: 2b77 35bc 2f0e 05bd 852d 27bd 63bc b83d
00000280: f8a9 dcbd 3613 453d 7571 89bd 1c28 26be
00000290: ede6 083d 3b96 0dbe 3fdb 943d e5d9 bbbd
000002a0: 173a 833d a3c6 9e3d e458 ba3c 562f cfbd
000002b0: 40f8 9e3e 33ad 74be 8c34 e43d ad95 b9bd
000002c0: dcce 4a3c bece 8d3c b4c5 fd3c 9562 62be
000002d0: b097 1b3c 305e 83bd abf7 28be 730b 13be
000002e0: 1755 fc3c 5da6 033e 7488 18bd 2c3d 0e3e
000002f0: 1ff5 f7bc ea32 b6bd 3521 14be 245e 003d
00000300: 7543 1abd 421f 74bc 0bac 25be 59ca 963d
00000310: b863 19be 65e4 5dbd 502e 96bb 6322 f83d
00000320: 684f a2bd a59e 5fbd 7e8a 81be 659b 503b
00000330: fe4b 8a3d c94c 873d 4930 2e3e 0a68 353d
00000340: 8a5b 8abd 785a 8abc 0412 35bd 4e67 75bd
00000350: 851a e23d 98a8 a2bd ab52 403e 4abb d3bd
00000360: ece0 f1bd ca7c f5bd e4f9 80bd 8352 19be
00000370: bae8 033e dac4 153e b676 443d eba7 d6bc
00000380: a623 82be 65a8 84bd 6d67 02be 274d ec3c
00000390: 4f02 093e 217f c03c 8ca9 b93d 5f90 863e
000003a0: 7268 62bd 9915 e63c ff4b 21bd 7482 06be
000003b0: 97ab 1a3e 24c7 1cbd 48c2 1b3e 5664 10be
000003c0: 0c4a b93d 90ee 27bd 8b54 adbd 3331 8cbd
000003d0: 0330 a0bd 3c27 ec3c 802b 88bd ee5d 4cbd
000003e0: f9dd b6bd 7b45 663e b4f8 d53d 8feb 52bc
000003f0: c5a4 553e f22c 483d 6f47 afbc 1103 f13d
-0.023172574 0.21552487 -0.013595127 0.07357654 0.0062256684 0.059469823 0.08696605 -0.055021632
0.07030129 -0.097912975 0.07400134 0.075193785 -0.03828784 0.029974466 -0.13626844 0.017420337
-0.24599932 -0.06270134 0.18299699 -0.08957546 0.06282133 -0.14347431 -0.15365492 0.087068275
0.01954429 -0.013597151 0.04559925 -0.010384984 -0.074700944 0.03398145 0.1881202 0.1795473
0.019306783 0.12781024 -0.03157722 -0.1173673 0.02590785 -0.20353986 -0.011743132 -0.17866983
-0.010854299 -0.024906239 -0.070420876 -0.04101277 -0.0016445473 -0.010561576 0.19071372 -0.05457071
-0.045811888 -0.03629686 -0.25432205 0.015426762 -0.0007574611 -0.03793412 -0.0061244923 0.011289505
0.29506174 -0.15975267 -0.00031635593 -0.02683749 -0.15445529 -0.0036903745 0.09078147 -0.24334462
-0.125183 0.08700621 -0.063989945 -0.08021838 0.0088245915 -0.052277565 -0.028810622 0.07780883
-0.032888815 -0.06055809 0.031689197 0.0032857652 -0.20816758 -0.12550779 -0.18448937 0.010914866
-0.03317112 0.094026744 -0.011828197 0.06274941 0.43099546 -0.10535554 -0.16405936 0.06475133
-0.19167495 -0.056665234 0.076443166 -0.1400621 -0.27481678 0.049759705 0.08966639 -0.14742914
-0.02098 -0.08780546 -0.0035124845 -0.018490504 -0.09017351 0.11857623 0.10514033 0.14540654
0.13982859 0.19961987 -0.010749155 -0.06807785 -0.09608578 -0.10942381 -0.21112569 0.13483763
0.38091874 -0.023730075 0.07851954 -0.12435566 0.07100109 0.181689 -0.00852016 0.028299497
-0.06236075 0.07324116 0.06298506 -0.111036874 0.13705686 -0.14245377 -0.0014819732 -0.09875003
-0.10673865 0.053356655 0.14278889 0.037651613 0.048654187 0.16113251 0.13231938 -0.021766707
-0.18978986 0.01923439 0.0706277 0.08841253 -0.0744203 -0.08755469 0.19413167 0.19480862
-0.01669309 -0.0978832 0.016580002 0.033158097 0.023293415 0.18529995 0.030646278 -0.32243577
-0.11325875 -0.006393097 -0.03361847 0.022718435 -0.011075775 -0.03248423 -0.040814895 0.09020307
-0.107746065 0.048114024 -0.06711093 -0.16226238 0.033423353 -0.1382684 0.072683804 -0.091724195
0.06407564 0.07752731 0.022747464 -0.101164505 0.31048775 -0.23894195 0.11142835 -0.090617515
0.012378421 0.017310496 0.030978061 -0.22107919 0.009496614 -0.06414449 -0.16500728 -0.14359836
0.030802293 0.12856431 -0.037239507 0.13890523 -0.03026825 -0.0889643 -0.14465792 0.03133978
-0.03766199 -0.014900031 -0.1617891 0.073628135 -0.14979446 -0.054172892 -0.0045831576 0.12115934
-0.07925302 -0.054594655 -0.25300974 0.0031830904 0.067527756 0.066064425 0.17010607 0.044288673
-0.06755741 -0.016888842 -0.044206634 -0.059912972 0.110402144 -0.07942313 0.18781535 -0.10338457
-0.118104786 -0.11986692 -0.06297663 -0.14972882 0.12881747 0.14625874 0.047964774 -0.026203116
-0.25417823 -0.06477431 -0.12734766 0.028845383 0.13379787 0.02349812 0.090655416 0.2628202
-0.055275388 0.02808647 -0.039379116 -0.13135701 0.15104519 -0.038275853 0.15210831 -0.14100775
0.090473264 -0.040998995 -0.08463391 -0.068453215 -0.078216575 0.028827302 -0.06648922 -0.049894266
-0.08929057 0.22487442 0.10447827 -0.012873544 0.20863636 0.04887099 -0.021396367 0.11768163

enc1.4.weight f4 [16]
00000000: 9887 7d3f 94e1 803f e320 803f 696c 7e3f
00000010: 890e 793f cf41 7f3f bdbc 7e3f d09b 803f
00000020: 1b8a 803f c956 7b3f 98c7 7b3f cb52 7e3f
00000030: 7c7b 7a3f ced3 803f d18c 7b3f 4086 7f3f
0.99035025 1.0068841 1.0010036 0.9938417 0.97287804 0.9970979 0.9950674 1.004755
1.0042146 0.981793 0.9835143 0.9934508 0.9784467 1.0064638 0.98261744 0.99814224

enc1.4.bias f4 [16]
00000000: 288a 9fbb 30d4 d33b a78f 16bc 6a42 063c
00000010: f2d3 e0bb 575f dbbb e83e 093c a8ff 67bc
00000020: a635 7e3c f29d 4bbc 97a2 9b3a 72a7 98bb
00000030: 32b4 c0bc 5b32 66b9 6e8f 95bc caf9 ad3b
-0.0048687644 0.0064645037 -0.009189523 0.008194545 -0.0068612034 -0.006694715 0.008376814 -0.014160074
0.0155157205 -0.012427794 0.0011874017 -0.004658633 -0.023523424 -0.00021953268 -0.01825687 0.005309318

enc1.4.running_mean f4 [16]
00000000: 78da 10be 63a5 0dbf 77c0 0a3f 9238 afbe
00000010: 5e9f 05be 8297 85bf e63c 3abf f224 c03b
00000020: 1295 153f 3e39 9ebe 9800 08bf f45b 70be
00000030: 977a b8be 5009 a73f c009 93bf f65e 1e3e
-0.14145839 -0.55330485 0.5419993 -0.34222847 -0.13049075 -1.0436862 -0.72749174 0.005863779
0.5843059 -0.30903047 -0.53125906 -0.23472577 -0.3603103 1.3049717 -1.148735 0.15465912

enc1.4.running_var f4 [16]
00000000: a096 923f 41a1 4d3f 84d8 3b3f a407 773f
00000010: 82d4 543f 9eff 803f 2e5f 0f40 f1f1 863f
00000020: ec29 7240 b17e 253f cc1f 993e d04d 003f
00000030: 4450 c23f b2bb 913f f59e 363e 5a37 c33f
1.1452217 0.8032418 0.7337725 0.96496034 0.8313676 1.0078008 2.2401843 1.0542585
3.7838087 0.6464644 0.29907072 0.5011873 1.5180745 1.1385405 0.17834075 1.5251267

enc2.0.weight f4 [32, 16, 3, 3]
00000000: 82eb f8bd eeae a33d 536a 24be 7e68 323d
00000010: f319 87bd 95a0 963d c0c0 43bd 8c33 cabd
00000020: 5e9f fabd 45e7 a4bc c3e4 9cbd da6e 3dbe
00000030: 3c37 07be 5987 d5bc d9fe 23bd 2349 853d
00000040: ab29 1dbe c532 cfbd 4b8f 8f3b 3a0a 88bd
00000050: 38ca 3fbe 250b ba3c 65df 823c b9af e43d
00000060: abac ba3d 2988 e43c 5d23 993d 871d 1ebd
00000070: 2960 25bd 4853 fa3c f5ad a5bd 739d c2bd
00000080: fdd7 5bbd 1b70 633d a815 03be a933 fcbb
00000090: 151e 3bbd 5e17 37bd 9350 bcbd 413b 78bd
000000a0: 438d e1bd 7698 cfbd dcc0 553d 7f79 14bd
000000b0: 0997 d33c b96f 89bd eb0c c2bc 3bd9 87bd
000000c0: b9e1 3fbe 0e2a bc3d c65f 783d 9409 07bd
000000d0: 0bb5 5e3d d22e a23d 96ba 6c3c 4c20 66bd
000000e0: a382 ab3d 203c e1bd d8ed 15be ccbd 59bd
000000f0: ffab b7bd 9369 eebc 79fb f8bd 291e 863e
00000100: 0e37 2abd 41ca 81bd 42aa c23c ae78 ef3c
00000110: 329f 083e 98db b4bd c89f 143d f6b6 cc3d
00000120: dde7 47bd 598a 43bd 5502 20bd 2341 9bbc
00000130: 5519 243d beb2 0c3e 56e9 f1bd 1089 333e
00000140: 7426 8b3d 53ce f9bb f2e5 653e c53c 79bc
00000150: 5497 443d d8ad fdbd 1838 b63d f22f b13d
00000160: 7aee 99bd 6121 b1bd 231f 87bd 4ac6 88bd
00000170: 407b f83d cb39 013e 8b7b 793d ba27 1abd
00000180: 5507 f63c e8a4 56bc 8e32 f33d e197 623d
00000190: 3991 6ebd 325a f0bc dd1c 1d3e 0318 713d
000001a0: 61bb f83d 2fac b03d 79a8 5dbd 1e69 a33d
000001b0: febd e93c 0038 6a3c abbb 9ebd b03a 4bbb
000001c0: 1f4c 5bbd 2c8a 9cbb db48 233a 611d aa3c
000001d0: 6f90 00bc 39e9 68bd 70f8 1b3d 5d2d 95bc
000001e0: 2ce0 eebd a5fe e1bd 3feb 40bd b1e9 303a
000001f0: 5f25 3dbe 6b30 0d3e 77cd c6bc 2b7b 8ebd
00000200: 1434 b83c 123c 413d a9f8 d5bd 0376 0abd
00000210: a60a 0f3d 7dca f1bb 9b7b 83bb 8707 b23d
00000220: f5bf 5abd 8a6c 523d 2b92 adbd e0ba e4bc
00000230: 1fa6 d6bd 02aa 43bc 4994 103c 401b 8bbc
00000240: 7e12 4cbd d032 3c3d 66de 5ebd d4fb 07bc
00000250: 9dc8 143d 1007 a43d beb2 efbd c11e b83d
00000260: 3b9a f4bd 4cd1 ae3c 278e 153d 6283 7f3d
00000270: 2e88 b63c 48ae c3bd 59cf 363d a3c7 54bd
00000280: 7819 a1bc 656b 173e 6005 2fbd fd3d 013e
00000290: 2744 8f3d 636a 4a3d ae35 86bd fddd 8c3c
000002a0: bd55 2d3d b3d0 cd3d 6d2f 7ebd 2600 083e
000002b0: 6833 03be e231 5c3d 39be 773c 040b 973d
000002c0: f5ad fabc 4ba4 5fbd 4bfd 153c 4370 0e3d
000002d0: 67e3 07bc 9ee0 ddbd 3822 0ebe 2d9a a73d
000002e0: fe2d 0a3d fa13 04bc 84fc 01be d3b2 b2bd
000002f0: e518 a8bc 8655 043e 3941 8b3d eb53 143e
00000300: f7e2 14bd 30ed 823d d26e 1bbd 729a d83b
00000310: 2866 803b 221f 42bd d33b 363c c8b0 8e3c
00000320: 9c2c f4bd 2d63 a5bc e6fc 89bd 3195 5f3d
00000330: c1aa 393d 8a38 5fbb c293 643c fec0 30be
00000340: a665 c7bd 0574 693d a64f d8bd 0077 4f3b
00000350: cdd8 03bb 47cb cbbc 95b2 913d 5496 f1bc
00000360: 248f 813d 75d0 463e d0c8 e9bd 81bf 21bc
00000370: 41e9 9ebd 2d10 f93c dffe 2cbd 0f33 d53d
00000380: 75f5 763d 0111 9abc 0218 ad3c dbec a73d
00000390: 677b a23c 5c01 863d 5e6e 6cbc adb2 d23c
000003a0: 0e88 55bd 4cdd e9bd 5d51 d53d 5c4a 1ebe
000003b0: 2387 5fbc 3e88 64bc 861a c0ba 8a32 913d
000003c0: 6360 d8bd 86fb 8fbd 662f 783d 123e 27bd
000003d0: 70f5 bc3d 3352 713d a51d 953b 0e54 6bbd
000003e0: a89c a9bd 2e10 1fbe aba4 2bbd c618 df3c
000003f0: 1f1c a63d f083 19bb 85e8 7a3d 86c3 dc3d
-0.121542946 0.079923496 -0.16056184 0.043556683 -0.06596746 0.07354847 -0.047791243 -0.09873113
-0.12237428 -0.02012981 -0.0766082 -0.18499318 -0.13204664 -0.026065515 -0.040037964 0.0650809
-0.15347926 -0.101171054 0.0043810955 -0.066425756 -0.18729484 0.022710392 0.015975663 0.11166329
0.09114965 0.027896957 0.07477448 -0.03860238 -0.04037491 0.03055729 -0.0808982 -0.09502687
-0.05367278 0.055526834 -0.1280123 -0.007696588 -0.045682985 -0.04470002 -0.09195056 -0.060603384
-0.11013272 -0.101365015 0.05218588 -0.03624868 0.025828855 -0.067107625 -0.0236878 -0.0663323
-0.1873845 0.09187709 0.06063821 -0.03296812 0.054371875 0.079190865 0.014448782 -0.056183144
0.08374526 -0.10997796 -0.14641511 -0.05315952 -0.089683525 -0.029103076 -0.121573396 0.26194885
-0.04155641 -0.06337405 0.023762826 0.02923235 0.13341978 -0.08830947 0.03628519 0.099958345
-0.048805106 -0.04773936 -0.039064724 -0.018951958 0.04006322 0.1374006 -0.118120834 0.17532754
0.06794444 -0.0076234727 0.22450998 -0.0152122425 0.04799588 -0.12386674 0.08897418 0.08651723
-0.07516189 -0.08648945 -0.06597736 -0.06678446 0.12132883 0.12619703 0.060908835 -0.037635542
0.030032793 -0.01310084 0.11874877 0.055320624 -0.058243964 -0.029339883 0.15343042 0.05886079
0.12145115 0.086265914 -0.054115746 0.07979034 0.028532978 0.014295578 -0.077506386 -0.0031010322
-0.05353939 -0.0047772136 0.0006228813 0.020765962 -0.007846936 -0.056863043 0.038078725 -0.018210107
-0.11663851 -0.11034898 -0.04709935 0.000674869 -0.18471287 0.13788001 -0.024267895 -0.06957086
0.02248577 0.04717643 -0.10447819 -0.03380395 0.034922265 -0.007378875 -0.0040125377 0.08692842
-0.05340572 0.051373042 -0.08475145 -0.02792114 -0.10480904 -0.0119423885 0.008824416 -0.016980767
-0.049822323 0.045946896 -0.054411314 -0.008299787 0.036324132 0.080091596 -0.11704014 0.08990241
-0.119434796 0.021340035 0.03651252 0.062381156 0.022281732 -0.09554726 0.044631336 -0.0519482
-0.019665465 0.14787062 -0.042729735 0.12621303 0.06995421 0.049417865 -0.06553207 0.017195696
0.042318095 0.10049572 -0.062056947 0.13281307 -0.12812579 0.05375851 0.015121036 0.07375148
-0.030600527 -0.05460004 0.009154628 0.03477503 -0.008293963 -0.10833858 -0.13880241 0.081837036
0.033735268 -0.008061403 -0.12693983 -0.08725514 -0.020519683 0.1292325 0.067995496 0.14485137
-0.036349263 0.06392896 -0.037947483 0.006610208 0.003918428 -0.04739297 0.011122662 0.01741828
-0.11922571 -0.020188892 -0.0673769 0.05458564 0.04532886 -0.00340608 0.013951244 -0.1726112
-0.09736185 0.05699541 -0.10562067 0.0031656623 -0.0020118237 -0.024877204 0.0711414 -0.029490627
0.0632613 0.19415458 -0.11415255 -0.009872318 -0.077593334 0.030403221 -0.04223525 0.10410129
0.06029268 -0.018806936 0.021129612 0.081994735 0.019834233 0.06543228 -0.01443061 0.025719965
-0.052131705 -0.11419162 0.104159094 -0.15458053 -0.013643059 -0.013948498 -0.0014656342 0.07089718
-0.10565259 -0.07030396 0.060592078 -0.04083068 0.09226501 0.058916282 0.004550653 -0.057453208
-0.08281833 -0.15533516 -0.041905086 0.027233493 0.081108324 -0.0023424588 0.061256904 0.10779481

enc2.1.weight f4 [32]
00000000: 7d33 813f e3f2 7d3f 8799 803f 2cab 7b3f
00000010: 924f 813f a6b7 7f3f ef7e 7e3f 9d99 833f
00000020: c08e 823f b16c 7f3f d9eb 7f3f 6021 7e3f
00000030: 0bde 823f 08e3 803f 7850 833f b6a4 803f
00000040: f593 813f f953 823f 4431 813f 389b 823f
00000050: b729 803f 2554 7f3f 0371 813f 3fb0 7a3f
00000060: fbd2 813f 6585 813f 623e 7d3f 36d7 7e3f
00000070: dc37 7b3f c08c 7f3f 76e9 7e3f d74b 803f
1.0093838 0.9919874 1.0046853 0.9830806 1.0102408 0.998896 0.99412435 1.0281254
1.0199814 0.99775225 0.9996925 0.99269676 1.0224012 1.0069284 1.0258932 1.0050266
1.0123278 1.0181876 1.009316 1.0203619 1.001273 0.9973777 1.0112613 0.9792518
1.0142511 1.0118834 0.98923314 0.99547136 0.9813211 0.9982414 0.99574983 1.0023144

enc2.1.bias f4 [32]
00000000: 7f77 d43b f17d c0bb 3820 abbc 9f34 01bd
00000010: 25fb 55bc 9dd4 58ba 29cd 68bc 4f03 8fbc
00000020: 9baa 49bc 239d 89bc 9558 473c b524 58bc
00000030: 18c9 6a3c 8ebf e93b e38d a13c 85b2 a13b
00000040: 1ad9 eb3b d8f1 283c b168 8b3a 95be 963c
00000050: 7d09 10bc 1531 d93b eab5 153c 4836 11bc
00000060: 9fc4 e53c 3ae2 dc3c cc19 32bc be3c 1bbc
00000070: 6c85 8dbc 9a31 a4bc 81bc 0bbb e8c6 353c
0.0064839716 -0.0058743884 -0.020889387 -0.031544324 -0.013060366 -0.0008271428 -0.01420907 -0.017457632
-0.012308742 -0.016798561 0.012167116 -0.013192345 0.014330171 0.007133431 0.019720977 0.0049346113
0.0071975114 0.010311566 0.0010636059 0.018401423 -0.008791325 0.0066281655 0.00913761 -0.008863039
0.028047858 0.026963342 -0.010870408 -0.009474931 -0.017275535 -0.020043183 -0.0021322074 0.011094786

enc2.1.running_mean f4 [32]
00000000: 1515 3abf 4c3e 92bd 4c35 093f 0d8e d63e
00000010: 4dce 073f bff7 f23c bec7 603f aafa c43c
00000020: b5b5 243f ec08 fabd bbcd 793e 9977 103e
00000030: 6a59 a3be 3a42 8d3f ece6 81be e5b2 f93c
00000040: 1945 31bf 27dc b63d 4b3d 363f 0e01 cbbe
00000050: 181f 64be e0ea a3bf 0467 393f 1008 ea3c
00000060: f2e0 ee3e 97f6 ffbe b90b f53e 6389 393e
00000070: b6ad 54bf 5b60 21bd 740e 9e3e cab7 8abd
-0.7268842 -0.071407884 0.5359695 0.4190525 0.53049165 0.02965915 0.8780478 0.024045307
0.6433976 -0.12208733 0.24394886 0.14108123 -0.31904155 1.1035836 -0.25371492 0.030480811
-0.6924606 0.089287095 0.71187276 -0.39649242 -0.22277486 -1.2806053 0.72422814 0.028568298
0.46655995 -0.4999282 0.47860506 0.18118815 -0.8307756 -0.039398532 0.30870402 -0.06773336

enc2.1.running_var f4 [32]
00000000: ab98 f53e 5c0d b53e ec67 633e bc7b 533f
00000010: 1479 ae3e fa1e 933e fd9a 063f 4880 e73d
00000020: 8d3b a33e f664 1a3e 0e1a 163f d5bf 7b3e
00000030: 2dc5 4a3f 6f76 ab3f aa9c be3f f457 e43e
00000040: f950 0040 b3dd 133e e550 1f3f 0110 b23f
00000050: 1a84 3c3e 8473 b03e 4818 b43e 32d9 2a3f
00000060: b468 8a3e 7ff3 bf3e e9ec be3e c4f6 fa3e
00000070: 051b 803e 21a6 193e 3b54 223f f499 d73e
0.4796804 0.35361755 0.22207612 0.8261068 0.3407675 0.2873457 0.52580243 0.113037646
0.3188137 0.15077576 0.58633506 0.24584897 0.79207116 1.3395518 1.489156 0.44598353
2.0049422 0.1444004 0.6223281 1.3911134 0.18409768 0.3446313 0.35174775 0.66737664
0.27033007 0.3749046 0.37290123 0.49016392 0.25020614 0.1500478 0.63409775 0.42109644

enc2.3.weight f4 [32, 32, 3, 3]
00000000: b93b 43bd 26ae 663c cf98 133e 0e1a ec3d
00000010: 8d06 293e 10b1 a8b9 fd2c 363b c5cb ae3d
00000020: 5015 833d beb1 873d 1a2a 0b3e ec3d a93d
00000030: 7dad 82bc 7c66 2e3e 4178 ef3d 5dbb d0bd
00000040: d4f1 6b3d e6bf 7f3d 41f7 0cbc 5939 c83c
00000050: 0939 afbc c292 4fbc 8e7f e6bd e7d2 033e
00000060: 650a 87bb e34a 423d 36ad 08be 79c1 a23d
00000070: 4696 16bd aa67 c4bd 3679 ee3d 9c26 19bd
00000080: 3475 143d e075 0ebd dcc3 883d 1920 3fbd
00000090: 5f09 093d aa64 163d c014 31bd eb9f 0cbd
000000a0: e215 96bd 7729 70bd 591c b83b f9e7 8abd
000000b0: 2ce1 39be 308d 8ebd 188f 693c 7f4e 02be
000000c0: c6ca cd3d 97c5 21bd 546e 5a3d d1e7 053d
000000d0: 10a2 19bb 1d5d 5dbe 45ff 023b aca6 893d
000000e0: b1e3 a33c f721 77bd d335 903c fc12 d3bd
000000f0: bb60 e73c 354c 5fbd a855 453d d79d 923d
00000100: 5f4b 87bc 625d 8cbd 1a8f 373d 0704 df3d
00000110: 3198 033e 4566 163e 13f0 983c 75e7 d2bc
00000120: 9274 8dbb 979f b63d f8e3 0cbc 3f45 c3bc
00000130: 62cb 93bd e0ac 893d d4ed ffbd 4d80 8c3d
00000140: 3d96 b53c 9a14 91bd 726e aabc c691 523d
00000150: 3691 a23d 9e9b 823d f608 96bd eaf7 0ebd
00000160: 611b d8bd abbf 91bc fe61 8d3c d7f4 89bd
00000170: 850a 96bd 3869 4dbd 2a63 85bd 6de9 70bd
00000180: c252 643d 7bd7 76bd 0399 4abd 7eee 7dbe
00000190: 5cc0 ebbd 6f38 103d 5231 ba3b a307 823d
000001a0: 4850 873e 3735 dfbd 73d5 e2bd c8fa 5abe
000001b0: 6951 1b3e 2c9b 68bd b096 36bd d6c8 47be
000001c0: 2356 91bd 17d7 123c 3fee d03c 1c5a 65bb
000001d0: 4af4 113e 19a6 3d3d f9d8 abbc c4c4 c13d
000001e0: da21 c2bc 2b02 07bc 101e 2d3c db1e f5bc
000001f0: 5e25 8e3d f2fe 02bd 17c7 b5bb 400c 25be
00000200: 7d38 c43d 54d7 37bc dcba 1dbc 732a 52bd
00000210: b18e 313d 50b0 d63d 3d51 323d ce3d bf3c
00000220: c334 f13b bd4a df3d cfc7 ff3c 4beb b83b
00000230: 0479 d33d 9534 91bc 4ab2 353d 427e 403e
00000240: 8bfc 47bd 0fb7 d1ba b7e6 cb3d d4a3 1c3e
00000250: 0d85 bebd f9fe 313d b9a5 b2bb 20dc ac3c
00000260: 8a2b 1b3c 682e 6abe 0cde eb3d d1a1 1e3d
00000270: 9e11 47be a23c f43d c819 37bd 79fa c0bc
00000280: 16a6 cd3c 98e2 143d 8d65 b9bc 434a 723d
00000290: 3cef 7ebd ff9d 1e3e dd45 d7bc f0e2 b3bd
000002a0: 92eb 8ebd 65d5 49bd 11c6 eb3c b5b6 88bc
000002b0: fdd0 a83d 53c4 cc3d da75 273e 6304 233e
000002c0: cb32 553d 6522 8ebd e282 bbbd 22b8 c23d
000002d0: 01e1 a8bc ea17 6b3d b4a9 01be 5e24 8dbd
000002e0: a097 ac3c 9154 09be 1b65 57bd 0234 18be
000002f0: b50b 91bd ed74 c0bd 1c46 bcbd f4ad ee3c
00000300: 82bf 88be acfd 4e3b d450 123d 17e4 f9bc
00000310: 92bf 27bd 767f 433d b042 a6bd 555a a83a
00000320: 74df f3bd cfe2 aa3d f36b 9abd 0f82 043e
00000330: 70c9 3a3a f1c4 2ebd d2eb a03c 8e9d 01bd
00000340: 82b7 fcbc d1d8 d93d 198b b5bd ecf7 44bd
00000350: 9bb9 eab9 c520 7c3c 3ccb bb3d a058 81bd
00000360: 0432 b13d 0ad2 a2bd d45d 953d c735 343d
00000370: 5ab9 17bd 4547 35bd 5f74 bdbd 6d69 213d
00000380: 933c 69bc 05a1 05bc 452c 6cbe 5c83 adbc
00000390: 93a7 47bc cdd2 0ebd 76bb d13d bdc7 923d
000003a0: df96 5fbd c2c6 a6bd b0b0 063d 981d 9e3d
000003b0: 3bff 9c3d 4620 4a3d 0c83 103d ceb3 4dbc
000003c0: 3dc6 2fbe 249c 063e bb05 a3bd c514 2a3e
000003d0: 5b09 8fbc 106b 9dbd f139 933d 4170 c43d
000003e0: ed6f debd 5308 95bc f6c8 163c d2ff 88bd
000003f0: b450 8c3d a8dd d23c 6a59 ffbc 17f4 643d
-0.047664378 0.014079606 0.1441376 0.11528407 0.16506405 -0.0003217538 0.0027797811 0.0853496
0.064005494 0.066256985 0.13590279 0.08263764 -0.015951866 0.17031282 0.116928585 -0.10191987
0.057603672 0.062438868 -0.008603872 0.024441408 -0.021389501 -0.012669267 -0.11254798 0.12873422
-0.004121112 0.0474347 -0.13347325 0.07947058 -0.036764406 -0.09590085 0.11644213 -0.037390336
0.036244586 -0.034780383 0.06677982 -0.04666147 0.033456203 0.036717094 -0.04323268 -0.034332197
-0.073283926 -0.058633294 0.0056186137 -0.067825265 -0.18152303 -0.06960523 0.014255308 -0.12725256
0.100484416 -0.039495077 0.053327873 0.03269178 -0.0023442544 -0.21617551 0.0019988578 0.06721243
0.020006033 -0.060335126 0.01760379 -0.10306355 0.028244367 -0.054516036 0.04817739 0.07159012
-0.016515432 -0.06853749 0.044814207 0.1088944 0.12851025 0.1468745 0.018669164 -0.025745133
-0.004316875 0.08917158 -0.008599274 -0.02383673 -0.072165266 0.067224264 -0.12496534 0.06860409
0.022166366 -0.070840076 -0.020804618 0.05140855 0.07937853 0.06377338 -0.07325928 -0.034904398
-0.10552097 -0.01779159 0.01725864 -0.067361526 -0.07326225 -0.050149173 -0.06513055 -0.058816362
0.055742987 -0.060264092 -0.04946233 -0.24798009 -0.11511299 0.03521007 0.005682149 0.06349113
0.26428437 -0.10898822 -0.110758685 -0.21384728 0.15167774 -0.05678861 -0.0445773 -0.19510207
-0.070965074 0.008962414 0.02550423 -0.0034996336 0.14253345 0.04630098 -0.020977484 0.09461358
-0.023697782 -0.008240263 0.0105662495 -0.02992194 0.06940721 -0.031981416 -0.005547415 -0.16117954
0.09581087 -0.011220772 -0.00962707 -0.051310014 0.04334897 0.10482848 0.043534506 0.0233449
0.007361026 0.10902927 0.031223206 0.0056432835 0.10325816 -0.017725268 0.044359483 0.18798164
-0.048824828 -0.001599999 0.09956115 0.1529687 -0.09302721 0.04345605 -0.0054518846 0.021101058
0.00947083 -0.22869265 0.115169615 0.03872854 -0.19440314 0.11925627 -0.04470232 -0.023556935
0.02510361 0.03634891 -0.022631431 0.059152853 -0.06223987 0.15489958 -0.02627843 -0.08783519
-0.06978525 -0.049275775 0.028780969 -0.016688684 0.08242986 0.099983834 0.1635355 0.15919642
0.052050393 -0.06940154 -0.09155823 0.09507777 -0.020615103 0.057395853 -0.12662393 -0.06891702
0.021068394 -0.13411166 -0.052586656 -0.1486359 -0.07082311 -0.09397302 -0.0919306 0.029135682
-0.2670861 0.0031584306 0.035721615 -0.03050427 -0.04095418 0.047728978 -0.081181884 0.0012844304
-0.11907855 0.083440416 -0.07540121 0.12940238 0.00071253534 -0.042668287 0.019643698 -0.031644396
-0.030849222 0.106370576 -0.088644214 -0.048088 -0.00044770245 0.015388672 0.09169623 -0.06315732
0.08652118 -0.07950218 0.07293287 0.0439966 -0.037042 -0.04425742 -0.09250712 0.039407182
-0.014235633 -0.008156066 -0.23063762 -0.021180801 -0.012185949 -0.034869004 0.102408335 0.07167003
-0.05458724 -0.08143379 0.032883346 0.07720488 0.07665869 0.049347185 0.035281226 -0.012555076
-0.17165466 0.131455 -0.079600774 0.16609485 -0.017460516 -0.07686436 0.07188786 0.09591723
-0.10861192 -0.018192446 0.009203186 -0.06689419 0.068513304 0.02574046 -0.031170566 0.055896845

enc2.4.weight f4 [32]
00000000: 6905 813f c723 823f cf96 803f dded 793f
00000010: b0a4 7c3f 05a8 803f 9514 7b3f 774a 7b3f
00000020: 305c 7e3f bbda 7c3f bbcb 783f 3149 7e3f
00000030: 9b1f 803f 7265 7f3f 619a 843f 415f 7a3f
00000040: 16b6 7c3f 538e 7d3f a464 7a3f 6e11 813f
00000050: d737 7f3f 9928 7d3f fa2f 803f aacb 803f
00000060: 1438 833f 3d19 7d3f 12fc 7b3f 99d0 803f
00000070: db65 823f c359 823f 5e53 823f 519f 7f3f
1.0079776 1.0167168 1.0046023 0.97628576 0.98688793 1.0051275 0.9807828 0.981605
0.99359417 0.98771256 0.9718587 0.9933043 1.0009645 0.9976417 1.0359613 0.97801596
0.9871534 0.99045295 0.97809815 1.0083444 0.9969458 0.9889007 1.0014641 1.0062153
1.0251489 0.98866636 0.98431504 1.0063659 1.0187334 1.0183643 1.0181692 0.9985247

enc2.4.bias f4 [32]
00000000: 5e1b 2e3b 9668 e53c c812 ca3b 1a57 35bc
00000010: 27e5 a4bc d4ff 4dbb acfa cebc 32b1 293c
00000020: 57d3 0abc 90f2 dcbb cdb9 15bd c2a1 00bc
00000030: 5260 863c d040 e6bc d2d7 2e3c 0c78 d43c
00000040: 9c89 c7bb a7bd cbbc a2ff 52bc 1dfb 04bb
00000050: 11c0 e9bb 9999 c4bb a89f ecba a929 c83c
00000060: 046b e3bc 35de ab3b 865f a8ba c931 7e3b
00000070: 0e5c cb3b f3f4 963c 6f75 90bc 2a30 2c3b
0.0026566605 0.028003972 0.0061667897 -0.01106813 -0.0201288 -0.0031433003 -0.025266014 0.010357188
-0.008473239 -0.006742783 -0.036554147 -0.007851066 0.016403351 -0.028107077 0.010671573 0.025936149
-0.0060894024 -0.024870707 -0.01287833 -0.0020291277 -0.007133492 -0.0059997556 -0.0018052952 0.024433928
-0.02776099 0.005244995 -0.0012845851 0.0038786998 0.006206042 0.018427348 -0.017634122 0.0026273825

enc2.4.running_mean f4 [32]
00000000: 138d 773d 7c0f 9c3c d032 3abe 18b3 573f
00000010: e31b 1ebe 3e48 033f 3cf5 eebe f542 cc3e
00000020: f57c 0d3f b113 17bf 45d1 e8be 6a25 52bf
00000030: 0b40 01bf 599f 8b3e d7f4 41bf 548a cdbe
00000040: 7a98 7cbf ebdd 803f 8d52 61bf e6e6 b7be
00000050: fd5e 72bf 32e0 9cbe f202 223f 7394 f63e
00000060: a867 1f3d 0e6e 5cbe e175 19be e9d1 f0bd
00000070: d309 0dbf b4c5 3fbf 6edd c53e 728d 12bf
0.060437273 0.019050352 -0.18183446 0.8425765 -0.15440325 0.5128211 -0.46671474 0.39894834
0.55268794 -0.5901442 -0.4547216 -0.8208834 -0.50488347 0.2727001 -0.7576422 -0.40144598
-0.9867016 1.0067724 -0.8801659 -0.3591835 -0.9467619 -0.30639797 0.63285744 0.48160133
0.038917214 -0.21526358 -0.14986373 -0.11758787 -0.55093116 -0.74911046 0.386455 -0.5724708

enc2.4.running_var f4 [32]
00000000: 7dd2 3040 9022 a93f 0e02 5240 d2d3 0640
00000010: df13 403f 473a 2e3f 6a2f a23f 89a9 8b40
00000020: 4114 8b3f 7caf 0440 e4ce 0440 e5a8 413f
00000030: 376b 6e3f d54e 483f 91dd 4e3f 6a07 0640
00000040: 9fee 1140 4fdd 883f e039 e83f 9aba a23f
00000050: 22b6 d63f abbf 963f d03b 0f40 6dd7 fc3f
00000060: 401b 493f bec9 2440 f676 853f af32 853f
00000070: fa53 0f40 3a85 c43f aa86 443f d861 353f
2.7628472 1.3213673 3.2813754 2.1066785 0.7503032 0.68057674 1.267072 4.364445
1.0865556 2.0732107 2.0751276 0.7564834 0.93132347 0.7824529 0.80806834 2.0942025
2.2801893 1.0692538 1.8142662 1.2713196 1.6774333 1.1777242 2.2380257 1.9753243
0.78557205 2.5748134 1.0426929 1.0406092 2.2395005 1.5353158 0.7676798 0.7085242

bottleneck.0.weight f4 [64, 32, 3, 3]
00000000: daa7 9cbc a53c 813d ef71 6cbd 47c7 8d3d
00000010: 7443 b23d 7f48 0fbd 3309 c73d eae5 153b
00000020: 1960 10bd 56bd 863d 9de4 19bd 9bde 533d
00000030: cd0b 71bd 263e dd3c 7392 9a3d bc68 a3bd
00000040: 20da 193e bbb4 0e3d 6bd7 34bc 46ef df3d
00000050: d9eb acbd d632 e93b a720 893c fed4 62bd
00000060: 33d0 02bd 835c 53bd 9e84 bcbd 7c67 9ebd
00000070: f6b1 6dbd 8042 02be 1d55 2b3d 53ed 8f3d
00000080: 212b 5dbd 57da 673c c6fb 733d 0fed 26bc
00000090: 0b6e fb3d 2a43 cf3d 58ff 193d bb21 54bd
000000a0: 8b65 20bd 8774 f93b 90ef 0abd aa4f 99bd
000000b0: cc7c 77bd cd81 a5bd c778 943d a6b3 afbd
000000c0: b36b 19be 6cf3 39bc e0ff 97bc a78b 0abe
000000d0: fe95 8fbc c8b3 ac3d d874 fbbc b592 71bd
000000e0: 8b48 0ebd 654e 173e 748c 5a3d 75cd 013d
000000f0: 50c0 fabb e1ea b03c 24a3 14bc 7cef 60bd
00000100: 01a4 d43c 5a1c 483d a885 e13a 4f1a 46bd
00000110: 5bd5 663c 283b b2bc bf4f 0fbb 8275 863d
00000120: 7ccb d3bd a0ca 40bd db65 16be 8221 2a3d
00000130: 035e 733b b3c9 363d b190 55bb 33f1 d13d
00000140: d06e 633d 4b97 e63d 5659 6ebd ecf0 083d
00000150: 4043 e73c ee41 2bbd 96c8 01bd 23a3 cdbc
00000160: 3f35 d7bc 077d 19bc ade7 c2bd 0088 19be
00000170: 0f63 a2bd eeb4 6f3d c98f ddbd 096c 963d
00000180: a26b 213a d1f1 2abd 944e 083b c711 c1bb
00000190: d29d 593c f296 2dbe 62e9 a1bc 5262 253d
000001a0: 5b81 5f3d 6517 07be 0f37 b83c 6464 89bd
000001b0: e627 bc3c 9f99 cfbc 1af4 c03c 0443 a1ba
000001c0: ff65 543c b868 873d 79aa 81bd ba78 443c
000001d0: 9c4c a6bd 94cf 0f3d 9e7e bdbd 6dc0 11bc
000001e0: 8799 b63c af99 173d ccb2 123d 9aa6 2abc
000001f0: 6800 9b3d cb9a 383d 527b 6c3c 6fa2 823c
00000200: 4099 d53c f3f9 833d 742b a93d 158a 8c3d
00000210: e073 d53d 2f0e 41bc f149 86bc 1552 ae3d
00000220: b567 22bd 1930 b0bc 3d84 323d 22f0 733c
00000230: 0645 0fbd 8dba 1a3e d896 373d 86ce 22bd
00000240: a187 d1bc e6c4 f33d 5dc3 9dbc dbc4 04bd
00000250: 84b2 a23c 1218 173e 2b03 103c ad89 bd3c
00000260: 290b 163b 5175 833d 58f5 d53c 52a5 b9bd
00000270: 4ea4 013e d8d0 903d 249d db3d 635a 923b
00000280: e713 b4bd b807 493d 8f6a d8bb ee87 423d
00000290: 27c8 993d d84b c7bd e649 7b3d f819 40bd
000002a0: f929 bcbc 1bb2 a8bc 7f31 823d 5254 d93c
000002b0: a2ce 1fbd 8d6a 053e a485 f13b 6aca 183d
000002c0: 074f 133d c6fe 2e3d ceee 303d 587f 05bd
000002d0: 7839 b5bc be53 a43c 8a3d b43c 06d4 c5bb
000002e0: 54c4 073c deba 42bd ff7f fabc 59b7 253d
000002f0: fd75 0f3e 9e9b e6bc dc8b 4ebc 9f0e b03d
00000300: 9c5e 0f3d 6456 4b3d 9cbf 303c 8863 05bb
00000310: ee3a 12bd 6758 26bc 9036 78bc 467b bcbc
00000320: cac2 c13c cf28 aebc 63fb a8bd 7412 1f3e
00000330: 700a dabd 9cd7 d1bd 05ac d9ba d147 963c
00000340: 9dd0 13bc b00a 3f3c 51fd 623d adbb 48bc
00000350: 7553 de3c 03c3 aa3d bc2a 9bbc 263a b5bd
00000360: 167d 0cbc b829 113d 291e d43d 1e52 0cbd
00000370: 2fa5 12bd 158e e93c 14d6 8bbd 7937 c9bc
00000380: c25b c53d 29fc 7bbd 9bc3 7d3c 0bff bc3d
00000390: 5d67 7fbd 9ff2 ff3c 123b 9a3d 6115 a7bb
000003a0: 9310 c7bd 81cd 35bd 5186 3d3d 50e4 27bd
000003b0: 05e6 a03d 0b6f ad3c d505 8dbd e442 b6bd
000003c0: 8758 a8ba db33 bd3c 1d28 903c 8683 5c3d
000003d0: f0c4 b23d 5e30 b0bd 789a 28ba ba70 373e
000003e0: 9fb0 843d c175 9eba a9e0 133c 5df0 3abd
000003f0: 602e 8a3d c4d0 63bd 5a40 08be da44 c53d
-0.019123007 0.06310395 -0.057725843 0.06922775 0.08704272 -0.034981247 0.097185515 0.0022872635
-0.035247896 0.06579082 -0.03757154 0.051725965 -0.058849145 0.027007174 0.07547464 -0.07978961
0.15024614 0.034840327 -0.011037688 0.1093431 -0.08443422 0.007116656 0.016739203 -0.055378906
-0.031936835 -0.051601898 -0.09204982 -0.07734582 -0.058031045 -0.1272068 0.041829217 0.07027688
-0.05399621 0.014151177 0.05956628 -0.010188355 0.122768484 0.101202324 0.03759703 -0.05178998
-0.03915934 0.007612768 -0.03391987 -0.07485898 -0.06042175 -0.08081398 0.07249599 -0.08579187
-0.1498249 -0.01134954 -0.018554628 -0.13529836 -0.017527577 0.08432728 -0.030695364 -0.0589778
-0.03473715 0.14775999 0.053356603 0.03169008 -0.00765232 0.021596374 -0.009072099 -0.05491589
0.02595711 0.048855163 0.001720597 -0.048364934 0.014088954 -0.021756724 -0.00218676 0.065653816
-0.10341546 -0.04706824 -0.14687292 0.04153586 0.0037134893 0.04462595 -0.0032587464 0.10251083
0.0555256 0.112593256 -0.058190666 0.033432886 0.02823031 -0.041810922 -0.031685434 -0.025102204
-0.026270507 -0.009368188 -0.09516845 -0.14993286 -0.0792905 0.058522157 -0.108184405 0.07344825
0.0006157701 -0.04173452 0.002079879 -0.005892012 0.013282256 -0.16952112 -0.019764606 0.04037697
0.054566722 -0.13192518 0.022487191 -0.06708601 0.022968244 -0.025341807 0.023553897 -0.0012303297
0.012963771 0.066117704 -0.06331343 0.011991674 -0.08120081 0.03511007 -0.09252666 -0.008895976
0.022290004 0.0370118 0.035815045 -0.0104156975 0.07568437 0.045069497 0.014433699 0.015946595
0.026074052 0.064441584 0.08260241 0.068622746 0.10422492 -0.011783167 -0.01639268 0.0851175
-0.039649684 -0.02150731 0.043583144 0.014888795 -0.034977935 0.15110226 0.04482159 -0.039747737
-0.025577368 0.1190279 -0.019258196 -0.0324143 0.019860514 0.14755276 0.008789818 0.023136938
0.0022894836 0.06418861 0.026117966 -0.090647355 0.12660334 0.07071084 0.107233316 0.0044663413
-0.087928586 0.049079627 -0.0066044996 0.047492914 0.07508879 -0.09731263 0.061349772 -0.046899766
-0.022969233 -0.02059274 0.06357097 0.026529465 -0.03901542 0.13028927 0.0073706675 0.037302412
0.03596404 0.04272344 0.043196492 -0.032592148 -0.02212213 0.020059463 0.022002 -0.006037238
0.008286554 -0.04754149 -0.030578611 0.040458057 0.14009853 -0.028150376 -0.012606587 0.08596539
0.035002336 0.049642935 0.010787871 -0.0020353515 -0.03570073 -0.010152913 -0.015149727 -0.023008
0.023652453 -0.021259693 -0.08251073 0.15534383 -0.10646522 -0.10246202 -0.0016607052 0.018344792
-0.009021905 0.011660263 0.055417363 -0.012251777 0.027139405 0.08337977 -0.018941276 -0.088489816
-0.008574745 0.035440177 0.10357315 -0.034258 -0.035802063 0.028510133 -0.068279415 -0.024562584
0.09636642 -0.061519776 0.0154885305 0.09228333 -0.062354434 0.03124362 0.07530798 -0.005098984
-0.09719958 -0.044385437 0.046270672 -0.04098922 0.07856373 0.021171113 -0.06885878 -0.08899477
-0.0012843766 0.023096016 0.017597253 0.053836368 0.08728969 -0.08602975 -0.0006431709 0.17914096
0.06479 -0.0012089537 0.009025731 -0.045639385 0.067471266 -0.055619016 -0.13305798 0.09632273

bottleneck.1.weight f4 [64]
00000000: 1397 823f e4a2 7c3f 2e41 7f3f c8c5 7e3f
00000010: 7674 7b3f e5ce 853f cc7f 7c3f c4d3 7e3f
00000020: 0366 7e3f bfa3 813f 3673 7e3f 5127 803f
00000030: fb65 833f 0229 7c3f 985f 823f 6209 7a3f
00000040: 7249 803f 501d 823f 5f0f 793f c3db 803f
00000050: 8dbc 803f 0742 803f bec1 7b3f d0df 7d3f
00000060: a7c0 7c3f 5f4c 813f 3b8b 803f bdad 803f
00000070: b16f 803f 7a38 7e3f 1a1d 7c3f a629 833f
00000080: 0067 803f 2d76 833f 8801 833f 1c55 7c3f
00000090: bd43 7f3f c874 7d3f 3464 7d3f 74dd 7f3f
000000a0: 2911 7b3f 94e3 793f 4e6e 7b3f 4073 833f
000000b0: 4b56 843f 6e95 793f 0725 7d3f 2de2 7e3f
000000c0: 0559 7f3f 461a 7f3f 56ae 833f ba55 803f
000000d0: bdfb 7f3f 1097 7e3f 7d52 7e3f b9a7 803f
000000e0: 22b0 7b3f 6923 7d3f d7f7 7c3f 880b 843f
000000f0: 0748 843f bd9c 813f caf3 7b3f c2f0 803f
1.0202354 0.9868605 0.9970883 0.9952054 0.9822458 1.0453764 0.986325 0.9954188
0.9937441 1.0128096 0.9939455 1.0011998 1.0265497 0.9850007 1.0185423 0.9767057
1.0022414 1.0165195 0.9728908 1.0067066 1.0057541 1.002015 0.983425 0.99169636
0.98731464 1.0101432 1.004249 1.0053021 1.0034086 0.99304926 0.98481905 1.0247085
1.0031433 1.0270439 1.0234842 0.98567367 0.99712735 0.9900632 0.9898102 0.99947286
0.9807306 0.9761288 0.98215187 1.0269547 1.0338835 0.97493637 0.98884624 0.99563867
0.9974521 0.99649465 1.0287578 1.0026162 0.999935 0.99449253 0.9934462 1.0051185
0.9831563 0.98882157 0.98815674 1.0316019 1.0334481 1.0125958 0.9841887 1.0073473

bottleneck.1.bias f4 [64]
00000000: 1651 c1bc fc8c 4e3c 0ee4 f7bb 8184 1e3c
00000010: ed2e 66bb c042 923c 51b9 18bc f8da 353c
00000020: 1107 033c c851 063c c4da 0dbb 13e4 ebbb
00000030: b0bf 3fbb 50a0 67bb e391 523c 9b48 76bc
00000040: 2748 eeba 8009 39ba 4d91 4abb 6fa4 bf3b
00000050: b987 e3bb afae 813a 2ed3 fabc f15f b2bc
00000060: 2a95 26bc 75db 8c3c 56d8 b0bc 6117 d3bc
00000070: 4693 f13b b95a a2bc 7226 94bc 5373 2b3b
00000080: 6288 333c 7043 a33a d8d6 733c 8806 a83a
00000090: 6cf7 71bc fed1 7bbc 2848 8b3c 459f 153a
000000a0: 6046 f6bb e289 66bc ad24 84bc 1ab2 903b
000000b0: 2c0e fc3c 7ae2 c7bc 30f5 3bbc 3d01 a1bc
000000c0: dafe d7b9 10a7 14bc 3c80 c9bb d99c 9bbc
000000d0: 73b1 2d3c 0d67 d4b9 dda8 68bc b318 edbb
000000e0: 50c5 a7bc 008b 4bbc fb93 54bc a0db 11bb
000000f0: 300f cab9 1b61 b6bc 14fe 29bc 1eb8 0fbb
-0.023598235 0.0126068555 -0.007565028 0.009675146 -0.0035123185 0.017854095 -0.009321527 0.0110995695
0.00799729 0.008198209 -0.0021645287 -0.0071988194 -0.0029258542 -0.0035343356 0.012852165 -0.015031959
-0.0018179462 -0.00070586056 -0.003090936 0.0058484594 -0.0069436696 0.0009893979 -0.030618276 -0.021774264
-0.010167399 0.017194489 -0.021587532 -0.025767984 0.0073722927 -0.01981865 -0.018084738 0.0026161268
0.010957809 0.0012456011 0.014882766 0.0012819329 -0.014768463 -0.01536989 0.01700218 0.0005707632
-0.0075157136 -0.01407096 -0.01613077 0.0044157626 0.030768476 -0.024399985 -0.0114720315 -0.01965391
-0.00041197875 -0.009073034 -0.00614932 -0.01899569 0.010601389 -0.0004051257 -0.014200416 -0.0072356104
-0.020479828 -0.012423277 -0.012974734 -0.002225615 -0.00038539758 -0.0222631 -0.010375518 -0.002192981

bottleneck.1.running_mean f4 [64]
00000000: c001 223f 5941 163f bdd1 4abf 76e4 20bf
00000010: 4ed2 bdbf 84e9 8e3e 71f0 8bbf 32be 903f
00000020: c46d 4a3f 27c3 85bf c188 efbe 00b5 0d3f
00000030: abfd 69bf 1cb0 aabe 585c 903d fb7b 513f
00000040: 6c8a 083f 7212 943f 308a b6bf 6678 72bf
00000050: cf1a d93e e782 1abf 08e3 15bf 7dc0 09bd
00000060: 512f e9be 57fe 8cbf 8fb9 333f 7a25 883e
00000070: 3d9f 323f 5cb9 ba3e 2242 2fbf 29c6 a3bf
00000080: 9ebe 97bf e4d1 a5be b556 8dbe 1f7e 6c3f
00000090: a911 813f 9d8c b63e 576a a83f 72ea 5abe
000000a0: a790 563f d860 4abe cffd d7be c4b4 823e
000000b0: 9efd 62be 85cd ffbe 5faa 843d 72d9 1b3f
000000c0: 51b3 56bf 5b59 673e cb3e 11bf eac5 923e
000000d0: f8d0 cebf 7226 08be bb58 f3be 57b0 793f
000000e0: 8cab abbf 0f8f 88bf e1af ec3e cf7b 7fbe
000000f0: b4f3 b63d 7ec1 323e 9325 ab3e 8238 92bf
0.6328392 0.5869346 -0.79226285 -0.62848604 -1.4829805 0.27912533 -1.0932752 1.1308043
0.7907374 -1.0450181 -0.46784022 0.5535431 -0.9140269 -0.33337486 0.07048863 0.81829804
0.53336215 1.1568129 -1.4260921 -0.94714963 0.42403266 -0.6035599 -0.5854955 -0.033630837
-0.45543912 -1.1015118 0.70205015 0.26591092 0.6977423 0.36469543 -0.68460286 -1.2794849
-1.1855047 -0.32386696 -0.27605215 0.92379946 1.0083514 0.35654154 1.3157452 -0.21378496
0.8381447 -0.19763505 -0.42185828 0.25528538 -0.2216706 -0.49961486 0.06477808 0.6087867
-0.83867365 0.2259268 -0.5673644 0.2866662 -1.6157522 -0.13295916 -0.47528633 0.975347
-1.3411727 -1.0668658 0.46227935 -0.24949573 0.089332014 0.17456624 0.33427104 -1.1423495

bottleneck.1.running_var f4 [64]
00000000: 69a3 fd3e 9ec4 ea3f 5d7d 9b3f bc35 ce3f
00000010: 975e 2f40 1f46 5d3f 4a6d 0f40 05a7 ce3f
00000020: 3f58 2340 2de2 1d40 86e6 b93e 7e46 283f
00000030: d961 623f 5989 a03f 7c6e 1a3f 6809 903f
00000040: 7280 c13f b2e5 be3f 622d 0440 0168 4d40
00000050: 9e78 1d3f f451 3440 36bd 1140 5efa 693f
00000060: feb5 ca3f 8c36 ac3f 769f 6c3f 844d f43e
00000070: 258b ca3e 5c7d 043f d917 f43f 6e73 b03f
00000080: 9d88 d43f 661a 3a3f 2e27 1f3f 7f4c d13f
00000090: 7695 df3f 8181 a23f 22b2 3a40 dbfd 353f
000000a0: aba4 3f3f f8c8 743f 8355 113f 9155 cc3e
000000b0: 67d8 313f 3382 ab3e 87d1 2c3f b3ee 473f
000000c0: 2fe1 da3e 36de 253f 9a34 3d3f cdb6 a23f
000000d0: be4f 1940 e03b a63f c6d4 f83e 1657 9b3e
000000e0: 9dd4 d73f 2ea5 3240 8fbc e23e b73c 0a3f
000000f0: ba6e a63e 7604 153f a36d a43f 157a 863f
0.49538735 1.8341253 1.2147633 1.6110148 2.7401483 0.8643512 2.2410455 1.614472
2.552261 2.4669297 0.36308688 0.6573256 0.88430554 1.2541915 0.60324836 1.125287
1.5117323 1.4913847 2.06527 3.209473 0.6151217 2.817502 2.2771735 0.91397655
1.583679 1.3454146 0.9243082 0.4771539 0.39559284 0.51753783 1.9069778 1.3785226
1.6604191 0.7269653 0.6216916 1.635147 1.7467487 1.2695771 2.9171224 0.7109048
0.7486064 0.95619154 0.56771106 0.39909032 0.6947083 0.33497772 0.67507213 0.780986
0.42749926 0.6479219 0.7390839 1.2712036 2.395492 1.2987022 0.48599833 0.3033988
1.686176 2.7913318 0.44284484 0.53998893 0.32506353 0.5820993 1.2845958 1.0506006
