experiments_multi/Brain_Tumor_Segmentation_Separate_Train_Val_20260208_103839/checkpoint_epoch_5.pth (torch, 494517 bytes, 56 tensors)

enc1.0.weight f4 [16, 4, 3, 3]
0	0xbd25508d	-0.040360022
1	0x3daf4b3a	0.0855927
2	0x3d8048ac	0.06263861
3	0xbcce5a51	-0.02518955
4	0x3b8fdb97	0.004390191
5	0xbd97ce6c	-0.07412419
6	0x3d3969f8	0.045267075
7	0x3e7c08b4	0.24612695
8	0xbe53bb88	-0.20677006
9	0x3d66f6d9	0.056387756
10	0x3db13f6d	0.08654676
11	0xbe2af05c	-0.16693252
12	0x3e2d678e	0.16934034
13	0x3e05b035	0.13055499
14	0x3ca835ee	0.020533528
15	0xbd4f4e99	-0.050612066
16	0xbcaeac7f	-0.021322487
17	0x3dc9275c	0.0982196
18	0xbdbbddb5	-0.09173147
19	0xbe34412c	-0.17602986
20	0x3d1465de	0.03622996
21	0xbe1f91cb	-0.1558296
22	0x3ca167db	0.019702842
23	0xbdf500e8	-0.119630635
24	0x3d3d0adc	0.046152934
25	0x3e4afe39	0.19823541
26	0x3b9b2a5d	0.0047352747
27	0x3e4cda3d	0.20005126
28	0x3b4aa0b4	0.003091854
29	0xbd7c7ec4	-0.06164433
30	0x3e6e47c0	0.23269558
31	0xbe602f57	-0.21893059
32	0xbd043632	-0.032278247
33	0x3dc46bf1	0.09590901
34	0xbc5dc4b7	-0.01353567
35	0xbdb96be1	-0.090537794
36	0xb9c3765e	-0.0003728149
37	0xbd26fffe	-0.040771477
38	0x3d35d3a3	0.044391286
39	0x3df7d269	0.121006794
40	0x3e12ba73	0.14328937
41	0x3d617332	0.0550415
42	0x3db9a0ac	0.09063849
43	0xbd7aeaef	-0.061259206
44	0x3d993bef	0.074821346
45	0xbc925a98	-0.017865464
46	0xbdd9fa92	-0.106434956
47	0xbdc7eaed	-0.097616054
48	0x3e27f88c	0.16403407
49	0x3e237a9c	0.1596474
50	0x3e09daf3	0.13462429
51	0x3afc4e66	0.0019249439
52	0x3e074d1c	0.13213009
53	0xba5a68b0	-0.00083316397
54	0xbcc5e3e1	-0.024156513
55	0x3dbe7508	0.09299666
56	0xbdffd252	-0.12491287
57	0xbd6e0845	-0.058113355
58	0x3d138303	0.036013614
59	0xbdc5ba1a	-0.09654637
60	0xbe842100	-0.25806427
61	0x3d8af24d	0.067844965
62	0x3d9b9db9	0.075984426
63	0xbcb1c843	-0.021701938
64	0xbe24e675	-0.16103537
65	0xbdfe4ada	-0.124166206
66	0xbd7753cf	-0.06038266
67	0xbde173ac	-0.11008391
68	0x3e4367cb	0.19082563
69	0xbd16fcf2	-0.03686232
70	0x3e90ca4d	0.28279343
71	0xbdedd180	-0.116122246
72	0x3d7c0733	0.061530303
73	0x3d1edd95	0.038785536
74	0xbdb5fb9b	-0.088858806
75	0x3bd879a1	0.006606296
76	0xbdd8d315	-0.10587136
77	0x3d85b76e	0.06529127
78	0xbd3914b7	-0.04518577
79	0xbd95d458	-0.07315892
80	0xbe027b70	-0.127424
81	0xbc52ee3a	-0.01287418
82	0x3e192199	0.14954223
83	0xbe3e6589	-0.1859342
84	0x3e17ddd5	0.14830716
85	0xbd51ae0f	-0.051191386
86	0xbdc2f9fe	-0.095203385
87	0xbd1f4847	-0.03888729
88	0xbe1647e4	-0.14675862
89	0x3de96f6b	0.113982044
90	0xbe0e47ba	-0.13894549
91	0xbe01dc5f	-0.12681721
92	0x3c8ee88b	0.01744487
93	0x3dfd94c6	0.12381892
94	0x3a8d5be4	0.0010784832
95	0x3e88b857	0.2670314
96	0x3ccb7579	0.024836289
97	0xbe422105	-0.18957908
98	0xbe4a5b07	-0.19761287
99	0xbcb349a5	-0.021885702
100	0xbd248294	-0.04016359
101	0x3da2bbd8	0.079459846
102	0xbe5b102b	-0.21392886
103	0xbdfa2d85	-0.122157134
104	0x3e3d673b	0.1849641
105	0xbd3ad222	-0.045610555
106	0x3da0cda8	0.07851726
107	0xbc4e5316	-0.012593051
108	0x3ce0af1c	0.027427249
109	0xbe58dcd8	-0.21177995
110	0xbdf3a64c	-0.11896953
111	0xbd8bea85	-0.068318404
112	0xbd5f1f2f	-0.0544731
113	0xbd17cc78	-0.03706023
114	0x3dcd334f	0.10019552
115	0xbd8d8fae	-0.0691217
116	0x3d3b09c4	0.04566361
117	0x3c1eb167	0.009685851
118	0x3e4bb099	0.19891585
119	0x3da3ceb9	0.079984136
120	0xbe00551c	-0.12532467
121	0x3e70faec	0.23533219
122	0xbdce1743	-0.100630306
123	0x3e172655	0.14760716
124	0x3e853e75	0.26024213
125	0x3def2c15	0.1167833
126	0x3d8fed23	0.07027652
127	0x3e7c7e52	0.24657562
128	0xbdb4c514	-0.08826652
129	0xbdd5730e	-0.104223356
130	0x3e35d3b6	0.17756543
131	0xbd8195f7	-0.06327432
132	0xbe36e191	-0.17859484
133	0xbe818562	-0.25297076
134	0x3d7a2176	0.061067067
135	0x3ce7031d	0.028199727
136	0x3d20602b	0.039154213
137	0xbd26402b	-0.04058854
138	0x3ce1d59b	0.027567675
139	0xbe503325	-0.2033201
140	0x3d0b30b4	0.033981994
141	0xbd7ec56b	-0.06219999
142	0x3deea843	0.11653187
143	0xbd2d06ef	-0.04224294
144	0xbd8f2e89	-0.06991298
145	0x3d66cb0a	0.056345977
146	0xbd1efdd4	-0.038816288
147	0xbeb1fd53	-0.34763584
148	0xbdd5c2b6	-0.10437529
149	0x3d6c2267	0.057649996
150	0xbe192f29	-0.14959396
151	0x3d074cac	0.033032104
152	0x3dc10fa3	0.094268106
153	0xbcfb0d69	-0.030646043
154	0x3e21d9a9	0.15805687
155	0xbc2dfe19	-0.010619664
156	0x3e2f26c1	0.17104627
157	0xbdad4185	-0.084597625
158	0x3dc5c43e	0.09656571
159	0xbe4f9621	-0.20272113
160	0x3b4863ae	0.0030576992
161	0xbcb671d1	-0.022271069
162	0x3c6217a5	0.013799583
163	0x3da02d7b	0.07821175
164	0xbdcc50b7	-0.09976333
165	0x3d70376b	0.0586466
166	0x3e04dd07	0.1297494
167	0x3dcb614e	0.09930669
168	0xbd763f99	-0.060119245
169	0x3e2ef4cc	0.1708557
170	0xbb64acbc	-0.0034892997
171	0xbe905be5	-0.2819511
172	0x3e2916a7	0.16512547
173	0xbd01a7e7	-0.031654265
174	0xbe139d82	-0.14415553
175	0x3da942d1	0.08264697
176	0xbd9e6b58	-0.07735318
177	0x3e4379fb	0.190895
178	0x3d95a1ed	0.073062755
179	0x3dedb2a9	0.11606342
180	0x3dba0150	0.090822816
181	0xbd6cd27c	-0.05781792
182	0x3d7aed79	0.061261628
183	0x3ca5ba9d	0.020230586
184	0x3dbd7509	0.09250838
185	0xbe151e7b	-0.14562409
186	0xbdc502b3	-0.096196555
187	0x3e83d7a1	0.2575045
188	0x3dc9a6ab	0.098462425
189	0xbc4eca03	-0.012621406
190	0xbe328d0f	-0.17436622
191	0x3bbade9c	0.0057028066
192	0xbcd6f765	-0.026241014
193	0xbd9516d0	-0.07279742
194	0x3daadf25	0.08343343
195	0x3d1a37aa	0.03765074
196	0x3dc78c2b	0.09743532
197	0xbd5db1e0	-0.054124713
198	0x3e9100bf	0.28320882
199	0xbe57a5a0	-0.21059275
200	0x3d18e259	0.037325237
201	0x3e8ec099	0.27881315
202	0x3e581400	0.2110138
203	0xbd264f57	-0.040603008
204	0xbd9dba72	-0.07701577
205	0x3d843bf5	0.064567484
206	0xbcbbebd5	-0.022939602
207	0xbda12ca8	-0.07869846
208	0x3decda92	0.115651265
209	0x3e2bec98	0.16789472
210	0x3d8381f6	0.064212725
211	0xbdd5750f	-0.10422718
212	0xbd2552ae	-0.040362053
213	0xbdaf817a	-0.085696176
214	0x3cd5dc47	0.026106013
215	0xbd82d457	-0.06388157
216	0x3d0e1683	0.034689438
217	0x3e68b61c	0.22725719
218	0x3d8199c0	0.063281536
219	0x3c2ed479	0.010670775
220	0xbd28dc2e	-0.041225605
221	0xbe19c687	-0.15017138
222	0x3d877a5d	0.06615136
223	0xbd373d65	-0.044736285
224	0xbc824a7e	-0.015904661
225	0xbd9944f6	-0.074838564
226	0xbd957d5d	-0.07299302
227	0x3ddd0f8a	0.107939795
228	0xbdaa264c	-0.08308086
229	0xbde7f577	-0.113261156
230	0x3e83df09	0.257561
231	0x3d51b856	0.051201187
232	0xbd9b4ce0	-0.07583022
233	0xbd6ff8bf	-0.058586832
234	0xbcaf1304	-0.021371372
235	0x3d884e69	0.066555806
236	0xbd56bb51	-0.052424733
237	0x3e209b82	0.15684322
238	0xbad28bf5	-0.0016063439
239	0xbe171aaf	-0.14756273
240	0x3da1cec9	0.07900769
241	0x3e1b5710	0.1516993
242	0x3e4d2bf6	0.20036301
243	0x3cb5638b	0.022142192
244	0x3ddd7904	0.108140975
245	0xbdb2ece7	-0.08736592
246	0x3c73ee20	0.014888316
247	0x3e017e6f	0.12645887
248	0x3d03df1a	0.032195188
249	0xbd9893ce	-0.074500665
250	0x3e21299b	0.15738527
251	0x3d165a4f	0.03670722
252	0xbc9545a4	-0.018221684
253	0x3e53a0d5	0.20666821
254	0x3d07cb2e	0.03315275
255	0xbdac7312	-0.084203854

enc1.1.weight f4 [16]
0	0x3f8146cc	1.009973
1	0x3f80c176	1.005904
2	0x3f80b2b0	1.0054531
3	0x3f809a58	1.0047102
4	0x3f7fc1a5	0.99904853
5	0x3f7da5be	0.9908103
6	0x3f7e4849	0.9932905
7	0x3f8071b9	1.0034705
8	0x3f7e2ea9	0.9928995
9	0x3f813d7e	1.0096891
10	0x3f8053d7	1.0025586
11	0x3f7d8d6b	0.9904391
12	0x3f817da9	1.0116473
13	0x3f825820	1.0183144
14	0x3f7fd8c5	0.9994014
15	0x3f835bf2	1.0262434

enc1.1.bias f4 [16]
0	0x3c1889ec	0.009310227
1	0x3c27afe3	0.010234806
2	0x3bb8945f	0.0056329216
3	0xbb09c744	-0.0021023313
4	0xbb835838	-0.004008319
5	0x3ba07bd2	0.004897573
6	0x3bc3df51	0.005977549
7	0x3bb810ca	0.005617236
8	0x3c23c86f	0.009996518
9	0x3ca86ade	0.02055877
10	0x395d787c	0.00021121086
11	0x3bdeae50	0.006795682
12	0x3c586506	0.01320768
13	0x3c955e94	0.018233575
14	0xbcaf3861	-0.021389188
15	0x3ce5f2cf	0.028069882

enc1.1.running_mean f4 [16]
0	0x3d66ccd0	0.05634767
1	0x3d9f1f57	0.077696495
2	0xbde27918	-0.11058253
3	0x3d215c6f	0.039394792
4	0xbc0d5bbf	-0.008627831
5	0x3dd3a903	0.10334971
6	0x3deecf2e	0.1166061
7	0x3e6dcfd7	0.23223816
8	0x3df291a5	0.11844186
9	0x3e24eb3c	0.1610536
10	0x3c9646d4	0.01834432
11	0xba67c909	-0.0008841907
12	0xbcc2e21d	-0.02378946
13	0xbe32eb38	-0.17472541
14	0xbd3fbe12	-0.046812125
15	0xbd4975bd	-0.04918455

enc1.1.running_var f4 [16]
0	0x3c58dd7e	0.013236402
1	0x3cd8c4b1	0.026460977
2	0x3d24010d	0.040040065
3	0x3c19f608	0.009397037
4	0x3bbac2ee	0.005699507
5	0x3d15d299	0.036577795
6	0x3d4297fc	0.047508225
7	0x3e35ed98	0.17766416
8	0x3d66bc03	0.056331646
9	0x3dd53fce	0.104125604
10	0x3b60c26f	0.003429558
11	0x3b01f00a	0.0019826912
12	0x3b4ae5b7	0.0030959675
13	0x3dde3dab	0.10851606
14	0x3c6bdaa9	0.014395394
15	0x3c21948b	0.009862076

enc1.3.weight f4 [16, 16, 3, 3]
0	0xbca83019	-0.020530747
1	0x3e5ef385	0.21772583
2	0xbc57c12f	-0.013168617
3	0x3d9f2089	0.077698775
4	0x3c17fd43	0.009276691
5	0x3d765fa5	0.060149807
6	0x3db9133f	0.09036874
7	0xbd5896d6	-0.052878223
8	0x3d912d5f	0.07088732
9	0xbdc2c2fe	-0.09509848
10	0x3d9a1fad	0.07525573
11	0x3d9c9e04	0.076473266
12	0xbd1745d3	-0.036931824
13	0x3cffc820	0.031223357
14	0xbe09caf6	-0.1345633
15	0x3c9d5251	0.01920429
16	0xbe79794f	-0.24362682
17	0xbd7606c0	-0.06006503
18	0x3e3c2496	0.18373331
19	0xbdb661a8	-0.08905345
20	0x3d82c93d	0.063860394
21	0xbe130b0a	-0.1435968
22	0xbe1d6fe0	-0.15374708
23	0x3db539b2	0.08848895
24	0x3c91fad6	0.017819803
25	0xbc7eb521	-0.015546114
26	0x3d295d06	0.04134848
27	0xbbeecca0	-0.007287577
28	0xbd9a8ccc	-0.07546386
29	0x3cff9f96	0.031204026
30	0x3e4327ac	0.19058102
31	0x3e364635	0.1780022
32	0x3c8e29d7	0.017353935
33	0x3e049ecc	0.12951201
34	0xbd041bdc	-0.03225313
35	0xbdef11b1	-0.11673296
36	0x3cbd5ce4	0.023115583
37	0xbe525aa3	-0.20542388
38	0xbc4830f8	-0.012218706
39	0xbe386d3d	-0.18010421
40	0xbc4bc89a	-0.012437964
41	0xbcd27b77	-0.025693638
42	0xbd93e6b1	-0.07221735
43	0xbd2dd802	-0.04244233
44	0xbb30c1e7	-0.0026971044
45	0xbc6bdb3c	-0.014395531
46	0x3e3ef88c	0.186495
47	0xbd6c3ac1	-0.05767322
48	0xbd47447e	-0.048649304
49	0xbd1e5ba1	-0.038661603
50	0xbe82bf3d	-0.25536528
51	0x3c66fd0f	0.01409842
52	0xb9f7a2af	-0.0004723272
53	0xbd17f447	-0.037098195
54	0xbc0f0151	-0.008728341
55	0x3c0d7a1f	0.008635073
56	0x3e96118e	0.29310268
57	0xbe2569b6	-0.16153607
58	0xbb08393d	-0.002078607
59	0xbcdf3b9b	-0.027250102
60	0xbe1f13b0	-0.15534854
61	0xbb83e400	-0.0040249825
62	0x3dbb3f77	0.09142964
63	0xbe7c3c03	-0.24632268
64	0xbe02d0ac	-0.12774915
65	0x3dadea69	0.08491976
66	0xbd886539	-0.06659932
67	0xbda94e2c	-0.08266863
68	0x3bf464fc	0.0074583273
69	0xbd5cbaf8	-0.053889245
70	0xbcf73fb5	-0.030181745
71	0x3d9f4223	0.077762865
72	0xbd10f197	-0.035386648
73	0xbd806b88	-0.0627051
74	0x3cfaa0ad	0.030594194
75	0x3b2944fd	0.0025828474
76	0xbe5421b9	-0.20715989
77	0xbdffa598	-0.124827564
78	0xbe3c101d	-0.18365522
79	0x3c53ae9c	0.012920048
80	0xbcfd8118	-0.030945346
81	0x3db6fec9	0.08935315
82	0xbc80c5cd	-0.015719319
83	0x3d764286	0.060122035
84	0x3edb1b05	0.42794052
85	0xbddbc76f	-0.10731398
86	0xbe2935b7	-0.16524397
87	0x3d823f4b	0.063597284
88	0xbe44ef33	-0.19231872
89	0xbd68db22	-0.056849606
90	0x3d9ffcb5	0.07811872
91	0xbe10785e	-0.14108416
92	0xbe8e7862	-0.2782622
93	0x3d58133a	0.05275271
94	0x3db9c412	0.090706006
95	0xbe1bd917	-0.15219532
96	0xbcaec95a	-0.021336246
97	0xbdb88fd6	-0.090118095
98	0xbc6c148c	-0.014409196
99	0xbca6e1b7	-0.020371301
100	0xbdbd1569	-0.09232599
101	0x3dec6539	0.11542744
102	0x3dd75909	0.10515029
103	0x3e1353cd	0.14387436
104	0x3e0aec92	0.13566807
105	0x3e4a702f	0.19769357
106	0xbc795bd9	-0.015219652
107	0xbd976e16	-0.07394044
108	0xbdc0a63f	-0.09406709
109	0xbdd71311	-0.105016835
110	0xbe639baf	-0.22227357
111	0x3e056cf0	0.13029838
112	0x3ebe673e	0.37188143
113	0xbd107a5e	-0.03527295
114	0x3d8ea60a	0.06965263
115	0xbe089801	-0.13339235
116	0x3d88b9d7	0.06676071
117	0x3e3aa444	0.18226725
118	0xbc161792	-0.009160893
119	0x3ceb5e4d	0.02873149
120	0xbd80abcc	-0.06282768
121	0x3d930fdf	0.071807615
122	0x3d7ecf5b	0.06220947
123	0xbdeb9f48	-0.1150499
124	0x3e07ee91	0.132746
125	0xbe1a6cc6	-0.15080556
126	0xbb827439	-0.00398114
127	0xbdceb504	-0.1009312
128	0xbdde2646	-0.10847144
129	0x3d50a320	0.050936818
130	0x3e106fd9	0.14105166
131	0x3d16ddbc	0.036832556
132	0x3d3c434f	0.045962628
133	0x3e236442	0.15956214
134	0x3e066270	0.13123488
135	0xbca10d14	-0.019659556
136	0xbe41712d	-0.1889083
137	0x3c9c10fd	0.01905107
138	0x3d93967c	0.07206437
139	0x3db30218	0.08740634
140	0xbda23cd0	-0.07921755
141	0xbdb71aca	-0.089406565
142	0x3e414cdf	0.1887698
143	0x3e3fa11f	0.18713807
144	0xbc902ed7	-0.01760046
145	0xbdc61760	-0.09672427
146	0x3c7d565f	0.015462487
147	0x3d0e611a	0.034760572
148	0x3cdc9ce2	0.026930276
149	0x3e3f6fc8	0.18694985
150	0x3cff1993	0.031140124
151	0xbea3c7d8	-0.31988406
152	0xbddeb7a8	-0.108748734
153	0xbc194098	-0.009353779
154	0xbd11da1a	-0.03560839
155	0x3cad7667	0.021174623
156	0xbc2bb1ee	-0.010479433
157	0xbd016209	-0.031587634
158	0xbd279f50	-0.040923417
159	0x3db8b141	0.090181835
160	0xbdd92b76	-0.10603993
161	0x3d4b27b0	0.049598396
162	0xbd7dbd29	-0.061947975
163	0xbe20ce75	-0.15703757
164	0x3d2632ff	0.040575977
165	0xbe08a3d5	-0.13343747
166	0x3d9bc8a6	0.0760663
167	0xbdb3a1d8	-0.087711036
168	0x3d886ec1	0.0666175
169	0x3da67779	0.08128256
170	0x3ccf95c9	0.025339978
171	0xbdcea675	-0.10090343
172	0x3e9fb487	0.3119242
173	0xbe762fcf	-0.24041675
174	0x3de6a416	0.11261766
175	0xbdb32e37	-0.08749049
176	0x3c6ac58b	0.0143293245
177	0x3c8c5b19	0.017133282
178	0x3d07e08d	0.033173133
179	0xbe610902	-0.21976092
180	0x3c13804e	0.009002758
181	0xbd870c95	-0.06594197
182	0xbe2d3770	-0.16915679
183	0xbe13111e	-0.14361998
184	0x3cde2636	0.02711783
185	0x3df8d4c3	0.12149956
186	0xbd2e6c67	-0.04258385
187	0x3e0a3cb6	0.13499722
188	0xbd0ebcb1	-0.03484792
189	0xbdc2f2d3	-0.09518971
190	0xbe1bee59	-0.15227641
191	0x3cc439c2	0.023953322
192	0xbd2d75cd	-0.04234867
193	0xbca98dcb	-0.020697495
194	0xbe2bc322	-0.16773656
195	0x3d8b4739	0.06800694
196	0xbe1ddb30	-0.15415645
197	0xbd6ee066	-0.05831947
198	0xbc6f0ef9	-0.014590972
199	0x3de0c98d	0.10975943
200	0xbdb8733b	-0.090063535
201	0xbd7a75c4	-0.061147466
202	0xbe8587af	-0.2608008
203	0xbb6d4ab7	-0.0036207864
204	0x3d825d0f	0.06365406
205	0x3d798378	0.060916394
206	0x3e2882ba	0.16456118
207	0x3d1faa30	0.038980663
208	0xbd9a5c32	-0.07537116
209	0xbcd6e2d2	-0.026231203
210	0xbd4f813c	-0.050660357
211	0xbd89e2de	-0.067327246
212	0x3dd2fb3a	0.10301824
213	0xbdad1bd2	-0.08452572
214	0x3e3b06eb	0.18264358
215	0xbdde3d72	-0.108515635
216	0xbdf67aff	-0.120351784
217	0xbdfdf035	-0.123993315
218	0xbd8f7eae	-0.07006584
219	0xbe17946d	-0.14802714
220	0x3e04c8b8	0.12967193
221	0x3e152ead	0.14568587
222	0x3d4606ec	0.048346445
223	0xbce0b85b	-0.027431658
224	0xbe8227b1	-0.25420907
225	0xbd9c7302	-0.076391235
226	0xbe10bd2f	-0.14134668
227	0x3c81a295	0.015824595
228	0x3e005374	0.12531835
229	0x3c460600	0.012086391
230	0x3da42ef5	0.08016769
231	0x3e8355ab	0.25651297
232	0xbd81b478	-0.0633325
233	0x3c9ad2d1	0.018899353
234	0xbd2e71df	-0.042589065
235	0xbe0a5b06	-0.13511285
236	0x3e0f2f5f	0.13982914
237	0xbd405c14	-0.046962813
238	0x3e10223c	0.1407556
239	0xbe24ed27	-0.16106091
240	0x3dac38cc	0.08409271
241	0xbd289328	-0.041155964
242	0xbda8c72b	-0.08241113
243	0xbd99a342	-0.07501842
244	0xbdbe7ee5	-0.09301547
245	0xbc0aceda	-0.008472169
246	0xbdabe85e	-0.0839393
247	0xbda1dd6e	-0.079035625
248	0xbdf024c6	-0.11725764
249	0x3e524952	0.20535782
250	0x3db6e04d	0.08929501
251	0xbcd5b61d	-0.026087815
252	0x3e419c38	0.18907249
253	0x3cd34fbc	0.025794856
254	0xbd4cb648	-0.049978524
255	0x3dcc8aad	0.09987388

enc1.4.weight f4 [16]
0	0x3f7d686d	0.98987466
1	0x3f812146	1.0088279
2	0x3f7f97d1	0.9984103
3	0x3f7dffb2	0.99218285
4	0x3f7ae0d5	0.97999316
5	0x3f7ef926	0.9959892
6	0x3f7f3ecd	0.997052
7	0x3f81385b	1.0095323
8	0x3f80dd35	1.0067507
9	0x3f7c5176	0.985618
10	0x3f7e76ed	0.99400216
11	0x3f805465	1.0025755
12	0x3f7b5e6c	0.9819095
13	0x3f8019f9	1.0007926
14	0x3f7ce699	0.98789364
15	0x3f801428	1.0006151

enc1.4.bias f4 [16]
0	0xbb6634f7	-0.0035126784
1	0x3c039ad6	0.008032521
2	0xbbe61ac4	-0.0070222337
3	0x3c064e2a	0.008197347
4	0xbb94e970	-0.0045444295
5	0xbbdd4829	-0.006752987
6	0x3bed2212	0.0072367275
7	0xbbd45300	-0.006479621
8	0x3caae31c	0.020860247
9	0xbc5e6bba	-0.013575489
10	0x3ba3d907	0.005000237
11	0x3b90f1a6	0.004423338
12	0xbc9e3f67	-0.019317342
13	0xbb89ec63	-0.0042090877
14	0xbbb44321	-0.0055011665
15	0x3c3f3530	0.011670396

enc1.4.running_mean f4 [16]
0	0xbe5fc915	-0.2185405
1	0xbf38ced4	-0.72190595
2	0x3eef3488	0.46719766
3	0xbeb79c8d	-0.35861626
4	0xbe39c1c7	-0.18140326
5	0xbf7259f7	-0.94668525
6	0xbf37b9a4	-0.7176764
7	0x3c57a2e0	0.013161391
8	0x3f16d19f	0.58913606
9	0xbeae7901	-0.34076694
10	0xbeb15bb5	-0.3464028
11	0xbe833c2a	-0.2563184
12	0xbe9f0674	-0.3105961
13	0x3fa3ac87	1.2787026
14	0xbf7bbf9d	-0.98339254
15	0x3e536ae0	0.20646238

enc1.4.running_var f4 [16]
0	0x3fa60b18	1.2972136
1	0x3fb309ec	1.3987403
2	0x3f7c2305	0.98490936
3	0x3f5e763d	0.8689917
4	0x3f339a5f	0.70157427
5	0x3f571980	0.84023285
6	0x4007f809	2.1245139
7	0x3f7f84fc	0.99812293
8	0x40807bfc	4.015135
9	0x3f01b7b1	0.50670916
10	0x3e92d6e5	0.28679577
11	0x3ef9e64a	0.4880851
12	0x3f8e5612	1.1120017
13	0x3f6f3bbb	0.93450516
14	0x3e0e6a34	0.13907701
15	0x3fb3e330	1.4053707

enc2.0.weight f4 [32, 16, 3, 3]
0	0xbe008cdf	-0.12553738
1	0x3d90dc7f	0.07073306
2	0xbe3361d1	-0.17517783
3	0x3d3710ac	0.044693634
4	0xbd8581d3	-0.06518903
5	0x3d842b14	0.06453529
6	0xbd1ae86f	-0.037819322
7	0xbdcf860f	-0.101329915
8	0xbe03a137	-0.12854467
9	0xbc810897	-0.015751166
10	0xbd94a6bf	-0.07258367
11	0xbe3e4282	-0.18580058
12	0xbdfe2b61	-0.124106176
13	0xbcafbfef	-0.021453826
14	0xbd0b4328	-0.033999592
15	0x3d93d5fb	0.07218548
16	0xbe13bb5d	-0.14426942
17	0xbdcd1ec3	-0.10015633
18	0x3b135c48	0.0022485424
19	0xbd73fec5	-0.05956914
20	0xbe287ca3	-0.16453795
21	0x3c4fdad7	0.012686453
22	0x3c438525	0.0119336
23	0x3df9fbcf	0.12206232
24	0x3db73e1d	0.08947394
25	0x3cc0f1cb	0.023552796
26	0x3d926ba9	0.07149441
27	0xbcbf4b8c	-0.023351453
28	0xbcd0bd7b	-0.025480976
29	0x3d1d9bc6	0.038478635
30	0xbd78c9e3	-0.06073941
31	0xbda62e05	-0.08114246
32	0xbd4a80bc	-0.049439177
33	0x3d960237	0.07324641
34	0xbded29fc	-0.115802735
35	0xba8dd303	-0.0010820333
36	0xbd2282a4	-0.03967537
37	0xbd25f8da	-0.040520526
38	0xbdca8214	-0.09888092
39	0xbd59dc52	-0.05318863
40	0xbddbbc23	-0.107292436
41	0xbde272cf	-0.11057054
42	0x3d65bf02	0.056090362
43	0xbd0d8228	-0.034547955
44	0x3cb89933	0.022533989
45	0xbd89b4bd	-0.06723926
46	0xbce67896	-0.028133672
47	0xbda59785	-0.08085541
48	0xbe39e8de	-0.18155238
49	0x3dbb0eba	0.09133668
50	0x3d6c21a0	0.057649255
51	0xbca05f17	-0.019576592
52	0x3d76d020	0.060257077
53	0x3db45a77	0.08806317
54	0x3c5d2792	0.013498204
55	0xbd6dfa16	-0.05809983
56	0x3d9f2804	0.07771304
57	0xbde05e81	-0.10955525
58	0xbe152483	-0.1456471
59	0xbd5e739f	-0.054309484
60	0xbdaf1302	-0.08548547
61	0xbccb3ad7	-0.02480833
62	0xbdf7ed76	-0.12105839
63	0x3e7ea760	0.24868536
64	0xbd5ddbc2	-0.054164656
65	0xbd923ac8	-0.07140118
66	0x3ca1b44c	0.019739293
67	0x3cbbb70e	0.022914436
68	0x3e031e5d	0.12804551
69	0xbdb1cd69	-0.08681757
70	0x3d1ccb73	0.03827996
71	0x3dca1dcc	0.098689646
72	0xbd57e038	-0.052704066
73	0xbd3a9e46	-0.045561098
74	0xbd103b1a	-0.035212614
75	0xbcb04bd9	-0.021520542
76	0x3d27e264	0.040987387
77	0x3e0f136c	0.13972253
78	0xbdf2609e	-0.118348345
79	0x3e3431cf	0.17597125
80	0x3d8b61cb	0.06805762
81	0xbb832812	-0.0040025795
82	0x3e60e81d	0.21963544
83	0xbc8c9cef	-0.017164676
84	0x3d52f537	0.051503386
85	0xbdf6bae6	-0.12047367
86	0x3db772f6	0.08957474
87	0x3ddacc3e	0.10683487
88	0xbd715f16	-0.05892857
89	0xbd9f0980	-0.07765484
90	0xbd9a90e1	-0.07547165
91	0xbdb1d835	-0.08683816
92	0x3dcb2917	0.09919947
93	0x3e00a61d	0.12563367
94	0x3d5f207c	0.05447434
95	0xbd443379	-0.04790065
96	0x3cd97bcb	0.026548287
97	0xbc2021aa	-0.009773651
98	0x3dfee5fe	0.12446211
99	0x3d3186e9	0.04334155
100	0xbd7d8d37	-0.06190225
101	0xbcdd1f55	-0.02699248
102	0x3e196d6e	0.1498315
103	0x3d65c057	0.056091633
104	0x3dff9109	0.12478835
105	0x3dc431e6	0.0957983
106	0xbd40a779	-0.047034714
107	0x3dba6020	0.09100366
108	0x3cfcf20d	0.030877138
109	0x3c890c50	0.016729504
110	0xbd9c9e2a	-0.07647355
111	0x39c6839d	0.00037863562
112	0xbd5099ea	-0.050928034
113	0xbb548621	-0.003242858
114	0x3bb133fb	0.005407808
115	0x3cc4db3e	0.024030324
116	0xbc054458	-0.00813397
117	0xbd659c81	-0.056057457
118	0x3d402103	0.046906482
119	0xbb7af610	-0.0038293637
120	0xbdeeb4ac	-0.11655554
121	0xbdd7b994	-0.10533443
122	0xbd1e4b00	-0.038645744
123	0xbaf9e0cc	-0.0019064187
124	0xbe3dbbd1	-0.18528678
125	0x3e0ecdb1	0.13945653
126	0xbcb204e3	-0.021730846
127	0xbda15585	-0.0787764
128	0x3bf04f80	0.007333696
129	0x3d368979	0.044564698
130	0xbde80294	-0.11328617
131	0xbd64af8e	-0.055831484
132	0x3d1a2653	0.037634205
133	0xbc471102	-0.012150051
134	0xbc805540	-0.01566565
135	0x3dc71822	0.097214
136	0xbd423ae2	-0.047419436
137	0x3d4fab52	0.050700493
138	0xbd936a2e	-0.071979865
139	0xbca2fc69	-0.01989575
140	0xbdcea13c	-0.10089347
141	0x3b2f16c4	0.002671645
142	0x3c943814	0.018093146
143	0xbc542634	-0.012948561
144	0xbd332fd8	-0.0437468
145	0x3d3487be	0.044074766
146	0xbd61abe2	-0.05509556
147	0xbb83a24d	-0.0040171505
148	0x3d071f53	0.032988857
149	0x3da49f97	0.08038252
150	0xbde4a851	-0.11164916
151	0x3dc24740	0.09486246
152	0xbdeff14b	-0.11715945
153	0x3cd6ce69	0.02622147
154	0x3d2b80d3	0.041870903
155	0x3d8a8dd5	0.067653336
156	0x3ce5c6af	0.028048841
157	0xbdb91fdf	-0.09039282
158	0x3d3e5378	0.04646632
159	0xbd449a28	-0.047998577
160	0xbc92c46c	-0.017915927
161	0x3e1b84f3	0.15187435
162	0xbd557784	-0.052115932
163	0x3dd5dfe1	0.10443092
164	0x3d3d92d0	0.04628259
165	0x3d002705	0.031287212
166	0xbdb96fa6	-0.090544984
167	0x3bfc851b	0.007706297
168	0x3cea943a	0.028635133
169	0x3db4148d	0.08792982
170	0xbd44f8e6	-0.04808893
171	0x3e0b42c7	0.13599692
172	0xbdfc9c74	-0.123345286
173	0x3d791cb1	0.060818378
174	0x3c86c7aa	0.01645263
175	0x3d9c71cc	0.076388925
176	0xbcd39a0d	-0.025830293
177	0xbd4bfc47	-0.049801137
178	0x3c818df9	0.015814768
179	0x3d19c3fa	0.037540413
180	0xbbda2920	-0.0066577345
181	0xbdda88dc	-0.10670635
182	0xbe0655ea	-0.13118711
183	0x3db3225c	0.08746788
184	0x3d337e4a	0.04382161
185	0xbbe67c40	-0.0070338547
186	0xbdf06d97	-0.117396526
187	0xbd991323	-0.07474353
188	0xbd021ae4	-0.031763926
189	0x3e0ccaec	0.13749284
190	0x3d8c38ff	0.06846809
191	0x3e19d051	0.15020873
192	0xbcbaf5cb	-0.022822281
193	0x3d8825eb	0.06647857
194	0xbd2f9aaa	-0.04287211
195	0x3c98fb45	0.018674502
196	0x3bf29b3f	0.0074037607
197	0xbd556afd	-0.052103985
198	0x3c92f451	0.017938765
199	0x3ce16aa0	0.027516663
200	0xbddbbbc8	-0.10729176
201	0xbc3f9943	-0.011694255
202	0xbd78b67d	-0.06072091
203	0x3d76b4da	0.060231067
204	0x3d53beb9	0.05169556
205	0x3b5fb1de	0.0034133117
206	0x3c96ec52	0.018423233
207	0xbe29a7d9	-0.16567935
208	0xbdca0464	-0.09864119
209	0x3d657add	0.056025375
210	0xbdd46682	-0.10371114
211	0xbc02545e	-0.007954685
212	0xbb952c6b	-0.004552414
213	0xbc832c33	-0.016012287
214	0x3d8a452d	0.067514755
215	0xbcf2828a	-0.029603262
216	0x3d73bbcd	0.059505273
217	0x3e41d98a	0.18930641
218	0xbdf70235	-0.12060968
219	0xbc66a334	-0.014076997
220	0xbda81ea7	-0.082089715
221	0x3ce0004d	0.027343893
222	0xbd4035a2	-0.04692615
223	0x3dced7a4	0.10099724
224	0x3d7750ab	0.060379665
225	0xbc0f1686	-0.008733397
226	0x3ce8bd6b	0.028410634
227	0x3da8d7d7	0.08244293
228	0x3d080dec	0.033216402
229	0x3d957662	0.0729797
230	0xbc2bfef8	-0.010497801
231	0x3d215c2c	0.039394543
232	0xbd3692c2	-0.044573553
233	0xbdd125a7	-0.1021226
234	0x3dea648a	0.114449576
235	0xbe17f4bb	-0.14839451
236	0xbc8043fc	-0.015657417
237	0xbb95ed10	-0.004575379
238	0xbb9354a1	-0.0044961725
239	0x3d727c18	0.059200376
240	0xbdc96d81	-0.09835339
241	0xbdc2f7cd	-0.095199205
242	0x3d1ec538	0.0387623
243	0xbce37beb	-0.02776905
244	0x3dd26a82	0.10274221
245	0x3d8567dc	0.0651395
246	0x3c99f929	0.018795567
247	0xbd3ac050	-0.04559356
248	0xbd9c9055	-0.07644717
249	0xbe140015	-0.14453156
250	0xbce8cd50	-0.028418213
251	0x3d0ce4a9	0.034397755
252	0x3dae58a5	0.08513001
253	0xbb5a19bc	-0.00332795
254	0x3d6b0552	0.05737812
255	0x3de6e25d	0.11273644

enc2.1.weight f4 [32]
0	0x3f822c7e	1.0169828
1	0x3f7ec692	0.99521744
2	0x3f80244d	1.0011078
3	0x3f7cde7f	0.98777
4	0x3f806b09	1.0032665
5	0x3f80123d	1.0005566
6	0x3f7d5ced	0.9896992
7	0x3f82033a	1.0157235
8	0x3f82f60c	1.0231338
9	0x3f7d8fe1	0.99047667
10	0x3f802a40	1.0012894
11	0x3f7d446d	0.98932534
12	0x3f81d8e7	1.0144318
13	0x3f81a58b	1.0128645
14	0x3f832207	1.0244759
15	0x3f818080	1.011734
16	0x3f81f2df	1.0152243
17	0x3f8063d8	1.003047
18	0x3f80e0c2	1.0068591
19	0x3f82df0b	1.0224317
20	0x3f7eb4b9	0.9949451
21	0x3f80b2f0	1.0054607
22	0x3f816824	1.0109906
23	0x3f7c213e	0.98488224
24	0x3f80e387	1.0069436
25	0x3f80a7dd	1.0051228
26	0x3f7e1e34	0.99264836
27	0x3f7f3b10	0.996995
28	0x3f7e48bb	0.9932973
29	0x3f7d5bc9	0.9896818
30	0x3f7fe18b	0.99953526
31	0x3f8087f7	1.0041493

enc2.1.bias f4 [32]
0	0x3bc933fc	0.00614023
1	0xbaa1318f	-0.0012298095
2	0xbb3fc970	-0.0029264353
3	0xbc6cf2da	-0.014462197
4	0xbc1de134	-0.009636212
5	0x399984f5	0.00029281495
6	0xbc0a296a	-0.008432725
7	0x3b605d24	0.0034235204
8	0xbb841c20	-0.004031673
9	0xbc8b3797	-0.01699428
10	0x3c5b45ed	0.013383371
11	0xbc285547	-0.010274238
12	0x3c17e355	0.009270509
13	0x3c41acae	0.011820955
14	0x3c9ea86f	0.019367425
15	0x3c5c1d3e	0.013434706
16	0x3c56df12	0.013114708
17	0x3b8f01f2	0.0043642456
18	0x3b4221dc	0.0029622233
19	0x3ca97a59	0.020688223
20	0xbc03a35c	-0.008034553
21	0x3c3ecc1d	0.011645344
22	0x3c432e30	0.011912867
23	0xbb4cae14	-0.0031231688
24	0x3cbdecfa	0.023184288
25	0x3cac4db4	0.021033145
26	0xbbfde6a2	-0.007748441
27	0xbb6b4fcf	-0.0035905724
28	0x3a2756d0	0.00063834805
29	0xbca80461	-0.0205099
30	0x3b01f4c5	0.0019829732
31	0x3c4a83ee	0.012360556

enc2.1.running_mean f4 [32]
0	0xbf20768e	-0.626809
1	0xbd3c6dde	-0.046003215
2	0x3e939ec1	0.28832057
3	0x3eaa5c4e	0.33273548
4	0x3eb20c3d	0.34774962
5	0xbcda3214	-0.026635207
6	0x3f61ce90	0.88205814
7	0xbc12e234	-0.008965064
8	0x3e31a27a	0.17347136
9	0xbde2655e	-0.110544905
10	0x3e931f8e	0.28735012
11	0xbd8e7d88	-0.06957537
12	0xbeae308c	-0.34021413
13	0x3f7ff642	0.99985135
14	0xbed08ce2	-0.40732485
15	0x3d9203c0	0.071296215
16	0xbf2d0419	-0.6758438
17	0x39cfffe8	0.00039672782
18	0x3f3aa11d	0.7290209
19	0xbebbacb6	-0.36655205
20	0xbe2e8af0	-0.17045188
21	0xbf945f98	-1.1591673
22	0x3effde78	0.49974418
23	0x3e3162e2	0.17322877
24	0x3efea137	0.49732372
25	0xbf0488d3	-0.5177128
26	0x3f146cbc	0.57978415
27	0x3e39d161	0.18146278
28	0xbf2db85f	-0.6785945
29	0xbe95ecda	-0.29282266
30	0x3e8585c9	0.26078632
31	0xbd979d25	-0.0740302

enc2.1.running_var f4 [32]
0	0x3f04004f	0.5156297
1	0x3eee78cb	0.46576533
2	0x3e61bc29	0.22044434
3	0x3f792b03	0.97331256
4	0x3e923b88	0.28561044
5	0x3e9eb5d3	0.30998096
6	0x3f58dd79	0.8471294
7	0x3dc5d3b7	0.09659522
8	0x3e8ee6d9	0.27910498
9	0x3e014a14	0.12625915
10	0x3f1fbca3	0.6239721
11	0x3e6a002b	0.22851627
12	0x3f525a64	0.82169175
13	0x3f8f6b95	1.1204706
14	0x3fd6c4fe	1.6778867
15	0x3eb9c99d	0.3628663
16	0x3fc99755	1.5749308
17	0x3e79aa31	0.24381329
18	0x3f1dcb66	0.61638486
19	0x3f9c9504	1.2232976
20	0x3e7d3731	0.24728085
21	0x3e908ff7	0.28234836
22	0x3e8bf06a	0.2733186
23	0x3f74f3a3	0.9568426
24	0x3e8e7490	0.27823305
25	0x3ec886b7	0.3916528
26	0x3eb548f8	0.35407233
27	0x3eac1292	0.33607918
28	0x3e7606c8	0.24026024
29	0x3e0238e3	0.12717013
30	0x3f28c9e9	0.6593309
31	0x3edacfcf	0.4273667

enc2.3.weight f4 [32, 32, 3, 3]
0	0xbd60811e	-0.054810636
1	0x3c1c12af	0.009525939
2	0x3e0eaa76	0.13932213
3	0x3dddf57f	0.1083784
4	0x3e229a7a	0.1587924
5	0xbc145949	-0.00905449
6	0xbb9589bd	-0.004563539
7	0x3d9100db	0.07080241
8	0x3d567ecf	0.052367028
9	0x3d84d089	0.064850874
10	0x3e028dd6	0.12749419
11	0x3d9cf6a8	0.076642334
12	0xbce4ff95	-0.027953902
13	0x3e2663f4	0.16249067
14	0x3debbcf7	0.115106516
15	0xbde142f9	-0.10999102
16	0x3d663fce	0.056213193
17	0x3d79ba5f	0.060968753
18	0xba9a15fe	-0.0011755822
19	0x3ce26f37	0.027640922
20	0xbca3a116	-0.019974273
21	0xba675221	-0.0008824189
22	0xbde0e164	-0.1098049
23	0x3e0a7b67	0.13523637
24	0x3a762014	0.0009388935
25	0x3d5a7401	0.053333286
26	0xbe00ceab	-0.12578838
27	0x3d92ed5f	0.07174181
28	0xbd563030	-0.05229205
29	0xbddb3ac5	-0.10704569
30	0x3de0ccea	0.10976584
31	0xbd3e32ad	-0.046435047
32	0x3d229f75	0.03970285
33	0xbd388333	-0.045046996
34	0x3d85f99f	0.06541752
35	0xbd3246f2	-0.04352469
36	0x3cb4a5a9	0.02205165
37	0x3cbcf76a	0.023067195
38	0xbd5a8cff	-0.05335712
39	0xbd0d6b65	-0.034526248
40	0xbd963979	-0.07335181
41	0xbd464d1b	-0.048413377
42	0x3c00e38b	0.0078667505
43	0xbd7ab440	-0.061207056
44	0xbe2f5eee	-0.17126057
45	0xbd87a723	-0.06623676
46	0x3cca8454	0.024721302
47	0xbdffeb7a	-0.124960855
48	0x3dd377d4	0.1032559
49	0xbd162f66	-0.036666296
50	0x3d50d02d	0.050979782
51	0x3d0bf3dc	0.03416811
52	0xba5b1341	-0.0008357056
53	0xbe59de36	-0.21276173
54	0xbc1f805d	-0.009735194
55	0x3d53d59e	0.051717393
56	0x3bd47b38	0.0064844154
57	0xbd982987	-0.07429796
58	0x3c19f728	0.009397306
59	0xbdddfdb8	-0.10839409
60	0x3ca3e896	0.020008367
61	0xbd6a9479	-0.0572705
62	0x3d2c458b	0.04205851
63	0x3d729fa8	0.05923429
64	0xba96d932	-0.0011508821
65	0xbd4f48b4	-0.050606444
66	0x3d151d8e	0.03640514
67	0x3de6a006	0.11260991
68	0x3e11ea8c	0.14249629
69	0x3e0c741d	0.13716169
70	0x3c5a2cc8	0.013316341
71	0xbcfc350b	-0.030787012
72	0x3ba9fb2c	0.0051874127
73	0x3dbfb9d1	0.093616135
74	0xbaa9e26b	-0.0012961155
75	0xbca6e37f	-0.02037215
76	0xbd8326b5	-0.06403867
77	0x3d90b2ba	0.070653394
78	0xbdf95d5d	-0.12176011
79	0x3d9cd2ad	0.07657371
80	0x3cff2a15	0.031147996
81	0xbd769f6b	-0.060210627
82	0xbc6fc16b	-0.014633517
83	0x3d47e39b	0.048801046
84	0x3dbb1ff5	0.09136955
85	0x3d9eb7c5	0.07749895
86	0xbd73b67d	-0.059500206
87	0xbcc28c5c	-0.02374857
88	0xbdc39b2b	-0.0955108
89	0xbbf1e42a	-0.0073819356
90	0x3c812ebc	0.015769355
91	0xbdaccf14	-0.084379345
92	0xbdc118cf	-0.0942856
93	0xbd68a3e1	-0.056796912
94	0xbd97ea37	-0.0741772
95	0xbd8e6e89	-0.06954677
96	0x3d5949db	0.05304895
97	0xbd858ab1	-0.06520594
98	0xbd7178e3	-0.058953177
99	0xbe76d92b	-0.2410628
100	0xbde5b6ba	-0.11216493
101	0x3d0c88c7	0.03431013
102	0x3ca66fc0	0.020316958
103	0x3da1f021	0.07907129
104	0x3e884f79	0.26623133
105	0xbdc74841	-0.09730578
106	0xbdb9810c	-0.09057817
107	0xbe4655f4	-0.19368726
108	0x3df7c861	0.12098766
109	0xbd9da80e	-0.076980695
110	0xbd76793b	-0.060174208
111	0xbe586db7	-0.21135603
112	0xbdaafd14	-0.08349052
113	0x3b94de6a	0.0045431154
114	0x3c7448a5	0.014909898
115	0xbc491341	-0.012272657
116	0x3e0f7b5a	0.14011899
117	0x3d0134c2	0.031544454
118	0xbd1ffc57	-0.03905901
119	0x3da410f1	0.08011044
120	0xbd0f8a74	-0.03504415
121	0xbc5cc792	-0.013475316
122	0x3c11a5fd	0.008889672
123	0xbd08a5b5	-0.033361156
124	0x3d87595f	0.06608843
125	0xbd181863	-0.037132632
126	0xbb6a13a5	-0.0035717275
127	0xbe255889	-0.16147055
128	0x3dbde7b3	0.09272709
129	0xbc89caeb	-0.016820392
130	0xbc665194	-0.014057536
131	0xbd4d18e2	-0.05007256
132	0x3d18155c	0.037129745
133	0x3dd1b4eb	0.102395855
134	0x3d3291ef	0.043596204
135	0x3cdfb44d	0.027307654
136	0x3b16f268	0.002303267
137	0x3dcc0542	0.0996194
138	0x3c9010e7	0.017586185
139	0xbc574c1d	-0.013140705
140	0x3dc4239a	0.09577103
141	0xbcd5ad06	-0.02608348
142	0x3d233809	0.03984836
143	0x3e3d0a49	0.18460955
144	0xbd4fd2f3	-0.050738286
145	0xbc280a84	-0.010256413
146	0x3db93a46	0.09044318
147	0x3e166417	0.14686619
148	0xbdbf0006	-0.09326176
149	0x3d33ba2a	0.04387871
150	0xbc1a33a0	-0.009411722
151	0x3ca214df	0.019785343
152	0x3be5531e	0.0069984337
153	0xbe71d1c9	-0.23615183
154	0x3deb427a	0.11487289
155	0x3d385b85	0.045009155
156	0xbe4dc36b	-0.20094077
157	0x3df78dd1	0.12087596
158	0xbd1dc75a	-0.038520195
159	0xbce8be52	-0.028411064
160	0x3ce24114	0.027618922
161	0x3d078cd2	0.03309328
162	0xbd0012f4	-0.031268075
163	0x3d4468e9	0.047951613
164	0xbd9e24d3	-0.077218674
165	0x3e1a07ce	0.1504204
166	0xbd2aac02	-0.041667946
167	0xbdc07d86	-0.09398942
168	0xbd8e5141	-0.06949092
169	0xbd73a3e0	-0.059482455
170	0x3c864a11	0.01639274
171	0xbbcfd608	-0.006342653
172	0x3db423ea	0.087959126
173	0x3dd48519	0.10376949
174	0x3e290ca6	0.16508731
175	0x3e234271	0.15943314
176	0x3d5a093a	0.053231455
177	0xbd9677e5	-0.07347087
178	0xbdbb8630	-0.091564536
179	0x3dbf2cbf	0.093347065
180	0xbc9350ac	-0.017982803
181	0x3d980e86	0.07424645
182	0xbddc6ff4	-0.10763541
183	0xbd93dfc2	-0.07220413
184	0x3ccdabd4	0.025106348
185	0xbdea5d59	-0.11443586
186	0xbd5924ac	-0.05301349
187	0xbe1952df	-0.14973019
188	0xbd85da22	-0.06535746
189	0xbdc1a348	-0.094549716
190	0xbdb4a92e	-0.08821331
191	0x3d1f7695	0.038931448
192	0xbe86ab66	-0.26302642
193	0x3c27d2a2	0.01024309
194	0x3cf80198	0.030274197
195	0xbc8cdd6e	-0.01719543
196	0xbcc56c40	-0.02409947
197	0x3d8c13d1	0.06839717
198	0xbd988ecb	-0.074491106
199	0x3a3bc082	0.000716217
200	0xbe03b714	-0.12862808
201	0x3da612f1	0.081090815
202	0xbda4697d	-0.08027933
203	0x3e080fce	0.13287279
204	0xbb106239	-0.0022031202
205	0xbd20d6bf	-0.039267298
206	0x3d01e8a0	0.03171599
207	0xbd075bb8	-0.033046454
208	0xbcecb92b	-0.028896889
209	0x3dd2821a	0.10278721
210	0xbdb61579	-0.08890814
211	0xbd44741c	-0.047962293
212	0xbb54838a	-0.0032427036
213	0x3c6177c3	0.013761464
214	0x3db867bf	0.09004163
215	0xbd83e627	-0.064403825
216	0x3db665e4	0.08906153
217	0xbdb00079	-0.0859384
218	0x3da9974e	0.08280812
219	0x3d3c17df	0.045921203
220	0xbce651b3	-0.02811513
221	0xbcf4aae7	-0.029866649
222	0xbdb14dab	-0.08657392
223	0x3d49eacf	0.049296197
224	0xbbfbebc6	-0.0076880185
225	0xbb1b7f24	-0.0023726905
226	0xbe6a5e56	-0.22887549
227	0xbca1eddc	-0.01976674
228	0xbb9c6ddc	-0.0047738384
229	0xbcf728b4	-0.030170776
230	0x3de2f718	0.11082286
231	0x3d8f9ab3	0.070119284
232	0xbd5b7e76	-0.0535874
233	0xbda40d4e	-0.0801035
234	0x3d1d5b80	0.03841734
235	0x3da6003f	0.08105516
236	0x3da54fd8	0.080718696
237	0x3d51a42e	0.051181965
238	0x3d25fe70	0.040525854
239	0xbbb5060b	-0.005524402
240	0xbe2b934f	-0.16755413
241	0x3e109322	0.14118627
242	0xbd98c3a0	-0.074591875
243	0x3e2626e5	0.16225775
244	0xbcb74c46	-0.022375237
245	0xbda11b1c	-0.07866499
246	0x3d8f2b66	0.069906995
247	0x3dc9cbe1	0.0985334
248	0xbddd5132	-0.108065024
249	0xbc8ef01a	-0.017448474
250	0x3c30640a	0.010766039
251	0xbd866b9d	-0.06563494
252	0x3d873d82	0.066035286
253	0x3cc2a470	0.02376005
254	0xbd1e5273	-0.03865285
255	0x3d5ffb60	0.05468309

enc2.4.weight f4 [32]
0	0x3f822101	1.0166322
1	0x3f820d65	1.0160338
2	0x3f81a95c	1.0129809
3	0x3f7c79c5	0.98623306
4	0x3f7ecb71	0.99529177
5	0x3f7e7755	0.99400836
6	0x3f7e2d46	0.9928783
7	0x3f7de5a6	0.9917854
8	0x3f7cba82	0.9872209
9	0x3f7f898f	0.9981927
10	0x3f7cafd2	0.9870578
11	0x3f7e353b	0.99299973
12	0x3f80b9d2	1.0056708
13	0x3f7f4f39	0.9973026
14	0x3f824275	1.0176531
15	0x3f7b15f2	0.9808036
16	0x3f7fe1ac	0.9995372
17	0x3f800f49	1.0004665
18	0x3f7ca9a7	0.9869637
19	0x3f7d8447	0.99029964
20	0x3f8044c8	1.002099
21	0x3f7e4c3b	0.9933507
22	0x3f802e3e	1.0014112
23	0x3f811832	1.0085509
24	0x3f826939	1.0188361
25	0x3f7f0924	0.9962332
26	0x3f7f1405	0.9963992
27	0x3f8015ca	1.000665
28	0x3f82a94a	1.0207913
29	0x3f8197cd	1.0124451
30	0x3f7f2b7f	0.99675745
31	0x3f80dce6	1.0067413

enc2.4.bias f4 [32]
0	0x3c5f2965	0.013620709
1	0x3c89839e	0.016786393
2	0x3c4fd679	0.012685412
3	0xbb10a26f	-0.0022069474
4	0xbba337f1	-0.004981034
5	0x3ad0530d	0.0015893892
6	0xbc9d2a77	-0.019185288
7	0x3c6568c1	0.014002026
8	0xbbc7f14c	-0.006101763
9	0xba56f164	-0.0008199422
10	0xbc908158	-0.0176398
11	0xbc04f6d6	-0.008115491
12	0x3c6a6484	0.014306191
13	0xbca0ca00	-0.019627571
14	0x3c36db03	0.011160615
15	0x3c921e41	0.017836692
16	0x3b9a3c7c	0.0047069173
17	0xbc64d971	-0.013967858
18	0xbc7253e0	-0.014790505
19	0xbc14eafc	-0.009089228
20	0x3b8b59a1	0.004252628
21	0x3b4a6dd5	0.003088822
22	0xb8bbbca1	-8.95199e-05
23	0x3c9858bb	0.018596997
24	0x3b8a2b7e	0.0042166105
25	0x3c7ae90c	0.015314352
26	0xba6d22bc	-0.00090460083
27	0xb8c570b9	-9.414688e-05
28	0x3c3fe8f7	0.011713258
29	0x3c27596a	0.010214189
30	0xbb7a9d16	-0.0038240603
31	0x3c37283b	0.011179025

enc2.4.running_mean f4 [32]
0	0x3cebcb40	0.02878344
1	0x3c8c64ea	0.017137963
2	0xbe1bf069	-0.15228428
3	0x3f2b1d2a	0.66841376
4	0xbdff5455	-0.12467257
5	0x3f04db97	0.5189757
6	0xbe4ef0a4	-0.20208985
7	0x3f0932f8	0.535934
8	0x3eef391a	0.46723253
9	0xbedaa71c	-0.4270562
10	0xbef320a9	-0.47485855
11	0xbf33929c	-0.70145583
12	0xbf27a57f	-0.654869
13	0x3e23d221	0.15998127
14	0xbf389757	-0.72105926
15	0xbea1782d	-0.31537
16	0xbf74039e	-0.9531802
17	0x3f8528dd	1.0403095
18	0xbf3d3e9a	-0.7392365
19	0xbeca7697	-0.39543602
20	0xbf490197	-0.7851805
21	0xbe7ce303	-0.24695973
22	0x3f201c71	0.625434
23	0x3f08a46a	0.53375876
24	0x3d292878	0.04129836
25	0xbe67d3bf	-0.22639368
26	0xbcb94e83	-0.022620445
27	0xbda64eee	-0.081205234
28	0xbf23503e	-0.63794315
29	0xbf10367a	-0.56333125
30	0xbce8251a	-0.028338004
31	0xbe69a634	-0.22817308

enc2.4.running_var f4 [32]
0	0x401eb451	2.4797556
1	0x3fb31c80	1.3993073
2	0x4027ef80	2.623993
3	0x3fde1a43	1.7351764
4	0x3ecc2d24	0.3987819
5	0x3f1b6bdc	0.60711455
6	0x3efe27b1	0.49639657
7	0x40858a48	4.17313
8	0x3f974ba8	1.1819963
9	0x400bcdf7	2.184446
10	0x3fb254aa	1.3932087
11	0x3f1e7548	0.61897707
12	0x3f511342	0.8167001
13	0x3f057ee2	0.5214673
14	0x3f879436	1.0592105
15	0x3fb131ce	1.3843324
16	0x3ff3551e	1.9010351
17	0x3fabcaa7	1.342122
18	0x3f985b83	1.1902927
19	0x3faed088	1.3657389
20	0x3fb7b67c	1.4352565
21	0x3f833c4b	1.0252775
22	0x4001f5a7	2.0306184
23	0x3ffb46af	1.9630946
24	0x3f78ac05	0.9713748
25	0x40105aaa	2.2555337
26	0x3fa3caf8	1.2796316
27	0x3f2324f0	0.6372824
28	0x3feeee18	1.866641
29	0x3f9e8047	1.2382897
30	0x3f1531c4	0.5827906
31	0x3f6afbed	0.9179066

bottleneck.0.weight f4 [64, 32, 3, 3]
0	0xbd0babc6	-0.034099363
1	0x3d5c50a4	0.053787842
2	0xbd81ed43	-0.06344082
3	0x3d6bdb96	0.05758246
4	0x3d9d16ae	0.076703414
5	0xbd3e9498	-0.04652843
6	0x3dbb1eb9	0.09136719
7	0xbb49e7ca	-0.0030808323
8	0xbd390e5e	-0.045179717
9	0x3d81f49f	0.06345486
10	0xbd50a91d	-0.05094253
11	0x3d193aad	0.037409473
12	0xbd9037f3	-0.070419215
13	0x3c69a194	0.014259715
14	0x3d84053a	0.064463094
15	0xbdc55738	-0.09635776
16	0x3dfd4f9e	0.123687014
17	0x3c7dc6e5	0.015489315
18	0x3b856c29	0.0040717316
19	0x3dd66b50	0.10469687
20	0xbdbbb58c	-0.09165487
21	0x3c59deb5	0.013297726
22	0x3c5550ae	0.013019724
23	0xbd97da89	-0.07414729
24	0xbc90fb92	-0.017698083
25	0xbd2bc700	-0.041937828
26	0xbdd8adc8	-0.10580021
27	0xbd913550	-0.07090247
28	0xbd49935d	-0.049212802
29	0xbdeda653	-0.116039895
30	0x3d71223e	0.058870547
31	0x3dbb9f02	0.09161188
32	0xbd124994	-0.0357147
33	0x3cc35b39	0.02384721
34	0x3d918992	0.071063176
35	0xbb0d4c29	-0.0021560288
36	0x3df1e918	0.11812037
37	0x3dbf13a4	0.09329918
38	0x3ccd21cb	0.025040528
39	0xbd41db68	-0.047328383
40	0xbd14b320	-0.03630364
41	0x3b315230	0.0027057044
42	0xbcdaa168	-0.026688293
43	0xbd90c1ff	-0.07068252
44	0xbd885c82	-0.066582695
45	0xbd8d5168	-0.06900293
46	0x3da4ac0a	0.08040626
47	0xbd866f76	-0.06564228
48	0xbdfd7b0c	-0.12376985
49	0x3ca1bf8b	0.019744655
50	0x3caf9dbb	0.021437516
51	0xbddb8435	-0.10718576
52	0x3b97bf83	0.0046309843
53	0x3dd7554c	0.10514316
54	0xbc53456c	-0.012894969
55	0xbd3e3b0b	-0.046443027
56	0xbd00b06d	-0.031418253
57	0x3e16356a	0.14668813
58	0x3d218df8	0.039442033
59	0x3ccbf66d	0.024897778
60	0xbb3c8068	-0.002876306
61	0xbc03f208	-0.00805331
62	0xbcf6c89b	-0.030124953
63	0xbd48bbce	-0.04900723
64	0x3d19a142	0.037507303
65	0x3d540acc	0.05176811
66	0x3c4dfdf4	0.012572754
67	0xbd2e820e	-0.0426045
68	0x3c1d94fa	0.009618038
69	0xbca340af	-0.019928304
70	0xbbe899d9	-0.007098418
71	0x3d54c005	0.051940937
72	0xbda4a350	-0.08038962
73	0xbcb77a2e	-0.022397127
74	0xbdff94e8	-0.124795735
75	0x3d6c0111	0.057618205
76	0x3c53b705	0.012922053
77	0x3d4e204a	0.050323762
78	0x3c43655f	0.011926024
79	0x3dcf8642	0.101330295
80	0x3d4c9cfa	0.049954392
81	0x3dda5696	0.10661046
82	0xbd51e7c1	-0.05124641
83	0x3d2449f4	0.04010959
84	0x3d24f241	0.040270094
85	0xbceeabd5	-0.02913467
86	0xbc44cd51	-0.012011842
87	0xbcd20f01	-0.02564192
88	0xbd39889f	-0.045296308
89	0xbc8be37f	-0.017076252
90	0xbdb086ad	-0.08619437
91	0xbe25968b	-0.16170709
92	0xbda2be15	-0.079464115
93	0x3d2f497c	0.04279469
94	0xbe009fc7	-0.1256095
95	0x3d67085f	0.056404468
96	0xbccfced0	-0.02536717
97	0xbd9019cf	-0.070361726
98	0xbc3f0233	-0.011658239
99	0xbc9c689a	-0.019092847
100	0x3ca37f34	0.019958116
101	0xbe3545c5	-0.17702396
102	0xbce163e3	-0.02751345
103	0x3d2a664e	0.04160147
104	0x3d403b52	0.046931572
105	0xbe1dac99	-0.15397872
106	0x3c2630bb	0.010143454
107	0xbda28590	-0.07935631
108	0x3cef2e59	0.029196905
109	0xbceddd3c	-0.029036157
110	0xba9632a2	-0.0011459182
111	0x3d05a998	0.03263244
112	0x3d001acd	0.03127556
113	0x3d985949	0.07438905
114	0xbd277a1e	-0.040887944
115	0x3c88a85c	0.016681843
116	0xbd886366	-0.06659584
117	0x3d42c706	0.047553085
118	0xbdb63053	-0.08895936
119	0xbbe77fa5	-0.007064777
120	0x3cd3713b	0.025810828
121	0x3ccdfaad	0.025143946
122	0x3d176678	0.036962956
123	0xbc7be6a8	-0.015374817
124	0x3d48c150	0.049012482
125	0x3ce04967	0.027378751
126	0x3cb79ebf	0.022414563
127	0x3cbfa783	0.023395305
128	0x3d1d1fa9	0.03836027
129	0x3d3237c2	0.043510206
130	0x3d5e1fa2	0.054229386
131	0x3d43f2c7	0.047838952
132	0x3dc4c44b	0.096077524
133	0xbcf64940	-0.030064225
134	0xbcf859eb	-0.030316314
135	0x3d8fa010	0.070129514
136	0xbd8f03e7	-0.06983166
137	0xbd311d43	-0.043240797
138	0x3d19385a	0.037407257
139	0xba800041	-0.0009765701
140	0xbd66ca50	-0.056345284
141	0x3e2680f7	0.16260134
142	0x3d5e1ea3	0.054228436
143	0xbce63a1b	-0.028103879
144	0xbcc2bb47	-0.023770941
145	0x3e01341f	0.12617539
146	0xbc729b71	-0.014807568
147	0xbcb7ff89	-0.022460716
148	0x3d03cc12	0.03217704
149	0x3e1f068d	0.15529843
150	0x3b2b287a	0.0026116655
151	0x3c8ffa00	0.017575264
152	0xbc237210	-0.009975925
153	0x3db0e9b2	0.08638324
154	0x3d2eb467	0.042652514
155	0xbdad2c18	-0.08455676
156	0x3e186e1d	0.14885755
157	0x3da533f2	0.080665484
158	0x3de51c45	0.111870326
159	0x3c851a2e	0.016247835
160	0xbdb49511	-0.08817495
161	0x3d2ceb96	0.04221686
162	0x3b21ed23	0.0024707995
163	0x3d54c80d	0.051948596
164	0x3d9f8e77	0.07790845
165	0xbdc49501	-0.09598733
166	0x3d588a85	0.052866478
167	0xbd85b201	-0.06528092
168	0xbcdb370c	-0.026759647
169	0xbd222dc1	-0.039594416
170	0x3d17f440	0.03709817
171	0x3cbe8d57	0.023260755
172	0xbd65d0ee	-0.056107454
173	0x3de925b9	0.11384148
174	0x3c847403	0.0161686
175	0x3cc42e19	0.023947762
176	0x3c858c20	0.016302168
177	0x3d229603	0.039693844
178	0x3c8f0101	0.017456533
179	0xbd794e0c	-0.060865447
180	0xbc7188f7	-0.014742128
181	0x3c995aab	0.018719992
182	0x3c6d533d	0.014485178
183	0xbc08897a	-0.008333558
184	0xbbbd39b1	-0.0057746996
185	0xbd8f1c8b	-0.06987866
186	0xbce2869e	-0.027652081
187	0x3d104901	0.035225872
188	0x3e000189	0.12500586
189	0xbd1ea233	-0.038728904
190	0xbc9c8646	-0.019106995
191	0x3d943332	0.07236327
192	0x3cdedc9c	0.027204804
193	0x3d1683c4	0.036746755
194	0xbc266e6b	-0.010158162
195	0x3bbdeca6	0.005796033
196	0xbd0d11d7	-0.03444084
197	0xbc94a572	-0.018145297
198	0xbb2f3bfe	-0.002673864
199	0xbc5eba87	-0.013594276
200	0x3ca40acb	0.020024678
201	0x3b7a0c46	0.0038154288
202	0xbd82b1bb	-0.06381556
203	0x3e1ee194	0.15515739
204	0xbdc82939	-0.097734876
205	0xbdbcd508	-0.0922032
206	0xbb0b3b49	-0.0021245054
207	0x3c227121	0.009914667
208	0xbc2718d3	-0.01019879
209	0x3af6136e	0.0018774101
210	0x3d622d7f	0.05521917
211	0xbbd48a51	-0.006486215
212	0x3cbcb1fc	0.023034088
213	0x3da74cd8	0.08168954
214	0xbc5d1606	-0.01349402
215	0xbdb99cc2	-0.09063102
216	0x3cc9b0dd	0.024620468
217	0x3d53be41	0.051695112
218	0x3dc1a054	0.09454408
219	0xbc4bb57c	-0.012433406
220	0xbd374c84	-0.044750705
221	0xbc74a22f	-0.014931246
222	0xbd322e58	-0.043501228
223	0xbcf32fbf	-0.029685853
224	0x3d55f1c7	0.05223253
225	0xbd9268dc	-0.071489066
226	0xbb02fc59	-0.0019986837
227	0x3da2ffb4	0.07958928
228	0xbd9bbe8d	-0.07604704
229	0x3cb6902e	0.022285547
230	0x3d8ece52	0.06972946
231	0xbc2fdd7f	-0.010733961
232	0xbdcd4de5	-0.10024623
233	0xbd2bff03	-0.041991245
234	0x3c696cd8	0.014247142
235	0xbd7a1ed2	-0.06106455
236	0x3d969984	0.073534995
237	0x3c94b3ae	0.018152084
238	0xbd8b5941	-0.06804133
239	0xbdb164c7	-0.086618
240	0xbc6cbf8d	-0.014449966
241	0x3c8a45d3	0.016878998
242	0x3c3d3929	0.011549273
243	0x3d612106	0.054963134
244	0x3dacf36e	0.08444868
245	0xbdbb8072	-0.091553584
246	0xbb1baa78	-0.002375273
247	0x3e2f03de	0.17091319
248	0x3d357050	0.044296563
249	0xbbe00664	-0.0068366993
250	0xbbbb29c7	-0.0057117674
251	0xbd8f8530	-0.070078254
252	0x3d5be6a9	0.05368677
253	0xbd9a74b6	-0.07541792
254	0xbe1e30d9	-0.15448321
255	0x3d9b407e	0.0758066

bottleneck.1.weight f4 [64]
0	0x3f7edd70	0.99556637
1	0x3f7fc7de	0.9991435
2	0x3f802b12	1.0013144
3	0x3f80b736	1.0055912
4	0x3f7d60c3	0.9897577
5	0x3f8482e0	1.035244
6	0x3f7cac59	0.9870048
7	0x3f8096fe	1.0046079
8	0x3f806e38	1.0033636
9	0x3f814e23	1.010197
10	0x3f7ed63e	0.9954566
11	0x3f815e71	1.0106946
12	0x3f81d389	1.014268
13	0x3f80a11b	1.0049165
14	0x3f80df5e	1.0068166
15	0x3f7df415	0.99200565
16	0x3f809bdd	1.0047566
17	0x3f827e84	1.019486
18	0x3f7eb5ba	0.9949604
19	0x3f81ce8d	1.0141159
20	0x3f800e2b	1.0004324
21	0x3f81576f	1.0104808
22	0x3f7c4e37	0.98556846
23	0x3f7e1748	0.99254274
24	0x3f818cc3	1.0121082
25	0x3f81cee5	1.0141264
26	0x3f7ea862	0.9947568
27	0x3f7cf069	0.98804337
28	0x3f7fa2ba	0.99857676
29	0x3f7e0e49	0.9924055
30	0x3f7ff44b	0.99982136
31	0x3f822fec	1.0170875
32	0x3f822490	1.0167408
33	0x3f8158d9	1.0105239
34	0x3f828bff	1.0198973
35	0x3f7e93bb	0.9944417
36	0x3f7e8747	0.99425167
37	0x3f7d64dc	0.98982024
38	0x3f7eb461	0.99493986
39	0x3f807639	1.0036079
40	0x3f7d0d62	0.98848546
41	0x3f7d6153	0.9897663
42	0x3f7e7fce	0.99413764
43	0x3f80aa8f	1.005205
44	0x3f80d5d2	1.0065253
45	0x3f7dacd3	0.99091834
46	0x3f7dc929	0.9913507
47	0x3f81a5a1	1.0128671
48	0x3f7ed9b9	0.9955097
49	0x3f802479	1.001113
50	0x3f816c41	1.0111161
51	0x3f81b588	1.0133524
52	0x3f806f2d	1.0033928
53	0x3f7c8efd	0.9865568
54	0x3f7ebd5c	0.9950769
55	0x3f807d55	1.0038248
56	0x3f7d1174	0.98854756
57	0x3f814168	1.0098085
58	0x3f7f9e93	0.9985134
59	0x3f80fff3	1.007811
60	0x3f80a714	1.0050988
61	0x3f809c90	1.0047779
62	0x3f7ea646	0.99472463
63	0x3f80ecc5	1.0072256

bottleneck.1.bias f4 [64]
0	0xbbf3ab4d	-0.007436192
1	0x3c0d0d40	0.008609116
2	0x3b4894d3	0.0030606284
3	0x3c326800	0.010889053
4	0x3be2613e	0.006908565
5	0x3ccccc33	0.024999714
6	0xbc721f3b	-0.014777954
7	0x3c9b16fe	0.018931862
8	0x3c3e788f	0.011625423
9	0x3c0d6242	0.0086293835
10	0x3948df92	0.00019156773
11	0xbaecf0d8	-0.0018077148
12	0xbb91a948	-0.0044452287
13	0x387c6612	6.0176542e-05
14	0x3c280585	0.010255222
15	0x3bbfc656	0.005852501
16	0x3b387d81	0.0028150978
17	0x3b8ffade	0.0043939194
18	0x3bfe51ef	0.007761232
19	0x3c3ae8d1	0.011408047
20	0xbb29e585	-0.0025924158
21	0x3c3b00fc	0.011413809
22	0xbc8a1390	-0.016855031
23	0xbc845e65	-0.016158292
24	0x3c845d30	0.016157717
25	0x3c800db3	0.015631532
26	0xbc470ae1	-0.01214859
27	0xbc63adac	-0.013896387
28	0x3c284e49	0.010272571
29	0xbc399ce3	-0.011328909
30	0xb9d24017	-0.00040102072
31	0x3aaae647	0.0013038599
32	0x3c69aa4b	0.014261792
33	0x3c933f17	0.01797442
34	0x3bc72c5c	0.006078286
35	0x3c4fac8e	0.012675418
36	0xbc541eb2	-0.012946771
37	0xbc076203	-0.008263114
38	0x3cc68d9f	0.024237452
39	0x3b176088	0.0023098309
40	0xbbdfbee5	-0.0068281763
41	0xbc35604a	-0.01107032
42	0xbc44667b	-0.011987324
43	0x3c815f7d	0.015792603
44	0x3cc5f20e	0.024163272
45	0xbbf9f2a7	-0.0076278034
46	0xbba78351	-0.0051120897
47	0x3b7c74ba	0.0038521723
48	0xbb3743e9	-0.0027964062
49	0x3a7452f0	0.000932022
50	0xbb94b3b7	-0.0045380252
51	0xbb4e2d9e	-0.0031460295
52	0x3c369781	0.01114452
53	0xbbaca88e	-0.0052691167
54	0xbc0b9bec	-0.008521061
55	0xbba0cca8	-0.0049072094
56	0xbc46699a	-0.012110138
57	0x3c37717f	0.011196493
58	0x3c2786f2	0.010225045
59	0x3c0ab72a	0.008466521
60	0xbbfe3736	-0.0077580465
61	0xbc330fbd	-0.010929045
62	0x3b521d66	0.003206098
63	0xbba21a59	-0.0049469885

bottleneck.1.running_mean f4 [64]
0	0x3ed41ee2	0.41429812
1	0x3f22b4f7	0.6355738
2	0x3d21f506	0.039540313
3	0xbec761ff	-0.38941953
4	0xbf865a62	-1.0496333
5	0x3eafc7da	0.34332162
6	0xbf47dad0	-0.78068256
7	0x3fa4ddca	1.2880185
8	0x3eed0cdc	0.46298873
9	0xbf3445df	-0.70419115
10	0xbf5545f6	-0.83309877
11	0x3f30a939	0.69008213
12	0xbed84acb	-0.42244563
13	0xbeb5df06	-0.35521716
14	0x3e532ccc	0.20622557
15	0x3f1d2009	0.61377007
16	0x3f3438af	0.7039899
17	0x3f7f30cc	0.99683833
18	0xbf895440	-1.0728836
19	0xbf520b0c	-0.82048106
20	0x3f371980	0.71523285
21	0xbed4eabe	-0.41585344
22	0xbf1030ff	-0.5632476
23	0x3da66ecc	0.081266016
24	0xbef39fe6	-0.4758293
25	0xbf0aa15c	-0.54152465
26	0x3e85327c	0.2601508
27	0x3e7e4e33	0.24834518
28	0x3f64c97a	0.8936993
29	0x3ea28b74	0.3174702
30	0xbf03d969	-0.51503617
31	0xbf938810	-1.1525898
32	0xbf769c57	-0.96332306
33	0xbd740c2e	-0.059581928
34	0x3cf26d12	0.029593024
35	0x3f4bd396	0.7961973
36	0x3f70ff0e	0.9413918
37	0x3f6d85b5	0.92782146
38	0x3f53186a	0.8245913
39	0x3eba40d8	0.36377597
40	0x3f779730	0.9671507
41	0xbd41f7c5	-0.047355432
42	0xbde0c67a	-0.109753564
43	0xbe989508	-0.29801202
44	0x3e3376e6	0.17525825
45	0xbef48577	-0.47758076
46	0x3e3c3a1c	0.18381542
47	0x3f31fe31	0.6952849
48	0xbf41c452	-0.75690186
49	0x3f08d562	0.53450596
50	0xbeee5ccb	-0.4655517
51	0xbe2821a0	-0.16419077
52	0xbfa73da9	-1.3065692
53	0x3ec2b686	0.3802988
54	0xbec757b6	-0.38934106
55	0x3f9e9540	1.2389297
56	0xbf7eb731	-0.9949828
57	0xbf41f071	-0.7575751
58	0x3f6a6d22	0.91572773
59	0xbeddfa03	-0.43354806
60	0x3ea54406	0.3227846
61	0x3e59ac86	0.21257219
62	0x3ebac08c	0.36475027
63	0xbf59757d	-0.849449

bottleneck.1.running_var f4 [64]
0	0x3f38f2c6	0.7224544
1	0x3fd5454b	1.6661772
2	0x3f95eef8	1.1713552
3	0x3f969cc0	1.1766586
4	0x3fe8a25a	1.8174546
5	0x3efbb6c4	0.49162877
6	0x3fd9be1f	1.7011145
7	0x401b845f	2.4299543
8	0x3faa765a	1.3317368
9	0x4012ba6a	2.2926278
10	0x3f000325	0.500048
11	0x3f64fbb5	0.89446574
12	0x3f1fe321	0.62455946
13	0x3f930891	1.1486989
14	0x3f645f48	0.8920789
15	0x3fafaa81	1.3723909
16	0x3f33b8a3	0.7020361
17	0x3fc3e424	1.5303998
18	0x3fcd4841	1.6037675
19	0x403375e7	2.8040712
20	0x3f149dad	0.58053094
21	0x3ff29294	1.8950982
22	0x3ffef209	1.9917613
23	0x3f3a1771	0.7269202
24	0x40252423	2.5803306
25	0x3f4b3287	0.79373974
26	0x3f82ced5	1.021937
27	0x3f29c90c	0.663224
28	0x3f946793	1.1594108
29	0x3f02b82d	0.5106228
30	0x3fba5827	1.4558152
31	0x3fcedc98	1.616107
32	0x3fadce17	1.3578519
33	0x3f12b69f	0.5730991
34	0x3ec961a3	0.39332303
35	0x400394e4	2.0559626
36	0x3ffb85f6	1.9650257
37	0x3ff14b0d	1.8851029
38	0x3f3fb9e8	0.74893045
39	0x3f5982ec	0.84965396
40	0x3f8ffe60	1.1249504
41	0x3f815af2	1.0105879
42	0x3ecb7552	0.39737946
43	0x3f7334f4	0.95002675
44	0x3fa85908	1.315217
45	0x3f72fb0f	0.94914335
46	0x40092c7b	2.1433399
47	0x3f22ad94	0.6354611
48	0x3f0a4c7c	0.54022956
49	0x3f5c80ea	0.8613421
50	0x3ef761a2	0.48316675
51	0x3edd0d51	0.43174222
52	0x400872ff	2.1320188
53	0x400347b6	2.051252
54	0x3f362874	0.71155477
55	0x3fddad79	1.7318565
56	0x3f94a173	1.161177
57	0x40071e41	2.1112216
58	0x3fa35e0a	1.2763073
59	0x3f0999ca	0.5375029
60	0x3efb06e3	0.49028692
61	0x3eefb238	0.46815658
62	0x3fb28e16	1.3949611
63	0x3f43adc3	0.76437014
