experiments_multi/Brain_Tumor_Segmentation_Separate_Train_Val_20260208_103839/final_model.pth (torch, 494013 bytes, 56 tensors)

enc1.0.weight f4 [16, 4, 3, 3]
00000000: 9d97 30bd 1225 ac3d 8a4f 763d cbcc d1bc
00000010: f940 a93b b84d 97bd 97da 353d c48d 7d3e
00000020: 9eb9 51be 50ed 733d 4d0b ba3d c389 2fbe
00000030: 74e7 343e 902e 0c3e 14c7 843c 32c7 5ebd
00000040: e01a bdbc e563 bc3d 06b9 b4bd c8d2 30be
00000050: 6f45 413d f1ad 1fbe 3ea1 993c bb9c e2bd
00000060: ee51 3c3d 77dc 493e 5262 4d3c c94c 503e
00000070: a86e 133c f7a1 5cbd 8d15 723e 9e09 5bbe
00000080: 44e9 c7bc 3ab8 c43d 9cb5 2fbc 6f71 abbd
00000090: 514d 12bc 4f70 7abd 5003 743c 0035 dd3d
000000a0: 6969 fb3d 9c15 ce3c 0663 9d3d 3f8d 9fbd
000000b0: d006 533d b0ca 9abb f440 e2bd 7c72 f1bd
000000c0: bfd3 2e3e 62d4 2a3e cadc 093e f2ed bf3b
000000d0: 9883 103e 3803 c43b 337f e5bc b67a c63d
000000e0: 5f95 e8bd 4b94 77bd 0bf4 183d 730b b8bd
000000f0: 337a 85be 41d0 8a3d 3b65 a23d 27cc 53bc
00000100: a50d 1fbe 7f63 febd e2b5 4cbd 53ca d1bd
00000110: 13b6 453e 45e7 e2bc 0a69 943e 5b0b e4bd
00000120: a43b 903d 8601 393d c97c b5bd 9d08 4b3c
00000130: 8cf1 d5bd 3881 773d 4853 30bd aeea a0bd
00000140: bd48 0ebe 9ab5 093b d4e6 233e 1a67 3dbe
00000150: 05e8 243e 2c88 45bd f550 cebd 33ac 02bd
00000160: f5aa 19be 39cb d23d 6756 0bbe 2eec fdbd
00000170: 4589 4f3c 24d1 fb3d cd44 29b8 12b8 843e
00000180: 696d dc3c 8c29 3fbe 0274 52be e5d2 c1bc
00000190: c126 3cbd e3d7 8c3d c117 5abe a9bd fcbd
000001a0: f3eb 2b3e e2a9 23bd a9f5 9f3d 9bc7 eabc
000001b0: b095 873c d9d2 61be 2c37 02be a202 9cbd
000001c0: 5c4d 74bd 1a4b 30bd 818d bc3d c8ae 97bd
000001d0: aeec 283d 2798 823c b2a0 523e 140b 9b3d
000001e0: 051b e5bd f587 803e 174c dabd e01d 123e
000001f0: 4c27 853e 9044 d13d 72bc 7e3d 83af 743e
00000200: 6b3d b1bd 5f6d e3bd 3a1f 303e 9437 73bd
00000210: 8c6c 39be 1b9b 82be a4f7 863d 6a93 bb3c
00000220: d315 0a3d 9bac 33bd 70b2 b53c 076b 55be
00000230: c0c1 f43c e786 92bd 4b71 dc3d 09bb 48bd
00000240: 92e2 95bd 8a27 653d ce4a 17bd a4db b2be
00000250: 937c d4bd 5f31 793d b79c 1abe 231b 083d
00000260: 159a c53d 2883 01bd 4ea5 253e 6446 87bb
00000270: 47b1 2c3e fc0c acbd 3eb6 ce3d fb5d 53be
00000280: 4647 57ba c005 c5bc d4b8 933c 89d8 a03d
00000290: 9114 cfbd f7aa 7f3d be02 053e 2f89 c73d
000002a0: 95ed 66bd f1cc 2f3e ee89 8cbb baf7 8ebe
000002b0: 57b4 2b3e 7c7a ecbc f15c 12be 1d5d ab3d
000002c0: 5efc 9bbd 7ae9 413e 1a5f 903d bcd7 e73d
000002d0: af8a cb3d 59f3 48bd 4df7 8f3d d3d7 df3c
000002e0: 39ec c73d e644 10be 277b bbbd 5621 853e
000002f0: 5d10 ce3d f899 94bb 4290 29be 1c82 7a3c
00000300: 5df7 a3bc a87f 9fbd 0825 983d 479f 123d
00000310: 38d1 b33d 62fa 85bd 6ed6 913e 60fe 57be
00000320: 9736 023d 3dc0 8e3e d8f2 5b3e 47be 17bd
00000330: c2a0 9dbd 5f24 903d 7d6c 84bc 180d 99bd
00000340: 55ff ef3d 8fd3 2a3e d668 823d 8d99 dcbd
00000350: 3320 37bd 7918 b7bd 538f ae3c cbf1 8dbd
00000360: d5c1 203d 27ca 6d3e 8f6b 8c3d a040 743c
00000370: 0df5 15bd f3e4 14be 22c4 8f3d ed05 25bd
00000380: 2617 37bc 9957 8ebd 8b72 8cbd 9d98 e13d
00000390: ba60 a5bd a625 e4bd 485c 843e 9337 533d
000003a0: 41e8 96bd d20b 62bd e2c4 cbbc ec68 843d
000003b0: 7d49 3fbd 3663 213e 3ab5 db3a e48e 0bbe
000003c0: 9fea a93d 7a89 223e 3edc 573e 1b81 973c
000003d0: 7f37 da3d 9850 b1bd f1f6 293c 42a2 fe3d
000003e0: 93c0 033d dc5b a4bd a224 1e3e 1c37 173d
000003f0: 0ce9 e3bc f785 4a3e c084 bf3c a510 b8bd
-0.04311334 0.08405508 0.060134448 -0.025610348 0.005165216 -0.073878706 0.044397917 0.2476111
-0.20480964 0.05955249 0.09084187 -0.17142396 0.17666417 0.13689637 0.01620821 -0.054389186
-0.023084104 0.09198741 -0.08824353 -0.17267907 0.047185358 -0.15593697 0.018753644 -0.1106505
0.04597657 0.19713007 0.012535648 0.20341791 0.0089985505 -0.0538654 0.23641033 -0.21390387
-0.024403222 0.09605451 -0.010724451 -0.08371245 -0.0089295665 -0.061142262 0.014893368 0.108011246
0.12275965 0.025156789 0.07684903 -0.077906124 0.05152017 -0.0047238693 -0.11047545 -0.11789414
0.17072962 0.1668258 0.1346313 0.0058572227 0.14112699 0.005981829 -0.028014755 0.09691374
-0.11356615 -0.060444158 0.037342113 -0.08986559 -0.26069793 0.067780025 0.079294644 -0.012927092
-0.15532549 -0.12421321 -0.049978144 -0.102436684 0.19307737 -0.027698169 0.28986388 -0.111349784
0.070426255 0.04516747 -0.088616915 0.01239219 -0.10446462 0.060425967 -0.043048173 -0.078572616
-0.13894935 0.0021012784 0.16006023 -0.18496361 0.16104133 -0.048225567 -0.10074035 -0.031902503
-0.15006621 0.10292668 -0.13607179 -0.12398563 0.012667005 0.1229575 -4.0356816e-05 0.25921685
0.02690764 -0.18668193 -0.20552066 -0.023660133 -0.045935396 0.068771146 -0.21298124 -0.12340862
0.16789226 -0.039956935 0.07810528 -0.028659632 0.016550869 -0.22053088 -0.12716359 -0.0761769
-0.05964409 -0.043040372 0.09206677 -0.07406384 0.04124134 0.015941693 0.20569113 0.07570472
-0.11186794 0.25103727 -0.10659044 0.14269209 0.26006544 0.102181554 0.062191434 0.23895077
-0.08654293 -0.11104845 0.17199412 -0.059379175 -0.18107814 -0.2550896 0.065902025 0.022897441
0.03371222 -0.04386578 0.022179812 -0.20841609 0.029877543 -0.07154637 0.107637964 -0.049006496
-0.073186055 0.05594591 -0.036936574 -0.34933197 -0.10375323 0.0608381 -0.15098844 0.033229005
0.096485294 -0.03161922 0.1617634 -0.0041282643 0.16864501 -0.08400914 0.10093354 -0.2064132
-0.00082122197 -0.024050593 0.018032469 0.07853801 -0.101113446 0.062418904 0.12989327 0.097429626
-0.05637892 0.17168023 -0.0042889034 -0.27923375 0.16768013 -0.028866999 -0.14293267 0.08367369
-0.076164946 0.1893672 0.07049389 0.11320445 0.09938561 -0.0490602 0.07029591 0.027324593
0.09761853 -0.14088783 -0.09154349 0.26001996 0.10061715 -0.004534956 -0.16558936 0.01528981
-0.020015413 -0.0778802 0.07428938 0.03579643 0.0878014 -0.06541897 0.2848391 -0.2109313
0.031790342 0.2788104 0.21479356 -0.037046697 -0.07696678 0.07038187 -0.016165012 -0.074732006
0.117186226 0.16682266 0.06367652 -0.10771475 -0.044708442 -0.08940215 0.021308577 -0.06930884
0.039247353 0.23221646 0.06856453 0.014907986 -0.03661065 -0.14540462 0.07019831 -0.040288854
-0.011174953 -0.06950302 -0.06857785 0.11015437 -0.0807509 -0.11139993 0.25851655 0.05156667
-0.07368518 -0.055187054 -0.024874154 0.06465325 -0.046700943 0.15760502 0.0016762384 -0.13628727
0.082967035 0.15872756 0.2108011 0.01849418 0.10655116 -0.0865795 0.010373817 0.12433292
0.032166075 -0.08025333 0.15443662 0.03691779 -0.027821086 0.19777666 0.02337873 -0.0898755

enc1.1.weight f4 [16]
00000000: a06f 823f cafb 803f 8cc8 803f 0f55 803f
00000010: 40f2 7f3f e433 7d3f aac9 7d3f 23a9 803f
00000020: 0ace 7c3f ecf2 803f e2d5 803f d3f1 7b3f
00000030: 1df1 803f 643b 843f f8be 803f 957f 843f
1.0190315 1.007684 1.0061202 1.0025958 0.9997902 0.98907304 0.9913584 1.0051616
0.9875189 1.0074134 1.0065272 0.9841587 1.0073582 1.0330625 1.0058279 1.0351435

enc1.1.bias f4 [16]
00000000: a8d1 433c 9be8 983c 0edd d63b 3138 36bb
00000010: 8900 01bb bda5 0a3c 92d9 773b 6dc4 1a3b
00000020: 8bcb 813c 5fa3 fc3c 5ac8 9ebb 99c2 723c
00000030: c05b 373c 0375 003d ba64 dbbc 3102 193d
0.011951841 0.018665602 0.0065571135 -0.0027804489 -0.0019684157 0.008462367 0.003781889 0.0023615614
0.015844127 0.03083962 -0.004845661 0.0148169035 0.0111913085 0.03136159 -0.026781429 0.037355606

enc1.1.running_mean f4 [16]
00000000: 8f2a a03d 48bd 973d 7d4d 02be 9b6a f03c
00000010: 8eea fcbb 4c3b f93d 846e 113e 890d 803e
00000020: 23bd 273e 27fd 2c3e 37d5 873c 0d6c 333c
00000030: 9ba7 c6bc 404b 70be 7979 92bd c7c9 55bd
0.078206174 0.074091494 -0.12724872 0.029347708 -0.007718391 0.12169513 0.14202315 0.25010327
0.16380744 0.16893445 0.016581161 0.010951054 -0.024249842 -0.23466206 -0.07152075 -0.052194383

enc1.1.running_var f4 [16]
00000000: 1d2f a03c 4aa9 aa3c c157 3b3d 49c2 b33b
00000010: 1539 c33b ab4e 2e3d 6aca 733d bf45 353e
00000020: d8bb b33d 366d cf3d 03bc 313b 6c6f 0a3b
00000030: 0430 3d3b d251 293e 016b b13c 39e9 173c
0.019553715 0.020832676 0.045737986 0.005485807 0.0059577324 0.042555492 0.05951921 0.17702387
0.08776063 0.10128252 0.002712012 0.0021123542 0.002886773 0.16535118 0.021657469 0.009271913

enc1.3.weight f4 [16, 16, 3, 3]
00000000: 76a8 cbbc 1252 5b3e 50d0 72bc 2288 923d
00000010: 1f4c 9c3b 53c1 6e3d 8714 af3d c682 65bd
00000020: f1f9 8c3d 7ee2 cbbd bfd1 933d 8df6 953d
00000030: afb5 21bd 32ac e63c 4238 0dbe c723 863c
00000040: 7895 7dbe 1b08 84bd c435 3c3e 6fe8 b4bd
00000050: c5c0 823d 91e9 11be fe51 1cbe 77a7 b33d
00000060: 824c a73c 9b88 46bc a448 433d 2565 4fbc
00000070: f313 9cbd 31ce 043d 0b8e 3e3e 2c8e 363e
00000080: bcd1 933c 0561 013e 25f0 06bd bbec f3bd
00000090: 3ac1 d83c 1db3 4fbe 3d9c 3dbc 868f 36be
000000a0: 75fe 22bc 02ed c7bc 950e 90bd db5e 27bd
000000b0: 671d a4ba c3d1 35bc dc15 433e 2d78 61bd
000000c0: 1409 3cbd bbf1 15bd 7385 82be 0e4e 7a3c
000000d0: 96d2 bcba ba99 1ebd d9c8 d0bb 4570 323c
000000e0: 4ac6 963e 87ef 23be 2cbc 3cba a8a6 e2bc
000000f0: 70bf 1ebe ae6b 90bb 4df6 b73d 6d7c 79be
00000100: e071 00be 1c80 b13d ea14 84bd 2c74 a5bd
00000110: 8ddc 023c b3fa 58bd 2cf7 f2bc c2d1 9c3d
00000120: 6a89 09bd daca 7bbd faea f93c 7795 183b
00000130: 9e9e 56be e6d4 01be 42e7 3dbe b1e8 193c
00000140: 4592 0ebd ffc4 c03d 0ae3 41bc 3d2f 803d
00000150: bf97 dc3e 8500 d8bd 6a64 28be 41d1 833d
00000160: f9c8 44be e0c8 6abd 7930 9d3d 3900 0ebe
00000170: 4245 8cbe 23ac 463d a1c6 b23d 82de 16be
00000180: b89b bebc 8983 b8bd 4886 92bb 5b34 9abc
00000190: 1f4c b8bd 7ebd f23d b85c d63d 5501 153e
000001a0: 7573 0f3e 7cc2 4b3e 3934 38bc 719b 8cbd
000001b0: bad0 c5bd 29f8 e3bd 72c1 57be ecb1 093e
000001c0: 2681 c23e 20f6 c7bc a4c5 9d3d 4d99 02be
000001d0: f666 8e3d f708 3b3e 67ce f8bb 8804 f23c
000001e0: e8b6 79bd afe0 993d 3b4b 853d efd5 e0bd
000001f0: 6f11 0e3e e3cb 0ebe ae56 d3b9 5a98 c7bd
00000200: 5c7d d8bd 4ce8 603d a082 133e 6ca8 1e3d
00000210: 6ebd 4d3d 2049 263e cbba 083e 3297 a9bc
00000220: c317 41be cd71 a43c 9955 933d 0802 b63d
00000230: b3a4 94bd e94a afbd 0bef 483e 9436 4a3e
00000240: 0930 95bc 20f0 cabd 54ea 903c 4407 003d
00000250: 2a20 b13c 6582 3e3e 8852 f73c ee47 a5be
00000260: 74dd e5bd 3d34 90bb f2b4 01bd ced3 c73c
00000270: ad60 31bc 93a9 04bd ba3a 26bd f0c8 ba3d
00000280: 87e0 dcbd 6962 453d baa4 8bbd 31cc 28be
00000290: 5b92 003d f706 0fbe 8367 933d f191 bfbd
000002a0: 0896 843d 0fb2 9a3d a07f af3c b747 cdbd
000002b0: a6fe 9e3e 42d0 73be dd56 e23d a0e0 bbbd
000002c0: 76dc 4e3c b4b1 653c 6f03 ff3c 053c 61be
000002d0: 2e1a 433c 2cd4 79bd dcc9 26be 61de 12be
000002e0: a403 0b3d 035a 043e 6d2e 17bd 084f 0e3e
000002f0: 9d0b febc e9fb b2bd 28b1 10be f749 113d
00000300: 2d76 17bd 9d7f 44bc f86a 21be 7e17 9d3d
00000310: c950 16be 11f1 50bd 086d f7ba 2f2b 013e
00000320: 7892 95bd 051f 54bd 2995 7ebe fd3b 023c
00000330: b032 903d 367d 8f3d d23c 323e f844 3d3d
00000340: c8f9 82bd dcf6 40bc 00f3 2bbd 0f5d 65bd
00000350: a3ef eb3d 0abd 9dbd 1cc3 433e b2a6 cbbd
00000360: dbf8 efbd 66a1 edbd ee07 6bbd 9e58 17be
00000370: 9e5b 073e edce 193e 82fb 503d 0a79 b7bc
00000380: b765 80be ac73 80bd 28ea fcbd 20b2 0d3d
00000390: 8852 0b3e 0f28 e63c 90a1 c43d 66c1 873e
000003a0: d47c 52bd 5e71 043d 2a89 2dbd 1a2c 07be
000003b0: 00ed 1b3e a33d 2bbd 373b 1c3e 4dd7 0dbe
000003c0: 44ef b73d fb64 40bd fff5 b3bd 2dbd 8bbd
000003d0: fb05 9cbd 421f 183d ae7d 85bd 66db 34bd
000003e0: ed0c a9bd 5a51 673e a7ef da3d 3a32 42bc
000003f0: 2ab7 5d3e c2cc 6f3d ded6 48bc 0b72 003e
-0.024860602 0.21418026 -0.014820173 0.071548715 0.0047698165 0.058289837 0.08548837 -0.05603292
0.0688361 -0.09955309 0.0721774 0.073224165 -0.039479908 0.028158281 -0.13790992 0.016374482
-0.24764049 -0.064468585 0.18379885 -0.08833396 0.06384424 -0.14249255 -0.15265653 0.08772176
0.020422224 -0.01211753 0.047676697 -0.012658392 -0.076209925 0.032423202 0.18608873 0.17827672
0.018044345 0.12634666 -0.032943863 -0.11910387 0.026459325 -0.2028317 -0.011572895 -0.17828187
-0.009948363 -0.024405006 -0.07034031 -0.040861946 -0.001252097 -0.011097374 0.19051307 -0.05504625
-0.045907095 -0.036607485 -0.2549244 0.015277399 -0.0014406021 -0.038720824 -0.006371599 0.010891025
0.29448158 -0.16009341 -0.00071996707 -0.027667359 -0.15502715 -0.0044073677 0.08982525 -0.24363871
-0.1254344 0.08667013 -0.064493015 -0.08078799 0.007987154 -0.05297346 -0.029658876 0.07657196
-0.033578314 -0.06147275 0.030507553 0.0023282447 -0.20958945 -0.1267887 -0.18545249 0.009393857
-0.034807462 0.09412574 -0.0118339155 0.0625901 0.43084523 -0.10546974 -0.16444555 0.064363964
-0.1921729 -0.057320476 0.07675261 -0.13867272 -0.2739659 0.048504006 0.08729292 -0.14733317
-0.023267612 -0.09009463 -0.004471574 -0.018823793 -0.08998894 0.11852549 0.104669034 0.1455129
0.14008887 0.19898409 -0.01124292 -0.068655856 -0.09658952 -0.11131317 -0.21069887 0.13446778
0.37989157 -0.024409354 0.077037126 -0.12753792 0.06953232 0.18265139 -0.0075929645 0.029543176
-0.06096545 0.07513558 0.0650849 -0.109783046 0.13873838 -0.13944964 -0.00040309638 -0.09745856
-0.105707854 0.054909036 0.14405298 0.03873484 0.050229482 0.16238832 0.13352506 -0.020701978
-0.1885672 0.020073796 0.07194061 0.08887106 -0.072579764 -0.0855921 0.19622438 0.19747382
-0.018211382 -0.099090815 0.017689861 0.03125693 0.021621782 0.18604429 0.030190721 -0.3228144
-0.112238795 -0.0044007585 -0.031666704 0.024392989 -0.010826272 -0.03238828 -0.04058335 0.09120357
-0.10785013 0.048189554 -0.068185285 -0.16484143 0.031389575 -0.139675 0.07197478 -0.09354008
0.06473929 0.07553493 0.021423161 -0.10023444 0.31053656 -0.23809913 0.11051724 -0.09173703
0.012625804 0.0140194185 0.031129567 -0.21995552 0.011908097 -0.06099336 -0.1628794 -0.14342643
0.03393902 0.12924962 -0.03690951 0.13897336 -0.031011397 -0.08739454 -0.1413008 0.03547093
-0.036977936 -0.011993316 -0.15763462 0.076704964 -0.14679255 -0.05101115 -0.0018877098 0.1261413
-0.07303327 -0.051787395 -0.24861588 0.007948873 0.07040918 0.07006304 0.17406014 0.04620835
-0.06395298 -0.011777606 -0.04197979 -0.05599695 0.115203165 -0.07702072 0.19117397 -0.09943904
-0.11717387 -0.1160305 -0.05738061 -0.14779899 0.13218543 0.15020342 0.051021107 -0.022396583
-0.25077602 -0.06272063 -0.12349349 0.0345937 0.13605702 0.028095273 0.09601128 0.2651474
-0.051388577 0.032334678 -0.042367138 -0.13200417 0.15227127 -0.04180683 0.15256964 -0.13851662
0.08981183 -0.046971302 -0.087871544 -0.06823192 -0.07618328 0.037139185 -0.06518112 -0.044154547
-0.082544185 0.22589627 0.10690241 -0.011852795 0.21651903 0.05854488 -0.01225826 0.12543504

enc1.4.weight f4 [16]
00000000: ee56 7d3f 6eca 803f 7cb2 7f3f 878c 7e3f
00000010: 9a89 783f 7e46 7f3f cf82 7e3f e1c8 803f
00000020: 586b 803f 2f24 7b3f a46a 7b3f 5c42 7e3f
00000030: a744 7b3f fe13 813f cdb7 7b3f 0b6f 7f3f
0.9896077 1.0061777 0.9988172 0.9943318 0.97084963 0.9971694 0.9941835 1.0061303
1.0032759 0.98102087 0.98209596 0.99320006 0.9815163 1.0084226 0.9832733 0.99778813

enc1.4.bias f4 [16]
00000000: bd84 b6bb 2f6b ad3b 21d1 18bc 8765 083c
00000010: 8f3b f4bb 92fa cabb f807 043c 5db2 67bc
00000020: 85d7 603c 7df2 45bc b53d 6d3a 66d9 e4bb
00000030: 37eb afbc 46c0 ff39 4f0b 9fbc c40b 633b
-0.005570023 0.0052923183 -0.009327204 0.008324987 -0.007453389 -0.006194421 0.0080585405 -0.014141646
0.013723259 -0.0120817395 0.00090500276 -0.0069839237 -0.021474464 0.00048780645 -0.019414572 0.0034644464

enc1.4.running_mean f4 [16]
00000000: 9a2f 0cbe f800 07bf fb6d 173f 68bf adbe
00000010: 4567 cfbd 6bc0 8dbf 1694 52bf 161e d43c
00000020: 42d0 1e3f 3f1a bfbe 7954 10bf d326 51be
00000030: e607 aebe 6b3b b03f 295b 97bf d1a7 383e
-0.13690034 -0.52735853 0.5915219 -0.33935094 -0.10127119 -1.1074346 -0.8225721 0.025893252
0.62036526 -0.37324712 -0.56378895 -0.20424967 -0.339904 1.3768133 -1.1824695 0.18032767

enc1.4.running_var f4 [16]
00000000: ea8a 9e3f b646 1c3f 5505 2e3f 1741 693f
00000010: 03f1 633f d404 6f3f 4939 2240 fc01 783f
00000020: c9fa 6640 e950 603f 7549 913e 61ad 173f
00000030: 40ff bd3f 5054 953f 7512 313e eb12 bc3f
1.2386143 0.61045396 0.67976886 0.91114944 0.8903963 0.9336674 2.5347464 0.9687803
3.6090567 0.8762346 0.28376356 0.5924893 1.4843521 1.1666355 0.17292197 1.4693273

enc2.0.weight f4 [32, 16, 3, 3]
00000000: 9963 fbbd e98e a13d cf86 25be fd54 223d
00000010: 3c8e 8dbd 02ab 923d f9db 4cbd 0b19 cdbd
00000020: db1d febd 85b7 adbc 2d32 a0bd 3734 3fbe
00000030: 082d 08be d2d1 ecbc 144b 34bd 8a05 813d
00000040: c39b 1fbe c33b d5bd cfe6 a53b 6473 85bd
00000050: 6de3 3fbe 314e d03c 0851 a23c 3e29 eb3d
00000060: 7223 c13d 0a10 033d fbb3 9f3d 5574 12bd
00000070: 359a 20bd 7a23 023d 58d5 a2bd fd81 c1bd
00000080: bb2a 58bd 8b3d 693d 8f25 04be e067 23bc
00000090: 549f 36bd 2071 3abd 9165 babd 9dfe 7abd
000000a0: e7f8 e6bd f347 d2bd 4969 543d 9ed9 18bd
000000b0: 5bcc d73c 5758 88bd 55aa c8bc db4d 8abd
000000c0: f6d9 40be bdff b43d b337 6a3d 7fe1 11bd
000000d0: 2250 553d c9e4 9b3d d8ac 803c 99c3 65bd
000000e0: d4fa aa3d 8967 e2bd 77a6 16be 0c66 60bd
000000f0: f6cb babd f994 03bd 7229 febd c37e 853e
00000100: 84b7 28bd 7e43 80bd 3023 bf3c 9285 ed3c
00000110: 50bc 073e 66b4 bcbd c647 063d b0e8 c53d
00000120: 49ad 4dbd 549c 49bd 7c63 23bd 3e61 a4bc
00000130: 4d35 233d e766 0d3e c0f8 f5bd f983 323e
00000140: 3cd2 8a3d ff66 f9bb 9eb5 643e 1667 9cbc
00000150: f42e 4c3d 2e22 f8bd d553 b43d 70f6 b43d
00000160: 50a3 9cbd 2936 b9bd 037c 8dbd 4269 8bbd
00000170: 130f fd3d 6919 f93d 3df3 6c3d 9636 25bd
00000180: bc5f e23c 8336 64bc 8833 f03d 5197 5a3d
00000190: 07f1 7abd be8a 06bd bdd1 163e b10c 633d
000001a0: f4b4 ef3d dd20 a13d 64d3 77bd e19b 943d
000001b0: 1078 ea3c 89b6 5d3c 8eb4 9fbd 6353 66bb
000001c0: b591 5dbd f9bf b9bb bf71 2b3a 7619 a53c
000001d0: 60bf 0fbc 39bd 65bd f3ed 273d af18 76bc
000001e0: b498 edbd 0e20 debd 10d7 38bd 571d 3d3b
000001f0: 98dd 3bbe 1d0c 0e3e e7ff e6bc e5d2 92bd
00000200: 52ae bc3c 6aab 353d 0c38 d9bd 0385 10bd
00000210: 6ae7 0d3d 4c10 c6bb 221b 40bb 1b51 b03d
00000220: 7a98 5dbd f1f3 533d a6a4 afbd a77f f8bc
00000230: 9072 ddbd 332c 6abc 0eab cf3b 1081 9dbc
00000240: 9f1a 34bd 6fd1 543d 22a3 4ebd b425 21bb
00000250: 7ce2 2c3d 2bd0 ab3d bce4 e2bd f5d6 be3d
00000260: 4aff efbd 570f e73c a3e7 2b3d 3b38 873d
00000270: 587e d93c b0e7 babd dee3 483d a2dd 3fbd
00000280: a919 64bc a74a 1d3e 7daf 38bd 1681 fc3d
00000290: e30d 8a3d b3e0 353d f1ae 8fbd e8f2 473c
000002a0: f5c6 153d cfd9 c13d 2f18 90bd fe46 0a3e
000002b0: 7c36 00be 2ae2 603d 9906 9c3c db70 9e3d
000002c0: 8fa4 debc c2c6 4abd 7c4c 693c bc35 1e3d
000002d0: cfef 5bbc b6df e8bd 8240 12be 05d8 983d
000002e0: 9500 de3c 1da5 3cbc e66f 0bbe 5dcc c3bd
000002f0: 85f0 b7bc 0abd 073e d019 933d 9208 173e
00000300: d646 00bd 22ee 8b3d f93a 11bd 4789 243c
00000310: 3a5c f63b 680f 37bd d92c 773c ece6 a03c
00000320: aa15 f0bd 3a79 81bc 39b5 83bd d517 6b3d
00000330: 6576 4c3d c37d 72b8 e35a 873c ac7f 30be
00000340: 039a c9bd 7fe9 5b3d c114 d5bd 1f9d 823b
00000350: 6ffe a1bb ed70 cbbc e2e9 8a3d 87bd 08bd
00000360: 9199 703d bee2 413e bc3c f2bd 32b0 76bc
00000370: a0c9 a9bd d7cb cf3c 62e7 43bd 45ae c93d
00000380: d7bf 603d 6794 6cbc 8beb d33c 0e1c af3d
00000390: b65f bd3c fa31 8d3d c40d 31bc cff7 e13c
000003a0: 29c4 49bd 6f4a e5bd c7a0 cb3d a581 24be
000003b0: 2025 b0bc 57bc 8dbc 98e0 e0bb 8536 893d
000003c0: 778b e4bd cadc 95bd fb2e 733d 823e 1abd
000003d0: 9a3b bd3d a8cd 6f3d 0760 b93b 23d2 74bd
000003e0: e904 b3bd 5711 20be 6504 44bd 9135 aa3c
000003f0: 8f88 b23d aa08 903b 54ba 893d cf63 ea3d
-0.12274856 0.07888586 -0.16164707 0.039631832 -0.06911895 0.071615234 -0.05001447 -0.10014542
-0.12408038 -0.021205673 -0.0782207 -0.18672262 -0.13298428 -0.028908644 -0.044016913 0.062998846
-0.15586762 -0.10411789 0.005062915 -0.0651615 -0.187391 0.02542791 0.01981403 0.11482476
0.09430589 0.031997718 0.077980004 -0.035755474 -0.039209563 0.031772114 -0.07950848 -0.094486214
-0.052775126 0.056943458 -0.12904952 -0.009973496 -0.04458554 -0.04551804 -0.091014035 -0.061277974
-0.11277943 -0.102676295 0.05185822 -0.03731691 0.026342561 -0.066574745 -0.024495283 -0.06753131
-0.18833145 0.08837841 0.057182025 -0.03561544 0.052078374 0.07611997 0.015707418 -0.05609474
0.08348623 -0.11054904 -0.14711939 -0.05478482 -0.09120934 -0.032124493 -0.12410249 0.26073274
-0.04119064 -0.06262873 0.023332208 0.028994355 0.1325543 -0.09214096 0.032783292 0.09663522
-0.050214086 -0.04922135 -0.039889798 -0.0200659 0.039845753 0.13808785 -0.12010336 0.17433156
0.0677838 -0.007611155 0.22334906 -0.019092124 0.049849465 -0.12115894 0.08805052 0.08836067
-0.07648337 -0.09043533 -0.06908419 -0.06807186 0.12356391 0.1216305 0.057849158 -0.04033526
0.02763354 -0.013929012 0.11728579 0.053366963 -0.061265018 -0.03284716 0.14728446 0.055432025
0.11704436 0.07867596 -0.060504332 0.07256294 0.028621703 0.013532289 -0.0779811 -0.0035144917
-0.054094035 -0.005668637 0.0006540082 0.020153742 -0.008773655 -0.05608866 0.04099841 -0.015020533
-0.116013914 -0.10845958 -0.045126975 0.00288566 -0.1834625 0.13871808 -0.028198196 -0.07169131
0.023032341 0.044352926 -0.10606393 -0.0352831 0.03464452 -0.006044423 -0.0029313047 0.0860922
-0.05410049 0.051746313 -0.08576326 -0.030334307 -0.10812867 -0.0142927645 0.00633753 -0.01922658
-0.0439707 0.051957544 -0.050448544 -0.0024589123 0.04220818 0.08389314 -0.11078784 0.093183435
-0.117186144 0.028205557 0.041968953 0.06602522 0.026549503 -0.09126222 0.049045436 -0.046842225
-0.0139221335 0.15360509 -0.045089234 0.12329309 0.0674093 0.044403743 -0.07015789 0.012203909
0.036566693 0.09465372 -0.07035863 0.13503644 -0.12520784 0.054903187 0.019046115 0.07736369
-0.027178077 -0.049505956 0.014239427 0.038625464 -0.013423874 -0.113707945 -0.1428242 0.074630775
0.027099887 -0.011513975 -0.13616905 -0.095604636 -0.022453556 0.13255706 0.07182658 0.14749363
-0.031317554 0.068325296 -0.03545663 0.010042495 0.0075183185 -0.044692427 0.015086376 0.019641362
-0.11722882 -0.015804876 -0.0643105 0.057395775 0.049917597 -5.781442e-05 0.01652283 -0.17236203
-0.098438285 0.053689476 -0.10404349 0.0039860155 -0.004943661 -0.02483412 0.06782891 -0.033383872
0.058740202 0.18934152 -0.118279904 -0.015056657 -0.0829041 0.025365753 -0.047828086 0.098476924
0.054870453 -0.014439679 0.025869152 0.08550273 0.023116928 0.06894298 -0.010806505 0.027583985
-0.04925934 -0.11195838 0.09942775 -0.1606508 -0.021502078 -0.017301721 -0.006862711 0.06699852
-0.11159413 -0.07317503 0.059370976 -0.03765727 0.09239884 0.05854574 0.0056571993 -0.059770714
-0.08741171 -0.15631615 -0.047855753 0.020777496 0.08717453 0.004395564 0.067249924 0.11444818

enc2.1.weight f4 [32]
00000000: f81f 813f 92e6 7c3f 389d 803f 4c95 7b3f
00000010: d06a 813f b66c 7f3f bbe7 7c3f 4e54 833f
00000020: 88ef 823f 0baa 7f3f 47ea 7f3f 5cf2 7d3f
00000030: abed 823f d002 813f 3f40 833f ce88 803f
00000040: 4aa4 813f 91cb 823f 1b0d 813f 6bac 823f
00000050: 5356 803f 7440 7f3f 2465 813f 24c1 7a3f
00000060: 3feb 813f 38e8 813f 1351 7d3f a3d5 7e3f
00000070: f805 7c3f 7826 803f 8280 7e3f ae43 803f
1.0087881 0.9878932 1.0047979 0.98274684 1.0110722 0.99775255 0.9879109 1.0260103
1.0229349 0.9986884 0.99966854 0.99197936 1.022878 1.0078983 1.0253981 1.004175
1.0128262 1.0218374 1.0082124 1.0208868 1.0026344 0.9970772 1.0108991 0.9795096
1.0149916 1.0148993 0.98951834 0.99544734 0.9844661 1.001174 0.9941484 1.0020654

enc2.1.bias f4 [32]
00000000: f34b ca3b fe1e 13bc eb63 abbc 1254 03bd
00000010: 4d9e 84bc 2eea 2038 b398 91bc 82a8 b2bc
00000020: ad4f 48bc 9b07 96bc 5d38 7d3c e45c 66bc
00000030: 5a0e 2a3c ed24 aa3b 887c 963c c022 4a3b
00000040: 6bcf d93b b4d3 503c 0454 1539 3ea7 973c
00000050: 8be9 ffbb 5489 f43b ee1d c43b 8402 1dbc
00000060: bb6d ed3c 0829 d63c 42f2 06bc 2fd1 1fbc
00000070: 0bf0 72bc c52d 8bbc 92c8 89bb e41b 1a3c
0.0061736046 -0.008979557 -0.020921668 -0.032062598 -0.016188765 3.836507e-05 -0.017773008 -0.021808866
-0.012226027 -0.018314173 0.015455333 -0.014060233 0.010379398 0.00519239 0.018369928 0.0030843467
0.0066470406 0.012745786 0.00014241046 0.018512364 -0.007809823 0.00746266 0.005985013 -0.009583119
0.028982988 0.026142612 -0.00823647 -0.009754463 -0.0148277385 -0.016989598 -0.004204818 0.009406064

enc2.1.running_mean f4 [32]
00000000: 2962 4bbf 5b0f c9bd db96 083f 11db c93e
00000010: 4656 1c3f 0c06 2c3d 0fd9 553f 5893 143c
00000020: 76b3 423f 0e32 1bbe 4d02 773e 9ef8 f33d
00000030: fa61 a4be 28c3 993f e05a 72be 863f 873c
00000040: d4f8 22bf 42f8 853d 956f 423f 39e9 c4be
00000050: 9447 74be 29e4 a7bf c88e 4d3f bf20 bc3c
00000060: 84f4 fd3e c83d e1be 75aa fb3e 406e 653e
00000070: 586e 60bf 3fb6 19bb b840 a33e aaaf 2fbd
-0.79446656 -0.09817382 0.5335519 0.39424947 0.6106914 0.041997954 0.8353433 0.009068333
0.76055086 -0.15155813 0.24121971 0.11912654 -0.32106 1.2012682 -0.23667479 0.016509783
-0.6366093 0.06541492 0.7595151 -0.38459185 -0.2385543 -1.3116504 0.8029599 0.022964833
0.49600613 -0.43992448 0.49153486 0.22405338 -0.8766837 -0.0023454574 0.31885314 -0.042892136

enc2.1.running_var f4 [32]
00000000: 5edb 123f 32a3 203f bc23 4a3e 7850 443f
00000010: 508a ae3e 13b3 8a3e bceb ee3e 6210 bb3d
00000020: 1fba 983e d9d7 063e 2065 1b3f e28f 723e
00000030: fc53 153f da15 9f3f 03bd b93f 753f c13e
00000040: e105 df3f 4eb6 0b3e 9606 063f e90e ae3f
00000050: ac83 583e 92de ad3e f8e0 883e e999 473f
00000060: 7031 9e3e 2c9e b73e 088f 083f 609a 003f
00000070: 61fd 963e ce5b 203e 5218 2c3f 7f3c cc3e
0.5736598 0.62749016 0.19740194 0.76685286 0.340899 0.27089748 0.46664226 0.09133984
0.298295 0.13168277 0.6070118 0.236877 0.58331275 1.2428544 1.4510807 0.37743726
1.7423669 0.13643762 0.523538 1.35983 0.21143979 0.3395887 0.26734138 0.77969223
0.30897093 0.35862863 0.5334325 0.5023556 0.29490188 0.1566002 0.6722461 0.39889905

enc2.3.weight f4 [32, 32, 3, 3]
00000000: 7b80 4ebd 4db0 573c 6ebf 133e 3fbc e13d
00000010: 3b5b 263e 66a9 bfba 0352 90ba 9762 a83d
00000020: 480f 7c3d 3eaa 823d 478b 083e fcda ae3d
00000030: 90d0 57bc 61ef 303e e004 f63d 381a cdbd
00000040: e7fc 703d 3cc0 863d ebac 50bc b9e2 d63c
00000050: 556c aebc d4af 8cbc 819e e3bd b78f 013e
00000060: 0df0 c7bb 5b4f 443d e266 0abe 0c02 9c3d
00000070: 9a54 22bd 721e c9bd 606d e83d bb6b 28bd
00000080: ba06 023d 344e 18bd 5316 823d b61a 4ebd
00000090: 840e 133d 2374 273d dff5 16bd 02bd 0abd
000000a0: 75d0 92bd 92df 65bd 97fb c23b 316c 89bd
000000b0: 46bc 39be a157 95bd 3160 353c e6d1 01be
000000c0: 9758 cb3d 691c 2bbd bd37 533d c84a 023d
000000d0: ee80 a1bb 09ad 62be 1c1f 603b 6f5a 8f3d
000000e0: e9af b03c dddd 78bd 9f60 8a3c e49c d4bd
000000f0: c8e4 da3c 1a78 6ebd 9ac6 363d 04a8 9c3d
00000100: d39f 81bc 1592 8fbd 1ff3 3e3d a8a5 e13d
00000110: 3fc7 003e ab20 103e 0f87 813c 1a22 efbc
00000120: fd90 00bc 97a3 b53d 5ae1 d3bb 823d ddbc
00000130: 8d06 9bbd 3785 863d 3fc4 01be f4de 7f3d
00000140: d6e0 903c 793b 8bbd 3f31 b0bc cee3 5c3d
00000150: aefe a33d b607 8b3d 89f4 90bd 4906 0cbd
00000160: 5eea d2bd 38dc a1bc c027 713c e551 89bd
00000170: cfb8 91bd 608f 4dbd a38c 83bd be33 73bd
00000180: 7083 5f3d 5eab 76bd d238 4dbd edd1 7bbe
00000190: f586 f0bd 96d5 ff3c 2fd9 ad3b be28 743d
000001a0: 8260 853e 00a3 e4bd 10bb eebd 0776 64be
000001b0: e7ad 1d3e 2beb 53bd 3d3c 2dbd b816 47be
000001c0: ccae 8ebd e22d 003c 91a6 d63c 182f 76bb
000001d0: 8445 0e3e b8b4 3f3d 2bd6 9abc 5a0b c43d
000001e0: a2d2 bbbc fb01 f2bb cc89 4c3c af6b 06bd
000001f0: 7439 8c3d 74ee fcbc 3e9c 90bb ee6e 22be
00000200: 63a8 c93d 0971 92bb 46a3 9abb 01fd 53bd
00000210: 367c 423d 09f2 db3d 0fcb 393d de08 ba3c
00000220: a938 fe3b 1ee7 e33d aeea 103d ddac 2a3c
00000230: ad5f d33d ccdf 5dbc aa86 3f3d 1e8c 403e
00000240: eaee 37bd 3bfe 7d3b 6fbf d23d 426d 223e
00000250: aa4b bbbd 2811 3b3d 4acd 34bb 8ea1 b83c
00000260: df07 393c 1106 69be 0dd8 ef3d 3c4f 0e3d
00000270: f341 48be ca75 f23d 5eb9 46bd 85e6 ccbc
00000280: 54f3 bb3c aefb 0f3d b746 d0bc 7104 763d
00000290: 5a1d 79bd 9b44 1d3e 17bb c4bc 537b b2bd
000002a0: 7612 92bd b217 45bd 0eb7 f73c f5a3 9dbc
000002b0: 16c1 a53d cad4 c53d 412c 283e 5ec5 233e
000002c0: d5c3 523d 2093 88bd 5ec0 b4bd 4a2c c63d
000002d0: 34f6 bfbc 2afb 563d 407b 05be cc0a 9dbd
000002e0: fc2c 883c 7927 0fbe a2d6 70bd 77b5 20be
000002f0: 2023 97bd d4f0 c1bd 99ca c2bd a0af c93c
00000300: 958f 89be 1dec 90b9 2f58 103d 2305 14bd
00000310: 7f3c 43bd 75e3 2b3d f74c a6bd cc15 8a3b
00000320: 7586 e5bd e10d ae3d 4e5d 94bd 74a8 033e
00000330: 5240 3c3a 1319 33bd 1325 7c3c 3a19 10bd
00000340: 09ce 09bd 3e1c d93d c17a b7bd da0e 4ebd
00000350: 8f11 1cbb f378 703c 93a4 b83d ada5 87bd
00000360: 5e8f b63d a399 9cbd 59f2 8e3d e311 313d
00000370: 8198 23bd 377a 3cbd d92e c3bd 7470 063d
00000380: 21ce 98bc f7a1 10bc c58e 6cbe d3ee a7bc
00000390: 76d7 60bc eb2e 09bd 071c d03d 11ba 913d
000003a0: 7960 62bd 6b3d a8bd a74c 073d df39 9e3d
000003b0: bfc2 9c3d ae57 563d d9e9 0f3d 4b9d 44bc
000003c0: b811 2fbe c766 073e a414 a3bd 5d59 2c3e
000003d0: 391f 78bc c4cd 9dbd 0939 953d 4179 c23d
000003e0: c805 e0bd 2938 90bc 35e8 0d3c 08f9 8fbd
000003f0: ab17 873d 5eb1 bc3c 8c95 05bd 2cf3 643d
-0.050415497 0.013164592 0.14428493 0.11022233 0.16245739 -0.0014622628 -0.001101077 0.082219295
0.06153801 0.06380127 0.1333438 0.08537862 -0.013172284 0.17278816 0.120126486 -0.100147665
0.058834936 0.065796345 -0.012736539 0.026231157 -0.021291891 -0.017173685 -0.111142166 0.12652479
-0.0061016143 0.04792724 -0.13515809 0.07617578 -0.039631464 -0.0982026 0.113489866 -0.041118365
0.031744696 -0.037183955 0.06351914 -0.050318442 0.035902515 0.04088224 -0.036855575 -0.03387166
-0.07168666 -0.056121416 0.005950402 -0.06710089 -0.18138227 -0.072921045 0.011070297 -0.12677726
0.099290065 -0.04177514 0.051566828 0.0318096 -0.0049286997 -0.2213632 0.003419823 0.06999671
0.021568255 -0.06075846 0.016891776 -0.10381487 0.02672042 -0.058220007 0.044622995 0.07649234
-0.01582328 -0.07010285 0.046618577 0.110179245 0.12576006 0.14074962 0.015811471 -0.029191066
-0.007847068 0.08869093 -0.006466073 -0.027006868 -0.07569609 0.065683775 -0.12672518 0.062468484
0.017685335 -0.06798453 -0.021507857 0.05392819 0.08007561 0.0678858 -0.070778914 -0.03418568
-0.10298608 -0.019758329 0.01471895 -0.06705073 -0.071153276 -0.05018556 -0.06423309 -0.059375517
0.054568708 -0.060222022 -0.050103016 -0.24591799 -0.11744491 0.031229775 0.0053054313 0.059609167
0.26050192 -0.11163902 -0.11656773 -0.22310649 0.1539837 -0.051737946 -0.042293776 -0.1944226
-0.069669336 0.007823439 0.026202472 -0.003756469 0.13893706 0.046803206 -0.018900951 0.09572478
-0.022927586 -0.00738549 0.012484025 -0.03281754 0.06846896 -0.030875422 -0.004413157 -0.15862629
0.0984657 -0.0044690412 -0.0047191707 -0.051754955 0.047481738 0.10739524 0.045359667 0.022709306
0.0077582193 0.111280665 0.035380058 0.01041719 0.10320983 -0.013542127 0.046759285 0.1880345
-0.04490558 0.003875627 0.10290419 0.15861991 -0.09145291 0.04567066 -0.0027588182 0.022537973
0.0112933805 -0.2275622 0.1171113 0.034743533 -0.19556408 0.11838873 -0.048516624 -0.025012264
0.022943176 0.03515213 -0.025424344 0.06006283 -0.060819007 0.15358202 -0.024014993 -0.087149285
-0.071324274 -0.0481183 0.030238654 -0.01924322 0.08093469 0.09659727 0.16423132 0.15993258
0.05145629 -0.06668687 -0.08825754 0.09676416 -0.023432828 0.052485622 -0.13035297 -0.07668075
0.016623013 -0.13979901 -0.05879844 -0.15694223 -0.073797464 -0.094697624 -0.09511299 0.024619877
-0.26867357 -0.00027641738 0.03524035 -0.03613771 -0.047665115 0.041964967 -0.08120149 0.004214024
-0.11207286 0.08498741 -0.07244359 0.12857229 0.00071812153 -0.043725085 0.015389699 -0.035180308
-0.033643756 0.1060109 -0.0895896 -0.050307132 -0.0023814177 0.014677274 0.09015765 -0.06623397
0.08914064 -0.076464914 0.06979818 0.04322995 -0.03994036 -0.04601499 -0.0953042 0.032822087
-0.018652977 -0.008827678 -0.23101337 -0.020499622 -0.013723245 -0.03349201 0.10161596 0.071155675
-0.055267785 -0.082148395 0.033032086 0.07725882 0.07654332 0.05232971 0.035135124 -0.012000392
-0.17096603 0.132228 -0.07962921 0.16830964 -0.015144163 -0.07705262 0.07286269 0.094957836
-0.10938603 -0.017604904 0.0086613195 -0.07029921 0.06596311 0.023033794 -0.032613322 0.05589597

enc2.4.weight f4 [32]
00000000: 40bd 803f a9fb 813f e296 803f d655 793f
00000010: e213 7d3f 1d53 803f c483 7b3f 05e4 7a3f
00000020: 8789 7e3f 2027 7e3f 1d47 793f 3940 7e3f
00000030: 1c29 813f 2baf 7e3f 78fc 843f c1e6 7a3f
00000040: 92ff 7c3f 2f57 7c3f d095 7a3f 193a 813f
00000050: 0aff 7e3f a9d3 7c3f fa1b 803f 28bd 803f
00000060: f037 833f d1e6 7c3f b78c 7c3f 2cce 803f
00000070: 6fe9 813f 9018 823f 8fa5 823f 3a85 7f3f
1.0057755 1.0154926 1.0046046 0.973966 0.98858464 1.0025364 0.98247933 0.9800418
0.994286 0.9927845 0.97374135 0.99316746 1.009067 0.99486035 1.0389547 0.9800835
0.9882747 0.9857053 0.97884846 1.0095855 0.9960791 0.9876047 1.0008538 1.0057726
1.0251446 0.987897 0.98652214 1.0062919 1.0149363 1.0163746 1.0206774 0.9981266

enc2.4.bias f4 [32]
00000000: 463a 22b9 6dad cc3c 955d a13b 4fb3 5cbc
00000010: 8baf 90bc 091d 9dbb 556d b8bc 64e6 013c
00000020: c2a2 59bc f731 e7bb 7180 13bd e46d 22bc
00000030: 111d 933c 8ed9 dabc a4af 183c 61fe dc3c
00000040: fa65 8cbb c8c6 d5bc 37f5 76bc 9ca4 baba
00000050: 5b28 16bc 999f e9bb e742 b1ba 817c ad3c
00000060: b01c fdbc f0c6 0d3b 1431 2a3b 2fc1 7eb9
00000070: cd35 833b 7b8f 883c f1a2 a2bc 3a1d 993b
-0.00015471232 0.02498504 0.004924486 -0.013470485 -0.01766183 -0.004794721 -0.022513071 0.007928465
-0.013283433 -0.007055517 -0.036011163 -0.009913895 0.017958196 -0.026715066 0.00931922 0.026976766
-0.0042846175 -0.026095763 -0.015073112 -0.0014239731 -0.009164895 -0.007129621 -0.0013523967 0.021177532
-0.030897468 0.0021633469 0.0025969194 -0.00024295294 0.0040042163 0.01666998 -0.019853087 0.0046726735

enc2.4.running_mean f4 [32]
00000000: 79f6 dfbb 8433 29be 39ca 8ebe 3bb2 603f
00000010: f2df 0abd 9a62 123f b3ce 05bf 454b 0f3f
00000020: 82d4 043f cf70 e5be 5af8 0abf bf96 4abf
00000030: a9aa c1be a25d 903e f38a 33bf 3431 b2be
00000040: 94f3 7ebf 0d00 873f c80a 66bf 16fa 06bf
00000050: 70f4 6cbf 6717 2cbe 662e 223f 8314 103f
00000060: 6242 473d be22 22be d931 c0bd f723 1dbe
00000070: f840 1abf 4af9 3bbf 9a1f a03e f8b9 16bf
-0.0068348018 -0.16523558 -0.2788866 0.8777196 -0.033904977 0.57181704 -0.5226852 0.5597423
0.5188676 -0.4481263 -0.54285204 -0.7913627 -0.37825516 0.28196436 -0.70133895 -0.34803164
-0.9959042 1.054689 -0.898602 -0.5272535 -0.9256048 -0.16805802 0.6335205 0.562813
0.048647292 -0.15833566 -0.09384508 -0.15345751 -0.60255384 -0.7342726 0.3127411 -0.58877516

enc2.4.running_var f4 [32]
00000000: f98a 5b40 beed fc3f c482 4740 019c 0440
00000010: 80b6 243f 0b52 233f a0bd 933f 2c8b 8540
00000020: 83f4 5b3f d378 803f dd9a 0e40 d95b 643f
00000030: 417a 323f 6a99 3a3f 5392 523f 337c f73f
00000040: 5b9d d93f 6374 933f 3ff7 e23f e103 e33f
00000050: c7d8 0340 00b5 993f d650 1440 c299 de3f
00000060: 9f40 733f 2bf1 0340 101b 863f d494 4a3f
00000070: 06f6 ef3f 2ec1 d83f 6edd 543f 42f5 0d3f
3.4303572 1.9760053 3.1173563 2.0720217 0.6434097 0.6379706 1.1542244 4.1732388
0.8591997 1.0036873 2.228202 0.8920265 0.69717795 0.7289034 0.82254523 1.9334778
1.7001146 1.1519893 1.7731704 1.7735559 2.060106 1.2008362 2.3174338 1.7390673
0.9502048 2.0615947 1.0477009 0.79133344 1.8746955 1.6933954 0.83150375 0.5545236

bottleneck.0.weight f4 [64, 32, 3, 3]
00000000: 69b0 92bc 8b45 833d 5eff 69bd 246c 8b3d
00000010: 6183 b33d 3570 06bd e006 c33d fce2 18b8
00000020: 9388 15bd 2b73 903d b7b6 0fbd 4476 603d
00000030: f533 63bd fd12 f03c 6e02 993d 32b4 99bd
00000040: d1db 203e b4fe 1c3d fe81 e1bb d247 e83d
00000050: 9642 a7bd 58f1 523b 45d2 873c 55a0 54bd
00000060: 17ee 0fbd 3d71 4fbd 0d8d abbd d4ea 99bd
00000070: 1912 6ebd cfe4 01be dfa0 293d aaf3 873d
00000080: a96e 72bd de88 3c3c 6aac 683d 9d4a 50bc
00000090: 4c6c ff3d f1b6 d13d 7807 0f3d d62f 5abd
000000a0: 978c 33bd 4c83 ec39 6b16 26bd 0fa3 acbd
000000b0: 579c 8abd 283a a3bd 64aa 933d 9f77 b0bd
000000c0: 8ef6 1bbe 5486 7bbc 6415 c9bc 98e9 10be
000000d0: 67d3 a6bc 9df4 ad3d 4afc f1bc 3385 77bd
000000e0: 8f92 17bd 1565 183e bc0a 5e3d 8977 013d
000000f0: 1ae3 12bc f768 a83c 3196 cabb 220a 6abd
00000100: 3b04 a83c 7516 333d 952a 1bba 51c1 5cbd
00000110: c6a7 1b3c 1992 b6bc ea7c abbb b942 843d
00000120: a194 e0bd 5a91 4bbd f8e3 18be a64a 1c3d
00000130: d35c 07ba 362e 223d 4565 42ba b401 d73d
00000140: fb9b 663d bc6f e83d 9eb3 7cbd 10cb f83c
00000150: 3052 ea3c 65c1 26bd 6dd6 02bd 97ae 89bc
00000160: c4ce 89bc e8d6 b9bb f481 b9bd fe53 14be
00000170: db8e 9ebd 7f5f 7f3d 960d d3bd 33f8 9f3d
00000180: c292 813b 9343 1ebd cc0e 5a3b 3b59 febb
00000190: fcbf 3c3c 98b6 30be 638f a7bc 9ad0 283d
000001a0: c870 5e3d 6887 03be 5c7b bd3c d60d 8abd
000001b0: d498 ce3c d24c dfbc 8dbd c83c 755c 273b
000001c0: f7e6 343c 89da 783d 44de 75bd 24d6 613c
000001d0: 15ae b3bd 238d 053d 9371 c2bd bfd3 1fbc
000001e0: 6859 d13c 19a0 0b3d 4609 003d e215 cfbb
000001f0: 00d3 983d a59f 3c3d c9f6 013c a1ce 373c
00000200: 9c0a a03c 43a3 8c3d 7c8c aa3d 8722 883d
00000210: a90f da3d acd1 54bc 3d1d aabc 7c0a b23d
00000220: de62 11bd 8045 8abc d262 343d e1e4 953c
00000230: 4d04 f8bc d0a0 1d3e 0203 433d 86c5 15bd
00000240: 3b99 c1bc ed64 f83d 1142 90bc d3a0 13bd
00000250: ba3d 943c 3562 1b3e cf04 d13b 1e34 b03c
00000260: 8d55 703b e16f 853d fe48 c83c 49c5 c8bd
00000270: 6eb7 fd3d e547 873d 9629 cd3d 369d 853b
00000280: 4a81 b6bd 973b 403d 6151 0dbc d8c0 313d
00000290: 2ce0 913d c08e c0bd 5219 853d 88be 32bd
000002a0: 8fdb 91bc 7c6a 72bc 1deb 8b3d 02e3 ec3c
000002b0: e8e9 10bd ed76 063e 3a06 b93b b18c 173d
000002c0: bfe7 0b3d 9dc6 1e3d 961c 2e3d 115f 07bd
000002d0: f1bf d7bc a8f0 bb3c 1219 ca3c a751 fdbb
000002e0: e5ac 613c 9af0 32bd 38a0 06bd a911 273d
000002f0: 0c65 103e 7f1e ebbc 7b75 5ebc 2c01 b03d
00000300: 3041 093d 1cd1 433d f8b2 213c 3497 9dbb
00000310: 4459 1bbd 5b69 09bc 3507 5cbc 65e9 a3bc
00000320: 8bbe ce3c 352b c0bc 6f92 a9bd 9744 1f3e
00000330: eb0c d4bd bb57 d0bd d9d4 55bb 0519 733c
00000340: 3e29 21bc 3617 233c a208 4c3d 7cdf 9ebc
00000350: e549 b63c a837 a13d 155a b2bc a227 b7bd
00000360: 1a9c febb eae5 103d 11bb cb3d e3b4 0bbd
00000370: b65d 0bbd 0ffd e33c b7f6 89bd d446 c1bc
00000380: af41 c73d 75f6 7bbd 421a 4c3c 438a b73d
00000390: e763 76bd 5b9a d03c 9a44 933d 8bd4 c2bb
000003a0: 4039 d2bd e15b 41bd 1458 4d3d 0e58 23bd
000003b0: 1b52 9e3d a03d b03c cb22 8bbd 34bd bcbd
000003c0: 37a6 daba 2df9 ca3c b8f5 b43c 5fa7 403d
000003d0: 99ad ab3d 3dad b8bd ed54 afbb f314 363e
000003e0: 0e72 8a3d 8c93 3cbb 09b6 243c 2ad0 24bd
000003f0: 17ec 8c3d b18d 6cbd ddd2 08be 9d50 cd3d
-0.017906385 0.06409749 -0.057128303 0.068077356 0.08765293 -0.032821853 0.09522796 -3.645102e-05
-0.0365072 0.070532165 -0.03508636 0.054800287 -0.055469472 0.02930593 0.074711666 -0.07505073
0.15708853 0.03832884 -0.0068819514 0.11341824 -0.08166997 0.003218731 0.016579757 -0.051910717
-0.03513917 -0.0506451 -0.08376513 -0.07515493 -0.058122728 -0.1268494 0.041413184 0.06638272
-0.059187565 0.011507241 0.056805052 -0.012713102 0.12471828 0.102399714 0.034919232 -0.053268276
-0.04383525 0.00045111252 -0.040548723 -0.084295385 -0.06768101 -0.07970077 0.07210234 -0.08616566
-0.15230772 -0.015351851 -0.024546333 -0.14151609 -0.020364476 0.08493922 -0.029539246 -0.060429763
-0.037005004 0.1488231 0.054209456 0.03160814 -0.008965278 0.020557864 -0.006182455 -0.05713857
0.02050983 0.04372259 -0.0005919126 -0.0538953 0.0095004495 -0.022286462 -0.005233397 0.06458039
-0.10965849 -0.049699165 -0.14930713 0.038157128 -0.0005163673 0.03959485 -0.0007415603 0.10498372
0.0563011 0.11349437 -0.061694734 0.030370265 0.028603643 -0.04071178 -0.031942774 -0.016806884
-0.016822226 -0.005671371 -0.0905799 -0.14485165 -0.07742091 0.06234693 -0.10305326 0.07811012
0.0039542625 -0.038638663 0.003327298 -0.007762102 0.011520382 -0.17257154 -0.020454114 0.041214563
0.054306775 -0.12844622 0.023130111 -0.0674092 0.025219359 -0.02725831 0.024504447 0.0025537286
0.011041394 0.060755286 -0.060026422 0.013783965 -0.08773438 0.0326053 -0.09494319 -0.009755074
0.025555328 0.034088228 0.031258844 -0.0063197473 0.0746212 0.046050686 0.007932373 0.011218698
0.019536309 0.06867077 0.083275765 0.066472106 0.10647518 -0.012989443 -0.020765895 0.08693406
-0.035494678 -0.016878843 0.044039555 0.018297615 -0.030275488 0.15393376 0.04761029 -0.036565326
-0.023632636 0.12128625 -0.017609628 -0.036042046 0.01809584 0.15174182 0.006378747 0.021509226
0.0036672086 0.0651548 0.024448868 -0.09803254 0.12388502 0.0660551 0.100176975 0.004077579
-0.08911379 0.04693183 -0.008625359 0.0433968 0.071228355 -0.094022274 0.0649897 -0.043638736
-0.017804889 -0.014795896 0.06831954 0.02891684 -0.03537932 0.13131304 0.005646494 0.03699941
0.034156557 0.03876363 0.04250773 -0.033049647 -0.026336642 0.022941902 0.024670158 -0.007730681
0.013774131 -0.043686487 -0.03286764 0.040788326 0.14101046 -0.028701065 -0.013577814 0.085939735
0.033509433 0.047806844 0.00986933 -0.0048092846 -0.037926927 -0.008386935 -0.013429453 -0.020008752
0.025237342 -0.023458103 -0.08279883 0.15553509 -0.103540264 -0.10172983 -0.0032628088 0.014837508
-0.009836493 0.009954264 0.04981292 -0.019393675 0.022252033 0.07871944 -0.02177147 -0.08943106
-0.0077700736 0.035375513 0.099477895 -0.034108054 -0.034024917 0.027830629 -0.0673651 -0.023593344
0.09729325 -0.061514337 0.012457432 0.08961918 -0.060153868 0.025464227 0.07190819 -0.0059457473
-0.10264826 -0.047206763 0.050132826 -0.039878897 0.07730504 0.02151376 -0.067937456 -0.09215775
-0.0016681616 0.02477702 0.022089824 0.047034618 0.083827205 -0.090174176 -0.0053507 0.17781429
0.067600355 -0.0028774468 0.010053166 -0.040237583 0.06880968 -0.057752315 -0.13361688 0.100251414

bottleneck.1.weight f4 [64]
00000000: 42dd 823f 1bcf 7c3f b719 803f b2fe 7f3f
00000010: 457c 7b3f 2cb5 853f 4ed4 7c3f cdb8 7f3f
00000020: e2e6 7d3f 50b6 813f d881 7f3f 2c17 803f
00000030: 78d8 833f f952 7b3f fcb2 823f b92c 7a3f
00000040: 3283 803f 4dfd 813f d083 793f 118b 803f
00000050: 8cd3 803f f0fb 7f3f 355f 7c3f cb83 7e3f
00000060: 7101 7d3f 4e38 813f 530d 803f e1a9 803f
00000070: d7f8 7f3f 6d00 7d3f 7c72 7b3f 266e 833f
00000080: e761 803f 9b76 833f a1f7 823f 5a5d 7c3f
00000090: ecae 7e3f 6c3e 7e3f a508 7d3f f823 7f3f
000000a0: 7666 7a3f 0bb4 7a3f 8b7a 7c3f f336 843f
000000b0: 65fd 833f f9b1 793f 6468 7d3f ea6b 7d3f
000000c0: b7e9 7f3f 9ed6 7f3f d6e9 833f 12a0 803f
000000d0: 83cd 7f3f 0357 7e3f 9d4a 7c3f b3db 803f
000000e0: 37cc 7b3f 7bcd 7b3f 66e8 7c3f ffa6 833f
000000f0: 9f37 853f acd5 813f 0d4b 7c3f ed07 813f
1.0223773 0.9875352 1.0007848 0.9999801 0.98236495 1.0445914 0.9876145 0.9989136
0.99180424 1.0133762 0.998075 1.0007071 1.0300436 0.9817348 1.0210872 0.9772449
1.0040038 1.0155426 0.97466755 1.004244 1.0064559 0.999938 0.98582774 0.9941985
0.98830324 1.0095308 1.0004066 1.0051843 0.99989074 0.98828775 0.98221564 1.026799
1.0029877 1.027057 1.023182 0.98579943 0.9948566 0.99314 0.98841316 0.9966426
0.97812593 0.97930974 0.98624486 1.0329269 1.0311705 0.9753719 0.9898741 0.9899279
0.99965996 0.99936855 1.0305736 1.004885 0.9992296 0.9935152 0.9855135 1.0067047
0.9835848 0.98360413 0.9879211 1.0285338 1.0407599 1.0143332 0.9855202 1.0080544

bottleneck.1.bias f4 [64]
00000000: 26a5 cbbc 0da4 cb3b 0487 58bb 6cc0 2f3c
00000010: ec45 d0bb 2b88 883c 2ef2 06bc f3c9 733c
00000020: 56f1 b83b fab0 8f3b 8f85 11bb 4504 09bc
00000030: 66dc 23bb 2d8f f1bb 9017 2a3c 6124 44bc
00000040: 9fe0 b4bb 3059 17bb 5821 f3ba 7206 4d3b
00000050: 95fd 1ebc 913d 37bb abc5 08bd 132b c8bc
00000060: 3a02 f5bb cd6a 873c 5b69 bbbc d4be ecbc
00000070: d89f e53b 7238 c0bc 6c9e abbc 6411 a43b
00000080: a638 2f3c b598 8cba cae7 213c e844 7db6
00000090: 2c26 91bc a274 65bc 5fe4 883c 11aa 06bb
000000a0: 031b 01bc d0de 6abc 6da3 91bc fbf6 c6b9
000000b0: a9af cc3c ded6 d5bc 3294 37bc 5bae c6bc
000000c0: edd9 eeb9 2462 02bc c689 b7bb b5d8 cfbc
000000d0: 3a25 c43b 6f04 4cba f71f 94bc f740 13bc
000000e0: 2e86 bdbc 7a42 91bc 3383 69bc 5b37 eebb
000000f0: 8316 803b f72e c4bc 6563 1cbc 27cb 163b
-0.024859022 0.0062146247 -0.003303946 0.010727029 -0.0063559916 0.016666492 -0.008236451 0.014879691
0.005644004 0.004385111 -0.0022204851 -0.008362834 -0.0025003194 -0.007371804 0.010381594 -0.011971564
-0.005519941 -0.0023093931 -0.0018549366 0.003128436 -0.009704013 -0.002796028 -0.033391636 -0.024434602
-0.007477072 0.016530419 -0.022877386 -0.028899588 0.0070075803 -0.023464415 -0.020949565 0.005006956
0.010694658 -0.0010726663 0.009881923 -3.7740047e-06 -0.017718397 -0.014004858 0.016710458 -0.0020548145
-0.007879975 -0.014335349 -0.017778123 -0.00037949518 0.024986105 -0.026103433 -0.011204766 -0.024253061
-0.00045557265 -0.007957969 -0.0056011407 -0.025371889 0.005985883 -0.0007782643 -0.018081648 -0.008987657
-0.02313527 -0.017731894 -0.014252472 -0.0072697825 0.0039089336 -0.023948176 -0.009545182 0.0023009272

bottleneck.1.running_mean f4 [64]
00000000: 7a81 213f 5cac f83e 14f4 30bf 6f84 25bf
00000010: 56b0 c2bf d2ff 563e 4894 88bf 80ef 913f
00000020: 072f 573f f42f 5bbf 24ca 08bf 669d 013f
00000030: b103 77bf b6d1 aebe ebf0 9cbc b761 643f
00000040: 625c cd3e 9624 a23f beca b5bf 1c8f 48bf
00000050: d10c b93e f32b 0fbf defd 1bbf fe99 b4bc
00000060: b00d b9be 58de 9dbf 83db 563f 8d42 6d3e
00000070: 4668 413f 5edc 963e b42b 2dbf 1707 abbf
00000080: d1ee 98bf 3a0e 89be ccbe f5bd e170 3e3f
00000090: ae05 873f d2b4 a03e 16b7 b13f 3750 72bd
000000a0: b467 623f f67d 24bd 41bd 96be f2d0 c03e
000000b0: 5890 51be 983a 03bf 5e2a ab3d bf2a d73e
000000c0: b319 64bf 4745 933e ce7a 26bf ae05 793e
000000d0: 5009 e2bf 3e3e b63b 2a20 06bf 9b2f 663f
000000e0: ea4a b3bf e9d3 92bf 1b0d 053f b6b8 85be
000000f0: 2a0e 923d 296a 633e 32fb a53e 4863 94bf
0.6308819 0.48569 -0.69122434 -0.646552 -1.5210063 0.20996025 -1.0670252 1.1401215
0.84056133 -0.85620046 -0.5343344 0.50630796 -0.9649001 -0.34144372 -0.019157847 0.892116
0.40109545 1.2667415 -1.4202497 -0.7834337 0.3614259 -0.55926436 -0.60934246 -0.022046085
-0.36143255 -1.2333479 0.839287 0.23169918 0.75549734 0.29465002 -0.6764481 -1.3361539
-1.1947881 -0.26768667 -0.11999282 0.7439099 1.0548608 0.31387955 1.3883998 -0.05915853
0.8843949 -0.04015919 -0.29441264 0.37659413 -0.20465219 -0.5126128 0.0835769 0.420248
-0.89101714 0.28763792 -0.65031135 0.24318573 -1.7659092 0.005561619 -0.5239283 0.8991639
-1.4007237 -1.147092 0.5197312 -0.26117486 0.07131608 0.22208466 0.3241821 -1.1592798

bottleneck.1.running_var f4 [64]
00000000: 0b07 a93e 0191 7d3f ce12 833f b43a b13f
00000010: f16c 2540 e938 a43f 6b28 cb3f 634c c33f
00000020: f949 2240 bfbc f63f f2d5 b43e 3a42 473f
00000030: b297 503f 5a26 993f 8bb5 fd3e 0c2a 883f
00000040: 7cc8 5f3f 12bc e73f 5ad6 ca3f 3991 ef3f
00000050: 641c 273f 348b 1840 43c0 d83f 15f0 6a3f
00000060: afb0 3b3f f711 bc3f 4fd4 d23f b0e3 c73e
00000070: 41a4 163f bd55 fa3e 55c5 c43f ddd2 543f
00000080: 8b9f a33f b973 f03e 18ba 073f ffde 703f
00000090: 4525 f83f 6ab9 9f3f f000 3d40 d43a 923f
000000a0: f2d3 3f3f 54ac 3f3f f33f b43e d91f c93e
000000b0: dc9a 0e3f 24fe 833e b94b 083f a341 1a3f
000000c0: 0f2c c73e c31e 583f efba 273f 070d 5b3f
000000d0: 1cda 2340 0c93 e33f 0218 0d3f 458c 643e
000000e0: 8a65 bc3f 36f0 5040 a9e6 ff3e 34da 2d3f
000000f0: d174 aa3e 51c9 2b3f afd6 8a3f 883f 473f
0.33013186 0.99049383 1.0240114 1.384604 2.5847743 1.2829868 1.587171 1.5257686
2.535765 1.9276351 0.35319477 0.7783543 0.8148147 1.1964829 0.4955257 1.0637832
0.8741529 1.810427 1.5846665 1.8716193 0.65277696 2.3834963 1.6933674 0.91772586
0.7331647 1.4692982 1.6471041 0.390409 0.5884438 0.48893538 1.5372721 0.8313425
1.2783064 0.4696329 0.5301833 0.94090265 1.9386374 1.2478459 2.9531822 1.1424203
0.7493278 0.74872327 0.3520504 0.3928211 0.55705047 0.2577983 0.53240544 0.60256404
0.38900802 0.8442194 0.65519613 0.85566753 2.5601873 1.777925 0.5511476 0.22319134
1.4718487 3.2646613 0.49980667 0.67911077 0.3329225 0.6710406 1.0846766 0.77831316
