experiments_multi/Brain_Tumor_Segmentation_Separate_Train_Val_20260208_100938/best_model_state.pth (torch, 141221 bytes, 56 tensors)

enc1.0.weight f4 [8, 4, 3, 3]
0	0x3e232048	0.15930283
1	0x3c58d665	0.013234709
2	0xbdb3a78f	-0.08772194
3	0x3eb9f874	0.36322367
4	0x3dac9dc8	0.08428532
5	0xbe082a46	-0.13297376
6	0xbe71a169	-0.2359673
7	0x3e8e7237	0.27821514
8	0x3c9829a6	0.018574547
9	0x3e25fdce	0.162101
10	0xbe0cb8c5	-0.13742359
11	0x3e71850d	0.23585911
12	0x3d809c80	0.0627985
13	0xbde111b5	-0.109897055
14	0x3db91e7a	0.09039016
15	0xbe25f8fe	-0.16208264
16	0x3e1c0c48	0.1523906
17	0xbd2bf117	-0.041977968
18	0x3dbb60fb	0.09149357
19	0x3df1738f	0.11789619
20	0x3cb5451e	0.022127684
21	0xbdd66ab0	-0.10469568
22	0x3d23d953	0.04000218
23	0x3e7bbca1	0.24583675
24	0x3d8cd4c7	0.068765216
25	0x3d7ccafe	0.061717026
26	0xbe326cf8	-0.17424381
27	0xbda9c6ec	-0.082898945
28	0xbe62f4f5	-0.22163756
29	0x3e625ee6	0.22106513
30	0xbec67426	-0.3876049
31	0x3cd9f1f2	0.026604626
32	0x3d5fd9a8	0.054650933
33	0x3e19d65d	0.1502318
34	0x3d1eae21	0.03874028
35	0xbda01302	-0.078161255
36	0xbdf213a7	-0.11820155
37	0xbe1caa37	-0.15299307
38	0x3e4c676f	0.19961332
39	0x3dc20686	0.094739005
40	0x3e5d8dc1	0.21636106
41	0xbe3705ef	-0.17873357
42	0xbded5544	-0.11588529
43	0x3d90c7b7	0.070693426
44	0xbc1be390	-0.009514704
45	0x3d0aeea7	0.033919003
46	0xbc8e8e4e	-0.01740184
47	0x3d4cbc5c	0.04998432
48	0x3e4def68	0.20110857
49	0x3d8f97d1	0.070113786
50	0x3e5f40ea	0.21802106
51	0x3e0969ad	0.13419218
52	0x3e45d223	0.19318442
53	0xbc29031f	-0.0103156855
54	0x3e80ce92	0.251576
55	0x3e4e2f82	0.2013531
56	0xbe41b1b6	-0.18915448
57	0xbe454f0b	-0.19268434
58	0x3e701936	0.23447117
59	0xbe0290d6	-0.12750563
60	0x3dd9c298	0.10632819
61	0x3cf59324	0.029977389
62	0x3df6e691	0.12055696
63	0xbd842274	-0.06451884
64	0x3dab2486	0.08356576
65	0x3e4caa65	0.19986875
66	0xbd81db1d	-0.06340621
67	0x3c600d43	0.013675037
68	0x3e88fd36	0.26755685
69	0xbe00c463	-0.12574916
70	0xbea80b74	-0.32821238
71	0xbd2b6c99	-0.041851614
72	0xbe3793ed	-0.17927523
73	0xbe128379	-0.14307965
74	0xbbc67970	-0.006056957
75	0x3d0048da	0.031319477
76	0x3e7d502e	0.24737617
77	0x3e132253	0.14368562
78	0x3d0724ca	0.03299407
79	0xbe2bddde	-0.16783854
80	0xbe5f9c74	-0.21837026
81	0x3e12838e	0.14307997
82	0x3dff84d2	0.12476505
83	0xbd905073	-0.070465945
84	0xbe18ff28	-0.14941084
85	0xbe60c6ce	-0.21950838
86	0x3dd84ab6	0.10561125
87	0xbd508206	-0.05090525
88	0x3e3d1939	0.18466653
89	0xbdfcb7ad	-0.12339721
90	0x3e85d4e5	0.26138988
91	0xbd50632c	-0.050875828
92	0xbb6ac3d4	-0.003582229
93	0x3e4080bd	0.1879911
94	0xbe090ed0	-0.13384557
95	0x3e964d96	0.29356068
96	0xbdcb864c	-0.099377245
97	0x3e1756c2	0.14779189
98	0x3d970f01	0.07375909
99	0x3e5fc67f	0.21853064
100	0xbe3ba290	-0.18323731
101	0x3da1b085	0.078949966
102	0xbe54baba	-0.20774356
103	0x3d8801dc	0.0664098
104	0xbddc757b	-0.10764595
105	0xbefb98e8	-0.49140096
106	0xbe90e14b	-0.28296885
107	0xbcafb5db	-0.02144902
108	0xbe8b1c1f	-0.27169892
109	0xbe8d1789	-0.27557018
110	0xbdcd938d	-0.10037909
111	0x3d976cfc	0.07393834
112	0x3de02791	0.10945047
113	0x3da20e83	0.07912924
114	0x3e42c162	0.19019082
115	0x3dd26c3c	0.1027455
116	0xbdd895e6	-0.10575466
117	0xbd83cb99	-0.064353175
118	0x3d16a377	0.036776986
119	0xbd81df81	-0.06341458
120	0xbd644279	-0.055727456
121	0x3ca237c0	0.019801974
122	0xbdc241c6	-0.094852015
123	0xbdc848cf	-0.09779512
124	0x3d498d7c	0.049207196
125	0xbc9857fb	-0.01859664
126	0x3ddf9bde	0.10918401
127	0x3e067368	0.13129961
128	0x3da4adbb	0.08040949
129	0xbd15194d	-0.03640108
130	0x3df0c84a	0.11756952
131	0xbdc4c79e	-0.096083865
132	0xbc2653f3	-0.010151851
133	0x3e6660a6	0.22497806
134	0xbdc2b49d	-0.095071055
135	0xbe338c5f	-0.17534016
136	0xbd524dee	-0.05134385
137	0x3e59d2cf	0.21271823
138	0x3e858747	0.2607977
139	0xbe147871	-0.1449907
140	0xbe93baa1	-0.28853324
141	0xbd0d101d	-0.034439195
142	0x3d8344bb	0.06409594
143	0xbd10d6a7	-0.03536096
144	0x3e78c8be	0.24295327
145	0x3d71a598	0.058995813
146	0xbed55fba	-0.41674596
147	0xbda216e2	-0.07914521
148	0x3dc145b6	0.094371244
149	0x3d4ecde9	0.05048934
150	0xbe6451fd	-0.22296901
151	0xbd4022c0	-0.04690814
152	0xbd0ab9d1	-0.033868615
153	0x3d20db65	0.03927173
154	0xbd547020	-0.051864743
155	0x3e7161d5	0.23572476
156	0x3daa2ec7	0.08309703
157	0xbdb6a691	-0.08918489
158	0xbb8ef67f	-0.0043628807
159	0x3d731770	0.059348524
160	0x3e8d2811	0.2756963
161	0xbea869b7	-0.32893154
162	0x3e8e2db9	0.2776926
163	0xbd873fde	-0.066039786
164	0xbd1269b1	-0.035745326
165	0x3cb348b1	0.021885248
166	0x3e88e487	0.26736853
167	0xbe8f0240	-0.27931404
168	0x3c823aeb	0.015897235
169	0xbd88157c	-0.06644723
170	0xbeab17ee	-0.33416694
171	0x3d15e000	0.036590576
172	0x3c10d604	0.008840088
173	0x3d6c59ad	0.05770271
174	0xbcf7557d	-0.030192131
175	0xbe2bec82	-0.1678944
176	0xbd310fec	-0.043228075
177	0xbd9aeec6	-0.07565074
178	0x3e48053f	0.19533251
179	0xbd0bbf3f	-0.034117933
180	0xbc1e0884	-0.009645585
181	0x3d5d3c47	0.054012563
182	0x3e207c0c	0.1567232
183	0xbd963186	-0.073336646
184	0x3d49606a	0.049164213
185	0x3dcaa867	0.098954014
186	0xbde9ae6a	-0.1141022
187	0xbe934d2d	-0.28769818
188	0x3cef1be3	0.029188102
189	0x3ca66dc7	0.020316018
190	0xbe71f410	-0.23628259
191	0xbe6f6db9	-0.233817
192	0xbdb34961	-0.0875423
193	0x3da43425	0.08017758
194	0x3d89e130	0.06732404
195	0xbe46ca33	-0.1941307
196	0xbc8a047a	-0.016847838
197	0xbe80ebde	-0.25179952
198	0xbdbbc3c6	-0.091682
199	0x3dc25ad0	0.09489977
200	0xbe240f8b	-0.16021554
201	0x3d6807bc	0.056648
202	0x3d75812f	0.059937652
203	0x3d02b7db	0.03191362
204	0xbd306f11	-0.04307467
205	0xbddada23	-0.106861375
206	0xbdf1bb51	-0.11803306
207	0x3e27ebcf	0.16398548
208	0xbd943a88	-0.072377264
209	0xbd00f3b8	-0.03148243
210	0xbcf7c4cb	-0.030245205
211	0xbe1ee1d7	-0.15515839
212	0xbd632406	-0.055454277
213	0x3e82372e	0.25432724
214	0xbc899c25	-0.016798088
215	0x3e56b729	0.20968308
216	0x3b4fccca	0.0031707757
217	0xbd7ddca5	-0.061978
218	0xbd58555d	-0.052815784
219	0xbe69c98c	-0.2283079
220	0xbd836a12	-0.06416716
221	0x3d977d3b	0.07396933
222	0x3e1d9e57	0.15392433
223	0xbe1a28fe	-0.150547
224	0x3e3c3387	0.18379031
225	0x3e7699bb	0.24082081
226	0x3db6b561	0.08921314
227	0x3e4ed4fd	0.20198436
228	0x3ebbc8c4	0.3667661
229	0x3e720288	0.23633778
230	0xbe2867a1	-0.16445781
231	0xbdbe9b85	-0.09307007
232	0x3e508fcf	0.20367359
233	0xbe34f2cb	-0.17670743
234	0x3dbe7f50	0.09301627
235	0xbdc0722b	-0.09396776
236	0x3ca81be8	0.02052112
237	0x3ea758fe	0.32685083
238	0x3d823114	0.06357017
239	0xbd167806	-0.036735557
240	0x3e923c4b	0.28561625
241	0xbda4f5d5	-0.08054701
242	0xbe4898e4	-0.19589573
243	0x3d908306	0.07056241
244	0x3c886475	0.016649464
245	0x3cc130fc	0.023582928
246	0xbdf7f095	-0.12106434
247	0xbdacea76	-0.084431574
248	0xbe986adb	-0.29769024
249	0xbe674193	-0.22583608
250	0xbca9fe3d	-0.020751113
251	0x3e329323	0.1743894
252	0x3e6fd329	0.23420395
253	0x3e54d6fb	0.20785134
254	0xbd1b7eb6	-0.037962638
255	0xbd8c0e06	-0.06838612

enc1.1.weight f4 [8]
0	0x3f7c6a0e	0.98599327
1	0x3f7ee9bb	0.99575394
2	0x3f814e07	1.0101937
3	0x3f819b0b	1.012544
4	0x3f7b6c8a	0.9821249
5	0x3f84294a	1.03251
6	0x3f823bd0	1.0174503
7	0x3f816e7f	1.0111846

enc1.1.bias f4 [8]
0	0xbca32def	-0.019919364
1	0x3c8b2612	0.016985927
2	0x3c5c519e	0.013447193
3	0x3bc5ab64	0.0060323942
4	0xbd088ef1	-0.033339445
5	0x3cfde780	0.030994177
6	0x3cedcd7a	0.029028643
7	0x3d287bf5	0.04113384

enc1.1.running_mean f4 [8]
0	0x3e12a80e	0.1432192
1	0x3e59965b	0.21248762
2	0xbdf71000	-0.12063599
3	0xbd841d2b	-0.06450876
4	0xbd847888	-0.06468302
5	0xbe2ff138	-0.17181861
6	0x3dee69f6	0.11641304
7	0x3e98e1a6	0.29859656

enc1.1.running_var f4 [8]
0	0x3d6e249a	0.058140375
1	0x3e03113a	0.1279954
2	0x3d4f3bf2	0.050594278
3	0x3c87c4aa	0.016573269
4	0x3c69dae6	0.014273381
5	0x3daccfc3	0.08438065
6	0x3d2c2198	0.042024225
7	0x3e8bf690	0.2733655

enc1.3.weight f4 [8, 8, 3, 3]
0	0x3e2a67f6	0.1664122
1	0x3e5945b7	0.21218
2	0x3dbcf8f9	0.09227175
3	0xbe880517	-0.26566383
4	0x3dde7a5a	0.108631805
5	0xbed1b3a7	-0.40957376
6	0x3e125594	0.14290458
7	0xbdcdb879	-0.10044951
8	0xbe34dec4	-0.17663103
9	0xbe838c18	-0.2569282
10	0x3c6c8878	0.014436834
11	0xbda83f03	-0.082151435
12	0x3e98c0eb	0.29834685
13	0x3df6acdc	0.12044689
14	0xbe8e8fe4	-0.27844155
15	0x3c42250e	0.011849655
16	0xbe51e3be	-0.20497033
17	0x3e7e3242	0.2482386
18	0xbc882f89	-0.016624229
19	0xbc71b313	-0.014752167
20	0xbea2cd18	-0.317971
21	0x3e5f469d	0.2180428
22	0x3e30795f	0.172338
23	0xbe8684b7	-0.26273128
24	0x3e8139e4	0.2523948
25	0xbdd1343a	-0.102150396
26	0x3e66b6a9	0.22530617
27	0xbadc15bc	-0.0016791145
28	0x3c395225	0.011311089
29	0xbe056241	-0.13025762
30	0x3dc3494b	0.09535464
31	0xbe05fbf5	-0.13084395
32	0x3d04db6d	0.032435823
33	0xbb028e07	-0.001992108
34	0xbe1e3aa5	-0.15452059
35	0xbe996f1b	-0.2996758
36	0xbe48d500	-0.19612503
37	0x3cc625c5	0.024187932
38	0xbd3dec71	-0.046368066
39	0xbe6d4519	-0.2317089
40	0x3e674a3f	0.22586916
41	0xbc1aa9ed	-0.0094399275
42	0xbd0fef9b	-0.035140615
43	0x3db8aad0	0.09016955
44	0xbe9e6a23	-0.3094035
45	0x3d50e73a	0.051001765
46	0xbddc6377	-0.10761159
47	0xbda8cbd5	-0.08242003
48	0x3b942b88	0.004521791
49	0x3c07aca0	0.008280903
50	0xbdffb1e4	-0.12485102
51	0x3d8b5e91	0.068051465
52	0x3dc7f47c	0.097634286
53	0x3da76fd3	0.08175626
54	0xbe33be2c	-0.17553014
55	0x3e2fa393	0.17152242
56	0xbdae8616	-0.085216686
57	0x3e452b59	0.19254817
58	0x3e46ca63	0.19413142
59	0x3ed16356	0.408961
60	0x3e41b60a	0.18917099
61	0x3d92d78c	0.071700186
62	0xbe711863	-0.23544459
63	0x3e4f50a0	0.202456
64	0xbd6d04bb	-0.05786584
65	0xbe3b0889	-0.18264975
66	0x3cdfcbdf	0.027318893
67	0x3ebd886d	0.37018147
68	0x3dc0ab80	0.09407711
69	0x3e25235e	0.16126773
70	0x3e157372	0.1459482
71	0xbe7676e3	-0.24068789
72	0x3dc07e2a	0.09399064
73	0xbdfe9384	-0.1243048
74	0x3e84840e	0.25882
75	0x3d88d635	0.06681482
76	0x3d18bdf0	0.037290514
77	0xbe0dd170	-0.13849425
78	0x3d3f4f7e	0.04670667
79	0x3d88e6fa	0.0668468
80	0x3ede0c3a	0.43368703
81	0x3c9ae6eb	0.018908938
82	0xbe0ebfa5	-0.13940294
83	0x3e2e847b	0.17042725
84	0x3e2ffc08	0.17185986
85	0x3db7a7bb	0.08967539
86	0x3d9799cf	0.074023835
87	0x3e5f792b	0.21823566
88	0x3c999478	0.018747553
89	0x3dd56984	0.10420516
90	0x3c69ec1d	0.014277485
91	0xbbedca36	-0.0072567714
92	0x3e5e643a	0.21717921
93	0xbe6b03a8	-0.22950613
94	0xbd77a481	-0.060459618
95	0x3df12763	0.117750905
96	0x3d9c8e1f	0.07644295
97	0xbcba99c4	-0.0227784
98	0x3e38e658	0.18056619
99	0x3be806c1	0.0070808833
100	0x3e1cd541	0.15315725
101	0x3e56e1ac	0.20984524
102	0x3d731a4e	0.059351258
103	0xbbe43671	-0.0069644977
104	0xbe4dd352	-0.20100144
105	0xbca3257e	-0.019915339
106	0xbca013c2	-0.019540671
107	0x3e6b1cd4	0.22960216
108	0xbec7d32c	-0.390283
109	0xbe382c7c	-0.1798572
110	0x3dfb4c97	0.12270468
111	0x3df97041	0.12179614
112	0x3e0b2d8c	0.13591594
113	0x3d433998	0.047662348
114	0x3d828986	0.06373887
115	0x3ba113b5	0.0049156793
116	0x3eb0d23d	0.345354
117	0x3e65bfc3	0.22436433
118	0x3e411750	0.1885655
119	0xbd6bfc75	-0.05761381
120	0xbc30b952	-0.010786371
121	0x3dd578b7	0.10423415
122	0xbe258772	-0.1616495
123	0xbe03099c	-0.12796634
124	0x3d7eabba	0.06217549
125	0x3cd07d47	0.025450362
126	0x3daff017	0.085907154
127	0x3e56b617	0.209679
128	0x3d76930c	0.06019883
129	0x3e19219a	0.14954224
130	0x3e87ac13	0.2649847
131	0xbb774de2	-0.003773563
132	0xbe91122d	-0.2833418
133	0x3eba0035	0.36328283
134	0x3dd3e515	0.10346428
135	0xbdc404c9	-0.09571225
136	0xbeb5e877	-0.3552892
137	0x3ec6f4ee	0.38858742
138	0x3d245347	0.040118482
139	0x3e8322d4	0.2561251
140	0x3e243488	0.16035664
141	0x3eb17af1	0.3466411
142	0xbe331ab8	-0.17490661
143	0x3c39677b	0.011316176
144	0xbe263bfc	-0.1623382
145	0x3e21c087	0.157961
146	0x3babfaca	0.0052484022
147	0xbd92527a	-0.071446374
148	0xbeb89673	-0.36052284
149	0x3dc1206d	0.09430013
150	0x3daa68b1	0.083207496
151	0x3dda49a4	0.10658577
152	0xbe5d95d7	-0.2163919
153	0x3e6192f6	0.22028717
154	0x3d4bcbc5	0.049754877
155	0x3dfc54ee	0.123208866
156	0xbe7309e1	-0.23734237
157	0x3dd518e7	0.1040514
158	0x3e0783c5	0.1323386
159	0xbdf1a9b3	-0.11799946
160	0x3df90ab9	0.12160248
161	0xbd9be6a3	-0.0761235
162	0xbd44fb2b	-0.048091095
163	0x3e46196c	0.19345635
164	0x3e24f0f7	0.16107546
165	0xbaa09eae	-0.0012254321
166	0xbe91d39f	-0.28481767
167	0xbe11fb66	-0.14256057
168	0xbe541449	-0.20710863
169	0x3d6d09cf	0.057870682
170	0xbdf2d5e7	-0.11857205
171	0x3daf1aae	0.085500106
172	0x3eba7b41	0.3642216
173	0x3d55caba	0.05219529
174	0x3e67f2c7	0.22651206
175	0x3e161161	0.14655067
176	0xbc6fd4b1	-0.014638112
177	0xbdfd9932	-0.12382735
178	0x3e1b09ca	0.15140453
179	0xbdc3a002	-0.095520034
180	0x3e38a022	0.18029836
181	0x3e28ee73	0.16497211
182	0xbd6983d1	-0.057010476
183	0xbe11fd0a	-0.14256683
184	0xbdc16de9	-0.09444792
185	0xbe89bc9f	-0.2690172
186	0x3e6fff58	0.2343725
187	0x3daa2555	0.08307902
188	0x3d2d89f1	0.04236788
189	0x3d84554b	0.06461581
190	0x3e189ed7	0.14904343
191	0x3e653088	0.22381794
192	0xbdd76cf0	-0.10518825
193	0xbe351752	-0.17684677
194	0x3dace0cb	0.08441313
195	0xbe996ce3	-0.29965886
196	0xbdd824b8	-0.105538785
197	0xbd0a63b2	-0.033786483
198	0x3e4cf6e1	0.20016052
199	0xbd5026c4	-0.05081822
200	0x3e55ae5f	0.20867299
201	0x3af8eb6e	0.0018991062
202	0xbcf0239d	-0.029313857
203	0x3e063a0a	0.13108078
204	0x3ed80dfd	0.42198172
205	0xbdef52e4	-0.11685732
206	0xbe71e603	-0.23622899
207	0x3ea82b26	0.3284542
208	0x3db2b273	0.08725443
209	0xbeb82e28	-0.35972714
210	0xbe2b1ad9	-0.1670946
211	0x3e0f6ae5	0.14005621
212	0xbda99996	-0.08281247
213	0x3e7683d2	0.24073723
214	0xbe1d9af3	-0.1539114
215	0xbd9f9597	-0.07792204
216	0x3ebe3c5f	0.37155434
217	0x3dd2c9a3	0.102923654
218	0x3e41a2d8	0.18909776
219	0x3d3ae34a	0.045626916
220	0x3e1eec96	0.15519938
221	0xbd84e6cd	-0.06489334
222	0x3e0b9768	0.13631976
223	0xbd8940ac	-0.06701788
224	0xbe2e9f5c	-0.17052978
225	0xbdd9e067	-0.106385045
226	0x3d0c4370	0.034244
227	0x3da8d335	0.082434095
228	0x3e2b6dca	0.167411
229	0xbe4133aa	-0.18867365
230	0x3ea013d7	0.31265137
231	0xbe69dbaa	-0.22837701
232	0xbcde0676	-0.02710269
233	0x3c3e0b7a	0.011599416
234	0x3d38e146	0.045136712
235	0xbe333e66	-0.17504272
236	0x3d3748cd	0.044747163
237	0xbd124d5f	-0.035718318
238	0x3e4cada4	0.19988114
239	0x3e270997	0.16312252
240	0x3deef5dc	0.11667988
241	0x3d0e155a	0.03468833
242	0x3da29ec4	0.079404384
243	0x3e9a4f0b	0.3013843
244	0x3e86904e	0.2628197
245	0x3d5cce87	0.053907897
246	0xbd8064d2	-0.0626923
247	0x3de50e7a	0.11184402
248	0xbef269d2	-0.4734636
249	0xbd8905f1	-0.06690586
250	0xbe33c520	-0.17555666
251	0x3e1985da	0.14992467
252	0x3d3cad98	0.04606399
253	0xbddb14ce	-0.106973276
254	0x3da196e9	0.07890112
255	0xbe344fa1	-0.17608501

enc1.4.weight f4 [8]
0	0x3f80d16e	1.0063913
1	0x3f7751f8	0.9660945
2	0x3f802376	1.0010822
3	0x3f80a56f	1.0050486
4	0x3f7fcb36	0.9991945
5	0x3f816118	1.0107756
6	0x3f820e2f	1.0160578
7	0x3f7fd99a	0.9994141

enc1.4.bias f4 [8]
0	0x3cb80ec7	0.022467984
1	0xbc8ff025	-0.017570565
2	0x3c152736	0.009103587
3	0x3acb2d85	0.0015501237
4	0xbc10ffc3	-0.008850041
5	0x3be0fb21	0.0068658744
6	0xba702960	-0.0009161439
7	0x3a58fbbb	0.0008277257

enc1.4.running_mean f4 [8]
0	0x3d0f890f	0.03504282
1	0x3fe3101f	1.7739295
2	0x3e9e636a	0.30935222
3	0x3f9df9b0	1.2341824
4	0x3f924092	1.1425955
5	0x3c0f2e0d	0.008739007
6	0x3e8529aa	0.2600835
7	0x3e2ce7fa	0.16885367

enc1.4.running_var f4 [8]
0	0x3f4a9ddb	0.7914712
1	0x407bfbd3	3.9372451
2	0x3e199f08	0.15002072
3	0x4002762a	2.0384622
4	0x3fa724c5	1.3058096
5	0x3fb98f0d	1.4496781
6	0x3e9ce47d	0.30643073
7	0x3eac0a40	0.3360157

enc2.0.weight f4 [16, 8, 3, 3]
0	0x3dd5510d	0.1041585
1	0xbe071bd8	-0.13194215
2	0xbd895a8b	-0.06706723
3	0xbe36955c	-0.17830414
4	0xbd197355	-0.037463505
5	0x3dbf9629	0.09354813
6	0xbe0265f1	-0.127342
7	0xbd8eb819	-0.069687076
8	0x3b0ce0df	0.0021496338
9	0xbc1b7660	-0.009488672
10	0xbcbf7b9d	-0.023374373
11	0xbd0c8bc4	-0.03431298
12	0x3e9070fc	0.282112
13	0x3d9f4ac7	0.077779345
14	0xbe5f83f9	-0.21827687
15	0xbd8891ac	-0.0666841
16	0xbdbeac17	-0.09310167
17	0x3e15b025	0.14617975
18	0xbe0f3afb	-0.13987343
19	0xbe25c397	-0.16187893
20	0xbe0ae6eb	-0.1356465
21	0x3b8af311	0.0042404016
22	0xbdc2e92b	-0.095171295
23	0x3ddb5241	0.10709048
24	0xbe23ff5c	-0.1601538
25	0xbe402e19	-0.18767585
26	0xbe2f0018	-0.1708988
27	0x3e337376	0.17524514
28	0xbcaedfdb	-0.021346977
29	0xbdcd808c	-0.10034284
30	0x3ddb0cc3	0.106957935
31	0x3d962ddb	0.07332965
32	0x3e490f89	0.19634832
33	0xbda49b55	-0.0803744
34	0x3e050650	0.1299069
35	0x3d9ea34e	0.07745992
36	0x3ea04bcc	0.31307828
37	0xbcbed107	-0.023293031
38	0x3e109f69	0.1412331
39	0x3dbe259d	0.09284518
40	0xbda831d1	-0.08212627
41	0x3d035232	0.03206081
42	0x3d14032e	0.036135845
43	0x3dd8e662	0.10590817
44	0xbd0e6dea	-0.03477279
45	0x3d8c38c6	0.06846766
46	0x3c0419ff	0.008062839
47	0x3e0e952a	0.13924089
48	0xbe0ea60a	-0.13930526
49	0x3dfbff6f	0.123045795
50	0x3c147e1f	0.009063273
51	0xbdd5b833	-0.10435524
52	0xbd5bc066	-0.053650282
53	0x3e10bbdb	0.14134161
54	0xbd98f00c	-0.0746766
55	0x3e3384fc	0.17531198
56	0xbc875bbe	-0.016523238
57	0x3d1dcd16	0.038525663
58	0x3eab4506	0.33451098
59	0x3d749bb0	0.059718788
60	0xbc66fdf4	-0.014098633
61	0xbca60313	-0.020265138
62	0xbd1e0eee	-0.038588457
63	0x3dda92a4	0.10672501
64	0xbd8499a2	-0.06474616
65	0xbc2f1fef	-0.010688766
66	0x3e1206d1	0.14260413
67	0xbd01c232	-0.03167934
68	0xbd393fe5	-0.04522695
69	0x3beae225	0.007168072
70	0xbd0e47c2	-0.034736402
71	0x3ba5cf2e	0.005060098
72	0xbe038982	-0.12845424
73	0xbd827b1f	-0.0637114
74	0xbe25b89a	-0.16183701
75	0xbe1fd681	-0.1560917
76	0xbd9eef7f	-0.07760524
77	0x3dfe7c2d	0.124260284
78	0x3d642546	0.05569961
79	0xbdb41d4a	-0.08794649
80	0x3e16be4b	0.14721029
81	0x3e20f587	0.15718661
82	0x3e0780c5	0.13232715
83	0x3d3ae554	0.04562886
84	0xbdcebb80	-0.100943565
85	0x3d6a0429	0.057132874
86	0xbca6b399	-0.02034931
87	0xbe3989a8	-0.18118918
88	0x3da8d8fd	0.08244512
89	0x3e7c761b	0.24654429
90	0xbd3e1645	-0.046407957
91	0xbdebbe05	-0.11510853
92	0x3ca986ab	0.020694098
93	0xbd1f5492	-0.038899012
94	0xbd51bd34	-0.05120583
95	0xbdc0f9cb	-0.09422644
96	0x3ddca628	0.10773879
97	0xbda4ef43	-0.08053448
98	0x3d584195	0.05279692
99	0x3d5940db	0.053040367
100	0xbe20d69a	-0.15706864
101	0xbcd0d12d	-0.025490368
102	0xbcd06044	-0.025436528
103	0x3ca989f4	0.020695664
104	0xbc9db695	-0.019252101
105	0xbc90af22	-0.017661635
106	0x3e255b71	0.16148163
107	0xbd9daf4e	-0.07699452
108	0xbe21123b	-0.1572961
109	0xbe8800fb	-0.26563248
110	0x3d21fee8	0.03954974
111	0xbdd3c8cd	-0.10341034
112	0x3d96e0a3	0.07367065
113	0xbe025dae	-0.12731048
114	0x3cd04293	0.02542237
115	0xbe667b73	-0.2250803
116	0x3d1a9231	0.037737075
117	0xbd794ec8	-0.060866147
118	0x3d9028d6	0.07039039
119	0xbe3ae09d	-0.18249746
120	0xbc7c45c7	-0.015397496
121	0xbd21bb5c	-0.03948532
122	0xbe32264e	-0.17397425
123	0x3e20bd74	0.1569727
124	0x3cbccb74	0.023046233
125	0x3dda0a0d	0.10646448
126	0xba77acd3	-0.0009448055
127	0x3d8f922e	0.070103034
128	0x3c9268ad	0.017872179
129	0xbd992265	-0.07477263
130	0xbe57b695	-0.21065743
131	0xbcc6445a	-0.024202514
132	0xbe5a83da	-0.2133936
133	0x3dce87fd	0.100845315
134	0x3d355819	0.04427347
135	0xbca82926	-0.020527434
136	0x3e620b2d	0.22074576
137	0x3e1243a8	0.14283621
138	0xbdc5a831	-0.096512206
139	0x3d349073	0.04408307
140	0x3cfa6c80	0.030569315
141	0xbdd420c4	-0.10357812
142	0xbd74a1c9	-0.059724603
143	0xbd4046f4	-0.046942666
144	0xbd23c651	-0.03998405
145	0x3e294d9f	0.16533516
146	0xbe2f1ba0	-0.17100382
147	0xbddfdc6b	-0.10930713
148	0xbdc3f27d	-0.09567735
149	0xbd9c3583	-0.07627394
150	0x3da28caf	0.079369895
151	0xbe5ab37d	-0.21357532
152	0x3cc1c75a	0.023654629
153	0xbe605c7c	-0.2191028
154	0x3dad4aa9	0.08461506
155	0x3d8549d7	0.065082245
156	0x3d2fbedc	0.042906627
157	0x3da4e60b	0.0805169
158	0xbd0251fd	-0.03181647
159	0xbd8dc8e6	-0.06923084
160	0xbdfbea55	-0.12300555
161	0x3d1cd38d	0.038287688
162	0xbe8f3903	-0.27973184
163	0xbce43f08	-0.027862087
164	0xbdd8a393	-0.10578074
165	0x3cfc2111	0.030777486
166	0xbd8d4c97	-0.06899374
167	0xbcd3a5b9	-0.025835859
168	0x3e81be8c	0.25340688
169	0x3d374e21	0.044752244
170	0xbb34fb8e	-0.0027615759
171	0x3dafb01a	0.085785106
172	0xbd3e350e	-0.046437316
173	0xbdad2930	-0.084551215
174	0x3e1a0f05	0.15044792
175	0x3e4b800b	0.19873063
176	0xbdd96e46	-0.10616736
177	0xbd10a45d	-0.035313
178	0x3d40e2c6	0.047091268
179	0xbe18d832	-0.14926222
180	0xbdd063f0	-0.101753116
181	0x3d8fbdbb	0.0701861
182	0x3dac0158	0.08398694
183	0x3d87821f	0.066166155
184	0xbc3dea8e	-0.011591567
185	0xbd2ed6f8	-0.04268548
186	0xbd1ef626	-0.038808964
187	0x3e343481	0.17598154
188	0xbe322789	-0.17397894
189	0xbd4905f5	-0.049077947
190	0xbd2e688c	-0.042580172
191	0x3d888c5a	0.06667395
192	0x3d7ce422	0.061741002
193	0x3d21b753	0.039481472
194	0x3dbdf2b5	0.09274808
195	0x3cd3bd66	0.025847148
196	0x3cd63540	0.026148438
197	0xbd109867	-0.035301592
198	0xbd883da0	-0.06652379
199	0xbe3aa829	-0.1822821
200	0xbe77fd83	-0.24217801
201	0x3e0d70fe	0.13812634
202	0xbe368fe5	-0.17828329
203	0xbe110fcf	-0.14166187
204	0x3d90e8e7	0.070756726
205	0xbd174f09	-0.03694061
206	0x3dbe509d	0.092927195
207	0x3e4126cb	0.18862455
208	0x3df36e08	0.11886221
209	0xbe3cb956	-0.18430075
210	0xbe002acf	-0.1251633
211	0x3e23072d	0.15920706
212	0x3deda4ce	0.116036996
213	0xbdba860e	-0.091076
214	0xbe793597	-0.24336849
215	0x3d6cb54d	0.05779009
216	0xbdfec0fc	-0.124391526
217	0x3b20120e	0.0024424824
218	0x3da18624	0.078869134
219	0xbe1bbda2	-0.15209058
220	0x3e8b3db6	0.2719552
221	0x3d83f617	0.06443422
222	0xbe0f7348	-0.1400882
223	0xbe33d948	-0.17563355
224	0xbd607d8b	-0.054807227
225	0x3e2d0d67	0.16899644
226	0xbe161a1a	-0.14658394
227	0x3b9607d8	0.0045785718
228	0xbd2c1c3a	-0.042019106
229	0x3d33d8fb	0.0439081
230	0xbe16880b	-0.14700334
231	0xbd75688d	-0.05991416
232	0x3b643bff	0.00348258
233	0xbd25f5e0	-0.040517688
234	0xbd9d193a	-0.07670827
235	0xbd14458c	-0.036199138
236	0xbd89ff4d	-0.06738148
237	0x3e2c2cd3	0.16813974
238	0xbdfa6769	-0.12226755
239	0x3e16c277	0.1472262
240	0xbce27bf1	-0.02764699
241	0x3e741f11	0.23839976
242	0x3d857d71	0.06518067
243	0xbb819d97	-0.0039555538
244	0x3e65b57a	0.22432509
245	0xbe20ab92	-0.15690449
246	0xbc6750a5	-0.014118348
247	0x3dc25278	0.09488386
248	0x3d7a850b	0.061162036
249	0x3dd3f783	0.103499435
250	0x3d61f24c	0.055162713
251	0xbe5b7300	-0.21430588
252	0xbdf5c778	-0.12000936
253	0x3dc5d580	0.096598625
254	0xbd525ee8	-0.05136004
255	0xbdbcd7ef	-0.092208736

enc2.1.weight f4 [16]
0	0x3f7fbec9	0.9990049
1	0x3f812a69	1.0091068
2	0x3f81fa4f	1.0154513
3	0x3f7dd834	0.99158025
4	0x3f742a58	0.9537711
5	0x3f80d0dc	1.0063739
6	0x3f820ece	1.0160768
7	0x3f82aa09	1.0208141
8	0x3f83ea47	1.0305871
9	0x3f799580	0.97493744
10	0x3f7f2ba8	0.9967599
11	0x3f80b161	1.0054132
12	0x3f7f09d9	0.996244
13	0x3f7d95bc	0.990566
14	0x3f807074	1.0034318
15	0x3f812bf1	1.0091535

enc2.1.bias f4 [16]
0	0xbbf8d404	-0.0075936336
1	0x3b9a585f	0.0047102417
2	0x3c553f88	0.013015635
3	0xbb94e9f8	-0.004544493
4	0xbce84f84	-0.028358229
5	0x3bb9ac40	0.0056662858
6	0x3c83b771	0.016078683
7	0xbaea5622	-0.0017878453
8	0x3c243e7f	0.010024666
9	0xbc903837	-0.01760493
10	0xbc87a901	-0.01656008
11	0x3c272d65	0.010203694
12	0x3d14fa45	0.036371488
13	0xbc485475	-0.012227167
14	0xb9eefcae	-0.00045583158
15	0x3d224934	0.039620593

enc2.1.running_mean f4 [16]
0	0x3e6f834f	0.23389934
1	0xbf181929	-0.5941339
2	0xbeedd431	-0.46450952
3	0x3e0d2a66	0.13785705
4	0x3d5980a7	0.053101208
5	0xbe8a0ba5	-0.2696201
6	0xbe3a5786	-0.1819745
7	0x3f847eca	1.0351193
8	0x3f1e5706	0.6185154
9	0xbea163aa	-0.3152135
10	0x3f316edc	0.69309783
11	0xbf211b5a	-0.6293236
12	0xbf495034	-0.78638005
13	0x3ea48bf8	0.32138038
14	0xbf3c0e88	-0.7345967
15	0xbe910118	-0.28321147

enc2.1.running_var f4 [16]
0	0x3e4b39ee	0.19846317
1	0x3f2a1f2f	0.6645383
2	0x3ec508d4	0.38483298
3	0x3e7fc1f8	0.24976337
4	0x3e319503	0.17342
5	0x3efc4e9c	0.49278724
6	0x3e4fc34e	0.20289347
7	0x3e4f36f2	0.20235804
8	0x3edde650	0.43339777
9	0x3e84417c	0.2583121
10	0x3fab67a3	1.3391002
11	0x3e9d0a2f	0.30671832
12	0x3e4a0cf1	0.19731499
13	0x3eaf8a80	0.34285355
14	0x3f826fa3	1.0190319
15	0x3e14fa4f	0.1454861

enc2.3.weight f4 [16, 16, 3, 3]
0	0x3d180eb8	0.037123412
1	0xbd2583ef	-0.040409025
2	0xbd9ddee2	-0.07708527
3	0xbe1e4b0c	-0.15458316
4	0xbc260621	-0.010133297
5	0x3bb84ab6	0.0056241406
6	0x3d3cf2db	0.046130043
7	0x3db66ae2	0.08907105
8	0x3e275f44	0.16344935
9	0x3d8c3d3b	0.06847616
10	0x3cd38129	0.025818424
11	0x3d15edc7	0.036603715
12	0xbe97e3f2	-0.29666096
13	0xbd0b1234	-0.033952907
14	0xbe6dbbde	-0.23216197
15	0x3e3e4f8c	0.18585032
16	0x3e05d26e	0.13068554
17	0x3e24921f	0.16071366
18	0x3d853815	0.065048374
19	0x3e70a543	0.23500542
20	0xbd2ce718	-0.042212576
21	0x3d5e2278	0.05423209
22	0xbb83574c	-0.0040082093
23	0x3e901f8b	0.28149065
24	0xbcb0fba8	-0.021604374
25	0xbdda7ac9	-0.10667951
26	0xbe0b5fe4	-0.13610798
27	0x3d1b6fe3	0.0379485
28	0x3e0c80cb	0.13721006
29	0xbd437dcd	-0.047727395
30	0xbd9ca5c6	-0.07648806
31	0x3e0d7d98	0.13817441
32	0x3d312b67	0.043254282
33	0x3e0e9887	0.13925372
34	0xbdce0ca5	-0.100610055
35	0xbdfb1a45	-0.1226087
36	0xbc042b24	-0.008066926
37	0xbd8d89c0	-0.06911039
38	0x3e1b55f0	0.15169501
39	0xbc5cc26f	-0.013474091
40	0x3d97ef4b	0.074186884
41	0x3d152649	0.036413465
42	0xbdb4227b	-0.08795639
43	0xbdcb14fd	-0.099161126
44	0x3d82a9b8	0.063800275
45	0xbe3a6df1	-0.18206002
46	0xbc350ba6	-0.0110501405
47	0xbdae5f8f	-0.0851432
48	0x3d8521c5	0.06500582
49	0xbdc12243	-0.09430363
50	0x3d130b05	0.03589918
51	0xbd35e223	-0.044405114
52	0xbd93d1dd	-0.072177626
53	0xbdad707a	-0.08468719
54	0xbdf3f94a	-0.119127825
55	0x3df2d040	0.11856127
56	0xbd0b291e	-0.03397476
57	0x3da4be05	0.08044056
58	0xbcba23b9	-0.022722112
59	0x3d25aa20	0.040445447
60	0xbda849f9	-0.08217234
61	0xbd9e4073	-0.077271365
62	0xbe1472bd	-0.14496894
63	0x3c1f5e52	0.009727078
64	0xbd1728d9	-0.03690419
65	0xbe2540db	-0.16138022
66	0xbcd97f3e	-0.026549932
67	0xbd82a01d	-0.063781954
68	0x3d9d4103	0.076784156
69	0xbe3dee68	-0.18547976
70	0x3e366883	0.17813306
71	0xbd02c2b0	-0.03192395
72	0xbd8747b7	-0.066054754
73	0xbe4dbcd6	-0.20091566
74	0x3d0e8865	0.034798045
75	0x3e003cda	0.12523213
76	0xbdfd354c	-0.12363681
77	0xbceff7ad	-0.029292906
78	0xbdd5895d	-0.104265906
79	0x3dafd14a	0.085848406
80	0x3bbc80a9	0.005752642
81	0xbd391b4a	-0.04519204
82	0xbe0c5ca4	-0.13707215
83	0x3e68fcb2	0.22752646
84	0x3de7fcea	0.113275364
85	0x3c0a92f8	0.008457892
86	0xbd3da4cf	-0.04629975
87	0x3d40facb	0.047114175
88	0x3e328099	0.17431869
89	0xbe12bab1	-0.1432903
90	0x3cc07319	0.023492383
91	0xbe1fb9ab	-0.1559817
92	0xbd78bbd3	-0.060725998
93	0x3d866fd6	0.065643
94	0x3d1fcb26	0.039012097
95	0x3daff0c9	0.08590848
96	0xbd7f8f0d	-0.062392283
97	0x3e4293a4	0.19001633
98	0xbe86a086	-0.26294345
99	0x3c3fe9cf	0.011713459
100	0x3e73261c	0.23745006
101	0x3e4a2dc3	0.19744019
102	0x3e27c365	0.16383131
103	0x3d8df7d0	0.06932032
104	0x3c6e03be	0.014527259
105	0x3d60ec41	0.05491281
106	0xbdae8b39	-0.08522648
107	0xbda15361	-0.078772314
108	0xbc701692	-0.014653819
109	0xbdd3b582	-0.10337354
110	0xbcbcc421	-0.02304274
111	0x3e465050	0.19366574
112	0xbe7b2c52	-0.24528626
113	0x3d9d553a	0.07682271
114	0x3e113a94	0.14182502
115	0x3e21beee	0.1579549
116	0xbe724e72	-0.23662737
117	0x3d9443a9	0.07239468
118	0x3d0ec39b	0.034854513
119	0x3dc1ee6b	0.09469303
120	0xbe2107fd	-0.15725704
121	0xbe97b14b	-0.2962745
122	0xbdc4ccaa	-0.09609349
123	0xbd5f7183	-0.054551613
124	0xbdc0e1ed	-0.09418092
125	0xbe0b96ea	-0.13631788
126	0xbd8a5f7f	-0.06756496
127	0xbcff8cb1	-0.031195017
128	0x3bca50c5	0.0061741793
129	0xbd8bb906	-0.068224
130	0xbe2ddb0d	-0.16978092
131	0xbdc3cd5e	-0.09560655
132	0xbde25583	-0.11051466
133	0xbcfa38eb	-0.030544719
134	0x3e20414d	0.1564991
135	0x3e62103b	0.22076504
136	0xbe295f37	-0.16540228
137	0xbded44fe	-0.11585425
138	0x3e491bc8	0.19639504
139	0x3cf6f456	0.030145805
140	0xbe22abe4	-0.15885884
141	0x3db57863	0.088608526
142	0x3c2ef1f5	0.010677804
143	0xbe21ef23	-0.1581388
144	0x3dcb34d5	0.09922186
145	0xbd85166e	-0.06498419
146	0x3ddfafc1	0.10922194
147	0x3c8d67c0	0.017261386
148	0xb85d7cde	-5.2806798e-05
149	0xbe3f601c	-0.18689007
150	0xbcc53ba5	-0.024076292
151	0x3a2d35f9	0.0006607469
152	0xbe196c29	-0.14982666
153	0xbbd202a1	-0.006409005
154	0xbd09c06b	-0.03363077
155	0xbe0e5784	-0.13900572
156	0x3e204471	0.15651108
157	0xbd2ba999	-0.041909788
158	0xbd38c830	-0.04511279
159	0xbd5ed64b	-0.054403584
160	0x3cacb24d	0.021081114
161	0xbdd9e754	-0.106398255
162	0x3d973c89	0.07384593
163	0xbd34a95b	-0.044106822
164	0x3dd357aa	0.10319455
165	0xbd6b67b0	-0.05747193
166	0x3a9f3738	0.0012147194
167	0x3da942dd	0.08264706
168	0x3d9c1b23	0.076223634
169	0x3dc96b50	0.09834921
170	0x3d36cdf1	0.044629995
171	0x3e752a33	0.23941879
172	0x3e0dafc9	0.13836588
173	0x3d202cf3	0.039105367
174	0xbce1d96a	-0.027569491
175	0x3dee3410	0.11631024
176	0xbd0dd1b1	-0.034623805
177	0xbdc4dd39	-0.096125074
178	0x3e73342b	0.23750369
179	0x3d9e9eb5	0.07745115
180	0xbcb97c43	-0.02264226
181	0xbe03bef9	-0.12865819
182	0x3e05f334	0.13081056
183	0x3dcde501	0.10053445
184	0x3e005e60	0.12536001
185	0x3e212189	0.15735449
186	0x3d234990	0.039865077
187	0x3da2e4c3	0.07953789
188	0xbbbb9710	-0.005724795
189	0xbe0ca418	-0.13734472
190	0x3d6bc305	0.057559032
191	0x3e027dfb	0.1274337
192	0x3c3d6e31	0.011561916
193	0xbcae4b61	-0.021276178
194	0x3e01e76d	0.12685938
195	0xbc8c38bf	-0.017116902
196	0x3e1b9ae1	0.151958
197	0xbe5530ae	-0.20819351
198	0x3d55f24c	0.052233025
199	0x3e9a635c	0.3015393
200	0x3e730f8a	0.23736396
201	0x3e53da4e	0.20688745
202	0x3e2cf208	0.16889203
203	0x3dc0d322	0.094152704
204	0xbb95487e	-0.004555761
205	0xbde42ce3	-0.11141374
206	0x3ce0fb05	0.027463445
207	0x3c8175c5	0.015803227
208	0xbc41abf3	-0.011820781
209	0x3d8066c5	0.06269602
210	0x3d05b456	0.032642685
211	0xbd82443a	-0.063606694
212	0x3d6d34b0	0.057911575
213	0x3e02431e	0.12720916
214	0x3c244355	0.010025819
215	0x3dfee63f	0.1244626
216	0xbe814ac8	-0.25252366
217	0xbd90bd3f	-0.07067346
218	0x3e5f0f4e	0.21783182
219	0x3e069d2c	0.13145894
220	0x3d8d7eea	0.069089726
221	0xbdd13a00	-0.10216141
222	0xbdf10c0c	-0.11769876
223	0xbd605037	-0.054764
224	0xbd5b2734	-0.053504184
225	0xbd87dfb8	-0.06634468
226	0x3e30112b	0.17194049
227	0x3da07ed0	0.078366876
228	0x3dd317f0	0.103073
229	0x3dac6ff7	0.08419793
230	0xbe43a911	-0.19107462
231	0x3de325a3	0.11091163
232	0xbc32cb1e	-0.010912685
233	0xbdbd6131	-0.092470534
234	0x3a0846d5	0.0005198543
235	0xbe04fc48	-0.12986863
236	0x3dac2f3e	0.08407448
237	0x3cf2ba96	0.029629987
238	0xbddaed4a	-0.106897905
239	0xbd02e0ee	-0.03195279
240	0x3dc11d09	0.09429366
241	0xbbe37ab1	-0.006942116
242	0xbd7c591b	-0.061608415
243	0xbe646799	-0.22305144
244	0xbd8a5ba6	-0.06755762
245	0xbe5cd245	-0.21564586
246	0x3e188de5	0.14897878
247	0x3de51eb9	0.111875005
248	0xbcef63ec	-0.029222451
249	0xbe1788fd	-0.1479835
250	0x3e5b7caa	0.21434274
251	0xbc4f5b16	-0.012655994
252	0x3de1d2f8	0.11026567
253	0xbddd7a90	-0.108143926
254	0xbd6f5dab	-0.058438938
255	0x3e02aecd	0.12761994

enc2.4.weight f4 [16]
0	0x3f7f7b19	0.9979721
1	0x3f7a8ac7	0.9786801
2	0x3f7b2b01	0.98112494
3	0x3f7b3f67	0.9814362
4	0x3f8085bd	1.0040814
5	0x3f7bd16d	0.98366433
6	0x3f7e6211	0.9936839
7	0x3f80e439	1.0069648
8	0x3f798527	0.974688
9	0x3f799f4b	0.97508687
10	0x3f7f4708	0.9971776
11	0x3f7d0907	0.988419
12	0x3f822ff6	1.0170887
13	0x3f7d27c6	0.98888814
14	0x3f7aabc5	0.9791835
15	0x3f7e5633	0.9935028

enc2.4.bias f4 [16]
0	0x3b765556	0.0037587485
1	0xbbb0c24e	-0.0053942567
2	0xbd29031f	-0.041262742
3	0xbcea5bd0	-0.028608233
4	0xbb6b88b6	-0.003593964
5	0xbc56e2ae	-0.013115568
6	0xbbc952dd	-0.0061439113
7	0xb82e6b56	-4.1584797e-05
8	0x3c03b5bf	0.008038937
9	0xbcf901f3	-0.030396437
10	0x3c14d2f8	0.009083502
11	0x394d4329	0.00019575343
12	0x3c06832f	0.008209988
13	0x3b90f61c	0.00442387
14	0xbcd55475	-0.026041249
15	0xbc6d6367	-0.014489031

enc2.4.running_mean f4 [16]
0	0xbec66269	-0.38746956
1	0x3f4e78c6	0.80653036
2	0xbeeb5a80	-0.45967484
3	0x3f55f382	0.8357469
4	0x3ceedb14	0.029157199
5	0x3fa7e976	1.3118122
6	0xbc8d54ab	-0.017252287
7	0xbe1194ec	-0.14216965
8	0xbef9f692	-0.4882093
9	0xbe5fe0d9	-0.21863116
10	0x3d2bf50f	0.041981753
11	0xbef9823d	-0.48732176
12	0x3d7346c4	0.05939366
13	0x3f4e8c0d	0.8068245
14	0xbf7e936d	-0.99443704
15	0x3e8abe89	0.27098492

enc2.4.running_var f4 [16]
0	0x3f434655	0.76279193
1	0x3f5fc01c	0.8740251
2	0x3f11a745	0.5689586
3	0x3f0136b4	0.50474095
4	0x3fa07832	1.2536681
5	0x3f8347a0	1.0256233
6	0x3e81d853	0.25360355
7	0x4055cb29	3.340525
8	0x3fa5537b	1.2916101
9	0x3fa46d0f	1.2845782
10	0x3f763863	0.9617979
11	0x3ed364cf	0.41287848
12	0x3fbdcaf9	1.4827567
13	0x3ede9a57	0.43477127
14	0x3eadd021	0.33947852
15	0x3f6e9ce4	0.93208146

bottleneck.0.weight f4 [32, 16, 3, 3]
0	0xbd5e6c30	-0.054302394
1	0xbdd4ecbb	-0.10396715
2	0xbd2feed3	-0.04295237
3	0x3e073a52	0.13205841
4	0x3ce394d9	0.027780937
5	0x39701fb2	0.00022899991
6	0x3c1be126	0.009514129
7	0xbda213d8	-0.07913941
8	0x3dbc9daa	0.092097595
9	0x3d0f3fb2	0.034972854
10	0xbe2ca26d	-0.16858836
11	0x3d9b2464	0.075753
12	0x3cdf52df	0.027261196
13	0xbd9396c2	-0.07206489
14	0xbcf2e3ba	-0.029649604
15	0x3c9ce44a	0.019151825
16	0x3dfa0b0b	0.122091375
17	0x3d294485	0.04132511
18	0x3d96986c	0.07353291
19	0xbccc7bd7	-0.024961395
20	0xbca20a69	-0.019780355
21	0x3d1a5203	0.03767587
22	0x3e20622a	0.15662447
23	0xbd03d8f1	-0.032189313
24	0xbcf0aef0	-0.029380292
25	0xbdc702fd	-0.09717367
26	0x3d7bf377	0.061511483
27	0x3ce5bedb	0.028045109
28	0x3d2a5ea9	0.04159418
29	0x3d20bf2d	0.03924482
30	0x3c016eea	0.007899979
31	0x3ce118fc	0.027477734
32	0x3d610241	0.05493379
33	0xbdce6823	-0.10078456
34	0x3de339e9	0.1109503
35	0xbe07c9c3	-0.1326056
36	0xbc1c57c6	-0.009542411
37	0xbd78b583	-0.060719978
38	0xbaa83f85	-0.0012836313
39	0xbd73710d	-0.059433986
40	0xbd7d4f46	-0.06184318
41	0x3e15d9bf	0.14633845
42	0xbdda199d	-0.106494166
43	0xbd66639d	-0.056247342
44	0x3e0a2d42	0.13493827
45	0x3da4f61e	0.08054756
46	0xbc59006b	-0.013244729
47	0x3d214db2	0.039380737
48	0x3de811c2	0.11331512
49	0xbb1f4b77	-0.0024306455
50	0xbc3b8359	-0.01144489
51	0x3d1ca0ed	0.03823941
52	0xbda684ce	-0.08130799
53	0x3d05466f	0.032537874
54	0xbe478357	-0.19483696
55	0x3e3c793a	0.1840562
56	0x3df28f11	0.11843694
57	0x3d50fdaa	0.051023163
58	0xbe04361c	-0.12911266
59	0xbd8b7b56	-0.06810634
60	0x3d8e17ca	0.06938131
61	0xbb69c438	-0.0035669934
62	0xbe0b5cfa	-0.13609686
63	0x3df21023	0.11819484
64	0x3d336745	0.043799657
65	0xbdd7e6b9	-0.10542054
66	0x3c87b08c	0.016563676
67	0xbbe8a5ec	-0.0070998576
68	0x3c81fa4d	0.015866423
69	0x3d9a625f	0.07538294
70	0x3dcf4057	0.10119694
71	0x3db27f38	0.08715671
72	0xbc986bed	-0.01860615
73	0x3d54b0a2	0.051926263
74	0x3d87e9f7	0.06636422
75	0x3df41049	0.11917169
76	0xbd09cffb	-0.03364561
77	0xbe0befe5	-0.13665731
78	0x3d024b78	0.031810254
79	0x3d9d2ac4	0.076741725
80	0xbc1c214d	-0.009529424
81	0x3de77f66	0.11303596
82	0xbd5e79cd	-0.054315377
83	0x3d78c788	0.060737163
84	0xbcf75fc7	-0.030197037
85	0xbd24c8b0	-0.040230453
86	0x3b5aca5c	0.0033384776
87	0x3d93cafb	0.0721645
88	0x3d6d9dc9	0.058011804
89	0x3e128617	0.14308964
90	0x3d8af764	0.06785467
91	0x3daa918a	0.083285406
92	0xbd275b4e	-0.04085856
93	0x3da4e616	0.08051698
94	0xbcc5ac4e	-0.024130013
95	0x3d884c28	0.06655151
96	0x3dd10404	0.10205844
97	0x3d8ceebd	0.06881473
98	0x3c2f14a7	0.010686076
99	0x3d02006d	0.031738687
100	0x3e1816c0	0.14852428
101	0xbdff235f	-0.124579184
102	0xbd9417c1	-0.07231093
103	0xbd81341b	-0.063087665
104	0x3c944d1a	0.018103171
105	0xbd241f68	-0.040069014
106	0xbd1012a8	-0.035174042
107	0x3d5a7ee7	0.05334368
108	0x3e2792e5	0.1636463
109	0xbd9e2a44	-0.07722905
110	0x3c7d7a84	0.0154711045
111	0xbd30084d	-0.042976666
112	0xbd3f9c36	-0.046779834
113	0x3de1349c	0.109963626
114	0xbd9f8885	-0.07789711
115	0x3e09416b	0.13403861
116	0xbca277f3	-0.019832587
117	0x3cdbd37c	0.026834242
118	0xbd2106d1	-0.03931314
119	0x3c82859a	0.015932847
120	0x3d28bea2	0.041197427
121	0x3d6e4500	0.058171272
122	0x3d8a7070	0.06759727
123	0xbbd1f731	-0.0064076413
124	0x3cd6f513	0.026239907
125	0x3c9584a1	0.018251719
126	0xbc829b0c	-0.015943073
127	0x3e0a9f4a	0.13537326
128	0xbe086040	-0.13317966
129	0xbc956636	-0.018237215
130	0x3cff331b	0.031152299
131	0xbdcaa233	-0.09894218
132	0x3c334089	0.010940679
133	0x3bb32b7c	0.00546783
134	0xbd13221b	-0.035921197
135	0x3bae36af	0.0053165774
136	0xbd576ff0	-0.052596986
137	0xbe62402a	-0.22094789
138	0x3e056571	0.13026978
139	0xbdec50c7	-0.115388446
140	0xbcbe2bb1	-0.023214193
141	0x3c6ca027	0.01444248
142	0x3dd46d33	0.103723906
143	0x3dea6d94	0.114466816
144	0x3e0223b6	0.12708935
145	0x3bc523eb	0.0060162446
146	0x3d20d4f3	0.039265584
147	0x3d9f6378	0.07782644
148	0x3e1710ba	0.14752474
149	0x3d8ea45e	0.06964944
150	0xbab95a80	-0.0014141351
151	0x3c191bf3	0.0093450425
152	0x3de67bcf	0.11254083
153	0xbdb28350	-0.08716452
154	0x3e211ffa	0.15734854
155	0xbc01cb54	-0.007922012
156	0x3db0ab46	0.08626418
157	0x3da9e2a2	0.0829518
158	0x3e4738f3	0.19455318
159	0xbda3bf48	-0.079954684
160	0xbdb401c2	-0.08789398
161	0x3d75fa0e	0.060052924
162	0x3e130f47	0.14361297
163	0xbcfbefc7	-0.030753983
164	0xbcf29c22	-0.029615466
165	0xbd7d93b4	-0.06190844
166	0xbd22ec2d	-0.039776016
167	0x3d2b27f3	0.041786145
168	0x3dd3b736	0.10337679
169	0xbe0011d5	-0.12506802
170	0xbd92789c	-0.07151911
171	0x3ddd5816	0.10807817
172	0xbd85c978	-0.06532568
173	0x3d8c1771	0.068404086
174	0x3e1252d4	0.14289409
175	0xbcc08189	-0.023499267
176	0xbce5e463	-0.028063005
177	0xbd8086c0	-0.062757015
178	0x3b6bc0c3	0.003597305
179	0x3e2fbfeb	0.17163055
180	0x3d0d75af	0.03453606
181	0xbd976c3c	-0.07393691
182	0x3c96d37b	0.018411389
183	0xbdc9aecf	-0.09847795
184	0xbd919cf0	-0.071100116
185	0x3b6e8021	0.0036392289
186	0x3d3c28b9	0.045937274
187	0xbd5a6a5a	-0.05332408
188	0x3d0a60de	0.033783786
189	0xbda01174	-0.07815829
190	0xbe4967c9	-0.19668497
191	0xba282025	-0.00064134813
192	0x3dfad771	0.122481234
193	0xbcdbb38e	-0.026819017
194	0xbd312066	-0.04324379
195	0xbd6df6d1	-0.05809671
196	0xbdafcd0e	-0.08584033
197	0x3d21320d	0.039354373
198	0xbddc0319	-0.10742778
199	0xbdbcf937	-0.092272215
200	0xbd729428	-0.059223324
201	0xbdad2033	-0.08453407
202	0xbc87984f	-0.016552119
203	0xbd9be3c6	-0.07611804
204	0x3b7a4cfe	0.0038192864
205	0x3da61f6e	0.081114635
206	0xbde29010	-0.11062634
207	0x3e1361a9	0.14392723
208	0x3d943c5e	0.072380766
209	0x3d195005	0.03742983
210	0xbccc2506	-0.024919998
211	0xbd949739	-0.07255406
212	0xbd3fd410	-0.046833098
213	0xbd4bce5f	-0.049757358
214	0x3d121687	0.035666015
215	0x3b852976	0.0040637804
216	0x3d737eb7	0.059447017
217	0x3e162dc1	0.14665891
218	0xbdeb7b64	-0.11498144
219	0x3d5cdac4	0.05391957
220	0x3e0ba1e4	0.13635975
221	0xbd23c0be	-0.039978735
222	0x3d76ebd2	0.06028349
223	0xbc535af7	-0.012900106
224	0x3dc523fe	0.096260056
225	0x3d7c8451	0.061649624
226	0x3d6a7683	0.057241928
227	0x3d311f1f	0.04324257
228	0x3c39a1e1	0.011330099
229	0x3b9514dd	0.0045496062
230	0x3dd91d89	0.106013365
231	0x3d5b4d11	0.053540293
232	0xbd31ad8d	-0.0433784
233	0x3cea6dcf	0.028616814
234	0xbd9a2985	-0.075274505
235	0x3df2b8c0	0.118516445
236	0xbdbc29cd	-0.0918766
237	0x3c425f28	0.011863507
238	0xbd373243	-0.044725668
239	0xbda52e46	-0.080654666
240	0x3d3487dc	0.044074878
241	0xbc826f7e	-0.015922304
242	0xbd54c209	-0.05194286
243	0xbc2755dd	-0.0102133425
244	0xbe022628	-0.12709868
245	0x3d58499b	0.05280457
246	0xbdb1ad92	-0.08675684
247	0xbcba724b	-0.022759577
248	0xbe257a43	-0.1615992
249	0x3d185169	0.037187014
250	0x3d725406	0.059162162
251	0x3dce56f1	0.100751765
252	0xbd1ad449	-0.037800107
253	0xb8f3bfde	-0.00011622881
254	0x3dfa1f29	0.122129746
255	0xbde7e162	-0.11322285

bottleneck.1.weight f4 [32]
0	0x3f7ffd1d	0.99995595
1	0x3f7c7662	0.9861814
2	0x3f7f4919	0.99720913
3	0x3f8086ba	1.0041115
4	0x3f7f7ffa	0.9980465
5	0x3f7f2cc5	0.9967769
6	0x3f81de75	1.0146013
7	0x3f80f3ed	1.007444
8	0x3f7c7b4a	0.98625624
9	0x3f82e8f8	1.0227346
10	0x3f80b0c4	1.0053945
11	0x3f7f8b7d	0.9982222
12	0x3f812ed2	1.0092413
13	0x3f7e0189	0.9922109
14	0x3f807d43	1.0038227
15	0x3f816ad7	1.011073
16	0x3f75905c	0.959234
17	0x3f80f88c	1.007585
18	0x3f8331b6	1.0249546
19	0x3f823d82	1.0175021
20	0x3f83cc8c	1.0296798
21	0x3f81a8c0	1.0129623
22	0x3f7ecd92	0.99532425
23	0x3f777a1f	0.96670717
24	0x3f7cefe1	0.98803526
25	0x3f7df093	0.9919521
26	0x3f83a31e	1.0284154
27	0x3f7aaa27	0.9791588
28	0x3f80d20f	1.0064105
29	0x3f75ddba	0.9604145
30	0x3f811067	1.0083131
31	0x3f837abb	1.0271829

bottleneck.1.bias f4 [32]
0	0x3bddf46b	0.0067735217
1	0x3b8eacc4	0.0043540914
2	0x3c0364c2	0.008019628
3	0x3b9decde	0.0048194965
4	0xbc836f18	-0.016044185
5	0xbba4c817	-0.0050287354
6	0xbb2b743b	-0.0026161808
7	0x3be80f6b	0.007081916
8	0xbc45c8ec	-0.012071829
9	0x3c145903	0.009054425
10	0x3cb5d39e	0.022195634
11	0x3beb5a82	0.00718242
12	0x3c393988	0.01130522
13	0xbc19e415	-0.009392758
14	0x3ce160e1	0.027512016
15	0x3a198f36	0.0005857827
16	0xbc8220eb	-0.015884837
17	0xbd3b0160	-0.04565561
18	0x3cf2e780	0.029651403
19	0x3c0b2625	0.008492981
20	0x3ca8d59f	0.020609675
21	0xbc79f5d5	-0.015256365
22	0xbb9c5b5e	-0.004771634
23	0xbcf4bc3a	-0.02987491
24	0xbbabbe7b	-0.005241213
25	0xbb9dc216	-0.0048143966
26	0x3c69899c	0.014254
27	0xbb9d1936	-0.004794265
28	0x3c217a70	0.0098558515
29	0xbcd8de8c	-0.026473306
30	0xbbe5a646	-0.0070083467
31	0x3b3cf974	0.002883521

bottleneck.1.running_mean f4 [32]
0	0x3f41c65f	0.75693315
1	0xbeba2213	-0.36354122
2	0xbe0d7adc	-0.13816398
3	0x3e8e22a4	0.27760804
4	0x3ebf4581	0.37357715
5	0x3d0e20af	0.03469914
6	0xbea1805d	-0.31543246
7	0xbf3b8b55	-0.7325948
8	0x3e6aaee1	0.22918274
9	0xbe0d63fe	-0.13807675
10	0x3d2e4805	0.042549152
11	0x3e16356e	0.1466882
12	0xbf514dc9	-0.81759316
13	0xbeefbdf6	-0.46824616
14	0xbfb783d2	-1.4337103
15	0x3f34b599	0.70589596
16	0x3f9cc319	1.2247039
17	0x3f0decfe	0.55439746
18	0x3e189b18	0.14902914
19	0xbe7161cc	-0.23572463
20	0x3c9d5826	0.019207072
21	0xbf684a76	-0.9073862
22	0xbddae506	-0.10688214
23	0xbf3b37cc	-0.73132014
24	0xbe1ce5e6	-0.15322074
25	0x3f2abf80	0.66698456
26	0xbe83cd5e	-0.2574262
27	0xbf8c80ed	-1.0976845
28	0xbf52d73a	-0.8235966
29	0x3de57cf9	0.11205477
30	0xbe643e7f	-0.22289465
31	0xbeeb4e98	-0.459584

bottleneck.1.running_var f4 [32]
0	0x3f5ec829	0.8702417
1	0x3fbf0789	1.4924175
2	0x3fd6089e	1.672138
3	0x3ee908a4	0.45514405
4	0x3efbb3a1	0.49160483
5	0x3faa0442	1.3282549
6	0x3f94f0fd	1.1636044
7	0x3ec12497	0.37723228
8	0x3ef6cca6	0.4820301
9	0x3f09c092	0.53809464
10	0x3f67b4c2	0.9051019
11	0x3f68fc5e	0.9101008
12	0x3fb2840f	1.3946551
13	0x3ec03920	0.37543583
14	0x3f84a58c	1.0363021
15	0x407bfb7c	3.9372244
16	0x4049d8a0	3.1538467
17	0x3f2f90e7	0.6858048
18	0x3f34ac82	0.70575726
19	0x3f4835c2	0.7820703
20	0x3f20634b	0.6265151
21	0x3fe23fb9	1.7675697
22	0x3f010dcd	0.50411683
23	0x3f30235e	0.68803966
24	0x3f2b2abe	0.66862094
25	0x3eaac695	0.3335463
26	0x3f35400e	0.70800865
27	0x3fdb9891	1.7155935
28	0x3f822bee	1.0169656
29	0x3e8b3015	0.2718512
30	0x3f5e1e38	0.8676486
31	0x3f16fb76	0.5897745

bottleneck.3.weight f4 [32, 32, 3, 3]
0	0x3b37d33c	0.002804949
1	0xbd66fbb7	-0.056392398
2	0xbdd164e7	-0.10224324
3	0x3d9c1791	0.076216824
4	0xbd38de9d	-0.045134176
5	0xbcb7d480	-0.022440195
6	0xbd06959d	-0.032857526
7	0x3ccf127b	0.025277367
8	0x3e0f7a81	0.14011575
9	0x3d3ee984	0.046609417
10	0x3e4e665a	0.20156232
11	0x3e043cf2	0.12913874
12	0xbcedabbf	-0.029012559
13	0xbbf60ca9	-0.0075088334
14	0xbd0c9902	-0.034325607
15	0xbe2f58fc	-0.17123789
16	0x3d3a4a37	0.045480933
17	0x3cd1e4de	0.025621828
18	0xbe2ccc5b	-0.1687483
19	0xbd8a7cdf	-0.067620985
20	0x3d9ad92b	0.07560953
21	0x3dd8b6be	0.1058173
22	0xbd70ffbd	-0.05883764
23	0xbc9b515d	-0.018959695
24	0x3e274909	0.16336454
25	0x3d9982db	0.07495662
26	0xbcfd6488	-0.030931726
27	0xbd2218d9	-0.039574478
28	0x3db5e829	0.08882172
29	0xbda3ab45	-0.079916514
30	0xbd5568cc	-0.052101895
31	0xbd1b5d84	-0.03793098
32	0xbe11d3c1	-0.14240934
33	0x3cf5d72c	0.030009829
34	0x3e12643c	0.14296049
35	0xbc0542bb	-0.008133586
36	0x3c15c69a	0.009141589
37	0x3cbeb95a	0.023281742
38	0xbbacfda4	-0.0052792598
39	0xbd2c0a7e	-0.042002194
40	0x3e1d3758	0.15353143
41	0xbc9b421b	-0.01895242
42	0xbcb0f3f5	-0.021600703
43	0x3e146cef	0.1449468
44	0xbdb458fe	-0.088060364
45	0x3d09b6e7	0.033621695
46	0xbd86ba5c	-0.06578514
47	0xbe8002b3	-0.2500206
48	0x3de8144a	0.11331995
49	0xbd81dfb1	-0.06341494
50	0x3d222520	0.039586186
51	0xbbb364c6	-0.0054746596
52	0xbb92b9a5	-0.004477697
53	0x3c2acba2	0.010424526
54	0xbc4d733d	-0.012539682
55	0x3c8e959d	0.017405326
56	0x3d2d0b35	0.042247016
57	0x3c8f448f	0.017488746
58	0xbd193de9	-0.037412558
59	0x3a7716d4	0.0009425704
60	0x3dddf142	0.10837032
61	0x3c928d47	0.017889632
62	0x3b2896d1	0.002572466
63	0xbd4c1c36	-0.04983159
64	0x3995acbd	0.00028548195
65	0xbd49b716	-0.04924687
66	0x3d27b1ed	0.040941168
67	0xbd8ceb32	-0.068807974
68	0xbd59d71d	-0.053183664
69	0x3d56b056	0.05241426
70	0xbcca4541	-0.024691226
71	0xbd544f21	-0.051833276
72	0x3d58d275	0.052935082
73	0x3d7d59f4	0.061853364
74	0x3b356e9c	0.0027684337
75	0xbd4d2054	-0.05007966
76	0x3d0b7e77	0.034056153
77	0x3e1d5559	0.15364589
78	0xbd9e1022	-0.07717921
79	0x3dbaa102	0.09112741
80	0x3de9aed9	0.11410303
81	0xbdcad830	-0.09904516
82	0x3e11ce3b	0.14238827
83	0x3d16ccf5	0.036816556
84	0x3d86a0a3	0.06573608
85	0x3d53c7cd	0.051704217
86	0xbcd3f5b9	-0.025874006
87	0xbc9dd5ac	-0.019266926
88	0xbdcde672	-0.100537196
89	0x3dc9bff3	0.098510645
90	0x3d967eaf	0.07348382
91	0xbd9a743e	-0.07541703
92	0x3dfea800	0.12434387
93	0xbdd65f4b	-0.104673944
94	0x3e08d52e	0.13362572
95	0x3e1c92f4	0.15290433
96	0x3da0c4a3	0.078500055
97	0x3cc9bd41	0.024626376
98	0x3dda71ed	0.10666261
99	0x3c4682ea	0.012116173
100	0xbd1f777f	-0.03893232
101	0xbd81246c	-0.06305775
102	0xbd9cf17e	-0.076632485
103	0xbd24d269	-0.040239725
104	0x3b6bc63f	0.0035976318
105	0x3db4614c	0.088076204
106	0x3d82788a	0.06370647
107	0x3da85aab	0.082204185
108	0xbd8109b9	-0.063006826
109	0xbd1e4d32	-0.038647838
110	0xbd9cfe77	-0.07665723
111	0xbe12c4f9	-0.14332952
112	0x3da46baf	0.080283515
113	0x3e19d495	0.150225
114	0x3d027e83	0.031858932
115	0x3d0d95b7	0.034566607
116	0xbe01c345	-0.12672146
117	0x3db461b0	0.08807695
118	0xbd08ae57	-0.03336939
119	0x3cc62bb1	0.024190756
120	0x3d24f862	0.04027594
121	0xbd66076f	-0.056159433
122	0xbe0835b8	-0.13301742
123	0xbd8d4b6e	-0.06899153
124	0x3e1cd414	0.15315276
125	0x3cf0e252	0.029404793
126	0x3b9ec046	0.004844698
127	0x3dcdbe68	0.10046083
128	0x3c7eaece	0.015544606
129	0x3c652173	0.013985026
130	0xbc289305	-0.010288958
131	0xbe0760de	-0.13220546
132	0xbd7feb24	-0.062480107
133	0xbd542a80	-0.051798344
134	0xbcc49ffc	-0.024002068
135	0x3d6a6fe5	0.057235617
136	0xbd65bdaf	-0.0560891
137	0x3d10d10a	0.035355605
138	0x3d8741e6	0.06604366
139	0x3d70229b	0.058626752
140	0xbcc3f9ce	-0.023922827
141	0xbc6e267d	-0.0145355435
142	0xbc14e8a8	-0.009088673
143	0x3df720ae	0.1206678
144	0x3de0287f	0.10945224
145	0x3d6e1c95	0.058132727
146	0x3de4c466	0.111702725
147	0xbdba1280	-0.0908556
148	0x3d9d4e57	0.07680958
149	0xbdc511f5	-0.09622566
150	0xbd7e52d7	-0.06209072
151	0xbd4c346d	-0.049854685
152	0xbe255921	-0.16147281
153	0xbda4c61c	-0.08045599
154	0xbda86e4f	-0.08224165
155	0xbe150296	-0.14551768
156	0xbdce45ec	-0.1007193
157	0x3e393789	0.18087591
158	0xbccd70c9	-0.025078194
159	0xbd1d9c45	-0.03847911
160	0x3e3fdfc5	0.18737705
161	0x3d28b42b	0.041187447
162	0xbe84ec78	-0.2596166
163	0xbcb2fad5	-0.021848122
164	0x3d825034	0.06362954
165	0x3d3cfbc3	0.046138536
166	0xbe07376b	-0.13204734
167	0x3c94afee	0.018150296
168	0x3e37becd	0.17943878
169	0x3d0dfedf	0.034666892
170	0x3cdedde6	0.027205419
171	0xbe4b395d	-0.19846101
172	0x3d988bf6	0.074485704
173	0x3c321fb2	0.010871815
174	0xbdab8b08	-0.083761275
175	0x3b8a5644	0.0042217094
176	0xbdf360d7	-0.11883705
177	0xbdf09efd	-0.117490746
178	0xbd8ea750	-0.06965506
179	0x3e069cac	0.13145703
180	0xbc09701e	-0.008388547
181	0xbd262ced	-0.04057019
182	0xbd7c2127	-0.061555054
183	0xbcef71d6	-0.029229086
184	0x3e0b2358	0.13587701
185	0xbd39f016	-0.04539498
186	0xbd885d2d	-0.06658397
187	0xbe106fcc	-0.14105147
188	0x3da6e42f	0.08148991
189	0x3d1d22c4	0.038363233
190	0x3d68525f	0.05671918
191	0x3d978126	0.0739768
192	0xbe08ef7f	-0.1337261
193	0x3da65ca1	0.08123136
194	0x3cb5514b	0.02213349
195	0x3d7eae98	0.062178224
196	0x3e0d4c9e	0.13798758
197	0x3cf792b4	0.03022132
198	0xbdb256ae	-0.08707939
199	0x3d384a0d	0.044992495
200	0xbe040ac2	-0.12894729
201	0x3d3c1466	0.04591789
202	0x3d598851	0.053108517
203	0xbd8a3a41	-0.06749392
204	0xbe06144b	-0.13093679
205	0x3d584d3a	0.052808024
206	0x3d675add	0.05648314
207	0xbd94e812	-0.072708264
208	0xbd2b778b	-0.041862052
209	0x3dbb2fab	0.09139951
210	0x3d2941c7	0.041322496
211	0x39efd998	0.00045747752
212	0xbd068897	-0.032845106
213	0xbd6b7bb5	-0.057491023
214	0x3cd01ed9	0.025405334
215	0xbc5763b9	-0.013146334
216	0xbd880b33	-0.06642761
217	0xbe2ca08b	-0.16858117
218	0x3e5de854	0.21670657
219	0x3d9ce8ab	0.076615654
220	0xbd60fe50	-0.05493003
221	0xbe39a8d8	-0.18130815
222	0x3dd0c893	0.101945065
223	0xbe0e243f	-0.13881014
224	0xbc6ebb8f	-0.014571085
225	0x3e2d1cc2	0.16905501
226	0x3e263b32	0.16233519
227	0x3de720ef	0.112855785
228	0x3dfe8773	0.12428179
229	0xbd2872fc	-0.041125283
230	0x3e3def8a	0.18548408
231	0xbb634558	-0.0034678783
232	0x3cd057e1	0.025432529
233	0x3db53691	0.08848298
234	0xbddbc69c	-0.10731241
235	0x3d46949b	0.048481565
236	0xbc91fa9e	-0.017819699
237	0xbe37883a	-0.1792306
238	0xbdae0232	-0.084965125
239	0x3d1a33b9	0.037646983
240	0xbc7aea0d	-0.015314591
241	0x3d24daab	0.0402476
242	0x3db39c5f	0.0877006
243	0x3bae01b0	0.0053102598
244	0xbe106d76	-0.14104256
245	0xbe2b97c3	-0.16757111
246	0xbd48ad08	-0.04899314
247	0xbdc6c87c	-0.09706208
248	0x3d27ca63	0.040964495
249	0x3d130923	0.035897385
250	0x3d9bb020	0.076019526
251	0x3db6344a	0.08896692
252	0x3d0797be	0.033103697
253	0xbdb3ae0a	-0.0877343
254	0x3c86e95f	0.016468702
255	0xbcb54192	-0.022125993

bottleneck.4.weight f4 [32]
0	0x3f7df246	0.99197805
1	0x3f812bdb	1.0091509
2	0x3f814dda	1.0101883
3	0x3f86ab89	1.0521098
4	0x3f8680df	1.0508078
5	0x3f814492	1.0099051
6	0x3f834f2c	1.0258536
7	0x3f859850	1.0437107
8	0x3f82587b	1.0183252
9	0x3f87afeb	1.0600561
10	0x3f7ed9f7	0.9955134
11	0x3f849390	1.0357533
12	0x3f86c05f	1.0527457
13	0x3f84a8d0	1.0364017
14	0x3f73616b	0.95070523
15	0x3f80f4c6	1.0074699
16	0x3f84377b	1.0329431
17	0x3f87c233	1.060614
18	0x3f83a7af	1.0285548
19	0x3f89cddd	1.076595
20	0x3f88437b	1.0645593
21	0x3f835aef	1.0262126
22	0x3f86f9a6	1.0544937
23	0x3f80d425	1.0064741
24	0x3f803e69	1.0019046
25	0x3f7b41aa	0.9814707
26	0x3f82022c	1.0156913
27	0x3f82e23c	1.0225291
28	0x3f8497b2	1.0358794
29	0x3f806ce0	1.0033226
30	0x3f843b69	1.033063
31	0x3f857c17	1.0428494

bottleneck.4.bias f4 [32]
0	0xbc010af0	-0.007876143
1	0xbbf972fa	-0.007612583
2	0x3c16f58f	0.009213819
3	0x3d7848d6	0.060616337
4	0x3d4f8a10	0.050668776
5	0xbc56cd2c	-0.01311044
6	0x3cbd3ce9	0.023100333
7	0x3d3ce077	0.046112504
8	0x3ca2bb0d	0.019864583
9	0x3c9e8860	0.019352138
10	0xbca6b34a	-0.020349164
11	0x3c1cca82	0.009569766
12	0x3d56b5a3	0.052419316
13	0x3d008fbc	0.031387076
14	0xbd13ff83	-0.036132347
15	0x39d07962	0.0003976329
16	0x3c7dd8c2	0.015493574
17	0x3d831936	0.06401293
18	0x3ce96d8d	0.02849462
19	0x3d5d13c5	0.05397393
20	0x3d826ff0	0.06369007
21	0x3d455e0d	0.048185397
22	0x3d8ac268	0.06775361
23	0x3cc282ef	0.023744075
24	0xbccc938f	-0.024972705
25	0x3b3592cf	0.0027705913
26	0xbb585234	-0.0033007981
27	0x3c533799	0.0128916735
28	0x3c9b8210	0.018982917
29	0x3b8d09d4	0.00430415
30	0xbc8d4a8e	-0.017247465
31	0x3d080e92	0.03321702
