experiments_multi/Brain_Tumor_Segmentation_Separate_Train_Val_20260208_100938/checkpoint_epoch_10.pth (torch, 141437 bytes, 56 tensors)

enc1.0.weight f4 [8, 4, 3, 3]
0	0x3e235722	0.15951207
1	0x3c559254	0.013035376
2	0xbdb54edb	-0.08852931
3	0x3eb9bae8	0.3627541
4	0x3daa99f5	0.08330146
5	0xbe09a9e7	-0.13443719
6	0xbe72f7a7	-0.23727284
7	0x3e8d94c3	0.2765256
8	0x3c87078d	0.016483093
9	0x3e26238c	0.16224498
10	0xbe0f7259	-0.14008464
11	0x3e6ccade	0.23124263
12	0x3d79e208	0.061006576
13	0xbde8de36	-0.113705084
14	0x3dac9516	0.084268734
15	0xbe27758f	-0.16353439
16	0x3e1a28dc	0.15054649
17	0xbd3b8253	-0.045778584
18	0x3dbad589	0.0912276
19	0x3df08710	0.11744511
20	0x3cb2371b	0.021754792
21	0xbdd55184	-0.104159385
22	0x3d257bef	0.040401395
23	0x3e7c2824	0.24624687
24	0x3d8f29a5	0.06990365
25	0x3d80fc5b	0.06298133
26	0xbe3119d4	-0.17295009
27	0xbdacdaa8	-0.08440143
28	0xbe6549b2	-0.22391394
29	0x3e5fadcc	0.21843642
30	0xbec6f0c5	-0.38855568
31	0x3ccbc508	0.024874225
32	0x3d560924	0.05225481
33	0x3e199410	0.14997888
34	0x3d1a95cc	0.037740514
35	0xbda35cd4	-0.0797669
36	0xbdf60454	-0.12012544
37	0xbe1ded77	-0.15422617
38	0x3e4bc56d	0.1989953
39	0x3dbf3e63	0.09338071
40	0x3e5c8d05	0.2153817
41	0xbe378d39	-0.17924966
42	0xbdec9cef	-0.1155337
43	0x3d91e75a	0.07124205
44	0xbc0cffc8	-0.008605905
45	0x3c698783	0.0142535
46	0xbd0d7195	-0.03453215
47	0x3d0f73c4	0.035022512
48	0x3e40a157	0.18811546
49	0x3d6fa9c6	0.058511518
50	0x3e54a178	0.2076472
51	0x3e0469ac	0.12930936
52	0x3e40ac95	0.18815835
53	0xbc5e639f	-0.013573556
54	0x3e8508e0	0.25983334
55	0x3e55a979	0.2086543
56	0xbe3cb6e9	-0.1842915
57	0xbe414803	-0.18875127
58	0x3e733cd3	0.23753671
59	0xbe011523	-0.1260572
60	0x3dd8e586	0.10590653
61	0x3ce68476	0.028139334
62	0x3df0e176	0.11761753
63	0xbd758a75	-0.059946496
64	0x3db594f3	0.088663004
65	0x3e52e8fa	0.20596686
66	0xbd817252	-0.06320633
67	0x3c728318	0.014801763
68	0x3e8a3183	0.269909
69	0xbe024e81	-0.1272526
70	0xbea89c6c	-0.3293184
71	0xbd2eda47	-0.042688634
72	0xbe32fa8d	-0.1747839
73	0xbe0d5e61	-0.13805534
74	0xbb0286d4	-0.001991679
75	0x3d0ffd26	0.03515353
76	0x3e81d7e1	0.25360015
77	0x3e19a038	0.15002525
78	0x3d12cd92	0.03584058
79	0xbe2645a3	-0.16237502
80	0xbe58a4bc	-0.21156591
81	0x3e14653b	0.14491741
82	0x3e011275	0.12604697
83	0xbd92fe93	-0.071774624
84	0xbe17b6f1	-0.1481588
85	0xbe5d8640	-0.21633244
86	0x3ddda873	0.10823145
87	0xbd528c2b	-0.051403206
88	0x3e3faa83	0.18717389
89	0xbdf5215e	-0.11969255
90	0x3e85be24	0.26121628
91	0xbd4c6148	-0.049897462
92	0xbab6d75a	-0.0013949678
93	0x3e4027ed	0.1876523
94	0xbe082924	-0.13296944
95	0x3e9761b6	0.29566735
96	0xbdcce809	-0.10005195
97	0x3e171f21	0.14757968
98	0x3d98d3bf	0.07462262
99	0x3e6361df	0.22205304
100	0xbe3758cd	-0.17904969
101	0x3da7e6fd	0.081983544
102	0xbe52bc3a	-0.20579615
103	0x3d90daf3	0.07073011
104	0xbdd38cd1	-0.10329593
105	0xbefac510	-0.48978472
106	0xbe8f680e	-0.28009075
107	0xbc92dcc7	-0.01792754
108	0xbe8b2e4b	-0.27183756
109	0xbe8d156e	-0.27555412
110	0xbdcca940	-0.099932194
111	0x3d997f33	0.074949645
112	0x3de23bb5	0.110465445
113	0x3da432d9	0.08017511
114	0x3e4486f3	0.19192104
115	0x3dd61935	0.104540266
116	0xbdd55dd9	-0.10418291
117	0xbd7934a1	-0.060841206
118	0x3d2a007d	0.041504372
119	0xbd6f93cf	-0.05849057
120	0xbd4e90a5	-0.050430913
121	0x3cd50ea1	0.026007952
122	0xbdb64950	-0.08900702
123	0xbdc1582c	-0.094406456
124	0x3d5c1b13	0.053736757
125	0xbc6b94ff	-0.014378785
126	0x3dde59e2	0.108569875
127	0x3e05baa2	0.13059476
128	0x3da2798e	0.07933341
129	0xbd18604d	-0.037201215
130	0x3deecc75	0.11660091
131	0xbdc7cf45	-0.097563304
132	0xbc3a1a8e	-0.01135887
133	0x3e64ee7f	0.22356604
134	0xbdc6a2e5	-0.096990384
135	0xbe32f19c	-0.17474979
136	0xbd4f8016	-0.05065926
137	0x3e5a9685	0.21346481
138	0x3e85f81d	0.26165858
139	0xbe13d23c	-0.14435667
140	0xbe9394d6	-0.2882449
141	0xbd0a2e42	-0.03373552
142	0x3d83eab8	0.064412534
143	0xbd116c4c	-0.03550367
144	0x3e788ede	0.2427325
145	0x3d710a49	0.0588477
146	0xbed555ca	-0.41667014
147	0xbda22616	-0.079174206
148	0x3dc16ee9	0.094449826
149	0x3d4f5894	0.050621584
150	0xbe641eb9	-0.22277345
151	0xbd3f1608	-0.04665187
152	0xbd0aeb51	-0.03391582
153	0x3d20511c	0.039139852
154	0xbd55304a	-0.052048005
155	0x3e715ffb	0.2357177
156	0x3daa30d7	0.08310097
157	0xbdb66a44	-0.08906987
158	0xbb8d4259	-0.004310888
159	0x3d738858	0.0594562
160	0x3e8d2874	0.27569926
161	0xbea89dbd	-0.32932845
162	0x3e8e6727	0.27813074
163	0xbd860572	-0.06544007
164	0xbd0f9625	-0.0350553
165	0x3cb68f41	0.022285106
166	0x3e891d5d	0.26780215
167	0xbe8ebb7e	-0.2787742
168	0x3c850729	0.016238766
169	0xbd87b171	-0.06625641
170	0xbeaafcbb	-0.33395943
171	0x3d17931c	0.03700553
172	0x3c188996	0.009310147
173	0x3d6ecce8	0.058300883
174	0xbcf41fa6	-0.029800247
175	0xbe2b7469	-0.16743626
176	0xbd2ec1d4	-0.042665318
177	0xbd9a1afe	-0.075246796
178	0x3e4865c6	0.19570073
179	0xbd0acb2b	-0.033885162
180	0xbbf94ca0	-0.0076080114
181	0x3d78bde7	0.06072798
182	0x3e273a72	0.16330889
183	0xbd9952aa	-0.0748647
184	0x3d4d5a50	0.050134957
185	0x3dcfa78f	0.10139381
186	0xbdec632f	-0.11542355
187	0xbe93e258	-0.28883624
188	0x3cf47e11	0.02984527
189	0x3cb08b63	0.02155084
190	0xbe67eac6	-0.22648153
191	0xbe676608	-0.22597516
192	0xbdb9811c	-0.09057829
193	0x3da57a5f	0.08079981
194	0x3d8f77d8	0.0700528
195	0xbe493095	-0.19647439
196	0xbca31fe3	-0.019912666
197	0xbe8023c0	-0.25027275
198	0xbdba9d1d	-0.09111998
199	0x3dc5a543	0.09650662
200	0xbe21fb35	-0.15818484
201	0x3d67bb71	0.056575242
202	0x3d76e2cc	0.060274884
203	0x3d04dad4	0.032435253
204	0xbd2fe8e0	-0.042946696
205	0xbddaaf01	-0.106779106
206	0xbdf0ec72	-0.11763848
207	0x3e289aab	0.16465251
208	0xbd8f94e9	-0.07010824
209	0xbcea3b88	-0.02859284
210	0xbcfc3690	-0.030787736
211	0xbe1e85b7	-0.15480696
212	0xbd5eec6c	-0.05442469
213	0x3e825278	0.25453544
214	0xbc89161d	-0.016734177
215	0x3e57581e	0.21029708
216	0x3c58f55f	0.013242095
217	0xbd5bd752	-0.053672142
218	0xbd2e45fa	-0.042547204
219	0xbe5e8ad9	-0.21732654
220	0xbd56db14	-0.052455023
221	0x3db424a0	0.08796048
222	0x3e2d847d	0.16945072
223	0xbe09e710	-0.1346705
224	0x3e4d0622	0.2002187
225	0x3e622071	0.22082688
226	0x3d906070	0.07049644
227	0x3e4677b2	0.19381598
228	0x3eb4f94c	0.35346448
229	0x3e652e96	0.22381052
230	0xbe308f3b	-0.17242138
231	0xbdb89307	-0.09012418
232	0x3e524d1b	0.20537226
233	0xbe35cfd4	-0.17755061
234	0x3dc5667f	0.0963869
235	0xbdb966d0	-0.09052813
236	0x3cc324ba	0.023821224
237	0x3ea8f841	0.33001903
238	0x3d879798	0.06620711
239	0xbd0f1163	-0.03492869
240	0x3e933acb	0.28755793
241	0xbda2e23e	-0.079533085
242	0xbe48dcba	-0.1961545
243	0x3d944672	0.07239999
244	0x3c9aa381	0.018876793
245	0x3cd84a59	0.02640264
246	0xbdf76751	-0.12080253
247	0xbdab80df	-0.083741896
248	0xbe97c773	-0.29644355
249	0xbe68086f	-0.22659467
250	0xbca536a0	-0.020167649
251	0x3e33ebf5	0.17570479
252	0x3e74d1f1	0.23908211
253	0x3e56e52d	0.20985861
254	0xbd1e237c	-0.03860806
255	0xbd8a5fd3	-0.06756558

enc1.1.weight f4 [8]
0	0x3f7d1534	0.9886048
1	0x3f7f03d4	0.99615216
2	0x3f80be13	1.0058006
3	0x3f8251bd	1.0181195
4	0x3f7c148d	0.9846886
5	0x3f82c8cc	1.0217528
6	0x3f810718	1.008029
7	0x3f81622c	1.0108085

enc1.1.bias f4 [8]
0	0xbc838326	-0.016053747
1	0x3c6945eb	0.014237861
2	0x3be4e4f6	0.006985302
3	0x3c2557a3	0.010091695
4	0xbcdd2857	-0.026996775
5	0x3cac98b8	0.021068916
6	0x3cd4664b	0.025927683
7	0x3d1ffb68	0.03905812

enc1.1.running_mean f4 [8]
0	0x3e046c48	0.12931931
1	0x3e441e64	0.19152218
2	0xbdda4fe0	-0.10659766
3	0xbd654f7b	-0.055984
4	0xbd74453e	-0.059636347
5	0xbe21b363	-0.15791087
6	0x3dfdb885	0.1238871
7	0x3e8e1508	0.2775042

enc1.1.running_var f4 [8]
0	0x3d559da7	0.052152302
1	0x3de95e64	0.11394957
2	0x3d3667e4	0.04453267
3	0x3c63c586	0.013902074
4	0x3c61693a	0.013757998
5	0x3d9fb9b3	0.07799091
6	0x3d4efad5	0.05053218
7	0x3e836163	0.25660238

enc1.3.weight f4 [8, 8, 3, 3]
0	0x3e2a4242	0.16626838
1	0x3e5b4bb4	0.21415597
2	0x3dc4dbb4	0.096122175
3	0xbe8873c5	-0.26650825
4	0x3ddea11e	0.108705744
5	0xbed0aa8a	-0.4075511
6	0x3e11c22e	0.1423423
7	0xbdcbf88b	-0.09959515
8	0xbe3248fb	-0.17410652
9	0xbe852858	-0.26007342
10	0x3c4a2d00	0.01233983
11	0xbdaa14ab	-0.08304723
12	0x3e97db1b	0.29659352
13	0x3df38aee	0.11891733
14	0xbe8f1c88	-0.27951455
15	0x3c3a6784	0.011377219
16	0xbe51a832	-0.20474318
17	0x3e7f3d43	0.24925713
18	0xbc8781a4	-0.01654131
19	0xbc6e1cfc	-0.014533278
20	0xbea2b7ac	-0.31780756
21	0x3e6247db	0.22097723
22	0x3e32d364	0.17463452
23	0xbe8600cb	-0.2617248
24	0x3e83e5cc	0.2576126
25	0xbdc7eab3	-0.09761562
26	0x3e6a5b20	0.22886324
27	0xbc25e9e5	-0.010126566
28	0x3b50b388	0.003184529
29	0xbe0b5bea	-0.13609281
30	0x3dc323f1	0.0952834
31	0xbe044538	-0.1291703
32	0x3d0bde4b	0.034147542
33	0x3aef9c3f	0.0018280818
34	0xbe1a479e	-0.15066382
35	0xbe96a54f	-0.29422995
36	0xbe4965ba	-0.19667712
37	0x3cb4ab44	0.022054322
38	0xbd4b88a9	-0.049690876
39	0xbe6efca2	-0.2333856
40	0x3e630997	0.22171627
41	0xbc695c2d	-0.014243168
42	0xbd1c3623	-0.038137566
43	0x3db161fa	0.08661266
44	0xbea0ae02	-0.31382757
45	0x3d5b2446	0.05350139
46	0xbdd731aa	-0.105075195
47	0xbda3e5b6	-0.08002798
48	0x3bf9c965	0.007622885
49	0x3c3687c5	0.011140768
50	0xbdfaf341	-0.12253428
51	0x3d92355a	0.07139082
52	0x3dcd4c95	0.100243725
53	0x3dab1f10	0.08355534
54	0xbe3cc514	-0.18434554
55	0x3e2c0e8d	0.16802426
56	0xbda7fe55	-0.08202807
57	0x3e405490	0.18782258
58	0x3e4402ae	0.19141647
59	0x3ed19e3b	0.40941033
60	0x3e42f59d	0.19039007
61	0x3d8e44c8	0.06946713
62	0xbe753fa1	-0.23950054
63	0x3e4d21d6	0.20032439
64	0xbd753013	-0.0598603
65	0xbe3be6c0	-0.18349743
66	0x3cc098da	0.023510385
67	0x3ebb8912	0.36628014
68	0x3db9afcc	0.09066734
69	0x3e1fe42e	0.15614387
70	0x3e0fdc94	0.14048988
71	0xbe7cbde6	-0.24681816
72	0x3dad2ac9	0.08455426
73	0xbe0635a5	-0.13106401
74	0x3e841993	0.25800762
75	0x3d5beae9	0.053690825
76	0x3ce81bdc	0.028333597
77	0xbe0f32f2	-0.13984278
78	0x3d0e6659	0.034765575
79	0x3d6b88be	0.057503454
80	0x3edb270f	0.42803237
81	0x3c9d0578	0.019167647
82	0xbe0ec6d5	-0.13943036
83	0x3e2e5334	0.17023927
84	0x3e2fc3dc	0.17164558
85	0x3db640e0	0.08899093
86	0x3d958f31	0.07302702
87	0x3e5f216f	0.21790098
88	0x3c94ed1b	0.018179467
89	0x3dd406f5	0.103528894
90	0x3c7bc693	0.015367168
91	0xbba66092	-0.00507743
92	0x3e605be5	0.21910055
93	0xbe69d41d	-0.22834821
94	0xbd721d03	-0.0591097
95	0x3df44723	0.11927631
96	0x3da2286e	0.079178676
97	0xbcafbd16	-0.021452468
98	0x3e39368e	0.18087217
99	0x3b34899b	0.002754784
100	0x3e17cd34	0.14824373
101	0x3e523312	0.20527294
102	0x3d65d22a	0.05610863
103	0xbc36cc9b	-0.01115718
104	0xbe52810c	-0.2055704
105	0xbcb6fd8a	-0.022337694
106	0xbcb4701c	-0.022026114
107	0x3e69051b	0.22755854
108	0xbec7734c	-0.38955152
109	0xbe375de5	-0.17906912
110	0x3dfc816b	0.12329372
111	0x3df98def	0.12185275
112	0x3e0ad22f	0.13556741
113	0x3d43f5cd	0.047841836
114	0x3d82563e	0.06364106
115	0x3b98677f	0.0046510096
116	0x3eb0f8d4	0.3456484
117	0x3e6b235c	0.22962707
118	0x3e46693b	0.1937608
119	0xbd572475	-0.052525003
120	0xbbb9a554	-0.0056654606
121	0x3ddfda32	0.10930289
122	0xbe206608	-0.15663922
123	0xbdfbd709	-0.12296874
124	0x3d8923d9	0.066962905
125	0x3cf75350	0.030191094
126	0x3dbc38c0	0.09190512
127	0x3e5b9909	0.21445097
128	0x3d7e4930	0.062081516
129	0x3e1b20a6	0.15149173
130	0x3e8813e9	0.2657769
131	0xbbc17a8c	-0.0059045013
132	0xbe92e15c	-0.2868756
133	0x3eb7d169	0.35901955
134	0x3dce230f	0.10065281
135	0xbdc29d3f	-0.095026486
136	0xbeb556b9	-0.35417727
137	0x3ec7953a	0.38981038
138	0x3d264f5a	0.04060302
139	0x3e83980d	0.25701943
140	0x3e253c2a	0.16136232
141	0x3eb180fb	0.34668717
142	0xbe32faea	-0.17478529
143	0x3c3b7f8b	0.011443983
144	0xbe289aaa	-0.1646525
145	0x3e1ddf47	0.15417205
146	0xbae3f762	-0.0017392451
147	0xbd94b801	-0.072616585
148	0xbeb9ecd4	-0.36313498
149	0x3db7f793	0.08982768
150	0x3da700f9	0.081544824
151	0x3dd55547	0.10416656
152	0xbe60f94f	-0.21970104
153	0x3e60ee6d	0.21965952
154	0x3d4e7087	0.050400283
155	0x3dff1a22	0.12456156
156	0xbe739d46	-0.23790464
157	0x3dd61e0c	0.1045495
158	0x3e0888cc	0.13333434
159	0xbdf47bac	-0.11937651
160	0x3df67a67	0.12035065
161	0xbd9e1b42	-0.07720043
162	0xbd484c3a	-0.04890082
163	0x3e448960	0.1919303
164	0x3e237602	0.15962985
165	0x39c62ad4	0.00037797412
166	0xbe916021	-0.28393653
167	0xbe110fa6	-0.14166126
168	0xbe50b80d	-0.2038271
169	0x3d79f5db	0.06102548
170	0xbdec9dab	-0.1155351
171	0x3db68071	0.08911217
172	0x3ebc6d5e	0.3680219
173	0x3d54b08a	0.051926173
174	0x3e6b917b	0.23004715
175	0x3e181694	0.14852363
176	0xbc8d1d62	-0.017225925
177	0xbdfc9aa9	-0.123341866
178	0x3e19f2c8	0.1503402
179	0xbdcdfb4c	-0.10057697
180	0x3e3a4a58	0.18192422
181	0x3e2ade1b	0.16686289
182	0xbd5fa6c6	-0.054602407
183	0xbe0f8451	-0.14015318
184	0xbdbb20b8	-0.091371
185	0xbe878874	-0.26471293
186	0x3e73298b	0.23746316
187	0x3db3f98a	0.0878783
188	0x3d4759ea	0.048669733
189	0x3d8afed3	0.06786885
190	0x3e1b4c8b	0.15165918
191	0x3e676fa1	0.22601177
192	0xbdcd7778	-0.100325525
193	0xbe30dd45	-0.17271908
194	0x3db40208	0.0878945
195	0xbe968027	-0.29394647
196	0xbdcdc609	-0.10047538
197	0xbcefe720	-0.029285014
198	0x3e41c39b	0.18922274
199	0xbd77faa0	-0.06054175
200	0x3e4ec737	0.20193182
201	0xbbe3c212	-0.006950625
202	0xbd19bfbe	-0.037536375
203	0x3e00692c	0.1254012
204	0x3ed47bdc	0.41500747
205	0xbe003928	-0.12521803
206	0xbe79b3f5	-0.24385054
207	0x3ea64c32	0.32480007
208	0x3daa66ed	0.08320413
209	0xbeba0a5a	-0.36336023
210	0xbe2d6c15	-0.16935761
211	0x3e0d59d2	0.13803795
212	0xbdac14cc	-0.08402404
213	0x3e75d377	0.24006449
214	0xbe1e02f8	-0.1543082
215	0xbd9f2684	-0.07771018
216	0x3ec2a9ac	0.38020074
217	0x3de93815	0.1138765
218	0x3e4f3c3d	0.20237823
219	0x3d50abf2	0.05094523
220	0x3e24bb5e	0.160871
221	0xbd6fdee5	-0.05856218
222	0x3e12a0e7	0.14319192
223	0xbd80b3cb	-0.06284293
224	0xbe2da4e2	-0.16957429
225	0xbde16ee2	-0.11007477
226	0x3cf041c3	0.029328233
227	0x3da0e83e	0.07856797
228	0x3e29c910	0.16580606
229	0xbe43e743	-0.19131188
230	0x3e9e953f	0.3097324
231	0xbe67543b	-0.22590725
232	0xbcd1b251	-0.025597723
233	0x3c35af75	0.0110891955
234	0x3d101865	0.035179514
235	0xbe3c62b3	-0.18397026
236	0x3d1aa498	0.037754625
237	0xbd42aa1e	-0.047525518
238	0x3e41c379	0.18922223
239	0x3e1dcc27	0.15409909
240	0x3dd79657	0.10526722
241	0x3ccb3e3c	0.02480995
242	0x3d8ce0c0	0.06878805
243	0x3e9d8061	0.30762008
244	0x3e890403	0.26760873
245	0x3d6e60fd	0.058197964
246	0xbd726800	-0.059181213
247	0x3dedc43f	0.116096966
248	0xbeefa393	-0.46804485
249	0xbd88b253	-0.06674638
250	0xbe331321	-0.17487766
251	0x3e1ce5f2	0.15322092
252	0x3d304240	0.04303193
253	0xbde30dce	-0.110866174
254	0x3d970c8a	0.073754385
255	0xbe370951	-0.17874648

enc1.4.weight f4 [8]
0	0x3f813e58	1.0097151
1	0x3f781647	0.9690899
2	0x3f80b8f3	1.0056442
3	0x3f7f2d9f	0.9967899
4	0x3f7fe392	0.9995662
5	0x3f813c8f	1.0096606
6	0x3f81eba7	1.015004
7	0x3f7f96d1	0.998395

enc1.4.bias f4 [8]
0	0x3cbcb0a0	0.02303344
1	0xbc92f66e	-0.017939772
2	0x3c467faa	0.012115398
3	0x39b24afe	0.0003400668
4	0xbbe982de	-0.0071261963
5	0x3b98e36f	0.004665784
6	0xbad94730	-0.0016577002
7	0xbba5904b	-0.0050526015

enc1.4.running_mean f4 [8]
0	0x3b267e9e	0.002540506
1	0x3fdde4d2	1.7335455
2	0x3e9c495e	0.30524725
3	0x3f91ed74	1.140059
4	0x3f8976ba	1.0739357
5	0xbc6e599c	-0.014547732
6	0x3e550114	0.20801193
7	0x3e1ae7de	0.15127513

enc1.4.running_var f4 [8]
0	0x3f3f652a	0.7476374
1	0x407cb240	3.9483795
2	0x3de00454	0.109383255
3	0x400a90cc	2.1650877
4	0x3fa6a6d6	1.3019664
5	0x3f86c731	1.0529538
6	0x3ea97ead	0.33104458
7	0x3e9b5ff1	0.30346635

enc2.0.weight f4 [16, 8, 3, 3]
0	0x3dbe2a03	0.09285357
1	0xbe0fbbd3	-0.14036493
2	0xbda07c03	-0.07836153
3	0xbe44ce16	-0.1921924
4	0xbd4871af	-0.048936542
5	0x3d9f9d04	0.0779362
6	0xbe0ffbf8	-0.14060962
7	0xbda763c0	-0.08173323
8	0xbc6061b6	-0.013695171
9	0xbcc18b3b	-0.02362596
10	0xbd140e40	-0.036146402
11	0xbd466dd5	-0.048444588
12	0x3e897de0	0.26853848
13	0x3d848ae4	0.06471804
14	0xbe6e6d97	-0.23283993
15	0xbda3fab9	-0.08006806
16	0xbdd9d52a	-0.10636361
17	0x3e079735	0.13241275
18	0xbe139953	-0.14413957
19	0xbe273a63	-0.16330867
20	0xbe0e89df	-0.13919781
21	0x3a9a2c05	0.0011762386
22	0xbdc801d7	-0.09765976
23	0x3dd0a8bd	0.10188434
24	0xbe271bdf	-0.16319226
25	0xbe44bbb0	-0.19212222
26	0xbe384b0b	-0.17997377
27	0x3e252e9f	0.16131066
28	0xbd0de978	-0.03464648
29	0xbdefe08b	-0.1171275
30	0x3dbabd4e	0.09118138
31	0x3d6794c3	0.056538355
32	0x3e37d179	0.17951001
33	0xbdc24b23	-0.094869874
34	0x3dea831d	0.11450789
35	0x3d79858e	0.060918383
36	0x3e99990c	0.29999578
37	0xbd162873	-0.03665967
38	0x3e02f988	0.12790501
39	0x3da102f6	0.07861893
40	0xbdc49b0d	-0.09599886
41	0x3c91123e	0.017708894
42	0x3cb96feb	0.022636374
43	0x3dbe2d7f	0.092860214
44	0xbd478cfc	-0.048718438
45	0x3da820d9	0.0820939
46	0x3cbaea0d	0.022816682
47	0x3e1d51a6	0.15363178
48	0xbdfe3df9	-0.12414164
49	0x3e0c5c82	0.13707164
50	0x3caa2f48	0.020774499
51	0xbdbaaec1	-0.09115363
52	0xbd236d1b	-0.039898973
53	0x3e1d7336	0.1537598
54	0xbd93e2be	-0.07220982
55	0x3e389133	0.18024139
56	0xbc2cc2a0	-0.010544449
57	0x3d344b66	0.044017218
58	0x3eae555d	0.34049502
59	0x3d82dbf2	0.063896075
60	0xbbd31f87	-0.0064429673
61	0xbc659530	-0.01401262
62	0xbd0b7587	-0.03404763
63	0x3de3d8da	0.111253455
64	0xbd745c77	-0.059658494
65	0xbbc9e9b2	-0.006161892
66	0x3e161317	0.1465572
67	0xbcdcb045	-0.02693952
68	0xbd29c291	-0.04144532
69	0x3c2f36f3	0.010694253
70	0xbcf7e3b6	-0.030259948
71	0x3c1a45a8	0.009416021
72	0xbe063a6e	-0.13108227
73	0xbd85f049	-0.065399714
74	0xbe26a651	-0.16274382
75	0xbe2a36e2	-0.16622499
76	0xbdb476bc	-0.08811709
77	0x3df4aa95	0.119465984
78	0x3d2b269d	0.04178487
79	0xbddfbe27	-0.109249406
80	0x3e088ef4	0.13335782
81	0x3e2a7f5b	0.16650145
82	0x3e117676	0.14205346
83	0x3d5b873d	0.05359577
84	0xbdccda97	-0.1000263
85	0x3d72e415	0.059299547
86	0xbc82188e	-0.01588085
87	0xbe4253d4	-0.1897729
88	0x3d968d10	0.07351124
89	0x3e77af91	0.24188067
90	0xbd1ca655	-0.038244564
91	0xbdda660d	-0.10663996
92	0x3cf7d233	0.030251598
93	0xbcdc64c0	-0.02690351
94	0xbd22aa92	-0.03971345
95	0xbdb09803	-0.08622744
96	0x3de65a6d	0.11247716
97	0xbdb30658	-0.08741444
98	0x3d2b87b0	0.04187745
99	0x3d7c3c87	0.06158116
100	0xbe1a744f	-0.1508343
101	0xbca7ee56	-0.02049939
102	0xbcc9010d	-0.024536634
103	0x3ccc51e7	0.024941398
104	0xbc33bbfc	-0.010970112
105	0xbcf79933	-0.030224418
106	0x3e1db635	0.15401538
107	0xbd9eefbb	-0.07760569
108	0xbe1323f8	-0.1436919
109	0xbe827e9b	-0.25487217
110	0x3d3eedc2	0.046613462
111	0xbdcf53c1	-0.10123397
112	0x3d93214f	0.071840875
113	0xbe052347	-0.13001738
114	0x3c8b633e	0.017015096
115	0xbe727287	-0.23676501
116	0x3ce4b550	0.027918488
117	0xbd81521a	-0.06314488
118	0x3d88ea3d	0.066853024
119	0xbe3e0343	-0.18555932
120	0xbc9262f4	-0.01786945
121	0xbd34ab97	-0.044108953
122	0xbe367c3f	-0.17820834
123	0x3e1eda71	0.15513016
124	0x3c91e4e6	0.017809343
125	0x3dcd529b	0.10025521
126	0xbb7ce8e5	-0.0038590964
127	0x3d88df8d	0.06683264
128	0x3c8fa88d	0.017536426
129	0xbd9ebd40	-0.0775094
130	0xbe5c8d41	-0.21538259
131	0xbcdb8429	-0.026796417
132	0xbe5cd671	-0.21566178
133	0x3dc2d7fa	0.095138505
134	0x3d23fffb	0.040039044
135	0xbcd5d805	-0.026103983
136	0x3e5aa21f	0.21350907
137	0x3e0c20e1	0.13684417
138	0xbdcfe3a2	-0.101508394
139	0x3d243923	0.040093552
140	0x3ccf36a1	0.025294604
141	0xbdd656c2	-0.104657665
142	0xbd768a99	-0.06019077
143	0xbd520496	-0.051273905
144	0xbd4ae6a7	-0.049536373
145	0x3e1b1368	0.15144122
146	0xbe40d1f7	-0.18830095
147	0xbe022da8	-0.12712729
148	0xbddd0e7d	-0.10793779
149	0xbdb15b64	-0.086600095
150	0x3d938243	0.0720258
151	0xbe577bd3	-0.21043329
152	0x3cf3baad	0.0297521
153	0xbe636b2d	-0.22208853
154	0x3d9f067f	0.07764911
155	0x3d640fb7	0.05567905
156	0x3d243958	0.04009375
157	0x3d9d762c	0.07688555
158	0xbd18c04d	-0.037292767
159	0xbd91a8ae	-0.07112251
160	0xbdf3c4b3	-0.11902752
161	0x3d2a8b52	0.041636772
162	0xbe905fc8	-0.28198075
163	0xbce026d6	-0.027362268
164	0xbdd67a63	-0.10472562
165	0x3cc5c0b4	0.02413974
166	0xbd970f6d	-0.07375989
167	0xbcdff134	-0.027336694
168	0x3e7ac5c4	0.24489504
169	0x3d169d2c	0.036770985
170	0xbc2621c5	-0.010139887
171	0x3da89f25	0.082334794
172	0xbd5e71b4	-0.054307655
173	0xbdbf830b	-0.09351166
174	0x3e16c1d9	0.14722385
175	0x3e453bca	0.19261089
176	0xbdeb296d	-0.11482511
177	0xbd08fd50	-0.033444703
178	0x3d5c084f	0.05371886
179	0xbe16d960	-0.1473136
180	0xbdd61402	-0.10453035
181	0x3d821c22	0.06353022
182	0x3d9995ec	0.074992985
183	0x3d7ca5dd	0.061681617
184	0xbc8cda07	-0.017193807
185	0xbd4909e0	-0.049081683
186	0xbd2cac14	-0.042156294
187	0x3e33b397	0.17548977
188	0xbe304bad	-0.17216368
189	0xbd47e9b7	-0.048806872
190	0xbd2fd474	-0.04292722
191	0x3d89f2e9	0.067357846
192	0x3d7a667d	0.061132897
193	0x3d1c10ef	0.038102087
194	0x3dbbf5b0	0.091777205
195	0x3cd474f7	0.02593468
196	0x3ccd6d2e	0.025076475
197	0xbd0d877c	-0.034553036
198	0xbd8a625a	-0.0675704
199	0xbe3ad624	-0.1824575
200	0xbe75d753	-0.24007921
201	0x3e0bd3dc	0.13655037
202	0xbe358933	-0.17728119
203	0xbe11a0fa	-0.14221564
204	0x3d91e2f0	0.07123363
205	0xbd128676	-0.035772763
206	0x3dc155f2	0.09440221
207	0x3e41c4f2	0.18922785
208	0x3deee86d	0.116654254
209	0xbe3d3fee	-0.18481418
210	0xbe02ae44	-0.1276179
211	0x3e1e4dab	0.15459315
212	0x3de69e47	0.11260658
213	0xbdc01e06	-0.093807265
214	0xbe7d9a2b	-0.24765842
215	0x3d583817	0.052787866
216	0xbe044799	-0.12917937
217	0x3b6e0648	0.0036319662
218	0x3da28806	0.07936101
219	0xbe16a60b	-0.14711778
220	0x3e8f6738	0.28008437
221	0x3d909393	0.070593975
222	0xbe021b9b	-0.12705843
223	0xbe291683	-0.16512494
224	0xbd3c6204	-0.045991912
225	0x3e28396f	0.16428159
226	0xbe196bee	-0.14982578
227	0x3b5a8f60	0.0033349618
228	0xbd2bffc5	-0.041991968
229	0x3d3424c0	0.04398036
230	0xbe16abc8	-0.14713967
231	0xbd6ba2cd	-0.057528306
232	0x3bd021a6	0.0063516675
233	0xbd14e45e	-0.0363506
234	0xbdbe1471	-0.09281243
235	0xbd343459	-0.043995235
236	0xbd93f595	-0.072245754
237	0x3e229130	0.15875697
238	0xbdff7340	-0.12473154
239	0x3e149203	0.14508824
240	0xbcf61650	-0.030039936
241	0x3e732d18	0.2374767
242	0x3d82a309	0.06378753
243	0xbc2799a4	-0.010229502
244	0x3e60cd89	0.21953405
245	0xbe21aaa0	-0.15787745
246	0xbc5001ab	-0.01269571
247	0x3dbd44af	0.09241616
248	0x3d70683c	0.058693156
249	0x3ddc4001	0.10754395
250	0x3d6935c9	0.05693606
251	0xbe58ea2f	-0.21183084
252	0xbdfdf2e5	-0.12399844
253	0x3dbfe3e2	0.09369637
254	0xbd5766b1	-0.05258817
255	0xbdbbb292	-0.09164919

enc2.1.weight f4 [16]
0	0x3f7e200c	0.9926765
1	0x3f80abd9	1.0052444
2	0x3f81d37f	1.0142668
3	0x3f7e519a	0.99343264
4	0x3f78b067	0.9714417
5	0x3f808b84	1.0042577
6	0x3f8240f0	1.0176067
7	0x3f81a2dd	1.0127827
8	0x3f831c21	1.0242959
9	0x3f7ae9c9	0.9801298
10	0x3f80014c	1.0000396
11	0x3f812476	1.0089252
12	0x3f7f1aa7	0.99650043
13	0x3f7dc15b	0.9912316
14	0x3f80acd8	1.0052748
15	0x3f807dd1	1.0038396

enc2.1.bias f4 [16]
0	0xbc408a14	-0.01175167
1	0x3b228770	0.0024799965
2	0x3c419ba3	0.011816892
3	0xbbd4d379	-0.006494936
4	0xbc92d709	-0.017924802
5	0x3ae0dcdb	0.0017155664
6	0x3c4a2513	0.012337941
7	0x39afafbf	0.00033509542
8	0x3c18cbb0	0.009325907
9	0xbca62fb5	-0.02028642
10	0xbc543270	-0.012951478
11	0x3c1b42bd	0.009476361
12	0x3cfdb04a	0.03096785
13	0xbc096e54	-0.008388121
14	0x3b5e92bf	0.003396198
15	0x3d05a754	0.03263028

enc2.1.running_mean f4 [16]
0	0x3db51d59	0.08843488
1	0xbf206a1e	-0.6266192
2	0xbf0e9636	-0.55697954
3	0x3d91f568	0.07126886
4	0xbdc9571d	-0.09831069
5	0xbea214b8	-0.31656432
6	0xbe334571	-0.17506959
7	0x3f61005b	0.8789117
8	0x3f22b8fa	0.635635
9	0xbeb0e5e2	-0.34550387
10	0x3f17bedb	0.592756
11	0xbf2a8ac2	-0.6661798
12	0xbf385fc0	-0.720211
13	0x3e85d1d2	0.26136643
14	0xbf552146	-0.83253896
15	0xbe91e8b7	-0.2849786

enc2.1.running_var f4 [16]
0	0x3f1b562d	0.6067837
1	0x3f274bc9	0.65350014
2	0x3f19a616	0.6001905
3	0x3e88ab1a	0.2669304
4	0x3dcf2f9e	0.10116504
5	0x3f391b93	0.723077
6	0x3e54663d	0.20742126
7	0x3e7aa5ef	0.24477361
8	0x3f2c4779	0.6729656
9	0x3e2aff0d	0.16698857
10	0x3fa4deca	1.288049
11	0x3ebe1670	0.37126493
12	0x3e5a02ff	0.21290205
13	0x3eab2ec0	0.33434105
14	0x3f813f13	1.0097374
15	0x3e2c9440	0.16853428

enc2.3.weight f4 [16, 16, 3, 3]
0	0x3d1ce8d5	0.038307983
1	0xbd25fbe2	-0.040523417
2	0xbda41644	-0.08012059
3	0xbe21f5d3	-0.15816431
4	0xbc5d690c	-0.013513815
5	0x3b18541c	0.0023243492
6	0x3d33eb47	0.04392555
7	0x3db23db4	0.08703175
8	0x3e288a71	0.16459061
9	0x3d8e3ce2	0.06945206
10	0x3ce5bde0	0.028044641
11	0x3d0e5ce4	0.034756556
12	0xbe95fe32	-0.29295498
13	0xbd088043	-0.033325445
14	0xbe6db019	-0.23211707
15	0x3e457dd3	0.1928628
16	0x3e06ee68	0.13176882
17	0x3e288010	0.16455102
18	0x3d9e6619	0.07734317
19	0x3e7b0852	0.24514893
20	0xbd3a6514	-0.04550655
21	0x3d5f6d74	0.054547742
22	0xbb5b73d9	-0.0033485799
23	0x3e8df2b5	0.27724233
24	0xbcd28e76	-0.025702696
25	0xbdd7a21b	-0.10528966
26	0xbe0f70cc	-0.14007872
27	0x3d0d34b8	0.034474105
28	0x3e0febc5	0.14054783
29	0xbd2ffe0c	-0.042966887
30	0xbd97a232	-0.07403983
31	0x3e1198d7	0.1421846
32	0x3d168f89	0.03675798
33	0x3e126649	0.14296831
34	0xbdb24acc	-0.087056726
35	0xbdf584db	-0.11988231
36	0xbaac214c	-0.0013132482
37	0xbd8702da	-0.06592341
38	0x3e231428	0.15925658
39	0xbbea938e	-0.007158703
40	0x3da7219a	0.08160706
41	0x3d535e3a	0.051603533
42	0xbda67bc8	-0.08129078
43	0xbd9b2859	-0.07576055
44	0x3da694be	0.08133839
45	0xbe32807d	-0.17431827
46	0xbb2626b8	-0.0025352668
47	0xbd9c05fb	-0.07618328
48	0x3d9205ea	0.07130034
49	0xbdb936dd	-0.090436675
50	0x3d27e775	0.04099222
51	0xbd3cb632	-0.046072192
52	0xbda47ccc	-0.080316156
53	0xbdb28d2f	-0.08718335
54	0xbe0b3971	-0.13596131
55	0x3ddb8e3c	0.107204884
56	0xbd3b161e	-0.04567539
57	0x3d738d91	0.05946118
58	0xbcca74f8	-0.024713978
59	0x3d007574	0.031362012
60	0xbdb2eac0	-0.08736181
61	0xbdb7041d	-0.089363314
62	0xbe192cb9	-0.14958467
63	0x3b9c10c0	0.004762739
64	0xbd386a63	-0.045023333
65	0xbe2ba7db	-0.1676325
66	0xbce4ecf0	-0.027945012
67	0xbd76a7fb	-0.060218792
68	0x3d959786	0.073042914
69	0xbe357143	-0.17718987
70	0x3e3dcae9	0.18534435
71	0xbcadd1ff	-0.021218298
72	0xbd784382	-0.060611255
73	0xbe40adf9	-0.18816365
74	0x3d1ed4ff	0.038777348
75	0x3df899c8	0.121387064
76	0xbdf3645d	-0.11884377
77	0xbcdb0ab6	-0.026738506
78	0xbdd2a7dd	-0.10285924
79	0x3dbdaae6	0.09261112
80	0x3c1cebf2	0.009577738
81	0xbd68825d	-0.05676495
82	0xbe16b7aa	-0.147185
83	0x3e63a918	0.22232473
84	0x3dbad640	0.09122896
85	0xbc1e4b2d	-0.009661478
86	0xbd611253	-0.054949116
87	0x3cf21743	0.029552108
88	0x3e2696b7	0.1626843
89	0xbe13d3f5	-0.14436324
90	0x3cc44be4	0.023961969
91	0xbe1c9410	-0.15290856
92	0xbd5821b7	-0.052766528
93	0x3d77f11c	0.060532674
94	0x3d3833dd	0.044971336
95	0x3dc899a7	0.09794932
96	0xbd809104	-0.062776595
97	0x3e4d3d52	0.20042923
98	0xbe800c3b	-0.2500933
99	0x3c2d5cc5	0.0105812
100	0x3e6baa63	0.23014216
101	0x3e4b80a5	0.19873293
102	0x3e2676f5	0.16256316
103	0x3d645734	0.055747226
104	0x3c344207	0.01100207
105	0x3d56b861	0.05242193
106	0xbdb86aad	-0.09004722
107	0xbdae69a5	-0.08516244
108	0xbbf33c1f	-0.0074229385
109	0xbddac12b	-0.10681375
110	0xbced4f71	-0.028968545
111	0x3e44aa31	0.19205548
112	0xbe82fdd7	-0.2558429
113	0x3d8a0f5d	0.067412116
114	0x3e178994	0.14798576
115	0x3e1f67a8	0.15566885
116	0xbe741b6a	-0.23838583
117	0x3d83555c	0.064127654
118	0x3cc4be9b	0.024016669
119	0x3dc8312b	0.09775003
120	0xbe2359f3	-0.15952282
121	0xbe95ea54	-0.2928034
122	0xbdc38848	-0.09547478
123	0xbd351515	-0.04420956
124	0xbdafdd8d	-0.08587179
125	0xbdff2b3d	-0.12459419
126	0xbd86a490	-0.065743566
127	0xbcfa360e	-0.030543353
128	0x3c418216	0.0118108
129	0xbd9b09af	-0.075702064
130	0xbe2f5fec	-0.17126435
131	0xbdc188eb	-0.09449943
132	0xbdf7474b	-0.12074145
133	0xbd0406b5	-0.03223296
134	0x3e1f09cb	0.1553108
135	0x3e587f3e	0.21142289
136	0xbe2a6319	-0.16639365
137	0xbdff77c1	-0.12474013
138	0x3e34e2f4	0.17664701
139	0x3c294240	0.010330737
140	0xbe2c5b1b	-0.16831629
141	0x3d7993de	0.060932033
142	0xbcb11ff6	-0.021621685
143	0xbe366ea1	-0.17815639
144	0x3dd600b1	0.104493506
145	0xbd7a814e	-0.06115847
146	0x3de6b26a	0.112644985
147	0x3c99fd41	0.018797519
148	0x3a6a8fca	0.0008947818
149	0xbe3b1233	-0.18268661
150	0xbcbef84e	-0.02331176
151	0x3af53212	0.0018706939
152	0xbe18728c	-0.14887446
153	0xbaa4643d	-0.001254208
154	0xbcd78f07	-0.026313318
155	0xbe0b8469	-0.13624729
156	0x3e255c85	0.16148575
157	0xbd1a10b7	-0.037613597
158	0xbd353619	-0.044241045
159	0xbd52f7a1	-0.05150569
160	0x3cb51620	0.022105277
161	0xbdd87978	-0.10570043
162	0x3da47ed5	0.08032004
163	0xbd240149	-0.040040288
164	0x3dda4033	0.10656776
165	0xbd679f62	-0.056548484
166	0x3af6c9c1	0.0018828438
167	0x3da9f805	0.08299259
168	0x3da07b73	0.07836046
169	0x3dcc5f58	0.09979123
170	0x3d3055e5	0.043050665
171	0x3e713aaa	0.23557535
172	0x3e09ad93	0.1344512
173	0x3d43fe1a	0.047849752
174	0xbd052849	-0.032509122
175	0x3de29390	0.110633016
176	0xbcff0bea	-0.03113361
177	0xbdd5bde6	-0.10436611
178	0x3e72e353	0.2371953
179	0x3da6d5ed	0.08146272
180	0xbcd81a83	-0.02637983
181	0xbe04f4db	-0.1298403
182	0x3e0496ea	0.12948194
183	0x3dbf8f2c	0.0935348
184	0x3df8b7cf	0.12144434
185	0x3e24ecf6	0.16106018
186	0x3cd85ccd	0.026411438
187	0x3d9b60f6	0.07586853
188	0x378e4688	1.6960563e-05
189	0xbe07c9a6	-0.13260517
190	0x3d7e3ce7	0.0620698
191	0x3e0503d6	0.12989745
192	0x3c1c5bd5	0.009543379
193	0xbcc9400d	-0.024566675
194	0x3dfbcfb8	0.122954786
195	0xbc96a8e0	-0.018391073
196	0x3e1a11e3	0.15045886
197	0xbe5640ec	-0.20923203
198	0x3d637de3	0.055539977
199	0x3e9b5054	0.30334723
200	0x3e71400c	0.23559588
201	0x3e55b4ea	0.20869794
202	0x3e30bdc5	0.17259891
203	0x3dc38a55	0.09547869
204	0xbc1b871d	-0.009492663
205	0xbde9aa8e	-0.11409484
206	0x3cdfd69b	0.027324012
207	0x3c24cd6b	0.010058741
208	0xbca39959	-0.019970583
209	0x3d5506f3	0.05200858
210	0x3cdc2de3	0.02687735
211	0xbd8b809a	-0.06811638
212	0x3d5a810f	0.053345736
213	0x3de3527b	0.11099716
214	0xbbfed8cc	-0.007777309
215	0x3de116b8	0.109906614
216	0xbe854f38	-0.26037002
217	0xbda338c6	-0.07969813
218	0x3e570de4	0.21001393
219	0x3e01c9c4	0.12674624
220	0x3d880c3b	0.06642958
221	0xbdd7bb78	-0.10533804
222	0xbdeff2ba	-0.11716218
223	0xbd5e3014	-0.05424507
224	0xbd61f169	-0.055161867
225	0xbd8b9636	-0.0681576
226	0x3e2d2684	0.16909224
227	0x3d9aed81	0.075648315
228	0x3dcecbc9	0.10097463
229	0x3da4205e	0.08013986
230	0xbe492063	-0.19641261
231	0x3de1cdb9	0.110255666
232	0xbc606752	-0.0136965085
233	0xbdcb4373	-0.09924974
234	0xbc2ce3fb	-0.010552402
235	0xbe12a1f5	-0.14319594
236	0x3d92d846	0.07170157
237	0x3cd7a5ac	0.026324116
238	0xbde914b8	-0.11380905
239	0xbd21de5d	-0.039518703
240	0x3dbd654e	0.09247838
241	0xbc23d59e	-0.009999661
242	0xbd88399f	-0.06651615
243	0xbe63393f	-0.22189806
244	0xbd86fe11	-0.06591428
245	0xbe5d15e3	-0.2159038
246	0x3e1806dd	0.14846368
247	0x3ddfd72c	0.10929713
248	0xbd01c07a	-0.0316777
249	0xbe171fdf	-0.14758252
250	0x3e5b7a1f	0.21433304
251	0xbc80f822	-0.015743319
252	0x3de3920c	0.111118406
253	0xbdd9d844	-0.106369525
254	0xbd869906	-0.06572156
255	0x3e08e013	0.13366728

enc2.4.weight f4 [16]
0	0x3f8036f9	1.0016776
1	0x3f7bf6bd	0.9842337
2	0x3f7c0796	0.98449075
3	0x3f7ceef0	0.9880209
4	0x3f808281	1.0039827
5	0x3f7d1f95	0.98876315
6	0x3f7d6797	0.9898619
7	0x3f8134f9	1.0094291
8	0x3f7a3d11	0.9774943
9	0x3f7c0b75	0.9845498
10	0x3f807eed	1.0038735
11	0x3f7e737c	0.99394965
12	0x3f81ddfd	1.014587
13	0x3f7b9310	0.98271275
14	0x3f7b98de	0.9828013
15	0x3f7e2d90	0.9928827

enc2.4.bias f4 [16]
0	0x3b3b0897	0.0028539055
1	0xbac51258	-0.0015035374
2	0xbcf0ee63	-0.029410547
3	0xbcd56823	-0.026050633
4	0x3ac35220	0.0014901794
5	0xbc42f96a	-0.011900285
6	0x3931f437	0.00016971013
7	0x3b010da6	0.0019691973
8	0x3bea9ea6	0.0071600256
9	0xbc4fc959	-0.012682282
10	0x3c6ef642	0.01458508
11	0x3bb14a22	0.0054104486
12	0x3b9b02f9	0.004730579
13	0xb9e32e8b	-0.0004333149
14	0xbcc78b5a	-0.02435844
15	0xbc745816	-0.014913579

enc2.4.running_mean f4 [16]
0	0xbed9e782	-0.4255944
1	0x3f154aae	0.5831708
2	0xbf10db9e	-0.5658511
3	0x3f4bfc23	0.79681605
4	0x3d8075eb	0.06272491
5	0x3f9e4e61	1.2367669
6	0x3d22d873	0.039757203
7	0xbe687b5e	-0.22703311
8	0xbeb48eb9	-0.3526514
9	0xbe9b8532	-0.30375057
10	0xbdd0597c	-0.10173318
11	0xbef58e1f	-0.47959992
12	0x3ea2d424	0.31802475
13	0x3f41c721	0.7569447
14	0xbf7240ce	-0.94630134
15	0x3dcdd8f6	0.10051148

enc2.4.running_var f4 [16]
0	0x3f504334	0.81352544
1	0x3f0dd847	0.5540814
2	0x3f207092	0.6267177
3	0x3f017acb	0.5057799
4	0x3f6e7f38	0.9316287
5	0x3f8e3b11	1.1111776
6	0x3e8f2d41	0.27964213
7	0x40574111	3.3633463
8	0x3fa1a9d7	1.2629956
9	0x3f8a18cf	1.0788821
10	0x3f6b4cc6	0.9191402
11	0x3ec10db1	0.37705758
12	0x3f542443	0.8286783
13	0x3f0cdc7f	0.5502395
14	0x3ebcc10e	0.3686604
15	0x3f408b19	0.75212246

bottleneck.0.weight f4 [32, 16, 3, 3]
0	0xbd85710e	-0.06515704
1	0xbde4f60e	-0.11179744
2	0xbd44e149	-0.04806641
3	0x3e10b19e	0.14130256
4	0x3cb74c8a	0.022375364
5	0xbc01c834	-0.007921267
6	0x3ccfd5a6	0.02537043
7	0xbda0e52a	-0.078562096
8	0x3d9a5939	0.07536549
9	0x3d38a64b	0.045080464
10	0xbe1f6173	-0.15564518
11	0x3dc3ac26	0.09554319
12	0x3cf7aa54	0.030232586
13	0xbd89ac21	-0.06722284
14	0xbc8d63a5	-0.017259428
15	0x3c4d26e0	0.012521476
16	0x3df27e6f	0.118405215
17	0x3d23b742	0.03996969
18	0x3d91d57f	0.07120799
19	0xbc9077b8	-0.017635211
20	0xbc4bd6c8	-0.012441345
21	0x3d108359	0.035281513
22	0x3e28c143	0.16479973
23	0xbcffb03a	-0.031211961
24	0xbce754d4	-0.028238691
25	0xbdbb0969	-0.09132654
26	0x3d775d7b	0.060391884
27	0x3d0b003d	0.033935774
28	0x3d26798b	0.040643256
29	0x3d33d32c	0.04390256
30	0x3c9835a2	0.018580262
31	0x3d0bc8eb	0.034127157
32	0x3d80a8fd	0.06282232
33	0xbdbaa4c3	-0.09113457
34	0x3ded2937	0.11580127
35	0xbdfd4c27	-0.123680405
36	0xbc33a20c	-0.010963928
37	0xbd5804ae	-0.052738838
38	0x3bbd1a6f	0.0057709734
39	0xbd680f4f	-0.056655224
40	0xbd4396bb	-0.04775117
41	0x3e20e974	0.15714055
42	0xbddb83c0	-0.10718489
43	0xbd0ba2fd	-0.034090985
44	0x3e1d8068	0.15381014
45	0x3db4e879	0.08833403
46	0xbc29014d	-0.010315252
47	0x3d325421	0.043537263
48	0x3de43365	0.11142615
49	0xbbd35676	-0.006449516
50	0xbc2e33d8	-0.010632478
51	0x3cb8adca	0.022543807
52	0xbdd7abbc	-0.105308026
53	0x3cbd88d0	0.023136526
54	0xbe4446f1	-0.19167687
55	0x3e36a7b9	0.17837419
56	0x3de4a3e1	0.1116407
57	0x3d7cbe67	0.06170502
58	0xbdff5cf2	-0.124689
59	0xbd9b25db	-0.0757558
60	0x3d84c454	0.06482759
61	0xbb942c80	-0.0045219064
62	0xbe0ef3c3	-0.13960175
63	0x3de99f61	0.11407352
64	0x3d339fb1	0.043853465
65	0xbdd6df23	-0.10491779
66	0x3c0210ab	0.007938544
67	0xbc7450f0	-0.014911875
68	0x3c3e21b4	0.011604715
69	0x3d808f9b	0.062773906
70	0x3db005f7	0.08594888
71	0x3da5c221	0.08093668
72	0xbc5a9d0e	-0.013343109
73	0x3d6289a9	0.055307064
74	0x3d860a1f	0.06544899
75	0x3dff66ff	0.12470817
76	0xbcebec1e	-0.028799113
77	0xbe080abf	-0.1328535
78	0x3cd075f9	0.025446879
79	0x3da02907	0.07820325
80	0xbc202220	-0.009773761
81	0x3de4770e	0.111555204
82	0xbd4a845d	-0.049442638
83	0x3d7d278b	0.06180529
84	0xbcd69cf5	-0.02619789
85	0xbd161386	-0.036639713
86	0x3aaf811a	0.0013389916
87	0x3d94e72e	0.072706565
88	0x3d6a6a43	0.057230245
89	0x3e080075	0.13281424
90	0x3d6bbb46	0.057551645
91	0x3db55b71	0.08855332
92	0xbd169fef	-0.03677362
93	0x3da870d5	0.08224646
94	0xbcbbad42	-0.022909764
95	0x3d840adf	0.06447386
96	0x3dcc8b53	0.099875115
97	0x3d6ae241	0.05734468
98	0x39d9230d	0.0004141558
99	0x3d2d684d	0.042335797
100	0x3e1ca515	0.15297349
101	0xbdf533ac	-0.11972746
102	0xbd5713b2	-0.052509017
103	0xbd671974	-0.05642076
104	0x3cd5b09a	0.026085187
105	0xbcdfbd42	-0.027311925
106	0xbd227c37	-0.03966924
107	0x3d38694b	0.04502229
108	0x3e2fb43f	0.17158602
109	0xbd9c61b0	-0.0763582
110	0x3c2b8f4b	0.010471175
111	0xbd005a7c	-0.031336293
112	0xbd251888	-0.040306598
113	0x3ddda5a8	0.10822612
114	0xbd8ebf54	-0.06970087
115	0x3e0c3cdf	0.13695095
116	0xbcc081e7	-0.023499442
117	0x3c968f82	0.018378977
118	0xbd1d32df	-0.038378593
119	0x3cab9a89	0.020947712
120	0x3d1718b9	0.03688881
121	0x3d84b933	0.064806364
122	0x3db01ece	0.085996255
123	0x3c59e37b	0.0132988645
124	0x3d4561f6	0.048189126
125	0x3d3a7839	0.04552481
126	0xbc8ade9f	-0.016951857
127	0x3e096fd0	0.1342156
128	0xbe068429	-0.13136353
129	0xbc801d83	-0.015639072
130	0x3cdf813a	0.0272833
131	0xbdc96648	-0.09833962
132	0x3ac51737	0.0015036826
133	0x3a2d8a0c	0.0006619997
134	0xbd18263c	-0.03714584
135	0x3c124ad9	0.008928978
136	0xbd4604a3	-0.048344266
137	0xbe552497	-0.20814739
138	0x3e0ac6b1	0.13552357
139	0xbdf57bbd	-0.11986492
140	0xbc41e84e	-0.011835171
141	0x3c3c5b74	0.0114964135
142	0x3dc647ea	0.09681685
143	0x3df3f1fe	0.11911391
144	0x3e00c213	0.12574033
145	0x3bab734e	0.0052322512
146	0x3d14a7d1	0.036292855
147	0x3da44f90	0.08022988
148	0x3e19d424	0.15022331
149	0x3d8372fa	0.064184144
150	0x3b5b5e9d	0.0033473142
151	0x3c292929	0.010324755
152	0x3dd955a4	0.10612038
153	0xbdad0789	-0.08448703
154	0x3e2107b0	0.15725589
155	0xbc30a329	-0.010781088
156	0x3db3dbd9	0.08782167
157	0x3da5beeb	0.08093055
158	0x3e4475c5	0.1918555
159	0xbda2311c	-0.07919523
160	0xbdb61b1a	-0.08891888
161	0x3d76a7fb	0.060218792
162	0x3e0a9246	0.13532361
163	0xbd0a8068	-0.033813864
164	0xbcf1d60b	-0.029521009
165	0xbd88a602	-0.066722885
166	0xbd3b7db8	-0.04577419
167	0x3d211f01	0.03933621
168	0x3dca7893	0.09886279
169	0xbe096b22	-0.13419774
170	0xbd9d93ba	-0.07694192
171	0x3de76c78	0.11299986
172	0xbd86dd16	-0.065851375
173	0x3d8349cc	0.0641056
174	0x3e14e93a	0.14542094
175	0xbcb38b3c	-0.021916978
176	0xbcfd794a	-0.030941624
177	0xbd768b3d	-0.06019138
178	0x3ba4d221	0.005029932
179	0x3e2d2a51	0.16910674
180	0x3d1aba61	0.0377754
181	0xbd93a9a0	-0.07210088
182	0x3cafb6ec	0.021449529
183	0xbdbb7d0e	-0.09154712
184	0xbd85f7a5	-0.06541375
185	0x3c104cc8	0.008807369
186	0x3d5f0bc5	0.054454584
187	0xbd362087	-0.044464614
188	0x3d1a7192	0.037705965
189	0xbd9c066d	-0.07618413
190	0xbe47b73d	-0.19503494
191	0xbb44aec9	-0.0030011407
192	0x3dfc405a	0.123169616
193	0xbcd1eea1	-0.025626482
194	0xbd33ca1a	-0.04389391
195	0xbd6bd90e	-0.057580046
196	0xbdae98ed	-0.08525262
197	0x3d1bacbf	0.03800654
198	0xbdde783d	-0.108627774
199	0xbdc4d19f	-0.096102946
200	0xbd719585	-0.058980484
201	0xbdac968c	-0.08427152
202	0xbca36696	-0.019946378
203	0xbd97641c	-0.07392141
204	0x3b7fd0a2	0.0039034267
205	0x3da9c272	0.082890406
206	0xbde132e5	-0.109960355
207	0x3e138b12	0.1440852
208	0x3d943654	0.07236925
209	0x3d0f4ac2	0.034983404
210	0xbcdbb342	-0.026818875
211	0xbd95fedf	-0.073240034
212	0xbd47a507	-0.048741367
213	0xbd56eb8f	-0.05247074
214	0x3d0bec97	0.034161177
215	0x3b93d104	0.0045110006
216	0x3d49044b	0.04907636
217	0x3e0d0dc9	0.1377479
218	0xbdf59171	-0.11990631
219	0x3d1eff31	0.03881759
220	0x3e073427	0.13203488
221	0xbd33942d	-0.043842483
222	0x3d6ab48a	0.05730108
223	0xbc7d5776	-0.015462747
224	0x3dbb1082	0.09134008
225	0x3d71e1f9	0.059053395
226	0x3d66899e	0.056283586
227	0x3d32890f	0.04358774
228	0x3c17309a	0.009227896
229	0x3bbf86d6	0.005844931
230	0x3dd6258f	0.104563825
231	0x3d6f60ce	0.05844193
232	0xbd1649bb	-0.03669141
233	0x3d05567d	0.032553185
234	0xbd9f839c	-0.07788774
235	0x3df3a872	0.11897363
236	0xbdbfa5ac	-0.09357771
237	0x3bc5b128	0.0060330816
238	0xbd3e72d1	-0.046496216
239	0xbda1979c	-0.07890245
240	0x3d22cc91	0.03974587
241	0xbc93cb95	-0.018041411
242	0xbd500b42	-0.050791986
243	0xbc4243d1	-0.011856989
244	0xbdf70f85	-0.12063507
245	0x3d4c9245	0.04994418
246	0xbdbefa5b	-0.09325095
247	0xbc988d39	-0.018622028
248	0xbe24b39a	-0.16084138
249	0x3d2735ad	0.040822674
250	0x3d941ede	0.0723245
251	0x3dd4f4ce	0.10398255
252	0xbd1ec723	-0.03876413
253	0x3b47f66e	0.0030511874
254	0x3e02407d	0.12719913
255	0xbdeb28bc	-0.11482379

bottleneck.1.weight f4 [32]
0	0x3f7f3325	0.99687415
1	0x3f7c8729	0.9864374
2	0x3f8068c8	1.0031977
3	0x3f81a3ff	1.0128173
4	0x3f7efc49	0.99603707
5	0x3f7efbf7	0.9960322
6	0x3f814462	1.0098994
7	0x3f801fe3	1.0009731
8	0x3f7b80cb	0.982434
9	0x3f817f4b	1.0116972
10	0x3f7fb9dd	0.9989298
11	0x3f7eeeae	0.99582946
12	0x3f812448	1.0089197
13	0x3f80654e	1.0030916
14	0x3f805f02	1.0028994
15	0x3f828a2f	1.019842
16	0x3f76db1e	0.96428096
17	0x3f81d62e	1.0143487
18	0x3f822b96	1.0169551
19	0x3f81e339	1.0147468
20	0x3f83ce21	1.029728
21	0x3f820ed6	1.0160778
22	0x3f7dc642	0.9913064
23	0x3f7ab66f	0.9793462
24	0x3f7d1798	0.98864126
25	0x3f7e2699	0.99277645
26	0x3f81cf79	1.0141441
27	0x3f7a5401	0.9778443
28	0x3f80ed9c	1.0072513
29	0x3f7cd700	0.98765564
30	0x3f801d52	1.0008948
31	0x3f81b239	1.0132514

bottleneck.1.bias f4 [32]
0	0xbbabb979	-0.005240616
1	0xbb533c44	-0.0032231966
2	0x3c5730e5	0.013134216
3	0x3bf1c6bb	0.007378427
4	0xbc307e0c	-0.010772239
5	0xbc03a7f4	-0.008035649
6	0xbb41865f	-0.0029529554
7	0x3a42dd22	0.0007433464
8	0xbc3b1875	-0.011419405
9	0x3c15fe22	0.009154828
10	0x3c85d6a9	0.01633771
11	0x3c09e680	0.008416772
12	0x3c2f296a	0.010691026
13	0x39c15fca	0.00036883197
14	0x3cde9382	0.027169947
15	0x3c1f6430	0.009728476
16	0xbc6b3394	-0.014355559
17	0xbd303c76	-0.04302641
18	0x3cf12bfa	0.029439915
19	0x3c03fc3e	0.008055745
20	0x3c93ba7c	0.018033259
21	0xbbdf0b38	-0.0068067573
22	0xbc5d3e5c	-0.013503637
23	0xbc41b921	-0.011823923
24	0xbba2b929	-0.0049659205
25	0xbacc1341	-0.0015569703
26	0x3c5b516b	0.013386111
27	0xbba6e988	-0.005093757
28	0x3c0108b8	0.007875614
29	0xbc7386fb	-0.014863725
30	0xbaf4a0d5	-0.0018663654
31	0x3bd051cd	0.0063574077

bottleneck.1.running_mean f4 [32]
0	0x3f52f564	0.82405686
1	0xbebc8ece	-0.368277
2	0xbd52ab2d	-0.051432777
3	0x3eb03ad6	0.34419888
4	0x3ed50f31	0.41613153
5	0xbd3f3c12	-0.046688147
6	0xbd0b7753	-0.034049343
7	0xbf48e1d3	-0.7846958
8	0x3e07bdba	0.13255969
9	0xbdb567d8	-0.08857697
10	0x3e0d5874	0.13803273
11	0x3e6964ee	0.22792408
12	0xbf347d95	-0.7050412
13	0xbeb07866	-0.34466857
14	0xbfa45c70	-1.284071
15	0x3f2852e1	0.65751463
16	0x3f8808dd	1.0627705
17	0x3f0978d5	0.537
18	0x3d9d8a1e	0.076923594
19	0xbe67ca08	-0.22635663
20	0x3e4ebdd8	0.20189607
21	0xbf2b858d	-0.6700066
22	0xbe1043ca	-0.1408836
23	0xbedcd696	-0.43132466
24	0xbe457c51	-0.19285704
25	0x3f1c308a	0.61011565
26	0xbee1ef6a	-0.4412797
27	0xbf4e1be2	-0.80511296
28	0xbf5222eb	-0.8208453
29	0x3d05d836	0.032676898
30	0xbed6b24d	-0.41932908
31	0xbf097add	-0.537031

bottleneck.1.running_var f4 [32]
0	0x3f6d5a0b	0.9271552
1	0x3fd9966a	1.6999028
2	0x3fb767b7	1.4328526
3	0x3ebea066	0.3723175
4	0x3f40e3a7	0.7534737
5	0x3fc30183	1.5234836
6	0x3f358d3d	0.7091864
7	0x3f29ba9d	0.66300374
8	0x3efa0a0b	0.48835787
9	0x3f122763	0.5709135
10	0x3fbe62a6	1.4873855
11	0x3f79aa63	0.97525615
12	0x3f6e9281	0.931923
13	0x3ef7f41a	0.48428422
14	0x3f50327a	0.8132702
15	0x405e5587	3.4739702
16	0x402f1c3a	2.7360978
17	0x3f3ac405	0.7295535
18	0x3f291c91	0.66059214
19	0x3f81c812	1.0139182
20	0x3f285a45	0.6576274
21	0x3f6f4f08	0.9347997
22	0x3f1176da	0.5682198
23	0x3ee7bbfd	0.4526061
24	0x3f7e4603	0.9932558
25	0x3e9e02bc	0.3086146
26	0x3f4dd1a8	0.80398035
27	0x3f83a44d	1.0284516
28	0x3f9d42c3	1.2285999
29	0x3ea2faf5	0.3183209
30	0x3f10999a	0.5648438
31	0x3f570f17	0.840074

bottleneck.3.weight f4 [32, 32, 3, 3]
0	0x3cc0a0e5	0.02351422
1	0xbd41dde2	-0.047330745
2	0xbdbe93ee	-0.09305559
3	0x3db591b6	0.08865683
4	0xbd0fcf3e	-0.03510975
5	0xbc2a1b06	-0.010382419
6	0xbcd3eaf0	-0.025868863
7	0x3cf8879b	0.0303381
8	0x3e15c1f2	0.14624766
9	0x3d2b97b4	0.041892722
10	0x3e4b0157	0.1982473
11	0x3e008f8f	0.12554763
12	0xbcfa51cb	-0.03055658
13	0xbc186393	-0.009301084
14	0xbd048b07	-0.03235915
15	0xbe2cb117	-0.1686443
16	0x3d3b6a09	0.04575542
17	0x3cd405f2	0.025881741
18	0xbe2d99c2	-0.16953185
19	0xbd8caebe	-0.06869267
20	0x3d9d03ac	0.07666716
21	0x3dd9e6e6	0.106397435
22	0xbd7bcc8a	-0.06147436
23	0xbcbb72a1	-0.022881808
24	0x3e29668e	0.16543028
25	0x3d986eb3	0.07442989
26	0xbcdd0024	-0.026977606
27	0xbd1b105e	-0.037857406
28	0x3da3b722	0.07993914
29	0xbda95891	-0.08268846
30	0xbd5b77d5	-0.053581078
31	0xbd0d07d6	-0.0344313
32	0xbe0cc7d5	-0.13748105
33	0x3d065842	0.032799013
34	0x3e17e722	0.14834264
35	0x3aa3f38f	0.0012508499
36	0x3c2c2a18	0.010508083
37	0x3c908820	0.017643034
38	0xbc1dce78	-0.0096317455
39	0xbd0ee7e7	-0.034889128
40	0x3e1c9aea	0.1529347
41	0xbc98117b	-0.018563023
42	0xbc90831f	-0.017640648
43	0x3e118f86	0.14214906
44	0xbdb72c99	-0.08944053
45	0x3cd98b97	0.02655582
46	0xbd84a808	-0.06477362
47	0xbe7f34e9	-0.24922527
48	0x3dd53e05	0.1041222
49	0xbd77668c	-0.06040053
50	0x3d477566	0.048695944
51	0xb9c23f9a	-0.0003704995
52	0x3a1ae989	0.0005909433
53	0x3c91fa52	0.017819557
54	0xbc443ce0	-0.011977404
55	0x3c8022bf	0.015641568
56	0x3d21510d	0.039383937
57	0x3c8cfa8e	0.017209318
58	0xbd135632	-0.035970874
59	0x3a149988	0.000566863
60	0x3de316ea	0.11088355
61	0x3c937b11	0.018003019
62	0xbae79082	-0.0017666968
63	0xbd3f1d20	-0.046658635
64	0x3ba05c9d	0.004893853
65	0xbd39bfae	-0.045348816
66	0x3cf98b84	0.030462034
67	0xbd9502a0	-0.07275891
68	0xbd83c6a4	-0.06434372
69	0x3d5b4dcd	0.053540993
70	0xbcc0567d	-0.02347874
71	0xbd3a225b	-0.04544292
72	0x3d38b22b	0.04509179
73	0x3d89c159	0.06726331
74	0x3c07140d	0.008244527
75	0xbd48f7fd	-0.049064625
76	0x3d1afcea	0.037838854
77	0x3e1e5a77	0.15464197
78	0xbd9fbfd1	-0.07800258
79	0x3dbcaaf1	0.09212292
80	0x3ded3e3a	0.115841344
81	0xbdba7902	-0.09105112
82	0x3e0de90c	0.13858432
83	0x3d41d06b	0.047317903
84	0x3d882b04	0.066488296
85	0x3d4582a7	0.048220303
86	0xbcaceaae	-0.021107998
87	0xbcc5caaf	-0.024144499
88	0xbdcb12a1	-0.099156626
89	0x3dd705d5	0.10499159
90	0x3d88d57c	0.06681344
91	0xbd9d3395	-0.07675854
92	0x3dff6483	0.12470343
93	0xbdda5d0a	-0.10662277
94	0x3e0d3498	0.13789594
95	0x3e20aec0	0.15691662
96	0x3da10ed4	0.07864156
97	0x3ce6f251	0.028191717
98	0x3dda9a37	0.106739454
99	0x3cfb130c	0.03064873
100	0xbd1b71c4	-0.037950292
101	0xbd662616	-0.056188665
102	0xbd6a0216	-0.057130896
103	0xbd1a611f	-0.03769028
104	0x3c0969ac	0.008387011
105	0x3db8398f	0.089953534
106	0x3d72bde3	0.05926312
107	0x3daa9b62	0.08330418
108	0xbd89ac86	-0.06722359
109	0xbd21af80	-0.03947401
110	0xbd9739af	-0.07384049
111	0xbe092a05	-0.13394935
112	0x3da820e9	0.08209402
113	0x3e14c59f	0.14528511
114	0x3d154aac	0.036448166
115	0x3d15e969	0.03659955
116	0xbe04f1a9	-0.12982811
117	0x3db2b3b3	0.08725681
118	0xbd0e1f6f	-0.034697946
119	0x3ceab544	0.028650887
120	0x3d2ca129	0.04214588
121	0xbd6a4824	-0.057197705
122	0xbe0b83c2	-0.1362448
123	0xbd8424c6	-0.064523265
124	0x3e21c6d9	0.1579851
125	0x3d0c310f	0.034226473
126	0x3ad6f3f9	0.0016399614
127	0x3dbbde76	0.091732904
128	0x3c7872a1	0.015164048
129	0x3c6ff255	0.014645179
130	0xbc6177f6	-0.013761511
131	0xbe0b1096	-0.13580546
132	0xbd7e95e9	-0.062154684
133	0xbd78253e	-0.060582392
134	0xbd0b1dbd	-0.033963908
135	0x3d75b391	0.0599857
136	0xbd5601fe	-0.052247994
137	0x3d17868f	0.03699356
138	0x3d8ee3dd	0.06977055
139	0x3d861fc7	0.0654903
140	0xbca000fb	-0.019531718
141	0xbc67cc6e	-0.014147861
142	0xbbb83d6f	-0.005622558
143	0x3dfdabd4	0.12386289
144	0x3deb5794	0.114913136
145	0x3d74a80c	0.059730574
146	0x3deae10e	0.11468707
147	0xbdace292	-0.08441652
148	0x3da0df01	0.078550346
149	0xbdc09d92	-0.09405054
150	0xbd736dce	-0.05943089
151	0xbd4cad81	-0.049970154
152	0xbe22f6b9	-0.1591443
153	0xbd9a6eef	-0.0754069
154	0xbd8e3c6b	-0.069451176
155	0xbe0492b2	-0.12946585
156	0xbdc3e643	-0.09565403
157	0x3e43056f	0.19045042
158	0xbcbfa575	-0.023394326
159	0xbd2868ef	-0.041115697
160	0x3e456f1f	0.1928067
161	0x3d23597e	0.03988027
162	0xbe7ec7ad	-0.24880858
163	0xbc7559cd	-0.014975023
164	0x3d8a7df7	0.06762307
165	0x3d50aa80	0.05094385
166	0xbe02b56a	-0.12764516
167	0x3c7c65ee	0.015405161
168	0x3e29cc67	0.1658188
169	0x3c95b58b	0.018275043
170	0x3c8fe1ea	0.017563779
171	0xbe56c803	-0.20974736
172	0x3d8ffec0	0.070310116
173	0xbbb187e3	-0.0054178103
174	0xbd9d6d35	-0.07686845
175	0x3bec90e8	0.0072194226
176	0xbe01a9f5	-0.1266249
177	0xbde7e058	-0.11322087
178	0xbd87485f	-0.066056006
179	0x3e02643d	0.1273355
180	0xbbca23b2	-0.006168806
181	0xbd22bf20	-0.039733052
182	0xbd6cc010	-0.057800353
183	0xbcccff9f	-0.025024233
184	0x3e14065f	0.14455555
185	0xbd2a2ff9	-0.041549657
186	0xbda66e30	-0.08126485
187	0xbe1751c3	-0.14777283
188	0x3d9b3c2a	0.07579835
189	0x3d066c3d	0.032818068
190	0x3d65b914	0.056084707
191	0x3d8c0e6d	0.06838689
192	0xbe12e44f	-0.14344905
193	0x3da02e49	0.07821328
194	0x3cb6d1b0	0.022316784
195	0x3d650fd4	0.055923298
196	0x3e0a1b22	0.13486913
197	0x3cf87f24	0.030334063
198	0xbdadf396	-0.08493726
199	0x3d4c2e4f	0.04984885
200	0xbdfb8a87	-0.12282281
201	0x3d44b302	0.048022278
202	0x3d5df893	0.054192137
203	0xbd8f8df2	-0.07009496
204	0xbe003599	-0.12520446
205	0x3d7c3e31	0.061582748
206	0x3d845d71	0.06463135
207	0xbd94da9f	-0.07268261
208	0xbd22b995	-0.039727766
209	0x3dada493	0.08478656
210	0x3d1fdefa	0.039031006
211	0x3bcec23f	0.006309777
212	0xbcb80c15	-0.022466699
213	0xbd8a4689	-0.06751735
214	0x3cb07aca	0.021542925
215	0xbc5ee707	-0.013604886
216	0xbd85d999	-0.06535644
217	0xbe2b4e84	-0.1672917
218	0x3e5c9968	0.21542895
219	0x3d9a5616	0.07535951
220	0xbd6ba074	-0.057526067
221	0xbe3ed41f	-0.18635605
222	0x3dcd9707	0.10038572
223	0xbe0eda71	-0.13950516
224	0xbc68951c	-0.014195707
225	0x3e293219	0.16523017
226	0x3e24b4bf	0.16084574
227	0x3e0467f6	0.12930283
228	0x3dfdce45	0.123928584
229	0xbd321e19	-0.043485735
230	0x3e49088e	0.1963217
231	0xbbe28784	-0.0069131274
232	0x3cf5407a	0.029937971
233	0x3dd07dd8	0.10180253
234	0xbde5ca38	-0.11220211
235	0x3d369525	0.04457583
236	0xbc8da42a	-0.017290194
237	0xbe4a10f3	-0.19733028
238	0xbdc47e5c	-0.09594414
239	0x3d08e5c8	0.03342226
240	0xbcebc53b	-0.02878057
241	0x3d10bad3	0.03533442
242	0x3db66a9a	0.089070514
243	0x3a41e1d6	0.0007396018
244	0xbe110316	-0.14161333
245	0xbe2d2501	-0.16908647
246	0xbd5d2a39	-0.053995345
247	0xbdce9781	-0.10087491
248	0x3d1eb62f	0.038747963
249	0x3d0072d5	0.031359512
250	0x3d8f3157	0.06991833
251	0x3dac79c9	0.08421666
252	0x3ccfb8d0	0.02535668
253	0xbdbe69b3	-0.09297504
254	0x3c83a4bf	0.016069768
255	0xbcae1ca9	-0.0212539

bottleneck.4.weight f4 [32]
0	0x3f7df087	0.9919514
1	0x3f7f5656	0.99741113
2	0x3f80c23d	1.0059277
3	0x3f855ed8	1.0419569
4	0x3f85903d	1.0434643
5	0x3f81d994	1.0144525
6	0x3f8163d9	1.0108596
7	0x3f848be0	1.0355186
8	0x3f813e4c	1.0097136
9	0x3f858762	1.043194
10	0x3f7eedb2	0.99581444
11	0x3f834a31	1.0257016
12	0x3f8594fb	1.043609
13	0x3f83202b	1.0244192
14	0x3f74ac29	0.95575196
15	0x3f80186b	1.0007452
16	0x3f838279	1.0274192
17	0x3f867a5a	1.0506089
18	0x3f827986	1.0193336
19	0x3f8811fd	1.063049
20	0x3f872cbb	1.0560526
21	0x3f82a7db	1.0207475
22	0x3f859360	1.04356
23	0x3f807ac0	1.003746
24	0x3f801e84	1.0009313
25	0x3f79a80e	0.97522056
26	0x3f81ea32	1.0149596
27	0x3f82ca03	1.0217899
28	0x3f831cb8	1.0243139
29	0x3f8132db	1.0093645
30	0x3f82b447	1.0211266
31	0x3f85d57c	1.0455775

bottleneck.4.bias f4 [32]
0	0xbbc6e169	-0.0060693515
1	0xbbb598dd	-0.0055419044
2	0xbb667998	-0.003516769
3	0x3d4d055f	0.05005395
4	0x3d2b45fb	0.041814785
5	0xbc0245f6	-0.00795125
6	0x3c87ff9a	0.016601373
7	0x3d232138	0.0398266
8	0x3c7b581f	0.015340834
9	0x3c12bfd9	0.008956873
10	0xbc07d7f3	-0.008291232
11	0x3be5b98a	0.0070106434
12	0x3d2a7f5d	0.04162537
13	0x3caeb578	0.021326765
14	0xbd05b22d	-0.032640625
15	0x3b8ce953	0.0043002754
16	0x3c381b5d	0.011236993
17	0x3d5c48f4	0.05378051
18	0x3cad8f1b	0.021186402
19	0x3d42ef43	0.04759146
20	0x3d6060bd	0.054779757
21	0x3d2757de	0.04085528
22	0x3d691cb2	0.05691213
23	0x3c61da41	0.013784946
24	0xbcaf8839	-0.02142726
25	0xbb53b094	-0.0032301294
26	0xb9a9a0e3	-0.00032354062
27	0x3c653da6	0.013991749
28	0x3c38bdb0	0.011275694
29	0x3c2c3aed	0.010512096
30	0xbc957d35	-0.01824818
31	0x3d1563de	0.036472194
