experiments_multi/Brain_Tumor_Segmentation_Separate_Train_Val_20260208_100938/checkpoint_epoch_15.pth (torch, 141437 bytes, 56 tensors)

enc1.0.weight f4 [8, 4, 3, 3]
0	0x3e2271e8	0.15863764
1	0x3c559663	0.013036343
2	0xbdb29d9b	-0.08721467
3	0x3eb9e513	0.36307582
4	0x3dad7232	0.08469047
5	0xbe070ed7	-0.13189255
6	0xbe71241f	-0.23548935
7	0x3e8ef267	0.27919313
8	0x3ca432f0	0.02004382
9	0x3e2303cb	0.15919416
10	0xbe0dc5d3	-0.13844995
11	0x3e71dd52	0.23619583
12	0x3d7d85ea	0.06189529
13	0xbde02f31	-0.10946501
14	0x3dbdf3c6	0.09275012
15	0xbe26dfd1	-0.16296317
16	0x3e1bc069	0.15210117
17	0xbd27c675	-0.040960748
18	0x3db9ed34	0.09078446
19	0x3df01a7b	0.11723801
20	0x3caeebf3	0.021352744
21	0xbdd8be0f	-0.10583126
22	0x3d1f07e8	0.0388259
23	0x3e7a6c5a	0.24455395
24	0x3d89d29a	0.06729622
25	0x3d762fe5	0.06010427
26	0xbe342bd1	-0.1759484
27	0xbdad03a4	-0.0844796
28	0xbe641bad	-0.22276182
29	0x3e617143	0.22015862
30	0xbec76441	-0.38943675
31	0x3cce205b	0.025161913
32	0x3d5bc983	0.053658973
33	0x3e17b931	0.14816739
34	0x3d18827b	0.03723381
35	0xbda247b6	-0.07923834
36	0xbdeeeca2	-0.11666228
37	0xbe1b666a	-0.15175787
38	0x3e4d24dd	0.20033593
39	0x3dc38e4f	0.095486276
40	0x3e5def7f	0.21673392
41	0xbe36f77d	-0.17867847
42	0xbdeed65e	-0.11661981
43	0x3d8ea8dd	0.06965802
44	0xbc30d6c3	-0.010793391
45	0x3d2b121c	0.041765317
46	0xbc22487c	-0.009904977
47	0x3d6eae0f	0.058271464
48	0x3e51fad5	0.20505841
49	0x3d95d35f	0.073157065
50	0x3e628e26	0.22124538
51	0x3e083516	0.133015
52	0x3e43edae	0.19133636
53	0xbc5b7507	-0.013394601
54	0x3e7f379c	0.24923557
55	0x3e4c1cbc	0.19932836
56	0xbe42bbc0	-0.19016933
57	0xbe463763	-0.19357066
58	0x3e6fa989	0.23404516
59	0xbe026c54	-0.12736636
60	0x3ddbae7a	0.10726638
61	0x3d00b4c5	0.031422395
62	0x3dfad2bc	0.12247226
63	0xbd845bb4	-0.064628035
64	0x3daaef0d	0.083463766
65	0x3e4c5e85	0.19957931
66	0xbd7f71f4	-0.062364534
67	0x3c6c4099	0.014419698
68	0x3e892504	0.26786053
69	0xbdfed099	-0.124421306
70	0xbea77976	-0.32709855
71	0xbd2782f9	-0.04089639
72	0xbe37d6f1	-0.17953087
73	0xbe1204e4	-0.14259678
74	0xbb8389b5	-0.0040142187
75	0x3d035262	0.03206099
76	0x3e7e6181	0.24841882
77	0x3e14f4c9	0.14546503
78	0x3d0e376f	0.034720834
79	0xbe2b1d51	-0.16710402
80	0xbe5f01b9	-0.21778001
81	0x3e138f41	0.14410116
82	0x3e026c26	0.12736568
83	0xbd85a5f5	-0.065257944
84	0xbe16d482	-0.14729503
85	0xbe5e1553	-0.21687822
86	0x3de0ee68	0.109829724
87	0xbd466dfc	-0.048444733
88	0x3e3e2279	0.18567838
89	0xbdf9a0c3	-0.12188866
90	0x3e8638f8	0.2621534
91	0xbd4d12f3	-0.0500669
92	0xbb5270e9	-0.0032110757
93	0x3e410aa8	0.18851721
94	0xbe08825c	-0.13330978
95	0x3e9679c7	0.29389784
96	0xbdc9a902	-0.09846689
97	0x3e182230	0.14856791
98	0x3d97c6ab	0.0741094
99	0x3e5c639c	0.21522373
100	0xbe3d61c8	-0.18494332
101	0x3da234c6	0.07920222
102	0xbe565747	-0.20931731
103	0x3d851697	0.06498449
104	0xbddd33fb	-0.1080093
105	0xbefbb0e5	-0.49158397
106	0xbe916135	-0.28394476
107	0xbcb9164d	-0.022593642
108	0xbe8b4f9e	-0.2720918
109	0xbe8d5f86	-0.2761194
110	0xbdcf43d2	-0.101203576
111	0x3d95d7a1	0.073165186
112	0x3dde2b57	0.1084811
113	0x3d9fb281	0.07797719
114	0x3e41b560	0.18916845
115	0x3dd009a8	0.10158092
116	0xbddb006e	-0.10693441
117	0xbd8523be	-0.06500958
118	0x3d1181a9	0.035524044
119	0xbd84b9b8	-0.064807355
120	0xbd68aed1	-0.056807343
121	0x3c948fc0	0.018134952
122	0xbdc5ac57	-0.09652012
123	0xbdc82608	-0.09772879
124	0x3d486e47	0.048933294
125	0xbc99f3ce	-0.018793013
126	0x3de07fe2	0.10961892
127	0x3e06dfe9	0.13171352
128	0x3da5c853	0.080948494
129	0xbd12bca5	-0.035824437
130	0x3df1e8b2	0.11811961
131	0xbdc35202	-0.09537126
132	0xbc1a3b6b	-0.00941358
133	0x3e672d83	0.22575955
134	0xbdc0c4e9	-0.09412558
135	0xbe338d03	-0.1753426
136	0xbd529f71	-0.051421586
137	0x3e59ae1f	0.21257828
138	0x3e8580ef	0.2607493
139	0xbe1486e1	-0.14504577
140	0xbe93b877	-0.28851673
141	0xbd0c9e02	-0.034330375
142	0x3d83a43d	0.0642781
143	0xbd0fc984	-0.03510429
144	0x3e78c1f2	0.24292734
145	0x3d715684	0.0589204
146	0xbed58101	-0.41699985
147	0xbda22d5a	-0.079188064
148	0x3dc11542	0.09427883
149	0x3d4e151d	0.050313104
150	0xbe642844	-0.22280985
151	0xbd404100	-0.04693699
152	0xbd0c3788	-0.034232646
153	0x3d2041a7	0.03912511
154	0xbd557182	-0.052110203
155	0x3e70f1e5	0.23529775
156	0x3da9a737	0.08283847
157	0xbdb7852f	-0.0896095
158	0xbb9e4710	-0.0048302487
159	0x3d726365	0.05917682
160	0x3e8cffe7	0.27538988
161	0xbea89f7b	-0.32934174
162	0x3e8de13f	0.27710912
163	0xbd88391a	-0.06651516
164	0xbd142020	-0.03616345
165	0x3cae93c4	0.021310695
166	0x3e88b553	0.2670084
167	0xbe8f248d	-0.27957574
168	0x3c7e4f94	0.015521903
169	0xbd88a5e8	-0.06672269
170	0xbeab4653	-0.3345209
171	0x3d1478bb	0.03624795
172	0x3c0c7fd2	0.008575397
173	0x3d6b07c5	0.057380456
174	0xbcfa7584	-0.030573614
175	0xbe2c3184	-0.16815764
176	0xbd32070e	-0.04346376
177	0xbd9b4650	-0.075817704
178	0x3e47ce87	0.19512378
179	0xbd0d44b4	-0.03448935
180	0xbc29cadb	-0.010363306
181	0x3d556251	0.052095715
182	0x3e1f0dfd	0.1553268
183	0xbd9742fa	-0.07385822
184	0x3d48e620	0.04904759
185	0x3dcaedd1	0.09908641
186	0xbde6feed	-0.11279092
187	0xbe930e1e	-0.28721708
188	0x3cf3c573	0.029757237
189	0x3ca950f9	0.020668494
190	0xbe743f9c	-0.2385239
191	0xbe706f28	-0.23479903
192	0xbdb5ab10	-0.08870518
193	0x3da2aad5	0.0794274
194	0x3d8ad1a8	0.0677827
195	0xbe44f704	-0.19234854
196	0xbc828129	-0.015930729
197	0xbe805e8b	-0.2507213
198	0xbdbb72fe	-0.091527924
199	0x3dc16d42	0.094446674
200	0xbe24a31d	-0.16077848
201	0x3d681b2d	0.05666654
202	0x3d750097	0.059815016
203	0x3d0257b0	0.031821907
204	0xbd2f797c	-0.042840466
205	0xbddaca34	-0.106830984
206	0xbdf22b50	-0.118246675
207	0x3e280504	0.16408163
208	0xbd957091	-0.07296861
209	0xbd03bc84	-0.032162204
210	0xbcf7d7bc	-0.030254237
211	0xbe1ee232	-0.15515974
212	0xbd63327f	-0.05546808
213	0x3e825c86	0.25461215
214	0xbc89be20	-0.016814291
215	0x3e56a6a5	0.20962007
216	0x3ba9b530	0.00517907
217	0xbd74d92f	-0.059777435
218	0xbd574c1e	-0.052562825
219	0xbe68779f	-0.22701882
220	0xbd823ee7	-0.06359654
221	0x3d941bf0	0.07231891
222	0x3e1c629d	0.15271993
223	0xbe1c46e5	-0.15261419
224	0x3e389714	0.18026382
225	0x3e8277e0	0.25482082
226	0x3dd53d4e	0.104120836
227	0x3e57344d	0.21016045
228	0x3ec12ac6	0.37727946
229	0x3e7e9781	0.24862482
230	0xbe2046b9	-0.15651979
231	0xbdc38134	-0.09546128
232	0x3e50a2f4	0.20374662
233	0xbe32d562	-0.17464212
234	0x3dbb38ad	0.091416694
235	0xbdc3d6b0	-0.09562433
236	0x3c9d343a	0.019189943
237	0x3ea69bb0	0.32540655
238	0x3d7fdbba	0.062465407
239	0xbd187695	-0.037222464
240	0x3e91e1a7	0.28492472
241	0xbda4e206	-0.08050923
242	0xbe47cc7e	-0.19511601
243	0x3d932c61	0.07186199
244	0x3c9254dd	0.017862732
245	0x3cc84935	0.02444897
246	0xbdf3607f	-0.118836395
247	0xbda89af8	-0.08232683
248	0xbe979886	-0.29608554
249	0xbe6480fc	-0.22314829
250	0xbc961dc7	-0.018324746
251	0x3e346fc1	0.17620756
252	0x3e6d040a	0.23146072
253	0x3e53e647	0.20693313
254	0xbd1cf411	-0.038318697
255	0xbd8bf431	-0.06833685

enc1.1.weight f4 [8]
0	0x3f7c47fc	0.9854734
1	0x3f7ee288	0.9956441
2	0x3f817f11	1.0116903
3	0x3f8111a5	1.008351
4	0x3f7b27df	0.98107713
5	0x3f8488cc	1.0354247
6	0x3f82633e	1.0186536
7	0x3f81d701	1.0143739

enc1.1.bias f4 [8]
0	0xbcb286a1	-0.021792712
1	0x3c9a1c63	0.018812364
2	0x3c73fe13	0.014892119
3	0x3b997822	0.0046835104
4	0xbd146a88	-0.03623441
5	0x3d0933b7	0.033496585
6	0x3d01feab	0.03173701
7	0x3d332fe9	0.043746863

enc1.1.running_mean f4 [8]
0	0x3e0a2974	0.13492376
1	0x3e5bc29b	0.21460955
2	0xbdd9da19	-0.10637302
3	0xbd82e861	-0.06391979
4	0xbd8632ea	-0.0655268
5	0xbe2c2f14	-0.16814834
6	0x3e049f72	0.12951449
7	0x3e937cc3	0.28806123

enc1.1.running_var f4 [8]
0	0x3d6270e9	0.05528346
1	0x3e0e0115	0.138676
2	0x3d3693f9	0.04457471
3	0x3c8ee6fd	0.017444128
4	0x3c81a86d	0.015827382
5	0x3daf4842	0.08558704
6	0x3d5d4b32	0.05402679
7	0x3e8abd88	0.27097726

enc1.3.weight f4 [8, 8, 3, 3]
0	0x3e27abe7	0.1637417
1	0x3e553fa8	0.20825064
2	0x3db3a3bc	0.08771464
3	0xbe8808dd	-0.26569262
4	0x3ddb7f0d	0.107175924
5	0xbed2ffc2	-0.41210753
6	0x3e126d4c	0.14299506
7	0xbdcf593d	-0.10124443
8	0xbe361e4a	-0.17784992
9	0xbe834be4	-0.25643837
10	0x3c64e63b	0.013970907
11	0xbdaae793	-0.083449505
12	0x3e990f64	0.29894555
13	0x3df6db19	0.12053508
14	0xbe8ec8f1	-0.2788768
15	0x3c465688	0.012105592
16	0xbe527c36	-0.20555195
17	0x3e7cfc08	0.24705517
18	0xbc7ed434	-0.015553523
19	0xbc618df1	-0.013766752
20	0xbea258e0	-0.3170843
21	0x3e5df045	0.21673687
22	0x3e2fa3a6	0.1715227
23	0xbe86c32a	-0.26320773
24	0x3e7eb2e2	0.24872926
25	0xbdd88b2f	-0.10573422
26	0x3e63abc4	0.22233492
27	0x384ca201	4.8788268e-05
28	0x3c5ef532	0.013608264
29	0xbe03323e	-0.12812135
30	0x3dbdbb29	0.092642136
31	0xbe08fb68	-0.13377154
32	0x3cf8245f	0.03029078
33	0xbbcfe665	-0.006344604
34	0xbe22590c	-0.15854281
35	0xbe9bc77a	-0.30425626
36	0xbe479753	-0.1949132
37	0x3ccb3749	0.024806635
38	0xbd3c7fdd	-0.046020377
39	0xbe6c9afb	-0.23105995
40	0x3e67ad77	0.22624765
41	0xbc130e3b	-0.008975561
42	0xbd108dba	-0.03529141
43	0x3db7c2f3	0.089727305
44	0xbe9e204a	-0.3088401
45	0x3d5038aa	0.05083529
46	0xbddcccbf	-0.1078124
47	0xbda8fa02	-0.0825081
48	0x3b8c3d83	0.0042797937
49	0x3c031da5	0.008002673
50	0xbdffef25	-0.12496785
51	0x3d8a930a	0.06766327
52	0x3dc74fb1	0.09731997
53	0x3da6e3ea	0.0814894
54	0xbe34656e	-0.17616817
55	0x3e2abef4	0.16674405
56	0xbdc18ee3	-0.094510816
57	0x3e44918e	0.1919615
58	0x3e43e298	0.19129407
59	0x3eceb5a9	0.4037297
60	0x3e3ee796	0.1864303
61	0x3d8c5426	0.068519875
62	0xbe7435f4	-0.23848706
63	0x3e51f772	0.20504549
64	0xbd639097	-0.055557813
65	0xbe397fd9	-0.18115176
66	0x3d0099af	0.031396564
67	0x3ebf9f5e	0.37426275
68	0x3dc7a161	0.097475775
69	0x3e29c3ff	0.16578673
70	0x3e19f449	0.15034594
71	0xbe724a88	-0.23661244
72	0x3dbe831e	0.09302352
73	0xbdffc8ff	-0.12489509
74	0x3e8341bf	0.25636098
75	0x3d8b9377	0.06815236
76	0x3d21c57b	0.039494973
77	0xbe0ea26d	-0.13929148
78	0x3d516f07	0.051131275
79	0x3d9108eb	0.07081779
80	0x3edf2fba	0.435911
81	0x3c9419ed	0.018078769
82	0xbe0f5e0a	-0.14000717
83	0x3e2e1c15	0.170029
84	0x3e2f686d	0.17129679
85	0x3db79c49	0.08965356
86	0x3d98b47f	0.07456302
87	0x3e5f3266	0.21796569
88	0x3c99c28d	0.018769527
89	0x3dd61f4f	0.104551904
90	0x3c87aa74	0.01656077
91	0xbbd8308a	-0.006597583
92	0x3e5e5eaa	0.21715799
93	0xbe69d3fd	-0.22834773
94	0xbd7744cc	-0.060368344
95	0x3def17a4	0.11674431
96	0x3d9ac2e3	0.07556703
97	0xbcc0006d	-0.023437703
98	0x3e38321f	0.1798787
99	0x3c06abd2	0.008219676
100	0x3e1e931e	0.15485808
101	0x3e58f4d3	0.21187143
102	0x3d793b14	0.060847357
103	0xbb9dd17a	-0.0048162313
104	0xbe4b5817	-0.19857822
105	0xbc98f384	-0.018670805
106	0xbc955678	-0.018229708
107	0x3e6c08ce	0.23050234
108	0xbec7f56c	-0.3905443
109	0xbe38beb9	-0.18041505
110	0x3dfa6ae7	0.12227421
111	0x3df92af9	0.121663995
112	0x3e0b100c	0.1358034
113	0x3d413155	0.047166187
114	0x3d822fb9	0.063567586
115	0x3b990197	0.004669379
116	0x3eb07f50	0.34472132
117	0x3e64ea1f	0.22354935
118	0x3e40378a	0.18771186
119	0xbd70030b	-0.058596652
120	0xbc3fecee	-0.011714203
121	0x3dd383db	0.10327884
122	0xbe269590	-0.16267991
123	0xbe03dbc7	-0.12876807
124	0x3d7af0f8	0.061264962
125	0x3cc7dd30	0.024397463
126	0x3dac2167	0.084048085
127	0x3e540dd7	0.20708404
128	0x3d6cc07e	0.057800762
129	0x3e183555	0.14864095
130	0x3e873646	0.26408595
131	0xbb45ff8a	-0.0030212128
132	0xbe904271	-0.2817569
133	0x3ebb2173	0.36548957
134	0x3dd9aa83	0.10628226
135	0xbdc3ba14	-0.09556976
136	0xbeb60264	-0.355487
137	0x3ec6c6fe	0.38823694
138	0x3d25b5b6	0.040456496
139	0x3e8323c0	0.25613213
140	0x3e24280a	0.16030899
141	0x3eb1e60f	0.34745833
142	0xbe327793	-0.17428426
143	0x3c4360c8	0.01192493
144	0xbe261d5e	-0.1622214
145	0x3e222400	0.15834045
146	0x3becce70	0.0072267577
147	0xbd9399da	-0.07207079
148	0xbeb8db30	-0.36104727
149	0x3dc1826d	0.09448705
150	0x3da9119d	0.082553126
151	0x3dd8d9ee	0.10588442
152	0xbe5e31b5	-0.21698649
153	0x3e62ea8a	0.22159782
154	0x3d4ed25b	0.05049358
155	0x3dfd3739	0.123640485
156	0xbe71fd42	-0.23631766
157	0x3dd60e94	0.10451999
158	0x3e07a913	0.1324809
159	0xbdef4c06	-0.11684422
160	0x3dfb714b	0.12277468
161	0xbd993912	-0.074815884
162	0xbd4d1e8e	-0.050077967
163	0x3e45056e	0.19240353
164	0x3e242ead	0.1603343
165	0xbb58b985	-0.0033069563
166	0xbe929b06	-0.28633898
167	0xbe1346ef	-0.14382528
168	0xbe559ce0	-0.20860624
169	0x3d66fa3a	0.05639098
170	0xbdf57e72	-0.11987008
171	0x3da8979e	0.08232044
172	0x3eb853a6	0.3600132
173	0x3d4a79f8	0.049432725
174	0x3e644850	0.2229321
175	0x3e12f8bc	0.14352697
176	0xbc7bf78e	-0.015378846
177	0xbe00bbbb	-0.12571613
178	0x3e19e7f5	0.15029891
179	0xbdc17504	-0.09446147
180	0x3e382215	0.17981751
181	0x3e27f620	0.16402483
182	0xbd6e2eaf	-0.05814999
183	0xbe1302c1	-0.1435652
184	0xbdc43635	-0.09580652
185	0xbe8aa83a	-0.27081472
186	0x3e6efc2f	0.23338388
187	0x3da648bc	0.08119342
188	0x3d2119cc	0.039331242
189	0x3d79ef48	0.061019212
190	0x3e157f3d	0.14599319
191	0x3e627128	0.22113478
192	0xbddf9eb8	-0.10918945
193	0xbe38cc0f	-0.18046592
194	0x3da6530a	0.08121307
195	0xbe9b89a6	-0.30378455
196	0xbddfcb09	-0.10927398
197	0xbd17ba34	-0.03704281
198	0x3e505f9a	0.20348969
199	0xbd42c432	-0.047550388
200	0x3e584e21	0.21123554
201	0x3b89fcc5	0.0042110407
202	0xbcdb0539	-0.026735889
203	0x3e082163	0.13293986
204	0x3ed8c11c	0.4233483
205	0xbde9c3d9	-0.11414308
206	0xbe6f64dd	-0.2337832
207	0x3ea8b027	0.32946894
208	0x3db4acb0	0.08822
209	0xbeb7e966	-0.35920256
210	0xbe2ad699	-0.16683425
211	0x3e0f4b0f	0.13993476
212	0xbdab2839	-0.08357281
213	0x3e761145	0.24030025
214	0xbe1e6d47	-0.15471373
215	0xbda24abc	-0.07924411
216	0x3ebc99ce	0.36836094
217	0x3dccd9bc	0.10002467
218	0x3e3d4238	0.18482292
219	0x3d32776c	0.04357092
220	0x3e1e3930	0.15451503
221	0xbd83d230	-0.064365745
222	0x3e07b2b0	0.13251758
223	0xbd8bd9ca	-0.06828649
224	0xbe2d3614	-0.1691516
225	0xbdd8649a	-0.10566063
226	0x3d11b25e	0.035570495
227	0x3da9c79a	0.08290024
228	0x3e29baa4	0.16575104
229	0xbe421024	-0.1895147
230	0x3e9fc1ce	0.3120255
231	0xbe6ead31	-0.23308255
232	0xbcff5276	-0.03116725
233	0x3c11c828	0.008897819
234	0x3d49f62e	0.04930704
235	0xbe30bcef	-0.17259572
236	0x3d3ab839	0.045585845
237	0xbcf5e7e8	-0.030017808
238	0x3e51bd9f	0.20482491
239	0x3e2aad3b	0.16667645
240	0x3df9e392	0.12201609
241	0x3d263523	0.04057802
242	0x3db02ece	0.08602677
243	0x3e9969a4	0.2996341
244	0x3e85bc24	0.26120102
245	0x3d590d30	0.052991092
246	0xbd7fe875	-0.062477548
247	0x3de31414	0.11087814
248	0xbef36b6c	-0.47542894
249	0xbd83419e	-0.06409
250	0xbe32007b	-0.17382996
251	0x3e197472	0.14985827
252	0x3d3cfc24	0.046138898
253	0xbdd8aac4	-0.10579446
254	0x3da38c4c	0.07985744
255	0xbe33d57a	-0.17561904

enc1.4.weight f4 [8]
0	0x3f814095	1.0097834
1	0x3f769b49	0.96330696
2	0x3f7ff717	0.99986404
3	0x3f809cae	1.0047815
4	0x3f7f2f37	0.9968142
5	0x3f815402	1.0103762
6	0x3f826de7	1.018979
7	0x3f7f874b	0.99815816

enc1.4.bias f4 [8]
0	0x3cd224fb	0.0256524
1	0xbca33d43	-0.019926673
2	0x3c153fbc	0.009109434
3	0x3aaebaac	0.0013330779
4	0xbc225801	-0.009908677
5	0x3be40f65	0.006959843
6	0x3b496031	0.00307275
7	0xbb40081e	-0.0029301713

enc1.4.running_mean f4 [8]
0	0x3cbc5660	0.022990406
1	0x3fe19924	1.762486
2	0x3e904c02	0.2818299
3	0x3f9dc0cb	1.2324461
4	0x3f8f7a1b	1.1209139
5	0x3d0ad839	0.033897612
6	0x3e80b074	0.25134623
7	0x3e2888ae	0.16458389

enc1.4.running_var f4 [8]
0	0x3f4d7f83	0.8027269
1	0x4084d656	4.151164
2	0x3e45e15c	0.19324249
3	0x40048b14	2.0709887
4	0x3fbcfda1	1.4764901
5	0x3f9e2986	1.2356422
6	0x3e927236	0.2860276
7	0x3ea95dbf	0.33079335

enc2.0.weight f4 [16, 8, 3, 3]
0	0x3dc0a60e	0.094066724
1	0xbe0fe0c7	-0.1405059
2	0xbd9800e1	-0.07422043
3	0xbe40d4b5	-0.18831141
4	0xbd3575b5	-0.044301707
5	0x3db5a324	0.08869007
6	0xbe0ed44c	-0.13948172
7	0xbda39200	-0.07986832
8	0xbc1b9dfe	-0.0094981175
9	0xbc7547d8	-0.014970742
10	0xbce1ccd3	-0.027563488
11	0xbd1e6aec	-0.038676187
12	0x3e8d6fe2	0.27624422
13	0x3d971cb2	0.0737852
14	0xbe638f92	-0.22222736
15	0xbd98ab64	-0.07454565
16	0xbdce5cd7	-0.100763015
17	0x3e0d3ddb	0.13793127
18	0xbe1815a5	-0.14852007
19	0xbe2cbe0b	-0.1686937
20	0xbe0e02e6	-0.13868293
21	0xbb93ac4d	-0.004506624
22	0xbdce9d21	-0.10088564
23	0x3dda177a	0.10649009
24	0xbe2d2944	-0.16910273
25	0xbe466b67	-0.19376908
26	0xbe31b6df	-0.17354916
27	0x3e2cbaf1	0.16868187
28	0xbcdf6be4	-0.027273126
29	0xbdda7788	-0.1066733
30	0x3dd00534	0.101572424
31	0x3d903975	0.07042209
32	0x3e449a4c	0.19199485
33	0xbdb76b47	-0.089560084
34	0x3dfb5b35	0.12273256
35	0x3d8f9d9a	0.07012482
36	0x3e9e936e	0.30971855
37	0xbcd0a1cf	-0.025467781
38	0x3e0dbe89	0.13842215
39	0x3db7fe9e	0.08984111
40	0xbdaa598f	-0.08317863
41	0x3cfc1977	0.030773861
42	0x3cf8faac	0.030392967
43	0x3dcf29f5	0.101154245
44	0xbd218d7d	-0.039441574
45	0x3d8844ea	0.06653769
46	0x3b9b5e2f	0.004741452
47	0x3e0ba4a0	0.13637018
48	0xbe12cd19	-0.14336051
49	0x3df4cc92	0.11953081
50	0x3bf679d9	0.0075218496
51	0xbdd8dbdd	-0.105888106
52	0xbd60023c	-0.05468963
53	0x3e10aab3	0.14127617
54	0xbd9ee47a	-0.07758422
55	0x3e2fec71	0.17180039
56	0xbc88d3f8	-0.016702637
57	0x3d125b87	0.03573182
58	0x3eaa6190	0.3327756
59	0x3d78c311	0.060732905
60	0xbc68fbc3	-0.014220181
61	0xbca03aac	-0.019559227
62	0xbd181b95	-0.03713568
63	0x3dd7032d	0.104986526
64	0xbd8829eb	-0.0664862
65	0xbc505991	-0.012716667
66	0x3e11f134	0.14252168
67	0xbd03d344	-0.0321839
68	0xbd3a5da4	-0.04549946
69	0x3bf23ab4	0.007392252
70	0xbd0fea1c	-0.035135373
71	0x3ba6d8b9	0.0050917533
72	0xbe071632	-0.1319206
73	0xbd8c52a4	-0.068517
74	0xbe232ef3	-0.15935878
75	0xbe22e8a8	-0.15909064
76	0xbd9e63d0	-0.077338815
77	0x3e04f014	0.12982208
78	0x3d6252e0	0.055254817
79	0xbdaa4ac2	-0.0831504
80	0x3e1c9874	0.15292531
81	0x3e1e11d8	0.15436494
82	0x3e04d309	0.12971129
83	0x3d396cc7	0.045269754
84	0xbdcc0405	-0.09961704
85	0x3d741440	0.059589624
86	0xbc933e0c	-0.017973922
87	0xbe34251c	-0.17592281
88	0x3db56e58	0.08858937
89	0x3e80b9f7	0.2514188
90	0xbd2399c6	-0.03994157
91	0xbdd8c494	-0.10584369
92	0x3cf70fe0	0.030158937
93	0xbd00cccc	-0.03144531
94	0xbd352402	-0.044223793
95	0xbdb2b0e6	-0.08725147
96	0x3dea3bf6	0.11437218
97	0xbd98cd28	-0.074610054
98	0x3d767cef	0.06017774
99	0x3d340c1b	0.043956857
100	0xbe276a59	-0.16349162
101	0xbcea67f2	-0.028614018
102	0xbcf5cbeb	-0.030004462
103	0x3c97c9e8	0.018528894
104	0xbcb1ab7b	-0.021688214
105	0xbc7a51a1	-0.015278251
106	0x3e280634	0.16408616
107	0xbd98f0ce	-0.07467805
108	0xbe1c0d5e	-0.15239474
109	0xbe85e799	-0.26153257
110	0x3d364414	0.044498518
111	0xbdc36071	-0.09539879
112	0x3da63fd1	0.08117641
113	0xbdf6e631	-0.12055624
114	0x3d0e3df4	0.03472705
115	0xbe5c0329	-0.2148558
116	0x3d3f7732	0.046744533
117	0xbd99cf9b	-0.07510301
118	0x3d6b45a1	0.05743945
119	0xbe47b7c6	-0.19503698
120	0xbcedb6c0	-0.029017806
121	0xbd5326d7	-0.051550712
122	0xbe3e20b3	-0.18567161
123	0x3e1346cb	0.14382474
124	0x3c36ef61	0.011165471
125	0x3dc21216	0.09476106
126	0xbc3b7552	-0.011441546
127	0x3d7e719f	0.062120076
128	0x3c25f181	0.01012838
129	0xbdb41a18	-0.087940395
130	0xbe6376e3	-0.2221332
131	0xbd146f6a	-0.036239065
132	0xbe65d856	-0.22445807
133	0x3db9285f	0.09040903
134	0x3d036e54	0.03208764
135	0xbcec48d8	-0.028843328
136	0x3e5bc3d8	0.21461427
137	0x3e0d4ede	0.13799617
138	0xbddc194b	-0.10747012
139	0x3d0eb08d	0.03483634
140	0x3cb92cd0	0.022604376
141	0xbdeb9027	-0.11502104
142	0xbd90224e	-0.07037793
143	0xbd68023d	-0.05664276
144	0xbd2c10dd	-0.04200827
145	0x3e2afd07	0.16698085
146	0xbe271ee7	-0.16320382
147	0xbdebd187	-0.115145735
148	0xbdc9c60b	-0.09852227
149	0xbd9274af	-0.07151162
150	0x3d967c22	0.07347895
151	0xbe62ae42	-0.22136787
152	0x3c97ebcf	0.01854506
153	0xbe60a9ab	-0.21939723
154	0x3db4576f	0.08805739
155	0x3d9552f5	0.072912134
156	0x3d23d1fe	0.039995186
157	0x3da3e7db	0.08003207
158	0xbcdd4779	-0.02701162
159	0xbd934c06	-0.07192235
160	0xbe00a651	-0.12563445
161	0x3d1644e5	0.036686797
162	0xbe8cb0c8	-0.27478623
163	0xbcccb59b	-0.02498894
164	0xbdcd7779	-0.10032553
165	0x3d0d8588	0.034551173
166	0xbd84a344	-0.06476453
167	0xbca3adc0	-0.019980311
168	0x3e82e63e	0.25566286
169	0x3d4af5fd	0.049551
170	0x3ba628c2	0.0050707767
171	0x3db279a3	0.087146066
172	0xbd23bbdf	-0.03997409
173	0xbd971eed	-0.073789455
174	0x3e175077	0.14776789
175	0x3e4eb763	0.20187144
176	0xbdc8bf71	-0.098021396
177	0xbd2a2c10	-0.041545928
178	0x3d2c6faf	0.042098697
179	0xbe1ad4c4	-0.15120226
180	0xbdcecb57	-0.10097378
181	0x3d96332b	0.07333978
182	0x3db87d0a	0.09008224
183	0x3d83f34d	0.0644289
184	0xbc2a9129	-0.010410585
185	0xbd1c57be	-0.038169615
186	0xbd28f53e	-0.041249506
187	0x3e323df1	0.17406441
188	0xbe33c7af	-0.17556642
189	0xbd5a8227	-0.05334678
190	0xbd425b9d	-0.04745065
191	0x3d792295	0.060823996
192	0x3d6b3319	0.057421777
193	0x3d0f430d	0.034976054
194	0x3db4c1d8	0.08826035
195	0x3caec562	0.021334354
196	0x3cb22c51	0.021749647
197	0xbd25db54	-0.04049237
198	0xbd8aeb24	-0.06783131
199	0xbe3f9850	-0.18710446
200	0xbe7d715f	-0.24750279
201	0x3e0e446a	0.13893285
202	0xbe38faed	-0.1806447
203	0xbe14e772	-0.14541414
204	0x3d909cc0	0.07061148
205	0xbd1b509b	-0.03791867
206	0x3dbc7e68	0.092037976
207	0x3e3f8676	0.18703637
208	0x3dec05da	0.115245536
209	0xbe4081b0	-0.18799472
210	0xbdfe08c2	-0.12404014
211	0x3e2326d3	0.15932779
212	0x3de9d6d4	0.11417928
213	0xbdbc8457	-0.09204929
214	0xbe78d1ba	-0.24298754
215	0x3d6d7835	0.057975966
216	0xbdf9a6f4	-0.12190047
217	0x3c032e0c	0.008006584
218	0x3dad56cd	0.084638216
219	0xbe139cd3	-0.14415292
220	0x3e8ebad6	0.2787692
221	0x3d8ff460	0.07029033
222	0xbe078138	-0.13232887
223	0xbe2d5dcc	-0.16930312
224	0xbd43619d	-0.047700513
225	0x3e304cdd	0.17216821
226	0xbe10e0b8	-0.14148223
227	0x3c27c278	0.010239236
228	0xbd13471c	-0.035956487
229	0x3d4d441f	0.050113793
230	0xbe0f9d20	-0.14024782
231	0xbd59b052	-0.053146668
232	0x3c24e5ae	0.0100645255
233	0xbd07a935	-0.033120353
234	0xbd8f416c	-0.069949
235	0xbcff86da	-0.031192232
236	0xbd7f3804	-0.06230928
237	0x3e350af5	0.17679961
238	0xbdea7a83	-0.114491485
239	0x3e1cf755	0.15328725
240	0xbcb77182	-0.022392992
241	0x3e7a7b38	0.24461067
242	0x3d9644af	0.07337319
243	0x39738278	0.0002322289
244	0x3e6bdd11	0.23033549
245	0xbe1a2e85	-0.15056808
246	0xbc0a3699	-0.008435869
247	0x3dd339f5	0.10313789
248	0x3d8f6e11	0.070034154
249	0x3de16fd2	0.11007656
250	0x3d7f2f19	0.062300775
251	0xbe527975	-0.20554145
252	0xbdf16889	-0.117875166
253	0x3dce4df1	0.1007346
254	0xbd3dcbb7	-0.046336856
255	0xbdb4aafb	-0.088216744

enc2.1.weight f4 [16]
0	0x3f7f314c	0.99684596
1	0x3f808adf	1.004238
2	0x3f8225c4	1.0167775
3	0x3f7ee529	0.9956842
4	0x3f729b31	0.94768053
5	0x3f81ace4	1.0130887
6	0x3f822a9e	1.0169256
7	0x3f8296c7	1.0202264
8	0x3f842914	1.0325036
9	0x3f78e99b	0.97231454
10	0x3f7e90c7	0.9943966
11	0x3f80c290	1.0059376
12	0x3f7fa549	0.9986158
13	0x3f7e7afb	0.99406403
14	0x3f80cca4	1.0062451
15	0x3f80c85c	1.0061145

enc2.1.bias f4 [16]
0	0xbc0fc997	-0.00877609
1	0x3b0e3a2e	0.0021702158
2	0x3c6bf8bc	0.014402565
3	0xbb95569a	-0.004557443
4	0xbd025ceb	-0.031826895
5	0x3c78e74f	0.015191867
6	0x3c6e55ce	0.014546825
7	0xbb674d54	-0.0035293894
8	0x3c568f1b	0.013095642
9	0xbcc7ad06	-0.024374496
10	0xbc9c6c6b	-0.019094666
11	0x3c6310b6	0.013858965
12	0x3d3c1452	0.045917816
13	0xbc5fefc0	-0.013668001
14	0x3b8e1490	0.0043359473
15	0x3d1906f1	0.037360135

enc2.1.running_mean f4 [16]
0	0x3d99a161	0.07501484
1	0xbf25542e	-0.64581573
2	0xbef324a4	-0.47488892
3	0x3e68f938	0.2275132
4	0x3ce0a81a	0.027423907
5	0xbeaa2168	-0.33228612
6	0xbe3de73a	-0.18545237
7	0x3f7cf028	0.9880395
8	0x3f10ae6a	0.56516135
9	0xbedabb84	-0.42721188
10	0x3f3f9474	0.74835896
11	0xbf2e7d23	-0.68159693
12	0xbf45e91b	-0.77308816
13	0x3ec18902	0.3779984
14	0xbf39743f	-0.72443
15	0xbeb15af8	-0.34639716

enc2.1.running_var f4 [16]
0	0x3eac0572	0.33597904
1	0x3f0956c2	0.53648007
2	0x3ec36741	0.38164714
3	0x3e1b018e	0.15137312
4	0x3e321e40	0.17394352
5	0x3f118170	0.5683813
6	0x3e35a546	0.17738828
7	0x3e733f19	0.23754539
8	0x3ed1cd55	0.40976968
9	0x3e0e4c92	0.13896397
10	0x3fa921d7	1.3213452
11	0x3ea825a4	0.32841218
12	0x3e48913c	0.19586653
13	0x3eab0b48	0.33407044
14	0x3f7432c4	0.9538996
15	0x3dedd991	0.11613763

enc2.3.weight f4 [16, 16, 3, 3]
0	0x3d259f7e	0.040435307
1	0xbd20ea95	-0.039286215
2	0xbd93ac00	-0.07210541
3	0xbe1421c1	-0.14466001
4	0xbb5e0f1d	-0.003388352
5	0x3c69d75f	0.01427254
6	0x3d5dfbc3	0.054195177
7	0x3dc7f1b3	0.09762897
8	0x3e304605	0.1721421
9	0x3d8f9dbf	0.070125096
10	0x3cee7c6d	0.029112065
11	0x3d2b59c7	0.041833665
12	0xbe95f596	-0.2928893
13	0xbce71a83	-0.028210884
14	0xbe67a999	-0.2262329
15	0x3e437845	0.19088848
16	0x3e0c819e	0.1372132
17	0x3e2a63cf	0.16639636
18	0x3d86ae14	0.065761715
19	0x3e72127d	0.23639865
20	0xbd0b4916	-0.034005247
21	0x3d5e05f1	0.054204885
22	0xba8c4840	-0.0010702685
23	0x3e901412	0.28140312
24	0xbc907444	-0.017633565
25	0xbdd256af	-0.1027044
26	0xbe0d8bff	-0.13822936
27	0x3d4206a0	0.0473696
28	0x3e1290c5	0.14313038
29	0xbd27d77e	-0.040976994
30	0xbd98e99c	-0.074664325
31	0x3e1163f5	0.14198287
32	0x3d5193b9	0.05116627
33	0x3e0ec36f	0.1394174
34	0xbdcf7462	-0.1012962
35	0xbdfc58d4	-0.1232163
36	0xbc03e25b	-0.008049573
37	0xbd80d655	-0.062908806
38	0x3e1e92dc	0.1548571
39	0xbc7a9eaf	-0.015296622
40	0x3d99bb57	0.07506435
41	0x3d1f1d94	0.038846567
42	0xbdb22a9e	-0.08699535
43	0xbdd1fc24	-0.1025317
44	0x3d829976	0.063769266
45	0xbe356fbc	-0.17718405
46	0xbc2b5771	-0.010457859
47	0xbdab7f63	-0.083739065
48	0x3d906f26	0.0705245
49	0xbdb8330b	-0.08994111
50	0x3d150368	0.0363802
51	0xbd139042	-0.036026247
52	0xbd7ca1a5	-0.061677594
53	0xbd9b2ba1	-0.07576681
54	0xbdde93d4	-0.1086804
55	0x3e05925c	0.13044113
56	0xbcd63ec0	-0.026152968
57	0x3daf484b	0.08558711
58	0xbc36f4d4	-0.01116677
59	0x3d4bd464	0.0497631
60	0xbda4d3a5	-0.080481805
61	0xbd8b33ec	-0.06797013
62	0xbe079eea	-0.13244215
63	0x3c8764a7	0.016527487
64	0xbcecb6f0	-0.028895825
65	0xbe1c9abb	-0.152934
66	0xbcc7bbd9	-0.024381565
67	0xbd6b502a	-0.057449497
68	0x3dab87b5	0.083754934
69	0xbe369fcd	-0.17834397
70	0x3e3ebf6d	0.1862771
71	0xbcfdfbfd	-0.031003946
72	0xbd788076	-0.060669385
73	0xbe4fdd94	-0.20299369
74	0x3ceb7619	0.028742837
75	0x3e06e473	0.13173084
76	0xbdfb5407	-0.12271886
77	0xbd0ecc28	-0.034862667
78	0xbdd3afe4	-0.10336283
79	0x3daf786c	0.085678905
80	0xb9a22315	-0.00030925186
81	0xbd4a6197	-0.049409475
82	0xbe13f13c	-0.14447492
83	0x3e61e130	0.22058558
84	0x3de23511	0.11045278
85	0x3aab99ee	0.0013092139
86	0xbd592971	-0.053018037
87	0x3d300a81	0.042978767
88	0x3e2d1b65	0.16904981
89	0xbe16ae72	-0.14714983
90	0x3ce41b47	0.027845038
91	0xbe1b16be	-0.15145394
92	0xbd6faa7b	-0.058512192
93	0x3d8bccd9	0.06826181
94	0x3d2f65dd	0.042821754
95	0x3db58c0e	0.08864604
96	0xbd7afe9d	-0.061277974
97	0x3e417696	0.18892893
98	0xbe86dbd8	-0.26339602
99	0x3c14c47b	0.009080048
100	0x3e6f4bed	0.23368807
101	0x3e484965	0.19559248
102	0x3e25f734	0.16207582
103	0x3d90a291	0.07062257
104	0x3ba2cc7f	0.0049682255
105	0x3d74cfcd	0.059768487
106	0xbdb1066c	-0.08643803
107	0xbdad5d02	-0.084650055
108	0xbcb70906	-0.02234317
109	0xbdd96c5d	-0.10616372
110	0xbcdd55ba	-0.027018417
111	0x3e415491	0.18879916
112	0xbe7d465a	-0.24733868
113	0x3d946149	0.07245118
114	0x3e0fe858	0.14053476
115	0x3e1f9bbb	0.1558675
116	0xbe749fa3	-0.23889022
117	0x3d93774e	0.0720049
118	0x3d1987bc	0.037482962
119	0x3dc00558	0.09376019
120	0xbe27fb78	-0.16404521
121	0xbe99d877	-0.30047962
122	0xbdc3e9c7	-0.09566074
123	0xbd6a31bc	-0.057176337
124	0xbdc4fe39	-0.096188016
125	0xbe0aadde	-0.13542888
126	0xbd794193	-0.060853552
127	0xbcdd8318	-0.02704005
128	0x3bd263fe	0.0064206114
129	0xbd810e19	-0.06301517
130	0xbe2b7e44	-0.16747385
131	0xbdc3b0eb	-0.09555229
132	0xbde26c6d	-0.11055837
133	0xbcfd6645	-0.030932555
134	0x3e233bdb	0.15940802
135	0x3e665ed8	0.22497118
136	0xbe2d4a13	-0.16922788
137	0xbdfb2b7a	-0.12264152
138	0x3e4ed7d0	0.20199513
139	0x3cf7859f	0.030215083
140	0xbe2679d2	-0.16257408
141	0x3dbb6ec8	0.09151989
142	0x3c64c7a5	0.013963615
143	0xbe20eeed	-0.15716143
144	0x3dc2707e	0.094941124
145	0xbd86c41a	-0.06580372
146	0x3ddd606c	0.10809407
147	0x3c854c57	0.016271753
148	0xba4efef2	-0.0007896266
149	0xbe41352d	-0.18867941
150	0xbcc24df8	-0.023718819
151	0x3ad2ef5d	0.0016093064
152	0xbe195927	-0.14975415
153	0xbb9c12c7	-0.0047629806
154	0xbd03c8a2	-0.03217376
155	0xbe0e30df	-0.1388583
156	0x3e233e2f	0.1594169
157	0xbd237375	-0.03990503
158	0xbd345cc1	-0.04403377
159	0xbd54d346	-0.0519593
160	0x3cba163f	0.022715686
161	0xbdd76749	-0.10517747
162	0x3d9345b6	0.07191031
163	0xbd3d856b	-0.046269815
164	0x3dcce529	0.10004646
165	0xbd6ebcb8	-0.058285445
166	0xb9f21f38	-0.00046181097
167	0x3da4eb87	0.08052736
168	0x3d99a48e	0.075020894
169	0x3dc76ca2	0.09737517
170	0x3d33c11f	0.043885347
171	0x3e798303	0.24366383
172	0x3e1455a6	0.14485797
173	0x3d20dc43	0.039272558
174	0xbce1edc7	-0.027579201
175	0x3df2ea7a	0.11861129
176	0xbd0e1f1d	-0.03469764
177	0xbdc0ec07	-0.09420019
178	0x3e71dab9	0.23618592
179	0x3da68343	0.08130505
180	0xbc8a9a1a	-0.016919184
181	0xbdffe66c	-0.12495121
182	0x3e09819f	0.13428353
183	0x3dd96e92	0.10616793
184	0x3e01a425	0.12660272
185	0x3e1f5f4f	0.15563701
186	0x3d412108	0.04715064
187	0x3da447bd	0.080214955
188	0xbb7afd74	-0.0038298042
189	0xbe0b3960	-0.13596106
190	0x3d6c0473	0.05762143
191	0x3e01e686	0.12685594
192	0x3c888e3f	0.01666939
193	0xbca1866d	-0.01971742
194	0x3e048164	0.12939984
195	0xbc8f3120	-0.01747948
196	0x3e1c84ff	0.15285109
197	0xbe55440b	-0.20826738
198	0x3d564acd	0.05231743
199	0x3e9b14fa	0.3028944
200	0x3e765775	0.240568
201	0x3e56813a	0.20947734
202	0x3e2ce14f	0.16882823
203	0x3dc715ec	0.09720978
204	0xbadd100f	-0.0016865748
205	0xbddbcb32	-0.10732116
206	0x3d02d99c	0.03194581
207	0x3c23b336	0.009991458
208	0xbc76445d	-0.0150309475
209	0x3d7b57c8	0.06136301
210	0x3ccd4d26	0.025061201
211	0xbd9123a7	-0.07086878
212	0x3d5cee27	0.053938057
213	0x3dfab961	0.122423895
214	0x3bcfa3c3	0.0063366606
215	0x3df33b2d	0.11876521
216	0xbe813fab	-0.25243887
217	0xbd90ede8	-0.07076627
218	0x3e5eb82e	0.21749946
219	0x3e03e377	0.1287974
220	0x3d86b8df	0.0657823
221	0xbdd3e182	-0.103457466
222	0xbdfacafc	-0.122457474
223	0xbd6f505e	-0.058426253
224	0xbd61669d	-0.0550295
225	0xbd8c6fd1	-0.06857265
226	0x3e2e0a3e	0.16996095
227	0x3d9ae057	0.07562321
228	0x3dd00663	0.10157468
229	0x3daad980	0.08342266
230	0xbe4476cd	-0.19185944
231	0x3de0805c	0.109619826
232	0xbc382600	-0.011239529
233	0xbdbc7d10	-0.09203541
234	0x3b1264e8	0.0022337977
235	0xbe0306e9	-0.12795605
236	0x3daf26e0	0.08552337
237	0x3ce29503	0.027658945
238	0xbddc0c93	-0.10744586
239	0xbd022a68	-0.031778723
240	0x3dbda2c7	0.09259563
241	0xbc085b68	-0.008322574
242	0xbd7b289e	-0.061318032
243	0xbe656eea	-0.22405592
244	0xbd8ff110	-0.07028401
245	0xbe5f22da	-0.21790639
246	0x3e16efe7	0.14739953
247	0x3de4edd5	0.11178175
248	0xbd06905d	-0.03285252
249	0xbe174de4	-0.14775807
250	0x3e59b0a0	0.21258783
251	0xbc7dff3e	-0.015502749
252	0x3de52a45	0.11189703
253	0xbdd5949b	-0.10428735
254	0xbd59f5e5	-0.05321302
255	0x3dfdd7f3	0.12394705

enc2.4.weight f4 [16]
0	0x3f7f4bfa	0.99725306
1	0x3f7bfe56	0.9843496
2	0x3f79ff41	0.9765511
3	0x3f78e91c	0.97230697
4	0x3f81867b	1.0119165
5	0x3f7b931f	0.98271364
6	0x3f7ff517	0.9998335
7	0x3f80b64d	1.0055634
8	0x3f7945ac	0.97371936
9	0x3f78b7d6	0.9715551
10	0x3f7fda6b	0.99942654
11	0x3f7c0470	0.9844427
12	0x3f823ab7	1.0174168
13	0x3f7e7fa5	0.9941352
14	0x3f7b0c9b	0.9806611
15	0x3f7eb1c3	0.9948999

enc2.4.bias f4 [16]
0	0xb9e386f2	-0.00043397356
1	0xb9ae9cdc	-0.00033304736
2	0xbd303f99	-0.0430294
3	0xbd0bf554	-0.03416951
4	0xba912286	-0.0011072911
5	0xbc86912f	-0.01642665
6	0xbc069366	-0.008213853
7	0xba5c5bc4	-0.0008406008
8	0x3bdc7599	0.006727886
9	0xbd0fd6b6	-0.035116874
10	0x3c5a3fe6	0.013320899
11	0x3b6b696f	0.0035920998
12	0x3c1415b5	0.0090383785
13	0x3c0d79f2	0.008635031
14	0xbce70188	-0.028198972
15	0xbbb775de	-0.0055987677

enc2.4.running_mean f4 [16]
0	0xbea1df47	-0.3161566
1	0x3f2d4cbc	0.6769521
2	0xbf13fb39	-0.5780521
3	0x3f662b62	0.89909947
4	0xbcc5f9d8	-0.024166986
5	0x3fa5970a	1.2936718
6	0x3d43cced	0.047802854
7	0xbe4654c2	-0.1936827
8	0xbed77e35	-0.42088476
9	0xbe7d266a	-0.24721685
10	0xbdec5695	-0.11539952
11	0xbeb08d1c	-0.34482658
12	0x3dcd912e	0.100374565
13	0x3f5808f7	0.8438868
14	0xbf7454f7	-0.95442146
15	0x3ed42b13	0.41439113

enc2.4.running_var f4 [16]
0	0x3f42923c	0.76004386
1	0x3f60e699	0.87851864
2	0x3f86d25d	1.0532948
3	0x3ed25b05	0.41085067
4	0x3f57108c	0.84009624
5	0x3f85a8d0	1.0442142
6	0x3e917071	0.28406098
7	0x40529c6f	3.290798
8	0x3fbcdb77	1.4754475
9	0x3faad5d4	1.3346505
10	0x3f8ce9b7	1.1008824
11	0x3f6584cc	0.89655757
12	0x3f68f5a8	0.9099984
13	0x3f4210dd	0.7580698
14	0x3ebce265	0.36891475
15	0x3faddb00	1.3582458

bottleneck.0.weight f4 [32, 16, 3, 3]
0	0xbd4dee25	-0.05027594
1	0xbdc53a71	-0.096302874
2	0xbd20d6f2	-0.039267488
3	0x3e07ab1b	0.13248865
4	0x3d2cb3c4	0.042163625
5	0x3c4dc0e3	0.012558195
6	0x3b81efc2	0.003965349
7	0xbd960dcd	-0.07326851
8	0x3dd20268	0.10254365
9	0x3cf133aa	0.02944358
10	0xbe331a0d	-0.17490406
11	0x3d89c16a	0.06726344
12	0x3cd3a439	0.025835143
13	0xbd970e58	-0.07375783
14	0xbd09a953	-0.033608746
15	0x3ca520d1	0.02015725
16	0x3dffa2e8	0.12482244
17	0x3d2d5587	0.042317893
18	0x3d9b4fc2	0.07583572
19	0xbcc09152	-0.023506794
20	0xbc916d50	-0.01775232
21	0x3d1e11db	0.038591247
22	0x3e21fd37	0.1581925
23	0xbce40c67	-0.027837945
24	0xbcfc2c6a	-0.030782897
25	0xbdc5cc32	-0.09658088
26	0x3d80dd66	0.062922284
27	0x3cce3930	0.025173753
28	0x3d39b832	0.045341678
29	0x3d1ce5df	0.03830516
30	0x3c070068	0.008239843
31	0x3cf72022	0.03016669
32	0x3d559676	0.052145444
33	0xbdcd8f72	-0.10037126
34	0x3de8cac8	0.113668025
35	0xbe052a9e	-0.13004538
36	0xbc93a7f9	-0.018024432
37	0xbd937c1e	-0.07201408
38	0xbc4da697	-0.012551925
39	0xbd830966	-0.06398277
40	0xbd8c8514	-0.0686132
41	0x3e0fc9da	0.14041844
42	0xbdcf5f72	-0.101256266
43	0xbd5fc9dd	-0.05463587
44	0x3e0b482e	0.13601753
45	0x3da01f36	0.07818453
46	0xbc8a15be	-0.01685607
47	0x3d16949c	0.03676282
48	0x3df52424	0.11969784
49	0xbb532fda	-0.0032224567
50	0xbc615d1c	-0.013755109
51	0x3d31491e	0.04328262
52	0xbd9868cc	-0.074418634
53	0x3d140155	0.036134083
54	0xbe4717fd	-0.19442745
55	0x3e3eb1b0	0.1862247
56	0x3df88b3f	0.12135934
57	0x3d36f521	0.044667367
58	0xbe05c7e0	-0.13064528
59	0xbd8bb16c	-0.0682095
60	0x3d94d998	0.07268065
61	0xbb7f2728	-0.003893325
62	0xbe0eb671	-0.13936783
63	0x3dec06fd	0.115247704
64	0x3d1d1f00	0.038359642
65	0xbde30dd4	-0.11086622
66	0x3c499644	0.0123038925
67	0xbc46c4e4	-0.012131903
68	0x3c2a9551	0.010411576
69	0x3d938c05	0.07204441
70	0x3dc40c49	0.09572656
71	0x3da5d2fd	0.080968834
72	0xbc181d17	-0.009284279
73	0x3d71a67b	0.05899666
74	0x3d8e1b1c	0.069387645
75	0x3df68dad	0.12038741
76	0xbd01e3bb	-0.03171132
77	0xbe0aa280	-0.13538551
78	0x3cfd3acb	0.030911824
79	0x3d990177	0.074709825
80	0xbc320311	-0.010864989
81	0x3dd7e0af	0.10540902
82	0xbd80dc9f	-0.0629208
83	0x3d59cf7a	0.05317638
84	0xbd1c4901	-0.03815556
85	0xbd415ef2	-0.047209688
86	0xba965028	-0.001146798
87	0x3d8fc20d	0.07019434
88	0x3d625815	0.055259783
89	0x3e103626	0.14083156
90	0x3d977eb0	0.073972106
91	0x3da6a3d0	0.081367135
92	0xbd2e951f	-0.04262268
93	0x3dab64df	0.08368849
94	0xbccd22f9	-0.02504109
95	0x3d86dc33	0.065849684
96	0x3dd154a6	0.102212235
97	0x3d8b3e3c	0.0679898
98	0x3bf834c6	0.0075746505
99	0x3d1093d0	0.035297215
100	0x3e183d4e	0.14867136
101	0xbdfc22c5	-0.12311319
102	0xbd859825	-0.0652316
103	0xbd7d718c	-0.061875865
104	0x3c8a6084	0.016891725
105	0xbd18142f	-0.037128624
106	0xbd1058c8	-0.03524092
107	0x3d5163be	0.051120512
108	0x3e1f63a8	0.1556536
109	0xbdab6d40	-0.08370447
110	0x3c350b11	0.011050002
111	0xbd5824c6	-0.052769445
112	0xbd5cd2e6	-0.053912066
113	0x3dda3fe6	0.10656719
114	0xbdafdc87	-0.08586984
115	0x3e0562a4	0.1302591
116	0xbcb72611	-0.022357019
117	0x3cdd6b71	0.027028771
118	0xbd26df9e	-0.0407406
119	0x3c366554	0.011132557
120	0x3d1519f4	0.036401704
121	0x3d5d16a4	0.05397667
122	0x3d79bb8d	0.060969878
123	0xbcc0d133	-0.023537254
124	0x3c2c71c6	0.010525173
125	0x3bd92d48	0.0066277124
126	0xbc3cea8d	-0.011530531
127	0x3e0fd77d	0.14047046
128	0xbe07655e	-0.13222262
129	0xbc73e3a1	-0.014885814
130	0x3d151b1c	0.036402807
131	0xbdc90768	-0.09815866
132	0x3c8552ec	0.016274892
133	0x3c67ae0a	0.014140615
134	0xbceb788b	-0.028744003
135	0x3b0bb87b	0.0021319676
136	0xbd641f9a	-0.0556942
137	0xbe66e419	-0.2254795
138	0x3e093cf9	0.13402165
139	0xbdf1ffe0	-0.118163824
140	0xbd052c1c	-0.03251277
141	0x3c7c19e6	0.015387034
142	0x3dccca45	0.09999517
143	0x3ddd5be9	0.10808546
144	0x3e04e649	0.12978472
145	0x3c3691ca	0.011143157
146	0x3d2d63d7	0.042331543
147	0x3d9debcd	0.07710991
148	0x3e14ad3b	0.14519207
149	0x3d92eadb	0.071737014
150	0x3b05b37f	0.0020401177
151	0x3c2e563d	0.010640678
152	0x3deb9289	0.11502559
153	0xbdb5df77	-0.08880513
154	0x3e1fb910	0.1559794
155	0xbc157040	-0.009121001
156	0x3dac54b9	0.08414597
157	0x3da94073	0.08264246
158	0x3e440205	0.19141395
159	0xbda0c391	-0.07849801
160	0xbdb160c9	-0.086610384
161	0x3d69961a	0.057027914
162	0x3e0b6646	0.13613233
163	0xbd1988dd	-0.03748404
164	0xbd206392	-0.039157458
165	0xbd8d9f72	-0.069151774
166	0xbd3d9140	-0.0462811
167	0x3d07d8c2	0.0331657
168	0x3dc7c1a5	0.09753732
169	0xbe04c30f	-0.12965034
170	0xbd9ccf9e	-0.07656787
171	0x3dd69526	0.104776666
172	0xbd886c92	-0.06661333
173	0x3d8b298d	0.067950346
174	0x3e0dd89d	0.13852163
175	0xbcd2308b	-0.025657913
176	0xbceff347	-0.029290808
177	0xbd84683f	-0.06465196
178	0x39982d2d	0.00029025358
179	0x3e2da3f9	0.16957082
180	0x3d220c08	0.039562255
181	0xbd9103a8	-0.070807755
182	0x3cc39e0f	0.02387908
183	0xbdc3250a	-0.09528549
184	0xbd8aae62	-0.06771542
185	0x3bbbbdcc	0.0057294127
186	0x3d4104fb	0.04712389
187	0xbd52a9db	-0.051431518
188	0x3d107ca9	0.035275135
189	0xbda0b650	-0.07847273
190	0xbe4a38f6	-0.19748291
191	0xb9d1bdc3	-0.0004000497
192	0x3dfa8b60	0.12233615
193	0xbcddb908	-0.027065769
194	0xbd31b8fb	-0.0433893
195	0xbd7034cf	-0.058644112
196	0xbdaedb45	-0.08537916
197	0x3d1f7729	0.038932
198	0xbde37a33	-0.11107292
199	0xbdbb63fd	-0.091499306
200	0xbd653001	-0.055953983
201	0xbdbc0108	-0.09179884
202	0xbc8ecc15	-0.017431298
203	0xbd98c88e	-0.07460128
204	0xbae4d3f2	-0.0017458184
205	0x3da2df71	0.07952774
206	0xbddd212b	-0.10797342
207	0x3e109f85	0.14123352
208	0x3d912c0e	0.07088481
209	0x3d146985	0.036233444
210	0xbcd2e652	-0.02574459
211	0xbd96da17	-0.07365816
212	0xbd40ac5d	-0.04703938
213	0xbd44281e	-0.04788982
214	0x3d149053	0.03627045
215	0x3b6f95e0	0.0036557838
216	0x3d5f87a6	0.054572724
217	0x3e126367	0.14295731
218	0xbded7c8a	-0.115960196
219	0x3d4f791c	0.05065261
220	0x3e04ca78	0.1296786
221	0xbd32d08e	-0.043655924
222	0x3d65a90b	0.056069415
223	0xbc971c68	-0.018446162
224	0x3dbb31d1	0.09140361
225	0x3d866896	0.06562917
226	0x3d758004	0.05993654
227	0x3d3be5ca	0.04587344
228	0x3ca566d8	0.020190641
229	0x3c29eeed	0.010371906
230	0x3ddc4ecc	0.10757217
231	0x3d82af91	0.06381143
232	0xbd18dcbd	-0.037319887
233	0x3d02b087	0.03190663
234	0xbda14f5b	-0.07876464
235	0x3de84bae	0.1134256
236	0xbdc2ef29	-0.095182724
237	0x3c291dc2	0.010322036
238	0xbd47f535	-0.048817832
239	0xbdad42bc	-0.08459994
240	0x3d2b35e7	0.041799452
241	0xbc99b86f	-0.018764703
242	0xbd654e5c	-0.055982932
243	0xbc075709	-0.008260497
244	0xbe02d02c	-0.12774724
245	0x3d5a0818	0.053230375
246	0xbd9f1e97	-0.077695064
247	0xbc9715bf	-0.018442987
248	0xbe255a4f	-0.16147731
249	0x3d133b4a	0.035945214
250	0x3d6719bc	0.056421027
251	0x3dcfded4	0.10149923
252	0xbcfb0947	-0.030644072
253	0x3c0b4bd7	0.008501968
254	0x3e04f56f	0.1298425
255	0xbdd287bb	-0.10279795

bottleneck.1.weight f4 [32]
0	0x3f7fe73d	0.99962217
1	0x3f7b0796	0.9805845
2	0x3f7e7cf9	0.99409443
3	0x3f7f5061	0.99732023
4	0x3f7fc8fb	0.99916047
5	0x3f80859c	1.0040774
6	0x3f820585	1.0157934
7	0x3f81586c	1.0105109
8	0x3f7b6b3b	0.98210496
9	0x3f829832	1.0202696
10	0x3f805d13	1.0028404
11	0x3f809754	1.0046182
12	0x3f822016	1.0166042
13	0x3f7cfbd2	0.9882175
14	0x3f81464d	1.0099579
15	0x3f813a57	1.0095929
16	0x3f7442db	0.95414513
17	0x3f80dfc6	1.006829
18	0x3f8360c4	1.0263906
19	0x3f81a14b	1.0127348
20	0x3f83d04d	1.0297943
21	0x3f8210b5	1.0161349
22	0x3f7fff4c	0.9999893
23	0x3f77098d	0.9649895
24	0x3f7cacae	0.9870099
25	0x3f7d94e6	0.99055326
26	0x3f8359cc	1.0261779
27	0x3f7bfca7	0.9843239
28	0x3f805cb5	1.0028292
29	0x3f787322	0.9705068
30	0x3f810325	1.0079085
31	0x3f837558	1.0270185

bottleneck.1.bias f4 [32]
0	0x3c48bf05	0.012252574
1	0xbbd9456e	-0.006630591
2	0x3bce06f0	0.006287448
3	0x3a76f89a	0.00094212
4	0xbc726b1f	-0.0147960475
5	0xbbca321d	-0.0061705247
6	0x3b8f774b	0.0043782345
7	0x3be50807	0.0069894823
8	0xbcc93f10	-0.024566203
9	0x3bfc9ac9	0.0077088815
10	0x3c8f85f1	0.017519923
11	0x3ba0f46c	0.00491195
12	0x3c9076b9	0.017634736
13	0xbc946e7d	-0.018119091
14	0x3d01d3ff	0.031696316
15	0x3b24b132	0.002513003
16	0xbc8dfcc4	-0.017332442
17	0xbd4728fb	-0.048623066
18	0x3cf94584	0.030428655
19	0x3b14ffa8	0.002273539
20	0x3c744c62	0.014910789
21	0xbc88194e	-0.016613629
22	0xbba0262e	-0.004887364
23	0xbd0f8ea8	-0.035048157
24	0xbbf8cc12	-0.0075926865
25	0xbb00aee9	-0.0019635505
26	0x3bbdaf0e	0.0057886904
27	0xbb8e36c3	-0.004340024
28	0x3be0707b	0.006849346
29	0xbca6518d	-0.020302558
30	0xbc0bcbed	-0.008532506
31	0xbb013071	-0.0019712711

bottleneck.1.running_mean f4 [32]
0	0x3f2c9def	0.6742849
1	0xbedb5cb4	-0.42844164
2	0xbe09ad0c	-0.13444918
3	0x3e0f4b79	0.13993634
4	0x3ecc25bc	0.3987254
5	0x3eaf713c	0.34266078
6	0xbeba668b	-0.3640636
7	0xbf38185f	-0.7191219
8	0x3e3783e9	0.17921413
9	0xbe41d156	-0.18927512
10	0xbc30f19b	-0.010799791
11	0x3d0c427a	0.034243084
12	0xbf4f9efb	-0.8110196
13	0xbedf3c20	-0.4360056
14	0xbfb3db3f	-1.4051284
15	0x3f453a8e	0.7704247
16	0x3f985de0	1.1903648
17	0x3f1799e5	0.592192
18	0x3df81543	0.1211343
19	0xbe825c9a	-0.25461274
20	0xbde66e23	-0.11251476
21	0xbf6c3956	-0.9227499
22	0xbdc5d65e	-0.09660028
23	0xbf42c29c	-0.760782
24	0xbdfbabeb	-0.1228865
25	0x3f317139	0.6931339
26	0xbe839f05	-0.2570726
27	0xbf8dd910	-1.1081867
28	0xbf51dd73	-0.8197853
29	0x3e40b419	0.18818702
30	0xbe301f8b	-0.17199533
31	0xbf09ec90	-0.5387659

bottleneck.1.running_var f4 [32]
0	0x3f309283	0.6897356
1	0x3fef40b4	1.8691621
2	0x3fbdea08	1.4837046
3	0x3f282e9f	0.6569614
4	0x3f29f471	0.66388613
5	0x3f227a4c	0.6346786
6	0x3f8c378f	1.0954455
7	0x3ec1fff2	0.37890583
8	0x3ed8ec5a	0.42367822
9	0x3f01486a	0.5050112
10	0x3f32bfe1	0.69824034
11	0x3edb1ad8	0.42793918
12	0x3f869973	1.0515579
13	0x3ec57012	0.38562065
14	0x3f82fdea	1.0233738
15	0x408f8470	4.4849167
16	0x4045c5ca	3.090197
17	0x3f12f76f	0.57408804
18	0x3f2ce749	0.67540413
19	0x3f3fca41	0.7491799
20	0x3f054537	0.5205874
21	0x3fdd2b17	1.7278775
22	0x3ed2e56c	0.4119066
23	0x3f1e2c73	0.61786574
24	0x3eafc241	0.3432789
25	0x3ea811b1	0.32825997
26	0x3f55877a	0.83409846
27	0x3fc6068c	1.5470748
28	0x3f960532	1.1720335
29	0x3e96452a	0.29349643
30	0x3f30f0ed	0.69117624
31	0x3ef7ae60	0.48375225

bottleneck.3.weight f4 [32, 32, 3, 3]
0	0x3aaf5559	0.0013376876
1	0xbd590cf8	-0.052990884
2	0xbdd4ba89	-0.10387141
3	0x3d959ff4	0.07305899
4	0xbd210af6	-0.039317094
5	0xbcc10670	-0.02356264
6	0xbd19b5ea	-0.037527002
7	0x3d00b518	0.031422704
8	0x3e11da7d	0.14243503
9	0x3d48ec37	0.049053397
10	0x3e515016	0.20440707
11	0x3e063837	0.13107382
12	0xbcd83053	-0.02639023
13	0xbb41b6d5	-0.002955844
14	0xbcfe7bd6	-0.031064909
15	0xbe2b5a8a	-0.16733757
16	0x3d489578	0.04897067
17	0x3ced871e	0.028995093
18	0xbe2ef0de	-0.17084071
19	0xbd89160e	-0.0669366
20	0x3d947c19	0.07250232
21	0x3dd99639	0.10624356
22	0xbd72944a	-0.05922345
23	0xbcaf7fec	-0.021423303
24	0x3e23ce7e	0.1599674
25	0x3d93dacd	0.07219467
26	0xbd1168dd	-0.035500396
27	0xbd1ee396	-0.03879126
28	0x3dbfd177	0.09366124
29	0xbd92485c	-0.07142708
30	0xbd4e0493	-0.05029733
31	0xbcf8c7dd	-0.03036874
32	0xbe0a1fca	-0.13488689
33	0x3d00763e	0.031362765
34	0x3e17e767	0.14834367
35	0xbbe3a029	-0.006946583
36	0x3c65073f	0.013978778
37	0x3ce2ee87	0.02770163
38	0x3b0fc4f2	0.0021937457
39	0xbd1696ff	-0.036765095
40	0x3e22506b	0.1585099
41	0xbc56cb5c	-0.013110008
42	0xbc74df61	-0.014945836
43	0x3e1c99ee	0.15293095
44	0xbda106fa	-0.07862659
45	0x3d18ea64	0.037332907
46	0xbd919235	-0.07107965
47	0xbe8173aa	-0.25283557
48	0x3dedf639	0.11619229
49	0xbd876e3b	-0.06612822
50	0x3d27d305	0.04097273
51	0xbc249fe0	-0.010047883
52	0xbc156271	-0.009117709
53	0x3c1d3349	0.009594747
54	0xbc92130c	-0.017831348
55	0x3c60c6c2	0.013719263
56	0x3d0e04f5	0.034672696
57	0x3c266e8e	0.010158194
58	0xbd30b54c	-0.04314165
59	0xbbc068cd	-0.005871868
60	0x3dd48db3	0.103785895
61	0x3c3521af	0.011055394
62	0xba8f150c	-0.0010916307
63	0xbd7fcaa7	-0.062449124
64	0xbb1fa908	-0.0024362225
65	0xbd5bfd38	-0.053708285
66	0x3d34ccbf	0.044140574
67	0xbd8af52b	-0.06785043
68	0xbd84e2b3	-0.06488552
69	0x3d5f1a64	0.054468527
70	0xbcca97f8	-0.024730667
71	0xbd766fc9	-0.0601652
72	0x3d504034	0.05084248
73	0x3d4fd56d	0.050740648
74	0xbc1af558	-0.009457909
75	0xbd5e6adb	-0.054301124
76	0x3cc9a5ef	0.024615256
77	0x3e0f136f	0.13972257
78	0xbda60665	-0.081066884
79	0x3db869b4	0.09004536
80	0x3dd77041	0.105194576
81	0xbdc73360	-0.09726596
82	0x3e149b6f	0.14512418
83	0x3d0c3942	0.034234293
84	0x3d872248	0.065983355
85	0x3d551353	0.052020382
86	0xbd04dcf7	-0.03243729
87	0xbca07e98	-0.019591615
88	0xbdd1c0f8	-0.10241884
89	0x3dba67f2	0.09101857
90	0x3d9d1ca6	0.0767148
91	0xbd9e7238	-0.07736629
92	0x3df8a783	0.12141325
93	0xbdd56520	-0.10419679
94	0x3e069bb7	0.13145338
95	0x3e1927b0	0.14956546
96	0x3d96566e	0.07340704
97	0x3c916d62	0.017752353
98	0x3dca7e0c	0.09887323
99	0xb9798e95	-0.00023799606
100	0xbd12bf29	-0.035826836
101	0xbd825e6e	-0.06365667
102	0xbdaf4936	-0.08558886
103	0xbd1d0b6c	-0.03834097
104	0x3b0ae6a0	0.0021194592
105	0x3daed13d	0.08536003
106	0x3d83b548	0.06431061
107	0x3da37cfa	0.07982822
108	0xbd813bcd	-0.06310234
109	0xbd0e8500	-0.034794807
110	0xbd9912d9	-0.07474298
111	0xbe17c7fd	-0.14822383
112	0x3da57387	0.08078676
113	0x3e1d818f	0.15381454
114	0x3cd10e3a	0.025519479
115	0x3d0870b6	0.033310615
116	0xbe005630	-0.12532878
117	0x3db7e817	0.089798145
118	0xbcf7c644	-0.030245908
119	0x3ce1b2f2	0.027551148
120	0x3d17af2f	0.037032302
121	0xbd74c247	-0.05975559
122	0xbe0bd3bc	-0.13654989
123	0xbd939d8a	-0.072077826
124	0x3e172529	0.14760269
125	0x3cd2df54	0.025741257
126	0x3c39d7e4	0.011342976
127	0x3ddf8f94	0.10916057
128	0x3c9c4cb7	0.01907955
129	0x3c8c32f1	0.017114135
130	0xbbe90932	-0.007111692
131	0xbe0680cd	-0.13135071
132	0xbd7cced9	-0.061720703
133	0xbd604b74	-0.054759458
134	0xbd106fb2	-0.03526277
135	0x3d6b3dfe	0.057432167
136	0xbd69ebd0	-0.057109654
137	0x3d145b19	0.03621969
138	0x3d873638	0.06602138
139	0x3d6d20f3	0.05789275
140	0xbcad08f7	-0.021122439
141	0xbc5421e2	-0.012947531
142	0xbc1bc5f0	-0.009507641
143	0x3dfd3bdb	0.12364932
144	0x3ddfc776	0.10926716
145	0x3d74e26b	0.05978624
146	0x3de8c113	0.11364951
147	0xbdb83395	-0.089942135
148	0x3da159b4	0.07878438
149	0xbdc50062	-0.09619214
150	0xbd762a46	-0.06009891
151	0xbd3d10b1	-0.046158496
152	0xbe23b28e	-0.15986082
153	0xbdaf2dea	-0.08553679
154	0xbda737c6	-0.08164935
155	0xbe10ebdf	-0.14152478
156	0xbdc8f54b	-0.09812411
157	0x3e454947	0.19266234
158	0xbc3fa7c2	-0.011697711
159	0xbd167c85	-0.036739845
160	0x3e443fee	0.19165012
161	0x3d3558f6	0.044274293
162	0xbe84de72	-0.25950962
163	0xbcc846f7	-0.024447901
164	0x3d864b19	0.065572925
165	0x3d565a5d	0.05233227
166	0xbe030bf4	-0.12797529
167	0x3cbfe712	0.023425613
168	0x3e46c70f	0.19411872
169	0x3d3b0139	0.045655463
170	0x3d0d4d51	0.034497563
171	0xbe45de38	-0.19323051
172	0x3d963258	0.07333821
173	0x3c9f92f5	0.019479254
174	0xbdb1124f	-0.0864607
175	0x3b1881bd	0.002327069
176	0xbdfaa81f	-0.12239098
177	0xbdfdc75f	-0.12391543
178	0xbd8c1a82	-0.068409935
179	0x3e0fa230	0.14026713
180	0xbbfc3d84	-0.007697763
181	0xbd1a2942	-0.037637003
182	0xbd889092	-0.066681996
183	0xbcb7b2bd	-0.022424096
184	0x3e118831	0.14212109
185	0xbd2f2c7b	-0.04276703
186	0xbd6887fc	-0.05677031
187	0xbe08efab	-0.13372676
188	0x3db8021d	0.08984778
189	0x3d24e480	0.040256977
190	0x3d65a9b4	0.056070045
191	0x3d90b866	0.07066421
192	0xbe07aaed	-0.13248797
193	0x3da08693	0.07838168
194	0x3c9264a2	0.017870251
195	0x3d70327b	0.058641892
196	0x3e088ce2	0.13334993
197	0x3cd803e5	0.026369045
198	0xbdbd27c4	-0.092361
199	0x3d3803fc	0.044925675
200	0xbe07cc19	-0.13261451
201	0x3d347fa5	0.044067044
202	0x3d50b396	0.050952516
203	0xbd8900f8	-0.06689638
204	0xbe0d3c65	-0.1379257
205	0x3d29fef3	0.041502904
206	0x3d3ab2f3	0.045580816
207	0xbd8ae679	-0.067822404
208	0xbd2e96f1	-0.042624418
209	0x3dbdc958	0.09266919
210	0x3d2d1b7b	0.042262536
211	0xbc1e0aab	-0.009646098
212	0xbd23bbea	-0.03997413
213	0xbd85bd1d	-0.06530211
214	0x3c420def	0.011844142
215	0xbc8e4e91	-0.017371448
216	0xbda2d4ce	-0.079507455
217	0xbe33a3b6	-0.1754292
218	0x3e5c472d	0.21511526
219	0x3da55021	0.08071924
220	0xbd3c080b	-0.045906108
221	0xbe31fde8	-0.17382014
222	0x3ddd78c1	0.108140476
223	0xbe0aa648	-0.13539994
224	0xbc00a833	-0.007852602
225	0x3e3229b2	0.17398718
226	0x3e22cbae	0.1589801
227	0x3dc7cc58	0.09755772
228	0x3e05fff1	0.13085915
229	0xbd2f83b4	-0.04285021
230	0x3e2e4d78	0.1702174
231	0xba4e230b	-0.0007863498
232	0x3cc3def5	0.023910025
233	0x3da923ff	0.08258819
234	0xbddd3333	-0.10800781
235	0x3d36c6b7	0.044623103
236	0xbccc593f	-0.0249449
237	0xbe3e7d23	-0.18602423
238	0xbdb48afb	-0.08815571
239	0x3d014545	0.0315602
240	0xbc95e598	-0.018297955
241	0x3d0fc7b9	0.03510258
242	0x3d8d987e	0.06913851
243	0x3befcdcd	0.0073182345
244	0xbe10065d	-0.14064927
245	0xbe2b44d2	-0.16725472
246	0xbd48dc2c	-0.049038097
247	0xbdc8b354	-0.09799829
248	0x3d299d6a	0.041409887
249	0x3d11bba9	0.035579357
250	0x3d98f937	0.07469409
251	0x3db520dd	0.08844159
252	0x3d15680e	0.036476187
253	0xbdae6eee	-0.08517252
254	0x3bf5fa3e	0.007506638
255	0xbc92c5b1	-0.017916532

bottleneck.4.weight f4 [32]
0	0x3f7cfbee	0.98821914
1	0x3f814406	1.0098884
2	0x3f816d21	1.0111428
3	0x3f870abd	1.0550152
4	0x3f86b3dd	1.052364
5	0x3f814f85	1.0102392
6	0x3f8301fe	1.0234983
7	0x3f85f7b6	1.046622
8	0x3f834a41	1.0257035
9	0x3f885b03	1.0652775
10	0x3f7df1ca	0.99197066
11	0x3f84442c	1.0333304
12	0x3f86eca4	1.0540967
13	0x3f84c93e	1.0373914
14	0x3f72c32a	0.94829047
15	0x3f80e223	1.0069011
16	0x3f8470b5	1.0346895
17	0x3f883b66	1.0643127
18	0x3f83eaa3	1.030598
19	0x3f8a3429	1.0797168
20	0x3f88c015	1.0683619
21	0x3f8396f2	1.028044
22	0x3f877526	1.0582626
23	0x3f8112ae	1.0083826
24	0x3f80dcfe	1.0067441
25	0x3f7d04b3	0.98835295
26	0x3f81f290	1.0152149
27	0x3f83bf02	1.0292666
28	0x3f8504d9	1.0392104
29	0x3f807761	1.0036432
30	0x3f84c796	1.0373409
31	0x3f85bc94	1.0448174

bottleneck.4.bias f4 [32]
0	0xbc30379e	-0.010755448
1	0xbb897f55	-0.0041960874
2	0x3c2b91e6	0.010471797
3	0x3d819220	0.06326699
4	0x3d586c87	0.052837875
5	0xbc3f5cd9	-0.011679851
6	0x3c761fa4	0.015022192
7	0x3d4761ea	0.048677363
8	0x3cc8ba68	0.024502948
9	0x3c92f4a7	0.017938925
10	0xbcabe588	-0.020983472
11	0x3b866e45	0.0041025006
12	0x3d5d352a	0.05400578
13	0x3d0ae01f	0.033905145
14	0xbd0addf8	-0.033903092
15	0xba55c108	-0.0008154069
16	0x3c8e1501	0.017344
17	0x3d8ac97a	0.0677671
18	0x3cf80e9f	0.03028041
19	0x3d5122b7	0.051058497
20	0x3d89edb7	0.06734794
21	0x3d4e5378	0.05037257
22	0x3d912e35	0.070888914
23	0x3cd58c96	0.026068013
24	0xbcd45a9d	-0.025922114
25	0x3c0f079e	0.008729843
26	0xbb84bc2d	-0.0040507526
27	0x3c5c3352	0.01343997
28	0x3cade5f2	0.02122781
29	0x3bd72b43	0.0065664365
30	0xbca02afc	-0.019551747
31	0x3d03b764	0.032157317
