experiments_multi/Brain_Tumor_Segmentation_Separate_Train_Val_20260208_100938/checkpoint_epoch_5.pth (torch, 141365 bytes, 56 tensors)

enc1.0.weight f4 [8, 4, 3, 3]
000000 88 52 23 3e e4 f0 45 3c b3 9d b9 bd 2c 1e b9 3e
       0.15949452 0.012081359 -0.09063282 0.36155832
000010 4c f3 a6 3d 65 8b 0c be 3e 50 75 be 20 34 8c 3e
       0.08151874 -0.1372505 -0.23956391 0.27383518
000020 4c 3a 57 3c 88 27 27 3e 55 1c 16 be bb c8 62 3e
       0.013136458 0.16323674 -0.14659245 0.22146885
000030 e8 b3 82 3d 0e bb ee bd f2 32 a0 3d 4b 9f 1d be
       0.06381971 -0.116567716 0.07822217 -0.15392797
000040 4c 2d 22 3e 85 b0 23 bd 85 31 b6 3d f3 fb ec 3d
       0.15837592 -0.039963264 0.08896164 0.11571493
000050 bb 60 ac 3c 42 2e d6 bd bb 59 27 3d 51 95 7d 3e
       0.021042218 -0.10458042 0.040857058 0.24763991
000060 e0 dd 92 3d 24 77 86 3d fd 8d 2d be e8 13 b4 bd
       0.071712255 0.06565693 -0.16948695 -0.08792859
000070 4f a5 69 be f6 46 5b 3e 21 8a c7 be 9c f8 bc 3c
       -0.22816966 0.21413788 -0.38972571 0.023067765
000080 8d a2 4d 3d 3a 40 1b 3e c1 ff 1e 3d 99 c2 a1 bd
       0.05020385 0.15161219 0.038818125 -0.07898445
000090 83 e5 f5 bd 60 b1 1c be b0 28 4e 3e c4 bf c2 3d
       -0.120066665 -0.15302038 0.20132709 0.09509233
0000a0 65 11 5f 3e 7a 13 34 be 67 a9 e3 bd f3 01 9c 3d
       0.21783979 -0.17585555 -0.11116295 0.07617559
0000b0 08 8a 47 bb a6 6c f7 bc f6 af 9a bd 85 81 9e bb
       -0.0030447263 -0.030203175 -0.07553093 -0.0048372173
0000c0 06 58 21 3e a1 5c fe 3c 2a 28 3a 3e db eb df 3d
       0.15756235 0.031050028 0.18179384 0.10933658
0000d0 5a f1 2c 3e af 89 ec bc d7 56 8c 3e a0 4c 62 3e
       0.16888943 -0.028874246 0.27410004 0.22099543
0000e0 6a cb 36 be 40 ea 3d be d3 7f 74 3e e1 d7 03 be
       -0.17851034 -0.1854639 0.23876886 -0.1287532
0000f0 37 18 cb 3d 2e 7b 9d 3c a2 9e d8 3d bc 10 3e bd
       0.09916728 0.019223776 0.10577132 -0.046402678
000100 d7 a9 d6 3d 53 77 64 3e b3 5d 81 bd 16 28 93 3c
       0.10481613 0.22311144 -0.063167 0.01796345
000110 33 f2 8c 3e a5 0a 0d be 51 ef ac be 4e c1 4e bd
       0.27528533 -0.13773592 -0.33776334 -0.05047732
000120 f7 5e 40 be bf a4 1c be f6 37 9c bc e1 7b af 3c
       -0.18786226 -0.1529722 -0.019069653 0.021421375
000130 67 48 76 3e 26 9a 0c 3e f6 15 ac 3c 62 26 35 be
       0.24051057 0.13730678 0.021006566 -0.17690423
000140 cd 08 66 be 6c 27 02 3e 82 7e d9 3d 87 6e c1 bd
       -0.22464295 0.12710351 0.106198326 -0.094449095
000150 4e fd 28 be 3e 64 6f be 7b 48 ba 3d dd a7 8d bd
       -0.16502878 -0.23378083 0.09095856 -0.06916783
000160 ea d0 2c 3e 2f 96 0c be b2 54 7d 3e 1c f7 81 bd
       0.1687657 -0.13729165 0.2473934 -0.063459605
000170 5f ed 72 bc 30 8b 31 3e 4f 4d 16 be 41 9a 90 3e
       -0.0148271015 0.17338252 -0.14677928 0.28242686
000180 47 01 ec bd 83 08 07 3e ea bd 72 3d 23 6b 52 3e
       -0.11523681 0.1318684 0.059263147 0.20548682
000190 9e 24 47 be ad d6 86 3d b8 39 62 be 3d b7 6e 3d
       -0.19447562 0.06583915 -0.2209233 0.05828022
0001a0 ca b6 ea bd 6c 9b 00 bf 3d a5 95 be a3 e8 ec bc
       -0.114606455 -0.50237155 -0.2922763 -0.028919524
0001b0 a9 1a 8e be 35 62 8f be 90 20 d2 bd 39 e6 92 3d
       -0.27754715 -0.28004614 -0.10260117 0.07172818
0001c0 11 08 de 3d f5 a2 a1 3d 9e d0 42 3e 94 73 d4 3d
       0.10841382 0.0789241 0.19024894 0.10373607
0001d0 42 99 d6 bd 13 25 68 bd f9 8f 50 3d 52 4b 45 bd
       -0.1047845 -0.05667598 0.050918553 -0.048167534
0001e0 7f 6b 2f bd 67 da 1c 3d bd be 9d bd ff 42 bc bd
       -0.042827126 0.038294222 -0.07702396 -0.09192466
0001f0 fd 9c 75 3d f1 e1 0d bc 14 d0 d4 3d 23 a5 00 3e
       0.05996417 -0.008659826 0.1039125 0.12562995
000200 04 5e 96 3d 12 91 2f bd f1 3f e2 3d 61 c4 d6 bd
       0.07342151 -0.04286296 0.11047352 -0.10486675
000210 3a b9 9a bc 38 ae 5c 3e bd 70 d9 bd 23 c6 32 be
       -0.018887151 0.21550834 -0.10617206 -0.17458396
000220 db 41 4e bd 0c e5 5a 3e ac e9 85 3e ee 4d 14 be
       -0.050355773 0.21376437 0.2615484 -0.14482853
000230 07 2b 94 be b8 93 10 bd 82 f2 7e 3d 06 b1 1d bd
       -0.28939077 -0.035297126 0.062242992 -0.0384989
000240 51 48 79 3e da 88 78 3d d3 e8 d3 be de d0 a0 bd
       0.24343993 0.060677387 -0.41388568 -0.07852338
000250 f1 3c c5 3d 9e 2b 5b 3d 57 16 63 be 6c a3 37 bd
       0.09630764 0.053508393 -0.2217649 -0.044833586
000260 9b 4c 01 bd ab 76 2a 3d 8e 42 47 bd 76 56 75 3e
       -0.031567197 0.041617077 -0.048647456 0.23958763
000270 eb b6 af 3d e3 45 af bd 31 bd 66 ba e3 42 80 3d
       0.08579811 -0.08558252 -0.00088019954 0.06262758
000280 e3 e0 8e 3e fd 56 a7 be 0b 52 91 3e 22 f1 74 bd
       0.2790595 -0.32683554 0.28382906 -0.059800275
000290 1a e1 f2 bc f5 2c e1 3c 1b a6 8b 3e 2e 46 8c be
       -0.029648352 0.027487257 0.27275166 -0.27397293
0002a0 62 b4 ae 3c da b4 7c bd 23 c6 a8 be 2c 40 2b 3d
       0.021326248 -0.06169591 -0.32963666 0.041809246
0002b0 77 d5 6a 3c 12 cd 81 3d fc c1 d1 bc 4b eb 26 be
       0.014333121 0.06337942 -0.025605194 -0.16300695
0002c0 84 9b 1b bd b1 25 91 bd 5c 00 4d 3e 9a 79 f1 bc
       -0.037990108 -0.07087267 0.20019668 -0.02947693
0002d0 9e 89 4f ba 7b 59 8d 3d 63 40 2f 3e 2e 40 8b bd
       -0.000791693 0.06901833 0.17114405 -0.06799351
0002e0 90 7d 69 3d 87 e5 db 3d 34 57 eb bd 30 bd 92 be
       0.05700451 0.10737138 -0.11491242 -0.28659964
0002f0 9c 47 f9 3c bf 7b f5 3c 5e 2c 5d be 70 5b 5f be
       0.030429654 0.029966233 -0.21598956 -0.21812224
000300 04 1d a0 bd c0 48 bb 3d ef 0c 9b 3d 41 37 4b be
       -0.07818034 0.09144735 0.07570826 -0.19845296
000310 e8 09 90 bc db 96 82 be 0d 8c b6 bd d1 ed ca 3d
       -0.017582849 -0.2550572 -0.08913431 0.09908641
000320 54 7a 1f be cc 56 72 3d 64 9b 80 3d f2 00 0d 3d
       -0.15574008 0.059164807 0.062796384 0.03442473
000330 35 52 2a bd 0e 34 d7 bd 55 9a ee bd 55 46 2a 3e
       -0.041582305 -0.105079755 -0.1165053 0.16628392
000340 64 c1 8a bd 72 82 d3 bc a0 1b e9 bc a4 10 1c be
       -0.067751676 -0.025819037 -0.028455555 -0.15240723
000350 19 a2 55 bd 9f 0d 83 3e ef 5e 73 bc ca a9 58 3e
       -0.05215654 0.2559633 -0.014854177 0.2115852
000360 79 31 25 3d ed 60 da bc 76 fb 5f bc f3 16 3e be
       0.040330384 -0.026657546 -0.013670793 -0.18563442
000370 e9 f9 9c bc e1 42 fb 3d 4e 8f 55 3e 0a 4f c2 bd
       -0.019162135 0.122686155 0.20855448 -0.09487732
000380 11 eb 75 3e fa b8 1f 3e 22 dc ea 3c bb bd 36 3e
       0.24015452 0.15597907 0.02866942 0.17845814
000390 c5 50 a2 3e b9 d8 4c 3e fb 0a 3f be a5 db c0 bd
       0.31702247 0.20004548 -0.18656532 -0.09416894
0003a0 c4 78 52 3e 15 c1 3b be 47 44 ce 3d c0 5d b0 bd
       0.20553881 -0.18335374 0.100716166 -0.086116314
0003b0 b6 a5 dc 3c cd cc a9 3e 99 c8 87 3d fc 7c 17 bd
       0.026934486 0.33164063 0.06630058 -0.03698443
0003c0 88 f2 91 3e 50 7d ad bd 86 7b 50 be 8c a1 9b 3d
       0.2850535 -0.08471167 -0.2035962 0.07599172
0003d0 c8 20 be 3c 72 5b fe 3c 76 ff f7 bd f9 b0 ab bd
       0.02320899 0.031049464 -0.12109272 -0.08383364
0003e0 7e c4 97 be 12 d7 6b be 85 a1 be bc 53 f5 30 3e
       -0.296421 -0.23031262 -0.023270378 0.17281084
0003f0 19 74 7b 3e b0 f5 59 3e 1d 71 23 bd c1 b9 87 bd
       0.24556006 0.21285129 -0.039902795 -0.066272266

enc1.1.weight f4 [8]
000000 bb d5 7d 3f ef b6 7f 3f e7 f1 7c 3f ab 1e 82 3f
       0.9915425 0.9988851 0.98806614 1.0165609
000010 d7 b5 7d 3f 37 e0 7f 3f 74 6e 80 3f 46 79 81 3f
       0.9910559 0.999515 1.0033708 1.0115135

enc1.1.bias f4 [8]
000000 0f ba f2 bb 3b 14 3a 3c 0c d3 5f bc 8b 4d 9e 3c
       -0.007407434 0.011357362 -0.013661157 0.019324085
000010 79 a1 06 bc cc 00 38 39 49 72 a2 3c 6b 4c 0d 3d
       -0.008217209 0.00017547904 0.019829886 0.034496706

enc1.1.running_mean f4 [8]
000000 af 17 01 3e cd eb 20 3e a0 a9 40 be 6f c2 59 bd
       0.12606691 0.15714951 -0.18814707 -0.053163942
000010 08 a7 2c bd b0 1b 0b be 20 d6 17 3e ba d8 89 3e
       -0.04215148 -0.1358478 0.14827776 0.26923162

enc1.1.running_var f4 [8]
000000 5e 7d 42 3d 33 6c 98 3d 40 98 ee 3d a5 27 45 3c
       0.04748284 0.07442512 0.11650133 0.012033378
000010 b1 a6 02 3c 97 7b 66 3d 5f 9f 89 3d 3d 0e 6f 3e
       0.007974313 0.05627021 0.06719851 0.23345275

enc1.3.weight f4 [8, 8, 3, 3]
000000 59 3b 34 3e 3a 24 6a 3e f4 5b ed 3d 18 6c 85 be
       0.17600764 0.22865382 0.11589804 -0.2605903
000010 32 0f f5 3d a2 ae c7 be 05 b6 19 3e 59 3d b1 bd
       0.11965789 -0.39000422 0.15010841 -0.08654279
000020 dc 95 1e be 6a 2c 86 be e8 e5 63 3c 98 40 9e bd
       -0.15486854 -0.2620576 0.013909794 -0.07727164
000030 3f f9 98 3e fe 78 fd 3d ae c0 8a be 71 e7 99 3c
       0.2987766 0.12376593 -0.27100128 0.018787118
000040 8c cb 46 be 4e 23 87 3e f8 eb da bc 29 cb c3 bc
       -0.19413584 0.26394123 -0.026723847 -0.023900585
000050 22 af a7 be a6 b9 57 3e 73 0a 28 3e 28 c5 8b be
       -0.32750803 0.21066913 0.16410236 -0.27298856
000060 27 6c 7c 3e fc 95 df bd a8 1d 5d 3e 89 47 02 bd
       0.24650632 -0.10917279 0.21593344 -0.031806502
000070 d5 41 3b bc ed d4 16 be b3 ed ac 3d c9 bd 08 be
       -0.01142927 -0.14729662 0.08443775 -0.13353647
000080 bd 38 01 3d c9 89 56 bb f8 f1 1c be e9 a2 97 be
       0.03154825 -0.0032735935 -0.15326679 -0.29616478
000090 25 92 56 be 73 44 57 3c 6e 20 7a bd 39 ac 7a be
       -0.20954187 0.013138878 -0.061066084 -0.2447976
0000a0 1e 1f 58 3e 12 e6 d7 bc d2 0e 48 bd 25 fb 9b 3d
       0.2110562 -0.026354823 -0.04884226 0.076162614
0000b0 de 50 a7 be f9 f4 49 3d e3 60 e0 bd 95 d2 ae bd
       -0.32678884 0.04930589 -0.1095598 -0.08536259
0000c0 45 cc 77 3b 32 b2 e6 3b 1d ed 02 be c8 d6 8a 3d
       0.0037810963 0.0070402855 -0.12785764 0.067792475
0000d0 89 63 c4 3d fc 53 9f 3d bb ca 4b be c6 cd 26 3e
       0.09589297 0.077796906 -0.19901554 0.16289434
0000e0 b7 c5 96 bd 6f 32 31 3e f6 fe 3f 3e e1 ab d5 3e
       -0.0736193 0.17304395 0.18749604 0.41732696
0000f0 10 69 3e 3e 62 60 90 3d 32 4a 6b be db 84 4e 3e
       0.18594766 0.070496336 -0.22977522 0.20167868
000100 8c 14 6a bd a8 76 35 be 67 69 bc 3c a2 2b bc 3e
       -0.0571485 -0.17721045 0.022999479 0.3675204
000110 d7 be c3 3d 7c 6b 1f 3e 40 f8 10 3e c9 ea 78 be
       0.09557884 0.15568346 0.141572 -0.24308313
000120 d1 f8 c2 3d c1 1e e5 bd 4f c0 94 3e 1a d8 49 3d
       0.09520114 -0.111875065 0.2905297 0.049278356
000130 27 53 10 3d 95 d3 ee bd c8 40 cc 3c da 35 69 3d
       0.03523555 -0.1166145 0.024933234 0.056936122
000140 07 6f e2 3e 9c ae 81 3c b2 cb 11 be f1 9d 2c 3e
       0.44225332 0.01583033 -0.1423786 0.16857125
000150 8e a0 2b 3e 62 b1 ae 3d b8 2b 90 3d 48 ce 5c 3e
       0.16760466 0.08529927 0.07039589 0.21563065
000160 66 86 89 3c 14 5e d3 3d 81 cf 9c 3c fe a0 1d ba
       0.016787719 0.10320678 0.019141914 -0.00060130644
000170 1d ba 63 3e bc a7 66 be 66 18 68 bd c8 aa f7 3d
       0.22238965 -0.22524923 -0.056663893 0.12093121
000180 c3 38 ab 3d b6 bd a2 bc b2 f5 38 3e 6a e1 2a bb
       0.08360436 -0.019865852 0.18062475 -0.0026074299
000190 f8 10 11 3e 80 eb 4a 3e dc de 56 3d b2 71 82 bc
       0.1416663 0.19816399 0.05245863 -0.015923355
0001a0 82 94 57 be 0a 89 c6 bc 87 d6 c5 bc de 79 66 3e
       -0.21052745 -0.024235267 -0.024150146 0.22507426
0001b0 97 46 c7 be ab 7f 37 be 85 c6 fa 3d 84 67 f7 3d
       -0.38921043 -0.17919795 0.12244896 0.12080291
0001c0 79 7f 08 3e cb da 3d 3d be 48 7f 3d 59 fb 2e 3b
       0.13329877 0.046351235 0.06232523 0.0026700108
0001d0 3e 69 b0 3e 75 7d 70 3e 69 d3 4b 3e f7 72 42 bd
       0.34455293 0.23485358 0.19904865 -0.04747292
0001e0 dc 00 eb b9 30 ab ea 3d c4 52 1b be 5b ad f0 bd
       -0.00044823333 0.11458433 -0.15168291 -0.11751815
0001f0 3b 62 93 3d ae 04 0f 3d fb 3d c4 3d 30 2c 5f 3e
       0.0719647 0.034916572 0.09582134 0.217942
000200 c7 55 86 3d 15 53 14 3e 93 20 84 3e 5b 06 58 bc
       0.065593295 0.14484818 0.25806102 -0.013185109
000210 34 b2 99 be c3 0e b1 3e ae 7a bc 3d 2a dd bd bd
       -0.3001877 0.34581575 0.09203087 -0.09270699
000220 6e bb b3 be 88 92 c9 3e 9a 44 2c 3d 9e cf 84 3e
       -0.35103935 0.39369607 0.04205761 0.2593965
000230 c4 91 28 3e bf e5 b1 3e 8d 78 31 be 4d 3f 61 3c
       0.16461855 0.34745595 -0.17331143 0.013748002
000240 3b 3b 1e be 0e 5b 23 3e 7b 0e ce bb dc 77 76 bd
       -0.15452282 0.15952703 -0.0062883473 -0.0601729
000250 c1 4c b6 be c4 10 b9 3d 47 a1 ba 3d 7b 81 df 3d
       -0.35605434 0.09036401 0.091127925 0.10913368
000260 bd 3f 61 be 4b 11 66 3e ab 8a 6e 3d 93 a3 07 3e
       -0.2199697 0.22467534 0.058237713 0.13245992
000270 94 06 71 be b4 92 dd 3d 92 65 0b 3e 8b cd fa bd
       -0.23537666 0.10818997 0.13612965 -0.122462355
000280 cb 01 ef 3d 11 d9 a8 bd 43 74 4c bd 00 08 42 3e
       0.11670264 -0.08244527 -0.049915563 0.18948364
000290 7b ae 20 3e 96 e9 f1 3b 7b 57 8e be f1 65 0b be
       0.15691559 0.007382582 -0.27801117 -0.13613106
0002a0 5e a7 42 be e7 f5 97 3d ba 24 d2 bd 75 63 b5 3d
       -0.19009158 0.07419949 -0.10260911 0.088568605
0002b0 0a 26 bb 3e 4a 11 32 3d 2e ee 6a 3e 8b fa 12 3e
       0.3655246 0.04347352 0.22942421 0.14353387
0002c0 65 04 e0 bc f8 cb 00 be 98 94 14 3e 5d ae e1 bd
       -0.027345845 -0.12577808 0.14509809 -0.11019585
0002d0 53 18 3b 3e ee 94 2e 3e 2d 20 49 bd 1c 92 0a be
       0.18270998 0.17049 -0.04910295 -0.13532299
0002e0 22 59 ae bd c9 c1 82 be 14 d9 79 3e 47 d7 c3 3d
       -0.085130945 -0.2553847 0.24399215 0.09562545
0002f0 fc 55 74 3d 19 0d 98 3d 2c 82 1f 3e fb d7 69 3e
       0.059652314 0.07424373 0.15577 0.22836296
000300 b8 8a b6 bd 01 e6 27 be 41 2a c2 3d 77 8b 8f be
       -0.08913177 -0.16396333 0.094807155 -0.2803609
000310 ca 91 b6 bd 43 4b a1 bc 4e 91 37 3e 8b 58 77 bd
       -0.08914526 -0.019689208 0.17926523 -0.060387176
000320 27 a6 55 3e 13 cf 1c bc 8f ee 09 bd 10 1b 08 3e
       0.20864163 -0.009570855 -0.033674773 0.13291574
000330 33 65 d4 3e 5b 04 02 be 6f ff 7c be ed 74 a3 3e
       0.4148346 -0.12696974 -0.24706815 0.31925145
000340 87 f1 a0 3d 4a ab bb be d7 48 2f be 65 ef 0c 3e
       0.07858568 -0.3665412 -0.1711763 0.13763197
000350 63 5c a9 bd ab cd 77 3e ec 1c 1b be 83 38 98 bd
       -0.082695745 0.2419955 -0.15147752 -0.07432654
000360 c3 92 c9 3e 7c 30 fb 3d 70 b5 53 3e a1 9d 7c 3d
       0.39369783 0.12265107 0.20674682 0.061673764
000370 39 dc 2b 3e 00 56 72 bd f3 f9 1f 3e 3c 06 68 bd
       0.16783227 -0.059164047 0.15622692 -0.05664657
000380 22 52 30 be 8c 2b df bd e2 ff d7 3c b4 d6 95 3d
       -0.17218831 -0.10896978 0.026367132 0.07316342
000390 5e f5 2c 3e bb 9f 44 be b6 96 9c 3e 4c bb 62 be
       0.16890475 -0.19201557 0.30583733 -0.2214176
0003a0 8f 66 ca bc 8a 41 fc 3b 31 d0 dc 3c ba 00 45 be
       -0.024707107 0.0076982426 0.026954742 -0.19238558
0003b0 20 9d f7 3c 1f d6 66 bd 42 16 38 3e f1 28 15 3e
       0.03022629 -0.056356546 0.1797724 0.14566399
0003c0 43 e3 c9 3d e8 0e 91 3c cc 51 77 3d 9f f4 a0 3e
       0.098578 0.017707303 0.060380742 0.3143663
0003d0 ae c7 8c 3e a4 dd 87 3d 72 a4 67 bd 6e 8b f7 3d
       0.27496094 0.066340715 -0.05655331 0.12087141
0003e0 b8 77 eb be c8 3d 8a bd 93 33 32 be c6 ea 22 3e
       -0.45989776 -0.06750065 -0.17402487 0.15909871
0003f0 ac 4e 28 3d 59 1b e9 bd 58 21 95 3d 95 eb 39 be
       0.041090652 -0.11382169 0.072817504 -0.18156274

enc1.4.weight f4 [8]
000000 ee 52 80 3f e0 9a 79 3f d3 55 82 3f eb c9 7d 3f
       1.0025308 0.97501945 1.0182441 0.9913623
000010 b5 f5 7d 3f 05 58 81 3f 7c d2 80 3f ea 88 7f 3f
       0.99203044 1.0104986 1.0064235 0.9981829

enc1.4.bias f4 [8]
000000 01 0a 8b 3c 43 54 85 bc d3 95 84 3c ec 47 c4 3a
       0.016972544 -0.01627553 0.016184723 0.0014975048
000010 2c 79 2f bc 02 38 20 3b 35 90 60 bc 9a bb c7 bb
       -0.010710042 0.0024447446 -0.013706257 -0.006095362

enc1.4.running_mean f4 [8]
000000 a0 5d 1d bd af 71 e2 3f 49 fb c5 3e d6 b6 8e 3f
       -0.038419366 1.7690943 0.38668278 1.1149547
000010 b8 8b 7a 3f d2 ff d9 bb b8 c3 45 3e 84 93 d6 3d
       0.97869444 -0.0066528106 0.19312942 0.10477355

enc1.4.running_var f4 [8]
000000 a2 b4 85 3f 47 10 7d 40 00 c4 de 3d c1 a6 1b 40
       1.044575 3.9541185 0.10877228 2.4320529
000010 e7 a1 91 3f 19 ab 84 3f 51 7d 9f 3e ca b9 7f 3e
       1.1377534 1.0364715 0.31150296 0.24973217

enc2.0.weight f4 [16, 8, 3, 3]
000000 ed 03 b6 3d c9 31 12 be c1 c1 ab bd f0 5a 45 be
       0.088874675 -0.14276804 -0.08386565 -0.19272971
000010 98 86 3d bd c2 39 97 3d eb a9 0b be ae 8d a0 bd
       -0.046270937 0.07384063 -0.13639037 -0.07839523
000020 74 0f 90 bc 66 0a de bc 05 cf 20 bd b6 42 56 bd
       -0.017585494 -0.027104568 -0.03925993 -0.052309714
000030 7e 6b 89 3e ef c8 83 3d 1b a3 70 be 8f 3c a4 bd
       0.26839823 0.064348094 -0.2349972 -0.08019363
000040 a0 0c dc bd cc 05 05 3e 7b 66 16 be 08 f5 27 be
       -0.107445955 0.12990493 -0.1468753 -0.16402066
000050 58 81 0b be 9d 0c 2f 3b a2 3e c3 bd 20 e2 d5 3d
       -0.1362356 0.00267104 -0.09533431 0.104435205
000060 0f 8a 27 be 6c 8f 43 be 6b 6f 3a be ba a3 21 3e
       -0.16361259 -0.1909768 -0.18206565 0.15785113
000070 69 cf 17 bd d7 34 fb bd 6d f2 bd 3d 03 b0 66 3d
       -0.037063036 -0.12265938 0.09274755 0.0563202
000080 9a d5 35 3e 9f 45 be bd f2 1d e9 3d 5f 28 6e 3d
       0.17757264 -0.09290623 0.11382665 0.05814397
000090 5f 99 95 3e 21 0c 38 bd b8 35 f8 3d f2 85 97 3d
       0.29218575 -0.044933442 0.12119621 0.07398595
0000a0 0b 16 cd bd bf 3f 5b 3c 66 4f a8 3c 5c 64 b9 3d
       -0.1001397 0.0133818975 0.020545673 0.09052345
0000b0 48 51 54 bd b6 1c c7 3d 9c e1 16 3d b8 ac 29 3e
       -0.05183533 0.09722273 0.03683625 0.16569793
0000c0 36 84 f5 bd 71 3e 0f 3e 62 33 b5 3c 05 cc b8 bd
       -0.11988108 0.13988663 0.022119228 -0.09023289
0000d0 5e 5b 1e bd 09 2f 1f 3e 94 2d 90 bd 35 17 3a 3e
       -0.038661353 0.15545286 -0.07039943 0.18172915
0000e0 7f 5c 10 bc 29 f7 37 3d cd ed ae 3e 75 8d 85 3d
       -0.008811115 0.044913445 0.34165803 0.065211214
0000f0 63 66 da bb 1c 7e 5b bc 60 a7 08 bd 46 49 e6 3d
       -0.0066650375 -0.013396766 -0.033362746 0.112444445
000100 32 72 6a bd 01 d9 3b bb 22 8b 15 3e a6 78 d9 bc
       -0.05723781 -0.002866328 0.14603856 -0.026546787
000110 75 e7 27 bd 0a 0e 23 3c a1 7d f9 bc cd 17 1b 3c
       -0.04099222 0.009952078 -0.030455412 0.009466124
000120 b2 74 03 be bb 0c 83 bd 4d 05 27 be ed 97 29 be
       -0.12837484 -0.063989125 -0.16310616 -0.16561861
000130 c5 2e af bd 78 90 f5 3d d3 49 1a 3d a5 34 e7 bd
       -0.085538425 0.11990446 0.03766806 -0.11289338
000140 dd 6d 04 3e 50 b4 2c 3e 2b 42 14 3e 3c 08 68 3d
       0.12932535 0.16865659 0.14478366 0.056648478
000150 81 cc c7 bd 6b 8f 77 3d 8a e3 70 bc b8 0d 43 be
       -0.09755803 0.06043951 -0.014702687 -0.19048202
000160 2a 8a 90 3d 05 58 75 3e cb 78 0a bd d3 7d cf bd
       0.07057603 0.23959358 -0.033806603 -0.10131421
000170 00 64 25 3d f7 0d a2 bc c1 82 de bc 10 81 9d bd
       0.04037857 -0.01978205 -0.027161958 -0.07690632
000180 04 e4 e5 3d 1c 84 a1 bd 08 49 14 3d 80 c6 81 3d
       0.11225131 -0.07886526 0.03620246 0.06336689
000190 e0 bc 17 be 05 2f 7d bc a3 0a b6 bc fc 78 de 3c
       -0.14818144 -0.015453105 -0.022221869 0.0271573
0001a0 c3 7c b4 bb a6 55 f0 bc d4 1d 1e 3e 1b c8 9c bd
       -0.005508037 -0.029337715 0.15441066 -0.076553546
0001b0 92 8c 14 be ff be 84 be 09 e9 27 3d d5 7b d6 bd
       -0.14506748 -0.25926968 0.040993724 -0.10472838
0001c0 98 15 86 3d 1b 3c 0c be a3 8e 0c 3c f1 e2 7c be
       0.065470874 -0.13694803 0.008578929 -0.24695946
0001d0 33 30 94 3c 16 79 51 bd 3e 98 a1 3d 6e 1a 30 be
       0.01808939 -0.051140867 0.07890366 -0.17197582
0001e0 ab 86 55 bc 5d 1c 2a bd 5b 79 36 be 0a 8f 1c 3e
       -0.013032596 -0.041530956 -0.17819731 0.1528894
0001f0 2a 17 44 3c e3 ec bd 3d 40 ac c1 3a f4 36 93 3d
       0.011968413 0.09273698 0.0014776066 0.07188216
000200 94 ce de 3c fa 89 8e bd 74 10 57 be c7 0b ac bc
       0.027198114 -0.06959911 -0.2100237 -0.02100171
000210 4d a2 61 be c7 a9 b7 3d 06 1a 1e 3d e8 b2 b9 bc
       -0.22034569 0.08967929 0.038599037 -0.022668317
000220 fb 2e 5c 3e 8e 1a 0f 3e ef 93 c7 bd f0 3e 2e 3d
       0.21502297 0.13974974 -0.09745013 0.04254049
000230 ac 84 cc 3c 3a dd cf bd e0 34 6b bd ae da 57 bd
       0.024965607 -0.101496175 -0.057423472 -0.052698784
000240 47 e7 88 bd 6f c9 09 3e 88 e4 5a be 2b d2 04 be
       -0.06684738 0.13455747 -0.2137624 -0.12970798
000250 64 9d de bd 61 46 bd bd 3d b6 b3 3d b5 a7 41 be
       -0.10869864 -0.09241939 0.087749936 -0.18911631
000260 75 81 5c 3d cd a5 69 be dc d2 8f 3d e2 d9 39 3d
       0.053834397 -0.22817154 0.0702264 0.045373805
000270 76 c5 1f 3d 6b ba 96 3d 72 00 3b bd 20 8e 8e bd
       0.039006673 0.07359775 -0.04565472 -0.06960702
000280 ed c4 ed bd 21 24 2d 3d 95 86 97 be 2f 66 b4 bc
       -0.11609826 0.042270783 -0.29594865 -0.022021381
000290 00 b2 d7 bd 04 df 1b 3c fb 1d ab bd 63 20 3f bd
       -0.10531998 0.00951362 -0.08355328 -0.046661746
0002a0 b5 22 61 3e c8 e8 2b 3c 89 92 29 bd 46 4d 93 3d
       0.21985896 0.010492511 -0.041399512 0.07192473
0002b0 2c 7c 8b bd a2 23 dc bd 68 33 11 3e fe 91 3a 3e
       -0.06810793 -0.10748984 0.14179766 0.18219754
0002c0 0e 32 0a be b0 9a f8 bc dc c5 60 3d 97 fe 1b be
       -0.13495657 -0.030347198 0.054876193 -0.15233837
0002d0 76 3e e7 bd 9e ac 58 3d e2 73 78 3d 8d 5b 66 3d
       -0.1129121 0.052898996 0.06065739 0.056239653
0002e0 83 e6 c8 bc 52 c4 74 bd 03 a1 30 bd 39 7d 33 3e
       -0.024523979 -0.05975754 -0.043122303 0.17528237
0002f0 e3 e7 31 be f6 a5 2a bd c0 5d 19 bd c4 d3 97 3d
       -0.17373614 -0.04166218 -0.037442923 0.07413438
000300 ff 86 84 3d 02 7d 2c 3d 97 42 c9 3d 6c 2e f9 3c
       0.06471061 0.042111404 0.09827154 0.030417643
000310 68 75 01 3d 4e c7 d0 bc 31 30 7d bd 8a 69 38 be
       0.031606108 -0.02548566 -0.061813537 -0.1800901
000320 28 dc 70 be cf 7f 0f 3e 0b 79 34 be ef 1b 10 be
       -0.23521483 0.14013599 -0.17624299 -0.14073156
000330 4b 24 91 3d 1d 13 fe bc 32 86 cc 3d 01 0d 42 3e
       0.070870005 -0.031014973 0.09986533 0.18950273
000340 53 9b ef 3d f5 e9 3b be 1b 14 01 be fd 07 1e 3e
       0.116995476 -0.18350966 -0.12605326 0.15432735
000350 2f b9 e6 3d 84 80 d3 bd bd f6 81 be a7 92 50 3d
       0.1126579 -0.10327247 -0.2538356 0.05092111
000360 e4 34 0b be e6 05 a2 bb 53 49 8f 3d f3 ce 1e be
       -0.13594395 -0.004944551 0.06996407 -0.15508632
000370 6a fe 89 3e b9 f1 79 3d 50 e7 11 be 07 8e 38 be
       0.26951915 0.06102154 -0.14248395 -0.18022929
000380 00 68 63 bd 66 da 20 3e 86 0f 21 be b0 45 91 bb
       -0.055519104 0.15708312 -0.15728578 -0.004433356
000390 3c 52 4d bd 1d 4a 13 3d 5f 06 1d be a9 1e 8a bd
       -0.050127253 0.03595935 -0.15334462 -0.06744129
0003a0 be be 15 bb 3f db 2b bd 92 69 e0 bd 61 38 5b bd
       -0.0022849287 -0.041957136 -0.10957636 -0.053520564
0003b0 a5 f9 a5 bd 2d 84 19 3e bb 63 08 be 2a 16 0e 3e
       -0.081042565 0.14991827 -0.13319294 0.13875642
0003c0 6f 4e 0d bd 7a 83 6a 3e eb aa 6b 3d 40 13 c2 bc
       -0.03449863 0.22901717 0.057536047 -0.02369082
0003d0 72 24 54 3e 47 f8 2e be 02 fc d2 bc 2b 7e a1 3d
       0.20717028 -0.17086898 -0.025754932 0.07885393
0003e0 b4 46 41 3d 9a cb bb 3d 02 21 31 3d cd 5a 62 be
       0.04718657 0.09169693 0.04324437 -0.2210495
0003f0 b1 2a fd bd 46 4f bc 3d e1 0c 62 bd f8 d3 ba bd
       -0.12361658 0.09194808 -0.055188064 -0.09122461

enc2.1.weight f4 [16]
000000 cc 04 80 3f bd 2b 81 3f e1 fb 80 3f 44 26 80 3f
       1.0001464 1.0091473 1.0076867 1.0011678
000010 a9 58 80 3f 51 2c 80 3f 1c 5f 81 3f 3b e8 80 3f
       1.0027057 1.0013524 1.010715 1.0070871
000020 9e 59 81 3f 6a 58 7d 3f cb ba 7f 3f 11 23 81 3f
       1.0105474 0.98963034 0.998944 1.0088826
000030 e5 67 7d 3f 7c 54 7d 3f d5 d1 80 3f 02 fe 80 3f
       0.98986655 0.9895704 1.0064036 1.0077517

enc2.1.bias f4 [16]
000000 60 58 fd ba b5 b1 c4 3b a6 e1 9d 3b 38 96 2f 3b
       -0.0019328706 0.0060026296 0.004818159 0.0026792418
000010 ba 71 54 bb a0 d6 04 bb ac 54 a7 3b d5 8a f4 3a
       -0.003241642 -0.0020269528 0.005106529 0.0018657098
000020 58 be 15 39 1e af 66 bc c2 64 ff bb 2b c4 d4 3b
       0.00014280656 -0.014079837 -0.0077939937 0.0064931116
000030 e0 08 5f 37 ec 88 1a bc 3a f0 56 3b 89 36 ae 3c
       1.3293902e-05 -0.009432059 0.0032796995 0.021266239

enc2.1.running_mean f4 [16]
000000 3e 2f 96 3d 2e 4a 15 bf fd 1d 2c bf c7 86 82 be
       0.073332295 -0.58316314 -0.6723326 -0.25493452
000010 73 92 7d be 8d a3 e5 be c6 75 a2 bd 45 d8 2b 3f
       -0.24762897 -0.44851342 -0.0793262 0.67126876
000020 a0 02 1e 3f 4a 18 e0 be 5a 7a 0c 3f 66 d5 3e bf
       0.61722755 -0.4376853 0.54874194 -0.7454437
000030 47 d8 d0 be fc 17 3b 3e 9e 76 76 bf c4 f1 84 be
       -0.40790007 0.18270868 -0.96274745 -0.25965703

enc2.1.running_var f4 [16]
000000 60 14 37 3f 87 5f 15 3f 20 24 76 3f 0d c5 d2 3e
       0.71515465 0.5834889 0.9614887 0.41165963
000010 ec 3b aa 3d 8e b6 8b 3f 32 0f 91 3e dd a2 8a 3e
       0.083122104 1.0915086 0.28331906 0.2707738
000020 97 34 01 3f 46 af 25 3e d7 2e 98 3f ad 8d f0 3e
       0.5047087 0.16180143 1.1889294 0.4698309
000030 86 00 f3 3d 46 a7 36 3e 5b dd 64 3f 9f 9b 1b 3e
       0.11865334 0.17837247 0.8940026 0.15196083

enc2.3.weight f4 [16, 16, 3, 3]
000000 a4 f3 0e 3d bc c6 30 bd be c9 aa bd e0 94 29 be
       0.034900323 -0.043158278 -0.083392605 -0.16560698
000010 6a 74 90 bc 2a 3f 6d ba d9 e5 23 3d 1f 36 af 3d
       -0.017633636 -0.00090502447 0.04001412 0.08555245
000020 53 0d 28 3e c0 71 81 3d 2e 2b e2 3c 0e b7 0c 3d
       0.16411333 0.06320524 0.02760848 0.034354262
000030 90 12 97 be b7 82 04 bd 3e df 6b be 7e dd 44 3e
       -0.2950635 -0.032351222 -0.23034379 0.19225118
000040 7f 4b 04 3e b7 f7 2b 3e d6 ae 9c 3d 8d 1a 82 3e
       0.12919424 0.16793714 0.07650535 0.25410882
000050 9e 74 2e bd 80 c9 6f 3d 82 8a e2 3b a0 03 94 3e
       -0.042591684 0.058541775 0.006913484 0.28909016
000060 36 34 f9 bc 16 ba c9 bd b5 3a 07 be a8 91 0e 3d
       -0.030420404 -0.09849946 -0.13205989 0.034806877
000070 2e c0 13 3e b1 1a 12 bd 2c 0b a1 bd 2a 71 10 3e
       0.1442878 -0.035669986 -0.07863459 0.14105669
000080 74 e0 19 3d 94 72 08 3e b7 6b af bd 06 bb f5 bd
       0.03756757 0.13324958 -0.08565467 -0.119985625
000090 72 03 0c 3d f2 84 84 bd 9c 03 17 3e be 23 33 ba
       0.034182973 -0.0647067 0.1474747 -0.0006833634
0000a0 08 0b 9b 3d 71 f3 30 3d bd bf b5 bd 7a 16 76 bd
       0.075704634 0.043200914 -0.08874462 -0.06008003
0000b0 09 9f a6 3d 86 d7 38 be 5f f5 01 bb bf db 96 bd
       0.08135802 -0.18050966 -0.001983009 -0.07366132
0000c0 cf 99 ae 3d 65 6d 9e bd c7 3d 45 3d 40 65 3a bd
       0.085254304 -0.07735709 0.04815462 -0.045506716
0000d0 fb a8 9e bd d4 e7 9d bd 7d fc 0b be e6 0d d7 3d
       -0.07747074 -0.07710233 -0.13670535 0.10500698
0000e0 9c 53 52 bd 07 79 83 3d 29 64 d6 bc 2c d9 c5 3c
       -0.051349267 0.064195685 -0.026170807 0.024151407
0000f0 41 a0 96 bd 98 bb aa bd 4c c6 17 be 40 59 e4 3b
       -0.07354785 -0.08336562 -0.14821738 0.0069686472
000100 62 ab 2a bd 7c 7d 25 be 9c f5 c6 bc 47 b8 66 bd
       -0.04166735 -0.1616115 -0.024287038 -0.056328084
000110 d3 8f 9b 3d 0f 5d 2f be 35 b5 3e 3e 2d c7 b3 bc
       0.07595792 -0.17125343 0.18623812 -0.02194556
000120 ea 39 90 bd ae 38 49 be 31 7c 35 3d 6a df ea 3d
       -0.07042296 -0.19650528 0.04430789 0.11468394
000130 8b 5c 04 be 0e 1c b2 bc 12 d8 c7 bd 97 c7 aa 3d
       -0.12925927 -0.021741893 -0.09758009 0.0833885
000140 d0 86 7f 3c 3f 89 86 bd f3 8a 1c be 6b c9 5d 3e
       0.015596107 -0.06569146 -0.1528738 0.21658866
000150 7d 9b a4 3d 70 dd 03 bc ac bc 57 bd d9 7e b3 3c
       0.080374695 -0.0080484 -0.052670166 0.021911072
000160 52 5b 27 3e 07 a9 0f be 41 13 cb 3c 99 77 1d be
       0.1634343 -0.14029323 0.024789454 -0.15377654
000170 1c 4c 61 bd 8c 83 7b 3d c5 1b 37 3d 17 e6 c7 3d
       -0.055004224 0.06140475 0.044704217 0.09760683
000180 b7 83 7c bd 0b 4f 56 3e 8d 48 7d be 1e 17 64 3c
       -0.06164905 0.2092859 -0.24734707 0.013921527
000190 68 60 67 3e 10 07 47 3e be 31 2c 3e 51 4a 6d 3d
       0.2259537 0.19436288 0.1681585 0.0579322
0001a0 1b fc 5c 3c cd f0 31 3d 4d 3e a2 bd 45 d9 8a bd
       0.013487841 0.043442536 -0.07922039 -0.06779722
0001b0 92 64 fb bb c4 71 f3 bd 19 65 03 bd 94 cb 42 3e
       -0.007671901 -0.118869334 -0.032078836 0.19022971
0001c0 cc 0d 84 be 90 f8 98 3d eb 2a 26 3e d2 32 31 3e
       -0.25791776 0.074692845 0.1622731 0.17304543
0001d0 33 b4 6b be 0b bc 99 3d cb e2 be 3c d4 db bf 3d
       -0.2301796 0.075065695 0.023301503 0.09368101
0001e0 83 48 21 be 64 a6 92 be 58 cd ca bd d4 a5 04 bd
       -0.15750317 -0.2864257 -0.099024475 -0.03238471
0001f0 34 37 81 bd dd 95 fe bd 9c a3 90 bd 5a 65 e8 bc
       -0.06309357 -0.12430928 -0.07062456 -0.02836864
000200 e1 38 b8 3c f2 4d 99 bd 21 ca 29 be 55 e3 ac bd
       0.02248806 -0.0748557 -0.16581012 -0.08441798
000210 fa 3b f3 bd 72 1d d9 bc 2b d0 22 3e c8 db 56 3e
       -0.11876674 -0.026503298 0.15899722 0.20982277
000220 0b a0 29 be 22 79 da bd 61 c2 25 3e d4 ca a5 3b
       -0.16564958 -0.106676355 0.16187431 0.0050595794
000230 57 27 1f be 7f 9f 24 3d a9 ce 56 bd 54 38 3e be
       -0.1554235 0.04019117 -0.05244318 -0.18576175
000240 77 4c e5 3d b4 65 57 bd 38 9a f9 3d 47 bd e2 3c
       0.11196225 -0.052587226 0.12187618 0.027678145
000250 c3 22 27 3c 48 6a 32 be dd 5a 89 bc 6e 70 14 3c
       0.010201159 -0.17423356 -0.01676696 0.009060008
000260 15 ba 10 be 73 cc dc 3b 65 d9 6f bc 95 e3 02 be
       -0.14133485 0.0067382394 -0.014639233 -0.12782128
000270 42 93 2c 3e 9e ee e6 bc 1b 16 12 bd 7f 56 39 bd
       0.1685305 -0.028189953 -0.035665613 -0.045248505
000280 f3 bc f0 3c 12 0a c8 bd c1 2f ad 3d a4 10 31 bd
       0.029386973 -0.09767546 0.08456374 -0.04322876
000290 52 7a d4 3d 4d 64 62 bd 13 38 ad 3b 9b d0 a9 3d
       0.10374893 -0.055271436 0.0052862256 0.082917415
0002a0 52 4f 92 3d e3 be bf 3d be 18 15 3d 0e 74 69 3e
       0.071440354 0.093625806 0.03640055 0.22798178
0002b0 2b db fb 3d 0f a9 44 3d 9e 0c 18 bd c1 6f d2 3d
       0.12297662 0.04801279 -0.037121408 0.102752216
0002c0 a0 1f 10 bd 54 7a eb bd ce 8e 69 3e 2e 05 9c 3d
       -0.03518641 -0.114979416 0.22808382 0.076181754
0002d0 3a 4a 18 bd 02 a6 13 be 7f 6f fc 3d 10 d0 a9 3d
       -0.037180163 -0.14418796 0.12325954 0.08291638
0002e0 07 6b e0 3d 0d 06 29 3e 9e 25 f3 3b b9 8c 8c 3d
       0.10957914 0.16506214 0.007420256 0.06862778
0002f0 45 14 c6 bb 43 14 02 be c5 3a 8a 3d fe 9c 0b 3e
       -0.006044897 -0.12703042 0.06749491 0.13634107
000300 7b df 15 3c 63 b9 d4 bc bb 13 f5 3d 7f 72 62 bc
       0.00914752 -0.025967306 0.11966654 -0.013821243
000310 33 a3 1e 3e 01 45 58 be c3 f7 58 3d d2 f8 99 3e
       0.15491943 -0.21120073 0.05297066 0.30072647
000320 57 4f 70 3e 02 b1 57 3e 12 64 2f 3e 0a 71 c4 3d
       0.23467766 0.21063617 0.17128018 0.09591873
000330 1e 21 90 bc 02 db fa bd c5 01 db 3c ad 16 52 3b
       -0.017593917 -0.12248804 0.026734242 0.0032056973
000340 fb bf eb bc 04 84 25 3d f6 3a a7 3c a4 87 96 bd
       -0.028778067 0.040409103 0.020413857 -0.0735009
000350 d1 57 38 3d 07 b0 b0 3d 64 6d fb bc 54 62 b9 3d
       0.045005623 0.086273246 -0.03069181 0.09051958
000360 33 fe 87 be 76 1b aa bd 1b 80 54 3e ea ab 01 3e
       -0.26561126 -0.08306019 0.20751993 0.12663236
000370 c0 c4 8f 3d 57 81 d2 bd d9 37 e7 bd 26 3a 47 bd
       0.07019949 -0.10278576 -0.11289949 -0.04863944
000380 9c b6 5a bd 1b 89 92 bd 2a f3 27 3e 32 13 8c 3d
       -0.053396806 -0.07155057 0.16401353 0.06839599
000390 70 34 c8 3d a5 ca 97 3d ad 3b 55 be 6b 17 dd 3d
       0.09775627 0.07411698 -0.20823546 0.10795482
0003a0 7e 1c a8 bc cf 5d e4 bd 7c 45 a4 bc 78 37 1f be
       -0.020521399 -0.11150705 -0.020052664 -0.15548503
0003b0 51 6a 7f 3d 39 10 be 3c 28 6d f2 bd d6 2b 39 bd
       0.06235725 0.023201095 -0.11837226 -0.04520782
0003c0 53 f7 b6 3d 08 df 7c bc bc 27 9a bd 1d 87 5d be
       0.08933892 -0.015434034 -0.0752711 -0.21633573
0003d0 61 cb 73 bd b8 2b 5b be 84 a7 1f 3e 91 77 e7 3d
       -0.05952013 -0.21403396 0.15591246 0.11302102
0003e0 75 1c f4 bc f2 9e 12 be 7a b1 60 3e 8c ff 81 bc
       -0.029798726 -0.14318445 0.21942702 -0.015868925
0003f0 b6 94 ca 3d bb e5 f2 bd c2 48 96 bd a4 6d 10 3e
       0.098916456 -0.11860224 -0.07338096 0.14104325

enc2.4.weight f4 [16]
000000 2c 89 7f 3f 14 29 7f 3f 09 d1 7b 3f 9d 65 7e 3f
       0.9981868 0.99672055 0.9836584 0.993738
000010 22 72 80 3f 00 f5 7d 3f a4 01 7d 3f 0a 6d 80 3f
       1.003483 0.99201965 0.9883063 1.0033276
000020 b5 71 7c 3f 1d b9 7d 3f 70 84 80 3f 28 0e 80 3f
       0.98611003 0.99110585 1.0040417 1.000432
000030 a7 5d 80 3f 6f 15 7d 3f ad c0 7e 3f 66 c4 7e 3f
       1.002858 0.9886083 0.9951275 0.9951843

enc2.4.bias f4 [16]
000000 6c a0 6c ba d3 3e cb 3a 97 76 8b bc 18 54 57 bc
       -0.000902659 0.0015506394 -0.017024321 -0.013142608
000010 d4 53 20 3c 7b e9 25 bc fc 12 31 3a d0 64 15 ba
       0.009785611 -0.010126467 0.0006754843 -0.0005698921
000020 cd c0 35 bb 9d b0 f9 bb dd 7f 66 3c 9c 9d 86 ba
       -0.0027733326 -0.007619931 0.014068571 -0.001027036
000030 3a 27 6d bb 88 d7 76 ba 76 5c 45 bb 40 df 86 bc
       -0.003618671 -0.0009416272 -0.0030114925 -0.016463876

enc2.4.running_mean f4 [16]
000000 6c b9 99 be b1 5d 25 3f 0b d7 29 bf 73 d4 37 3f
       -0.30024278 0.64596087 -0.66343755 0.71808547
000010 c3 95 58 3d b0 86 b2 3f 44 59 01 3d 63 9d 17 be
       0.0528772 1.3947353 0.03157927 -0.14806132
000020 e0 35 c8 be 32 59 f3 be 73 1f 5e be 2a 58 b0 be
       -0.39103603 -0.47528988 -0.21691684 -0.34442264
000030 69 5a b7 3e 20 5b 3f 3f 30 ee 42 bf c2 fb b0 bc
       0.35811165 0.7474842 -0.76144695 -0.021604422

enc2.4.running_var f4 [16]
000000 f7 09 26 3f b9 0f 86 3e 0e 77 c7 3e fa f8 10 3f
       0.64858955 0.2618387 0.3895802 0.5662991
000010 70 a4 4e 3f 73 a8 75 3f 46 f1 3b 3e f4 a7 2d 40
       0.8071966 0.9596016 0.18353757 2.713376
000020 c3 fb 01 3f bb eb 22 3f 4e 68 75 3f 1e 24 c0 3e
       0.5077478 0.63640946 0.9586228 0.37527555
000030 73 4f 31 3f f4 b1 31 3f ba 6f ae 3e 88 19 05 3f
       0.69261855 0.6941216 0.34069616 0.5199208

bottleneck.0.weight f4 [32, 16, 3, 3]
000000 24 46 83 bd 89 d5 ea bd 96 b7 0f bd c7 17 1a 3e
       -0.06409863 -0.1146651 -0.03508719 0.15048133
000010 73 e9 97 3c 3e e7 b4 bb 55 e2 37 3d 0d a2 9d bd
       0.018543934 -0.0055207303 0.04489358 -0.07696924
000020 6b d8 9a 3d f1 83 47 3d 84 59 18 be 5d 87 d5 3d
       0.0756081 0.048709814 -0.14877898 0.10426209
000030 05 42 bd 3c 65 14 9d bd 37 04 d0 bc e5 0a 9f 3b
       0.02310277 -0.076699056 -0.025392635 0.0048535937
000040 02 0c e0 3d 18 13 ed 3c f1 0b 86 3d 10 5d 8f bc
       0.1093979 0.028939769 0.065452464 -0.01750043
000050 05 d0 9c bc 26 c4 f6 3c 2c d4 30 3e c7 3f 05 bd
       -0.01914216 0.030122828 0.17268437 -0.032531526
000060 d8 cc c2 bc 79 61 a4 bd 1a fc 97 3d 73 18 9e 3c
       -0.023779318 -0.08026404 0.074211314 0.019298768
000070 3b 49 8a 3c 8b 3b 0b 3d 76 a8 e6 3c 01 4d da 3c
       0.016880622 0.03399233 0.0281565 0.026648046
000080 23 b0 74 3d 2a 21 61 bd 34 5f 0f 3e 8e e6 df bd
       0.05973829 -0.05496327 0.14001161 -0.10932647
000090 2e e2 01 bb b0 11 1f bd 95 e7 8e 3c 5a 30 4b bd
       -0.0019818651 -0.038835227 0.017444411 -0.04960666
0000a0 f9 5c 05 bd 98 90 2e 3e 8b e4 ca bd b1 ea 90 bc
       -0.03255937 0.17047346 -0.09906872 -0.017690035
0000b0 71 b3 2c 3e 36 c7 99 3d c8 e2 08 bd 7b bb ea 3c
       0.16865326 0.075086996 -0.0334194 0.02865385
0000c0 42 93 e5 3d cf 1b cb bc ad c1 e6 bc 09 51 01 3d
       0.11209728 -0.024793534 -0.028168524 0.03157142
0000d0 55 67 e4 bd 75 c8 67 3c 08 e2 4a be 2f f3 23 3e
       -0.111525215 0.014146914 -0.19812787 0.16010736
0000e0 e2 97 af 3d 22 70 82 3d 94 0a 07 be 71 05 d3 bd
       0.08573891 0.06369044 -0.13187629 -0.10303772
0000f0 29 56 61 3d 6e 8d 6e bc 4d c6 24 be ee 81 c8 3d
       0.05501381 -0.014560087 -0.1609127 0.09790407
000100 99 dd 16 3d eb 59 db bd 4b df 7f bc 41 bd 22 bd
       0.036832426 -0.1071051 -0.015617202 -0.039731268
000110 18 5c 6d bc f0 aa 4d 3d 7f 9b 73 3d a1 8e 53 3d
       -0.014487289 0.050211847 0.059474465 0.051649693
000120 b1 de b8 bc 41 b2 54 3d 89 47 9c 3d ef b1 e9 3d
       -0.022567125 0.05192781 0.07630832 0.11410891
000130 49 6c f9 bc a2 62 f1 bd ad d0 5d 3c bd 7e 91 3d
       -0.030447142 -0.11786391 0.013538522 0.071042515
000140 c5 f2 0f bc 00 81 ee 3d 82 8d 2c bd ad 19 98 3d
       -0.008785908 0.116456985 -0.04212714 0.07426772
000150 55 f1 5d bc fa 6a e6 bc d1 c3 6d 3c 07 a4 9d 3d
       -0.013546308 -0.028127182 0.014512018 0.07697301
000160 3a ae 83 3d 51 50 12 3e 81 fd ee 3c 68 1d 9b 3d
       0.064297155 0.14288451 0.029173614 0.07573968
000170 4b a9 2f bd 1a 9f 9e 3d 9d 18 1d bd 81 08 67 3d
       -0.04288606 0.0774519 -0.03835355 0.056404594
000180 c0 10 d6 3d 2a b1 7d 3d d7 66 bd bb e7 c3 f7 3c
       0.104524136 0.061936535 -0.0057800817 0.03024478
000190 41 7d 07 3e 01 f8 f5 bd 3a 61 15 bd 27 ef 5e bd
       0.13231374 -0.120101936 -0.036469676 -0.054427292
0001a0 c8 40 f9 3c 3a 0c b0 bc 52 24 27 bd c5 3e 46 3d
       0.030426398 -0.021490205 -0.040806122 0.048399705
0001b0 78 09 38 3e a3 a9 8f bd c9 48 bb 3c d4 48 b9 bc
       0.17972362 -0.070147775 0.022861855 -0.022617735
0001c0 e0 a4 07 bd 61 b4 e7 3d 87 8c 64 bd 85 7f 12 3e
       -0.03311622 0.113137014 -0.05579808 0.14306457
0001d0 bd 5b b6 bc e5 46 f5 3b 0b 65 2c bd e7 78 bf 3c
       -0.022260541 0.007485258 -0.04208855 0.02337308
0001e0 52 31 0e 3d 57 9b 89 3d e8 83 bf 3d 07 ab 27 3d
       0.034715004 0.06719082 0.09351331 0.04093459
0001f0 89 f4 91 3d 0f ab 8c 3d b8 ed e8 bc 4c 92 e9 3d
       0.071267195 0.06868564 -0.028433666 0.11404857
000200 50 b5 17 be e8 cf 97 bc 9f 21 9c 3c 2d 1a df bd
       -0.14815259 -0.018531755 0.019059 -0.108936645
000210 9f 55 b3 3a 38 99 5f 39 ed 96 2b bd c4 35 8e 3a
       0.0013682133 0.00021324016 -0.04189198 0.0010849764
000220 0c be 5a bd d1 8e 45 be 29 8f 07 3e c0 57 f5 bd
       -0.0534039 -0.19292761 0.13238205 -0.119796276
000230 2d bd c4 bb cf d4 80 3b 36 2d b0 3d b3 83 e8 3d
       -0.006003997 0.0039316188 0.08602373 0.11353245
000240 ec 3e f5 3d ac b4 de ba 90 a5 ef 3c 1d 2e 9b 3d
       0.11974892 -0.00169911 0.029253751 0.07577155
000250 ce ce 13 3e 16 bd 6c 3d 56 4b 14 3a 42 18 8c 3b
       0.14434358 0.057797514 0.0005656978 0.0042753527
000260 89 db c7 3d 2c 5d b0 bd dd 90 1d 3e f2 ef 3e bc
       0.0975867 -0.08611521 0.15387292 -0.011653887
000270 4d 8c b3 3d cf 3c a3 3d 78 62 44 3e 76 9f a3 bd
       0.087669946 0.07970583 0.19178188 -0.07989399
000280 1c 07 b6 bd dd ae 81 3d 56 a2 11 3e e9 ce 0d bd
       -0.08888075 0.06332181 0.14222082 -0.034621153
000290 e3 f5 c6 bc 2f ba 79 bd 5f 2b 3a bd 4a 9d 2d 3d
       -0.02428717 -0.060968574 -0.04545152 0.04238633
0002a0 a5 64 cc 3d 02 eb 07 be 30 1a a0 bd 7f 7a eb 3d
       0.09980134 -0.13273242 -0.07817495 0.11497974
0002b0 bf ab 86 bd ef 28 84 3d aa c8 15 3e 9a 48 c4 bc
       -0.06575727 0.0645312 0.14627329 -0.0239604
0002c0 42 4a ee bc ed bf 64 bd 46 e4 4d 3b 1c 22 2f 3e
       -0.029088143 -0.055847097 0.003141658 0.17102855
0002d0 27 e9 24 3d 9e a5 98 bd 6f f1 9a 3c d8 99 b6 bd
       0.040261414 -0.07453464 0.018913953 -0.08916062
0002e0 07 91 88 bd 79 7e d2 3b 10 03 6b 3d 6d db 28 bd
       -0.06668287 0.006423768 0.057375968 -0.041224886
0002f0 a9 83 15 3d b5 3b 9c bd 77 b1 46 be bf a2 d2 ba
       0.036502514 -0.07628576 -0.19403635 -0.0016070231
000300 82 7f f9 3d a4 34 e0 bc 33 8a 2f bd f1 14 65 bd
       0.12182523 -0.027368851 -0.042856406 -0.055928174
000310 10 63 af bd 16 b0 20 3d 8c ef df bd 03 2a c4 bd
       -0.085638165 0.03923043 -0.10934362 -0.095783256
000320 af dc 7a bd ee ea ab bd 17 32 95 bc a5 8d 97 bd
       -0.061245617 -0.08394419 -0.018212361 -0.074000634
000330 6d b1 09 3b 08 cb ae 3d 43 30 ec bd e8 cd 11 3e
       0.0021010295 0.08534819 -0.11532643 0.14238703
000340 f2 76 96 3d 3a 8d 16 3d 98 e0 f4 bc 3c 92 97 bd
       0.07346906 0.036755778 -0.02989225 -0.07400939
000350 a1 45 43 bd d1 ac 60 bd 51 6a 05 3d 15 2e 89 3b
       -0.047673825 -0.05485231 0.032572094 0.0041864016
000360 80 1a 54 3d 99 31 0a 3e 77 4e 01 be 83 38 07 3d
       0.051783085 0.13495483 -0.12627588 0.03301288
000370 ff 87 03 3e 17 b7 30 bd 9d 90 51 3d 26 96 a2 bc
       0.12844847 -0.043143358 0.051163305 -0.019846987
000380 a9 f4 c0 3d 96 a0 6a 3d 17 c0 54 3d ac 4c 13 3d
       0.09421665 0.057282053 0.051941004 0.035961792
000390 90 66 10 3c 48 8a f9 b8 ba ed c2 3d c1 5e 5a 3d
       0.008813515 -0.00011899002 0.09517999 0.05331302
0003a0 90 d2 2c bd 8c ab f5 3c bf 21 a7 bd 75 01 f7 3d
       -0.042192996 0.029989026 -0.081607334 0.12060825
0003b0 cd 13 bc bd f1 e0 00 3b c5 99 4b bd 58 38 a2 bd
       -0.09183464 0.0019665326 -0.049707193 -0.07920903
0003c0 1a d3 21 3d 12 eb 95 bc 64 dd 4c bd 49 e4 72 bc
       0.039507963 -0.018300567 -0.050015822 -0.014824935
0003d0 e9 f2 e8 bd 1f 4f 58 3d 11 8e c3 bd e2 75 dd bc
       -0.113744564 0.05280983 -0.095485814 -0.02703375
0003e0 79 cd 20 be 42 98 4a 3d 05 c9 9e 3d b3 33 e5 3d
       -0.15703382 0.04946161 0.07753185 0.111915015
0003f0 b7 66 44 bd 16 b1 17 bc 4b d8 f0 3d 45 55 f8 bd
       -0.04794952 -0.009258529 0.117600046 -0.12125639

bottleneck.1.weight f4 [32]
000000 74 63 81 3f 51 40 7f 3f 7c bd 7f 3f 22 c4 80 3f
       1.0108476 0.99707514 0.99898505 1.0059855
000010 09 2d 7d 3f 76 9d 7f 3f f3 74 80 3f 1b 65 7f 3f
       0.98896843 0.9984964 1.003569 0.9976365
000020 b8 a5 7b 3f 95 76 81 3f d1 e7 7e 3f 50 29 81 3f
       0.9829974 1.0114313 0.99572474 1.0090733
000030 7a 95 7f 3f 7e 1b 80 3f af 64 7d 3f df 8a 80 3f
       0.9983746 1.000839 0.98981756 1.004238
000040 7e b7 7d 3f 07 2c 82 3f 76 b4 82 3f c7 95 81 3f
       0.9910811 1.0169686 1.0211322 1.0123833
000050 5e f8 81 3f d8 c7 7f 3f 8b 18 7e 3f 00 2b 7d 3f
       1.0153921 0.9991431 0.992562 0.9889374
000060 c3 bc 7f 3f 26 e3 80 3f 88 98 81 3f 42 c2 7d 3f
       0.998974 1.006932 1.0124674 0.9912454
000070 dd 80 81 3f e9 48 7e 3f 14 f6 7f 3f 42 bb 7c 3f
       1.0117451 0.9933 0.9998486 0.9872323

bottleneck.1.bias f4 [32]
000000 2c 49 da 3a 2c 1c c2 3b ef 6e 90 3b ba 1b 4a 3c
       0.0016653887 0.0059237685 0.0044077556 0.012335712
000010 22 26 6d bc 9b 0e 44 bb 53 88 47 b9 1d 6a a6 bb
       -0.014474424 -0.0029915932 -0.00019028904 -0.0050785677
000020 7c 0d 36 bc 8a 2f 8b 3c 80 c2 5b 3c 50 65 b8 3b
       -0.011111613 0.016990442 0.013413072 0.0056273118
000030 04 d5 89 39 ec 3d 07 3c de 18 95 3b d0 71 37 bb
       0.00026289385 0.008254509 0.0045500835 -0.0027991422
000040 d6 34 e6 39 69 7b 63 bc a8 5d b2 3c 95 5a 06 3c
       0.00043908384 -0.013884404 0.021773174 0.008200307
000050 c1 c0 50 3c 9d 3e 00 bc 9f 7d 69 bb 62 d9 68 bc
       0.012741269 -0.007827428 -0.0035627855 -0.014211984
000060 79 ff a8 3b 50 de 64 bb d6 89 92 3c 99 c0 3f 3b
       0.005157408 -0.0034922548 0.01788799 0.0029259084
000070 bc 97 82 3c 44 f0 be bb 9c b4 21 bb 19 8a e1 bb
       0.015941493 -0.0058269817 -0.0024674302 -0.0068829176

bottleneck.1.running_mean f4 [32]
000000 1e ef 3f 3f 0e 94 b7 be 0a 1e b9 3c 6c a0 f3 bb
       0.7497424 -0.35855144 0.022597332 -0.0074348953
000010 6c 58 f6 3e 25 24 09 bf 06 a7 aa 3d 39 7b 34 bf
       0.48114336 -0.5357078 0.083326384 -0.7050052
000020 9c 92 8c 3e 81 97 d7 bd 82 dc 30 3e 8d 55 cd 3e
       0.27455604 -0.10526944 0.17271617 0.40104333
000030 f5 99 00 bf cf 0d 23 bc ba 53 83 bf aa 66 93 3e
       -0.5023492 -0.009952023 -1.0259926 0.28789264
000040 a7 e2 2f 3f 73 24 9c 3e ea 8a 9d 3e 46 d3 2e be
       0.6870522 0.3049656 0.30770046 -0.17072782
000050 f0 f4 f2 3e 36 02 92 be a7 d6 4e be f3 87 4c be
       0.47452497 -0.28517312 -0.20199071 -0.19973736
000060 73 5c 06 be 06 1a 56 3f 22 63 8c be 6f 3d 92 be
       -0.13121204 0.8363346 -0.27419382 -0.28562495
000070 71 85 42 bf 49 97 61 bf 07 12 30 bf fb d2 c0 be
       -0.75984865 -0.8812147 -0.6877751 -0.37660965

bottleneck.1.running_var f4 [32]
000000 57 9f 2c 3f 64 2a cf 3f 1a 06 92 3f 0f 4f 28 3f
       0.67430633 1.6184812 1.1408112 0.65745634
000010 4a 6b 6c 3f 26 b7 0d 40 da 7c f9 3e fc 71 11 3f
       0.9235121 2.2143035 0.48728067 0.5681455
000020 b1 0e 50 3f 2a ba 02 3f 4f 17 ae 3f ec ba 59 3f
       0.8127242 0.51065314 1.3600863 0.85050845
000030 63 f2 6c 3f 38 70 0c 3f d6 c9 4b 3f ff 8d b9 3f
       0.9255735 0.5485873 0.7960485 1.4496459
000040 cf e6 8c 3f 9d 76 fb 3e 72 54 16 3f 9b 23 68 3f
       1.1007937 0.49113932 0.58722603 0.9067933
000050 3f c6 49 3f cb 8c cb 3e 7c 83 84 3f 08 b6 cb 3e
       0.78818125 0.39755854 1.0352626 0.39787316
000060 d1 87 76 3f 26 2d 6e 3f 0e db 23 3f c1 96 15 3f
       0.9630099 0.9303764 0.64006126 0.5843316
000070 76 35 6c 3f a4 a2 0e 40 f9 14 0f 3f a2 61 29 3f
       0.92269075 2.2286768 0.55891377 0.661646
