experiments_multi/Brain_Tumor_Segmentation_Separate_Train_Val_20260206_101849/best_model.pth (torch, 409343 bytes, 128 tensors)

enc1.0.weight f4 [8, 4, 3, 3]
0	0xbb30693c	-0.0026918193
1	0x3d680390	0.056644022
2	0xbe802b3e	-0.2503299
3	0xbd909f8d	-0.07061682
4	0xbe2eddce	-0.170768
5	0xbe196722	-0.14980748
6	0xbcc54e36	-0.024085145
7	0x3e1b9bdb	0.15196173
8	0xbe18abd0	-0.14909291
9	0xbc94a3ab	-0.01814445
10	0xbe4c339c	-0.19941562
11	0xbbe62b3b	-0.0070241964
12	0x3dd0e96c	0.10200772
13	0xbd076a0a	-0.03306011
14	0x3e9d5f7b	0.30736908
15	0xbeba71e5	-0.3641502
16	0x3e5dd4c7	0.216632
17	0x3dd91019	0.105987735
18	0x3e00492c	0.12527913
19	0xbd9ee2f5	-0.07758132
20	0xbe56ee50	-0.20989347
21	0x3e826bac	0.25472772
22	0xbe9a7fb9	-0.3017557
23	0xbb9ed9a7	-0.0048477235
24	0x3e569396	0.20954737
25	0x3cb0ae32	0.021567438
26	0xbe4b7224	-0.1986776
27	0xbb1c7178	-0.0023871344
28	0x3dcd2006	0.100158736
29	0x3ca09223	0.019600933
30	0xbd8dd029	-0.06924469
31	0xbd9ed870	-0.07756126
32	0x3e0e14cf	0.13875125
33	0x3df989c6	0.12184481
34	0xbdbdc5ef	-0.092662685
35	0xbe45d577	-0.19319712
36	0x3ce96201	0.028489115
37	0x3e267549	0.16255678
38	0x3dbc2b28	0.09187919
39	0x3e959d12	0.29221398
40	0x3e5ea740	0.21743488
41	0x3dca29b2	0.09871234
42	0x3e4776db	0.19478934
43	0xbd807aa1	-0.062733896
44	0x3e8d8f20	0.27648258
45	0xbeb179ef	-0.3466334
46	0x3e13c76f	0.14431547
47	0xbe162eb6	-0.14666256
48	0xbe029d9f	-0.1275544
49	0xbe76658a	-0.24062172
50	0xbe3bcf44	-0.18340784
51	0x3e31a9a6	0.17349872
52	0x3d848d1d	0.06472228
53	0xbe0193f4	-0.12654096
54	0x3e670e3a	0.22564021
55	0x3e916415	0.2839667
56	0x3cc7d017	0.024391217
57	0x3d7d28fa	0.061806656
58	0x3e0eebea	0.13957182
59	0x3bc06f52	0.0058726454
60	0xbde25000	-0.11050415
61	0xbe6a1ec0	-0.22863293
62	0x3b55f286	0.0032645776
63	0xbe12261a	-0.14272347
64	0xbdbe5108	-0.09292799
65	0x3e081a64	0.13291317
66	0xbd6a36b5	-0.05718108
67	0x3da0065c	0.07813713
68	0xbe8655d7	-0.26237366
69	0xbd2ab5b1	-0.04167718
70	0xbbb8f3f5	-0.0056443163
71	0xbd8daf2f	-0.06918179
72	0x3e9d8fcb	0.30773768
73	0x3d8cebf3	0.06880941
74	0xbe755aa9	-0.23960365
75	0xbd1d9851	-0.03847534
76	0xbe0730f4	-0.13202268
77	0xbd94a3dd	-0.07257817
78	0xbe3d83e2	-0.1850734
79	0xbe1586ae	-0.14602157
80	0xbdb0c573	-0.086314104
81	0x3e9b1a15	0.30293337
82	0xbe1da66d	-0.15395518
83	0xbec21a79	-0.37910822
84	0xbdfcec72	-0.12349786
85	0xbe42737c	-0.18989366
86	0x3d137940	0.036004305
87	0xbd9020eb	-0.070375286
88	0x3e756e33	0.23967819
89	0xbd9bf3cb	-0.07614859
90	0xbdb54d88	-0.088526785
91	0xbd17bea1	-0.037047032
92	0x3e9dc75f	0.3081617
93	0xbe245942	-0.16049674
94	0xbe7778eb	-0.2416722
95	0x3dd1e82d	0.10249362
96	0x3c5ebd85	0.01359499
97	0x3d28ba18	0.041193098
98	0x3e0fb029	0.14032044
99	0xbcf093e6	-0.029367398
100	0x3e58f46a	0.21186987
101	0x3dd44401	0.10364533
102	0xbe596c14	-0.21232635
103	0xbedfd708	-0.43718743
104	0xbdc8cad4	-0.098043114
105	0x3edd384c	0.43207014
106	0x3cff7462	0.031183425
107	0x3e3da8c2	0.18521407
108	0xbda6f140	-0.081514835
109	0xbe498cad	-0.1968257
110	0xbda6a900	-0.08137703
111	0x3e1aec59	0.15129222
112	0xbe1717e0	-0.14755201
113	0xbe540e47	-0.20708571
114	0xbc9ca75b	-0.01912277
115	0xbcbffd3a	-0.023436178
116	0x3d7a0ec5	0.06104924
117	0x3e46b1e7	0.19403802
118	0x3e8aec72	0.27133518
119	0xbd31b5dc	-0.043386325
120	0xbe5a5dae	-0.21324798
121	0xbe5b1e1b	-0.21398203
122	0x3ba68aa5	0.0050824457
123	0xbe1068ee	-0.14102527
124	0xbe1b38cd	-0.15158387
125	0xbea4a901	-0.3216019
126	0xbe136fd8	-0.14398134
127	0x3ea1377e	0.3148765
128	0xbe685c66	-0.22691497
129	0x3d5e57e4	0.054283038
130	0xbc67540b	-0.0141191585
131	0xbdb9fe90	-0.09081757
132	0x3e44c5f8	0.19216144
133	0xbd5a50d1	-0.05329973
134	0xbda33d31	-0.07970656
135	0x3d1d0d3b	0.038342696
136	0xbe0fad1a	-0.14030877
137	0x3e1aa576	0.15102181
138	0xbd56af47	-0.05241325
139	0xbda4c9b3	-0.080462836
140	0x3e253036	0.16131672
141	0x3e300574	0.1718958
142	0x3d726ac9	0.05918387
143	0x3db31e37	0.087459974
144	0x3ca56f75	0.020194748
145	0xbe533bc8	-0.20628273
146	0x3ef4d9f9	0.4782255
147	0xbe70765d	-0.23482652
148	0xbe8e275a	-0.27764398
149	0x3e7c61fd	0.24646755
150	0xbe89bc77	-0.269016
151	0xbe5d27b2	-0.21597174
152	0xbe236e4c	-0.15960044
153	0xbde26182	-0.110537544
154	0x3d725ea4	0.059172288
155	0xbd55651c	-0.05209838
156	0xbe6088c1	-0.21927167
157	0x3e2a03f3	0.16603069
158	0x3e01b9c1	0.12668516
159	0xbe4f7eaa	-0.20263162
160	0xbec69cce	-0.38791507
161	0x3d580b9f	0.052745458
162	0xbe1cf28f	-0.15326904
163	0x3bc7a850	0.0060930625
164	0x3d3a0419	0.045414064
165	0xbd4871b5	-0.048936564
166	0x3d90a90b	0.070634924
167	0xbda5096d	-0.080584385
168	0x3cf5e57e	0.030016657
169	0xbc9fde30	-0.019515127
170	0x3dca2c7e	0.098717675
171	0xbcf9a00d	-0.030471826
172	0xbd1013b5	-0.035175044
173	0x3cd2309d	0.025657946
174	0x3c553b94	0.013014693
175	0xbe31cf68	-0.17364275
176	0x3e20649a	0.15663376
177	0x3ec0da64	0.3766662
178	0xbd94771a	-0.07249279
179	0xbca9de09	-0.020735757
180	0x3ce310c0	0.027717948
181	0x3e9414ed	0.28922215
182	0xbd1983d4	-0.037479237
183	0x3e04e1e2	0.12976792
184	0x3d40d50f	0.04707819
185	0x3d8de2f0	0.069280505
186	0xbe744ac0	-0.2385664
187	0xbca16a39	-0.019703971
188	0xbdbb7e56	-0.09154956
189	0xbe4f61d0	-0.20252156
190	0xbe3f5734	-0.18685609
191	0x3d8f3387	0.0699225
192	0xbe8e9068	-0.27844548
193	0x3d2b1ade	0.04177367
194	0xbe77eea1	-0.24212123
195	0xbd537210	-0.05162245
196	0xbcbede17	-0.02329926
197	0xbda05508	-0.078287184
198	0x3d9ef6c5	0.07761911
199	0xbed46ad4	-0.41487753
200	0xbda98c30	-0.08278692
201	0xbbde1e66	-0.006778526
202	0xbd5e01b1	-0.05420083
203	0x3e405d24	0.1878553
204	0x3e51267b	0.20424835
205	0xbdf570f4	-0.11984435
206	0x3e07aba5	0.13249071
207	0xbe556bab	-0.20841853
208	0x3ee83c34	0.4535843
209	0x3e4bfd96	0.19920954
210	0x3c0017be	0.007818161
211	0x3e4ef3d5	0.20210202
212	0x3d988a2e	0.07448231
213	0x3e488dbf	0.19585322
214	0x3e19d149	0.15021242
215	0xbe8189ac	-0.25300348
216	0x3dcd8a48	0.10036141
217	0x3bcd2733	0.0062607764
218	0xbe6a68b3	-0.22891502
219	0xbdbec352	-0.09314598
220	0x3d8dfa31	0.06932486
221	0x3ef2c4e3	0.47415838
222	0x3deda2ff	0.11603355
223	0x3e899c2c	0.26876962
224	0xbd3467db	-0.044044357
225	0xbd84cc03	-0.06484225
226	0xbe27fdc7	-0.16405402
227	0xbcd86978	-0.026417479
228	0x3d2125f6	0.039342843
229	0x3b68e4d4	0.0035536783
230	0xbdc3e34f	-0.0956484
231	0x3e143a0e	0.14475271
232	0x3bc88282	0.0061190734
233	0x3daf3d1c	0.085565776
234	0x3e35f6ba	0.177699
235	0x3d329ed4	0.0436085
236	0x3c4202e5	0.01184151
237	0x3e1539c7	0.14572822
238	0xbcf73dda	-0.03018086
239	0x3cf36a96	0.02971391
240	0xbd1a5b0b	-0.03768448
241	0x3c019776	0.007909646
242	0xbdee2b07	-0.116293006
243	0x3d66233f	0.056185957
244	0xbe4d3849	-0.20041002
245	0xbe773deb	-0.24144714
246	0xbd40818a	-0.046998538
247	0xbea0be4e	-0.3139519
248	0xbe972e41	-0.29527476
249	0xbdae0729	-0.084974594
250	0xbc49a71d	-0.012307909
251	0x3d33ee3d	0.043928374
252	0x3e42b40b	0.19013993
253	0xbe9cf569	-0.30655983
254	0xbe59ee75	-0.2128237
255	0x3db73568	0.08945733

enc1.1.weight f4 [8]
0	0x3f82a3a3	1.0206188
1	0x3f7815a8	0.96908045
2	0x3f816b9a	1.0110962
3	0x3f81a96b	1.0129827
4	0x3f7974af	0.9744367
5	0x3f7e8337	0.9941897
6	0x3f753b5b	0.95793694
7	0x3f88d471	1.0689832

enc1.1.bias f4 [8]
0	0x3cb873c4	0.022516139
1	0x3e3c9bdb	0.18418829
2	0x3c3fd2b6	0.011707952
3	0xbc0e40a5	-0.008682405
4	0xbd05837d	-0.0325961
5	0x3e06b5a6	0.13155231
6	0x3d95547a	0.07291503
7	0x3ca131d5	0.019677082

enc1.1.running_mean f4 [8]
0	0xbdfe23ae	-0.12409149
1	0x3d9269ca	0.07149084
2	0xbdfa3bf1	-0.12218464
3	0xbe1d00b3	-0.15332298
4	0xbe3a07bc	-0.18167013
5	0xbc9452f4	-0.018105961
6	0xbcbbae21	-0.02291018
7	0xbd9af8ed	-0.0756701

enc1.1.running_var f4 [8]
0	0x3d45ed96	0.048322283
1	0x3ca47b03	0.020078188
2	0x3d5460b4	0.051850036
3	0x3d9d70d1	0.07687534
4	0x3ddd837d	0.10816095
5	0x3c174188	0.009231932
6	0x3c4686f1	0.0121171335
7	0x3cc537a0	0.024074376

enc1.3.weight f4 [8, 8, 3, 3]
0	0xbd1aead8	-0.03782162
1	0xbea5a53c	-0.32352626
2	0xbdfd263c	-0.12360808
3	0xbd8a879f	-0.06764149
4	0xbd747845	-0.05968501
5	0x3d9b9e30	0.07598531
6	0xbe72f298	-0.23725355
7	0xbda931a9	-0.08261425
8	0xbd6070ef	-0.054795202
9	0x3e133804	0.14376837
10	0xbd406b2d	-0.04697721
11	0xbe18658a	-0.14882484
12	0x3d824989	0.06361682
13	0x3e259b7d	0.16172595
14	0xbdca382e	-0.09873997
15	0x3dd07503	0.10178568
16	0xbdb679f4	-0.089099795
17	0xbd6769d9	-0.05649743
18	0xbca7c433	-0.020479297
19	0x3d93a2b4	0.072087675
20	0xbde2d10c	-0.11075029
21	0x3e353bf1	0.17698647
22	0xbdc78e6a	-0.0974396
23	0xbe73faa0	-0.23826075
24	0xbda29eee	-0.0794047
25	0xbe4ceb36	-0.20011601
26	0xbe086753	-0.13320665
27	0xbccc506e	-0.024940696
28	0xbd0c2dd8	-0.034223408
29	0x3edbfe9d	0.42967692
30	0xbe0fd91a	-0.14047661
31	0xbebbff31	-0.36718133
32	0x3b8e0a12	0.0043346966
33	0xbe907efd	-0.28221884
34	0x3e53df3a	0.20690623
35	0xbde4cdee	-0.111720905
36	0xbe096ce9	-0.13420452
37	0xbd2a85e4	-0.041631594
38	0xbeb9224a	-0.36158973
39	0x3e449671	0.19198014
40	0xbd8e376e	-0.06944166
41	0x3c95b0a1	0.0182727
42	0xbcb86b1f	-0.022512017
43	0xbd034800	-0.032051086
44	0x3e0eaf42	0.13934043
45	0x3e0ad269	0.13556828
46	0xbedc3766	-0.43011016
47	0xbd5a87be	-0.05335211
48	0xbddeaf6d	-0.108733036
49	0xbdb05aa5	-0.08611039
50	0x3e0b9396	0.13630518
51	0xbe355285	-0.1770726
52	0x3e8aa86b	0.27081618
53	0x3de49f98	0.111632526
54	0x3e54dae9	0.20786633
55	0x3eb8dd08	0.36106133
56	0x3ed9518c	0.42445028
57	0x3eaaa3c4	0.33328068
58	0x3d920e4b	0.071316324
59	0xbe47fc62	-0.1952987
60	0x3cc8dbfa	0.024518955
61	0xbe8c80fa	-0.2744215
62	0x3e23fb29	0.16013779
63	0xbdca3f60	-0.09875369
64	0x3de3a078	0.11114591
65	0xbe064f06	-0.13116083
66	0xbe224b1a	-0.15848961
67	0xbe5678a3	-0.20944457
68	0xbde980e8	-0.1140154
69	0x3e53af0e	0.20672247
70	0x3d9ffaac	0.07811484
71	0xbe383570	-0.17989135
72	0x3d6bb576	0.0575461
73	0xbd8010e1	-0.062532194
74	0xbd104126	-0.03521838
75	0x3e37c1c2	0.17945006
76	0xbd12c2aa	-0.035830177
77	0x3d4bc4e2	0.04974831
78	0xbe5cdf88	-0.21569645
79	0x3e0aa71b	0.13540308
80	0x3d80436b	0.06262859
81	0xbcda1a5c	-0.026623897
82	0xbe816e64	-0.25279534
83	0xbe62724d	-0.22113915
84	0xbe890d54	-0.2676798
85	0xbdb54f96	-0.088530704
86	0xbe980bb8	-0.2969644
87	0x3cd9914f	0.026558546
88	0xbce6472c	-0.02811011
89	0x3e18134d	0.14851113
90	0xbde4dbbe	-0.11174725
91	0xbe275ea1	-0.16344692
92	0xbd595191	-0.053056303
93	0xbd20eaa0	-0.039286256
94	0xbe700de4	-0.23442799
95	0x3d1cb20b	0.038255733
96	0x3e698045	0.22802837
97	0xbe709f10	-0.23498178
98	0xbdcdd5af	-0.100505225
99	0xbdbc9f49	-0.09210069
100	0xbda09618	-0.07841128
101	0xbd5471a8	-0.051866204
102	0x3d17f9c0	0.037103415
103	0xbe9c8074	-0.30566752
104	0x3eb0da94	0.34541762
105	0x3dd4880f	0.103775136
106	0x3d34fed6	0.044188343
107	0x3da62732	0.08112945
108	0xbd73c9cf	-0.05951863
109	0xbe474976	-0.19461617
110	0x3d275a99	0.040857885
111	0x3e315ad7	0.17319809
112	0xbed1a38f	-0.40945098
113	0x3e61b324	0.22040993
114	0x3e59378b	0.21212594
115	0xbdbcc141	-0.09216548
116	0xbe35ea9e	-0.1776528
117	0xbe292f43	-0.16521935
118	0xbeb75d86	-0.3581354
119	0x3b7a813f	0.003822401
120	0x3e3e564b	0.18587606
121	0x3abd31b2	0.0014434366
122	0xbe37d7f1	-0.17953469
123	0x3e563dba	0.20921984
124	0x3d5d464f	0.05402213
125	0xbd1d7b14	-0.038447455
126	0x3cb3deda	0.02195685
127	0xbd91a7ba	-0.071120694
128	0x3d3447a3	0.04401363
129	0x3d01b3b1	0.031665508
130	0xbe5d0c89	-0.21586813
131	0x3dc682b9	0.09692902
132	0xbdda7912	-0.106676236
133	0xbe7bc280	-0.24585915
134	0x3d970c6e	0.07375418
135	0x3e209e73	0.15685444
136	0xbe65ede6	-0.22454032
137	0x3cb73da3	0.022368258
138	0xbc0f66c3	-0.008752528
139	0x3e1f50b9	0.15558137
140	0x3e4b50fc	0.19855112
141	0x3e8babbf	0.2727947
142	0x3ddde7ce	0.10835229
143	0xbe09e886	-0.13467607
144	0xbe7b76fc	-0.24557108
145	0xbe5cf7dc	-0.21578926
146	0xbda7a590	-0.081858754
147	0x3d3e823c	0.04651092
148	0x3cca929b	0.02472811
149	0x3e397af0	0.18113303
150	0x3d589874	0.052879766
151	0xbce0bdf0	-0.02743432
152	0x3e36af35	0.17840274
153	0x3edce4c6	0.4314329
154	0xbd4fd0d3	-0.05073626
155	0x3e9f1860	0.31073284
156	0x3cd82289	0.026383655
157	0xbe625929	-0.22104324
158	0x3e1c4533	0.15260772
159	0x3d108057	0.035278644
160	0x3e52476b	0.20535056
161	0x3e8b3217	0.27186653
162	0xbe267bc8	-0.16258156
163	0xbcbc3f74	-0.022979476
164	0xbe887c45	-0.2665731
165	0xbe8b7e4b	-0.2724479
166	0xbe0bff75	-0.13671668
167	0xbed1ce19	-0.40977553
168	0xbe4b2748	-0.19839203
169	0xbe1c2490	-0.15248322
170	0xbe728839	-0.23684777
171	0x3dddc79a	0.108290866
172	0xbdf7b1b3	-0.1209444
173	0xbcd925e3	-0.026507324
174	0x3e3bec8f	0.18351959
175	0xbe7758ff	-0.24155043
176	0x3c61d320	0.013783246
177	0xbeaf9cc5	-0.34299293
178	0xbe2b3f48	-0.16723359
179	0xbe57fa16	-0.21091494
180	0x3db8cd08	0.090234816
181	0xbe7d8586	-0.24757966
182	0x3dede4fc	0.11615941
183	0xbd49d859	-0.04927859
184	0xbecbaaf1	-0.39778855
185	0xbe96db74	-0.29464304
186	0xbdf234dc	-0.118264884
187	0xbe8e6e04	-0.2781831
188	0x3dc92889	0.098221846
189	0xbdeb1d39	-0.11480183
190	0x3e33eb4b	0.17570226
191	0xbb72b34b	-0.0037033136
192	0xbd01da1a	-0.03170214
193	0xbcd1e0f1	-0.025619956
194	0xbe906bfa	-0.2820738
195	0x3e3f7b96	0.18699488
196	0xbd2fec91	-0.042950217
197	0xbd6fdd3d	-0.0585606
198	0x3dc9c1ce	0.098514184
199	0xbddffcbc	-0.10936877
200	0xbe045b06	-0.12925348
201	0xbcfd393c	-0.03091108
202	0xbd0dd7b7	-0.03462955
203	0xbde4c547	-0.1117044
204	0xbe2043d4	-0.15650874
205	0x3e6319da	0.2217783
206	0x3e675b80	0.22593498
207	0xbe41f152	-0.18939713
208	0x3ec9d63f	0.3942127
209	0xbe0f5ff2	-0.14001444
210	0xbde4d075	-0.111725725
211	0x3e168a5e	0.1470122
212	0x3e3aa88c	0.18228358
213	0xbdb4067e	-0.08790301
214	0xbc372c83	-0.011180046
215	0xbe59a562	-0.21254495
216	0xbe8ecadf	-0.27889153
217	0xbe1bbd58	-0.15208948
218	0xbe31163f	-0.17293642
219	0x3d1ab55a	0.037770607
220	0xbb557d73	-0.0032575994
221	0xbebb0927	-0.3653042
222	0xbe1d4106	-0.15356836
223	0x3d45eb98	0.048320383
224	0x3e23d578	0.159994
225	0x3ddbf201	0.10739518
226	0xbc9c9f3a	-0.019118894
227	0xbe25ca9b	-0.16190569
228	0xbe276fae	-0.16351196
229	0x3d15b194	0.036546305
230	0xbe43d0cf	-0.19122623
231	0x3d651401	0.05592728
232	0xbaa0694e	-0.0012238414
233	0x3e1fe11b	0.15613215
234	0xbeb2614f	-0.34839866
235	0x3e89a521	0.26883796
236	0x3e0ee8b4	0.13955957
237	0x3df23ecb	0.11828383
238	0x3e4572f2	0.1928213
239	0xbba2434a	-0.004951869
240	0xbc5ea4b0	-0.013589069
241	0xbe27b175	-0.16376288
242	0xbd89573c	-0.06706092
243	0x3cf2207d	0.029556507
244	0xbda81f42	-0.08209087
245	0xbe3fcc30	-0.18730235
246	0xbe5ad9fe	-0.2137222
247	0x3d6195ad	0.055074383
248	0x3e4d31b4	0.20038491
249	0xbcc72f3c	-0.024314515
250	0xbe2d1d7e	-0.16905782
251	0x3e1d5506	0.15364465
252	0x3d7b501c	0.061355695
253	0xbd067f16	-0.032836042
254	0xbde16aab	-0.110066734
255	0xbe151a07	-0.1456071

enc1.4.weight f4 [8]
0	0x3f72c020	0.9482441
1	0x3f81a231	1.0127622
2	0x3f76bed5	0.96384937
3	0x3f6c851c	0.9239061
4	0x3f8a629b	1.0811342
5	0x3f6fe00c	0.93701243
6	0x3f82c414	1.0216088
7	0x3f758f55	0.9592183

enc1.4.bias f4 [8]
0	0xbc8958c1	-0.016765954
1	0xbb908a02	-0.004410983
2	0x3cf245fe	0.02957439
3	0x3bb72b24	0.0055898596
4	0x3ce6532f	0.028115837
5	0x3b98d963	0.0046645864
6	0x3dbbc532	0.091684714
7	0xbd01d706	-0.031699203

enc1.4.running_mean f4 [8]
0	0xbf4bffae	-0.7968701
1	0xbf35a944	-0.70961404
2	0xbf91b02a	-1.1381886
3	0xbfab69bd	-1.3391644
4	0xbe78178f	-0.24227737
5	0xc0141af4	-2.314145
6	0x3efec6ef	0.4976115
7	0xbd81e2a1	-0.06342054

enc1.4.running_var f4 [8]
0	0x3f56ebfe	0.83953846
1	0x3f471004	0.7775881
2	0x40461413	3.0949752
3	0x3eebec1e	0.4607858
4	0x3edd6d87	0.43247625
5	0x4029a60e	2.6507602
6	0x3f605c12	0.8764049
7	0x3e149fd0	0.14514089

enc2.0.weight f4 [16, 8, 3, 3]
0	0x3d6a7700	0.057242393
1	0xbdb6208b	-0.08892926
2	0xbd0b22c6	-0.03396871
3	0x3dac1c8c	0.084038824
4	0x3d5e39f1	0.054254476
5	0xbd8e3655	-0.06943957
6	0x3c4aac2f	0.012370153
7	0xbd53a59d	-0.051671613
8	0x3df06403	0.11737826
9	0xbd3ab95b	-0.045586925
10	0xbd93a9f9	-0.07210154
11	0x3bc14e30	0.0058992133
12	0x3e6e4a12	0.23270443
13	0x3e8be768	0.27324986
14	0x3debe42b	0.11518129
15	0x3d76e1b3	0.060273837
16	0x3de90f0f	0.11379825
17	0x3d16cf0d	0.036818553
18	0x3c101e69	0.008796313
19	0x3cacb355	0.021081606
20	0xbe0c495a	-0.13699856
21	0x3d12532c	0.03572385
22	0xbe4871fc	-0.19574732
23	0xbda5045f	-0.08057474
24	0xbe74b1f2	-0.23896006
25	0xbdd87322	-0.10568835
26	0x3c43d2d9	0.0119521255
27	0xbdab4b8c	-0.08364019
28	0xbd70af34	-0.058760837
29	0x3eb14fac	0.34631097
30	0x3dbb44fc	0.09144017
31	0x3e96b62e	0.29435867
32	0x3cdfa49a	0.027300168
33	0x3d0a7c76	0.0338101
34	0xbce5bd05	-0.028044233
35	0x3e87f490	0.26553774
36	0xbc11d25e	-0.008900253
37	0xbd318ebe	-0.04334902
38	0xbd80c509	-0.062875815
39	0x3d82be59	0.06383962
40	0x3e1ef320	0.15522432
41	0x3be683b8	0.007034745
42	0x3dae7f9c	0.08520433
43	0x3def2bbb	0.11678263
44	0x3ce0497a	0.027378786
45	0x3e337896	0.17526469
46	0x3d1f7a4b	0.038934987
47	0x3db2f8c0	0.087388515
48	0xbd1e448f	-0.0386396
49	0x3db8a224	0.09015301
50	0x3e25b972	0.16184023
51	0xbd9b322d	-0.0757793
52	0xbd02500f	-0.03181463
53	0x3d8c21b2	0.06842364
54	0xbd90b193	-0.070651196
55	0xbc96d498	-0.01841192
56	0xbe986e73	-0.29771766
57	0xbd9cd54b	-0.0765787
58	0xbb487574	-0.0030587586
59	0x3ccc68e1	0.024952354
60	0xbe63d007	-0.22247325
61	0xbe128cbe	-0.14311501
62	0x3c8b41fa	0.016999234
63	0x3dc2822e	0.09497486
64	0x3d5b8e0f	0.053602275
65	0xbda5353a	-0.08066793
66	0x3bd08381	0.0063633327
67	0x3bab2656	0.005223076
68	0x3dfa8807	0.122329764
69	0xbde789f4	-0.11305609
70	0xbc850452	-0.016237412
71	0x3e5c4b0a	0.21513
72	0x3d3f0de0	0.04664409
73	0x3c816b0f	0.01579812
74	0x3dd45989	0.1036864
75	0x3d2cce7c	0.042189106
76	0xbccc8e4a	-0.024970192
77	0xbd7e44b0	-0.062077224
78	0xbe3c6a83	-0.18400006
79	0x3dc36d27	0.095423035
80	0xbddf0972	-0.108904734
81	0x3ae30e85	0.0017323053
82	0xbe0841fa	-0.13306418
83	0x3dfc69d0	0.1232487
84	0xbe2958c6	-0.1653777
85	0x3ccdc5d6	0.02511875
86	0xbcfdf582	-0.031000856
87	0xbcf214d6	-0.029550951
88	0xbde38ac3	-0.11110451
89	0xbd0f9220	-0.035051465
90	0x3c81f094	0.015861787
91	0x3e5a81d3	0.21338587
92	0xbd82b7bc	-0.06382701
93	0x3ea23f79	0.3168905
94	0x3d9d0560	0.07667041
95	0x3e4a84e7	0.1977726
96	0x3e10de4e	0.14147303
97	0x3d1f88b1	0.03894872
98	0x3e3897b2	0.18026617
99	0x3dca9c19	0.098930545
100	0xbdc88b8f	-0.09792244
101	0x3d7f184c	0.06227903
102	0xbe2e929f	-0.17048119
103	0xbdd45ccd	-0.10369263
104	0x3d2adf87	0.04171708
105	0x3d53991c	0.05165969
106	0xbcb90db3	-0.02258954
107	0xbc6db312	-0.014508026
108	0x3d8bbfe6	0.06823711
109	0xbe0a298e	-0.13492414
110	0xbe055f6f	-0.13024686
111	0x3d62e9cb	0.055398744
112	0xbe14b663	-0.145227
113	0x3d1476ea	0.036246218
114	0x3db46916	0.08809106
115	0xbd8cf280	-0.06882191
116	0xbe2ed141	-0.17072012
117	0xbc92fcd1	-0.017942818
118	0xbd4525cd	-0.048131753
119	0x3d74cc6c	0.059765264
120	0xbeb9d91f	-0.36298463
121	0xbdc1f9c2	-0.09471466
122	0xbe588564	-0.21144634
123	0x3cab7f47	0.020934714
124	0xbcf7472c	-0.030185305
125	0xbe2cdae2	-0.16880372
126	0x3d89340a	0.06699379
127	0xbe90cf99	-0.28283384
128	0xbd91cfc6	-0.07119708
129	0xbdfd9cd0	-0.12383425
130	0x3d37f375	0.044909913
131	0xbdb4b920	-0.08824372
132	0xbdb0fd40	-0.086420536
133	0x3c34c70c	0.011033785
134	0xbe124e4a	-0.14287677
135	0x3df30696	0.118664905
136	0x3e2e8e05	0.17046364
137	0xbe2f5a93	-0.17124395
138	0xbbe29d43	-0.0069157197
139	0xbe90ec73	-0.28305396
140	0x3bf0da1f	0.007350221
141	0x3df6604b	0.12030085
142	0x3da31cb2	0.079644576
143	0x3d9609b8	0.073260725
144	0x3c80ec1a	0.015737582
145	0x3e5f56bc	0.2181043
146	0x3d82a235	0.06378595
147	0x3e62727b	0.22113983
148	0xbca47a14	-0.020077743
149	0xbe2bd86c	-0.16781777
150	0x3d9b9177	0.075961046
151	0x3dd3a9bb	0.10335108
152	0xbe104f99	-0.14092864
153	0x3d4b680d	0.049659777
154	0xbe2d0574	-0.16896611
155	0xbcd6c363	-0.026216215
156	0x3d1c5404	0.03816606
157	0xbcb321df	-0.021866737
158	0x3ca610ee	0.020271745
159	0xbdc18d47	-0.09450775
160	0x3dfb39ec	0.12266907
161	0x3c38599d	0.011251834
162	0xbda855e4	-0.08219507
163	0xba352f63	-0.0006911663
164	0x3d37ee6f	0.044905122
165	0xbd07862c	-0.03308694
166	0xbd1335fd	-0.03594016
167	0xbd976df8	-0.07394022
168	0xbdfa00fe	-0.122072205
169	0x3de3c2e2	0.11121155
170	0xbd5392ba	-0.0516536
171	0xbe019b1b	-0.12656824
172	0xbe6308eb	-0.2217137
173	0xbd88b531	-0.066751845
174	0x3e01b408	0.12666333
175	0x3dab29a5	0.083575524
176	0xbd89414e	-0.06701909
177	0xbd7623be	-0.06009268
178	0x3ccd8d06	0.02509166
179	0xbd9fff5f	-0.0781238
180	0x3d3cd725	0.046103615
181	0xbdd46108	-0.1037007
182	0xbd260a60	-0.040537238
183	0x3e07047f	0.13185309
184	0x3dd40f7f	0.10354518
185	0xbbad4cd2	-0.0052886987
186	0x3d6e507a	0.058182217
187	0x3d397afa	0.045283295
188	0xbcf152f8	-0.029458508
189	0x3c281c4d	0.010260654
190	0xbe8b81f8	-0.27247596
191	0xbdcd6b1f	-0.10030197
192	0xbd812ef8	-0.06307787
193	0xbd2a5fc2	-0.041595228
194	0xbe4f66cb	-0.20254056
195	0x3e1326b8	0.14370239
196	0xbe4ede3a	-0.2020196
197	0xbc4b370d	-0.012403262
198	0x3d7b7410	0.061389983
199	0xbd33f24b	-0.04393224
200	0xbbf6cd4d	-0.007531798
201	0xbd2939e7	-0.041314986
202	0x3a3f9c3e	0.00073093537
203	0xbe1bebbf	-0.15226649
204	0xbd216dee	-0.039411478
205	0xbd85260d	-0.06501398
206	0xbc357738	-0.011075787
207	0xbe5690ea	-0.20953718
208	0x3e5b9ea8	0.21447241
209	0x3e582398	0.21107328
210	0x3d170d57	0.036877956
211	0x3dad63bc	0.084662884
212	0x3c871833	0.016491031
213	0x3d8bbe5d	0.06823418
214	0xbe1e4f77	-0.15460001
215	0xbe3d3447	-0.18476973
216	0x3e25093f	0.16116808
217	0x3c1b0d80	0.009463668
218	0xbc707c86	-0.014678126
219	0xbcb84c8b	-0.022497436
220	0xbdbe7964	-0.09300497
221	0xbe122cd8	-0.14274919
222	0xbdf3b2e3	-0.11899354
223	0x3c6cc345	0.014450853
224	0x3ba35418	0.00498439
225	0xbd29c2db	-0.041445594
226	0xbdddc236	-0.108280584
227	0x3d45ad37	0.048260894
228	0xbbc68014	-0.0060577486
229	0x3df8f6ee	0.12156473
230	0x3e5d0136	0.21582493
231	0x3d5ee57d	0.054418076
232	0xbc0a0923	-0.00842503
233	0x3e0a40db	0.13501303
234	0xbe464de3	-0.19365649
235	0xbe2f59f1	-0.17124154
236	0x3cd1711c	0.02556663
237	0x3e1e7ce0	0.15477324
238	0xbd1e0922	-0.03858293
239	0x3dc456e0	0.095868826
240	0xbddac74c	-0.10682544
241	0xbdeb8366	-0.11499672
242	0xbe0b541a	-0.13606301
243	0xbdb8fa08	-0.09032065
244	0xbe0eb28b	-0.13935296
245	0xbc346a5f	-0.011011689
246	0x3e773383	0.24140744
247	0x3e5e6185	0.21716888
248	0xbdf06014	-0.117370754
249	0xbc1f3737	-0.009717754
250	0x3d998273	0.07495584
251	0xbbf24e86	-0.0073946146
252	0xbe0ffae7	-0.14060555
253	0xbd151cc5	-0.03640439
254	0x3d0791c0	0.033097982
255	0xbd73e265	-0.05954208

enc2.1.weight f4 [16]
0	0x3f81601c	1.0107455
1	0x3f7ceb82	0.98796856
2	0x3f78d270	0.971961
3	0x3f7ff4cf	0.99982923
4	0x3f774dfb	0.96603364
5	0x3f7da4cb	0.9907958
6	0x3f7f1a78	0.99649763
7	0x3f79d7f5	0.9759515
8	0x3f849af7	1.0359792
9	0x3f814cc7	1.0101556
10	0x3f8249c3	1.017876
11	0x3f798409	0.97467095
12	0x3f8355ce	1.026056
13	0x3f734297	0.95023483
14	0x3f82416e	1.0176218
15	0x3f73aebd	0.95188504

enc2.1.bias f4 [16]
0	0xbc14d51e	-0.009084014
1	0x3a893a5a	0.0010469661
2	0xbb546182	-0.0032406752
3	0x3bfcd560	0.007715866
4	0xbced1462	-0.028940383
5	0xbc4279c4	-0.0118698515
6	0xba4cc7ca	-0.00078117533
7	0xbc8a12ff	-0.016854761
8	0x3d53b478	0.05168578
9	0x3b5b3e24	0.0033453787
10	0x3c8ebece	0.017424967
11	0xbc46f423	-0.012143168
12	0x3d80129e	0.06253551
13	0x3cd39d97	0.02583198
14	0xbcec45e2	-0.028841916
15	0xbdbdac26	-0.0926135

enc2.1.running_mean f4 [16]
0	0x3ed3d648	0.4137442
1	0xbf0f4bdf	-0.55975145
2	0xbef08838	-0.46978927
3	0xbe5a917b	-0.21344559
4	0xbf0c9bd7	-0.5492529
5	0xbe0ace7f	-0.13555335
6	0xbf42f447	-0.7615399
7	0x3e528541	0.20558645
8	0x3eb7cb87	0.35897467
9	0x3f44c746	0.7686657
10	0x3dbfb981	0.09361554
11	0xbe334bcb	-0.17509381
12	0xbfa2d19a	-1.2720215
13	0xbecef71d	-0.40422907
14	0xbfbee618	-1.4913969
15	0x3e9d927a	0.30775815

enc2.1.running_var f4 [16]
0	0x3eb73280	0.35780716
1	0x3eacf36b	0.33779463
2	0x3f01ec82	0.5075151
3	0x3fc671a4	1.550343
4	0x3eb0e35b	0.34548458
5	0x3f1c1541	0.6096993
6	0x3f148c56	0.58026636
7	0x3ef67866	0.48138732
8	0x3fd954bd	1.6978985
9	0x3ef4b469	0.47793892
10	0x3fb188db	1.386989
11	0x3e74a7ef	0.23892187
12	0x3ecfe156	0.40601605
13	0x3f020eec	0.5080402
14	0x3fc100cf	1.5078372
15	0x3f90241a	1.1261017

enc2.3.weight f4 [16, 16, 3, 3]
0	0xbdf442a2	-0.11926772
1	0xbe03e343	-0.12879662
2	0x3c6486ed	0.013948184
3	0xbd1c41fa	-0.038148858
4	0xbafae386	-0.0019141294
5	0x3e1a415b	0.15063994
6	0xbe616c44	-0.22013956
7	0xbc0494a6	-0.008092081
8	0x3d1e8c03	0.038707744
9	0xbe30905c	-0.17242569
10	0x3d811f48	0.063047945
11	0xbe1e13af	-0.15437196
12	0xbe560bb6	-0.20902905
13	0x3d2cf23a	0.042223193
14	0x3af0aa56	0.0018361311
15	0xbd1d56e7	-0.038412955
16	0xbe2d3258	-0.16913736
17	0xbc00e001	-0.007865907
18	0xbe63d21b	-0.22248118
19	0xbe83bd4b	-0.25730357
20	0xbe9dbcc0	-0.30808067
21	0xbd8bfd92	-0.06835474
22	0xbd190a33	-0.037363242
23	0xbdd11732	-0.10209502
24	0xbe44f06e	-0.19232342
25	0xbe93e17e	-0.28882974
26	0xbdce9650	-0.100872636
27	0xbd8a75d5	-0.06760756
28	0xbe155855	-0.14584477
29	0xb8952ce6	-7.113237e-05
30	0xbe561869	-0.20907749
31	0xbe42fd5a	-0.19041958
32	0xbce4da64	-0.027936168
33	0xbeb22fd7	-0.34802124
34	0x3df5faa6	0.12010698
35	0xbe91fcae	-0.28513092
36	0x3ddbcd5e	0.1073253
37	0xbd858109	-0.06518752
38	0x3cd260b9	0.025680887
39	0x3c4ebeeb	0.012618761
40	0xbd1f19b3	-0.038842868
41	0xbd485e67	-0.048918154
42	0x3dd36ec7	0.103238635
43	0x3d68ce8f	0.056837615
44	0xbea2a91b	-0.31769642
45	0xbe519174	-0.20465642
46	0x3a079cf3	0.00051732286
47	0x3d5cf36c	0.053943083
48	0xbcd32305	-0.025773535
49	0xbe451ffe	-0.19250485
50	0x3e1aa580	0.15102196
51	0xbcd79dd2	-0.026320372
52	0x3e8d107e	0.27551645
53	0x3cf6184c	0.030040883
54	0xbeaaad5f	-0.33335397
55	0x3cc4574e	0.023967411
56	0xbe51ae15	-0.20476563
57	0xbc340859	-0.010988318
58	0x3d689238	0.05678007
59	0xbdf54323	-0.11975696
60	0xbe31cc58	-0.17363107
61	0x3cc8c176	0.024506312
62	0xbe1ac4f9	-0.15114202
63	0x3e86bb63	0.2631484
64	0x3e6aeda0	0.22942209
65	0x3e9b5751	0.30340055
66	0x3e2f7c10	0.1713717
67	0xbd33c3f5	-0.04388805
68	0xbd94ad48	-0.07259613
69	0x3d17bf13	0.037047457
70	0xba31bd2c	-0.0006780203
71	0xbd5492e4	-0.0518979
72	0x3d96730c	0.07346162
73	0x3e19e253	0.15027742
74	0x3e037fa2	0.12841657
75	0xbda5172d	-0.08061061
76	0x3e5b7897	0.2143272
77	0xbcc91972	-0.024548266
78	0x3e371eb5	0.17882808
79	0x3dab25e3	0.08356836
80	0x3d0f564a	0.0349944
81	0x3e52ffc1	0.20605375
82	0xbdd9cd10	-0.10634816
83	0xbd6acee4	-0.057326213
84	0xbd4cae10	-0.049970686
85	0x3d8a8582	0.06763746
86	0xbe4bac9b	-0.19890063
87	0x3e8c1811	0.2736211
88	0x3b1c6b30	0.00238676
89	0xb99b2ed9	-0.00029598808
90	0xbde60ae7	-0.11232548
91	0xbd563321	-0.052294854
92	0x3dc44114	0.09582725
93	0x3d27b13a	0.0409405
94	0x3cec244a	0.028825898
95	0xbe152c9c	-0.14567798
96	0xbdd357ee	-0.10319506
97	0xbd950801	-0.07276917
98	0xbe248aa8	-0.16068518
99	0x3e5ddd94	0.21666557
100	0xbe4ffcc4	-0.20311266
101	0xbb8d238d	-0.0043072165
102	0xbd2eacba	-0.042645194
103	0x3d32b401	0.043628696
104	0x3d196fc3	0.0374601
105	0xbd92134f	-0.07132589
106	0xbdcfe135	-0.10150377
107	0x3e1cc6fc	0.15310282
108	0xbeafe99b	-0.34357914
109	0x3cea1b7d	0.02857756
110	0xbdf08750	-0.11744559
111	0xbe0e752c	-0.13911885
112	0x3e2da016	0.16955599
113	0xbe89f8dd	-0.2694768
114	0x3e3c1e44	0.1837092
115	0x3cfa705f	0.03057116
116	0x3e2c77f6	0.16842636
117	0xbea62558	-0.32450366
118	0xbd568613	-0.052373957
119	0xbd528a96	-0.051401697
120	0xbd16a19c	-0.036775216
121	0xbe1cd6f4	-0.15316373
122	0x3de72711	0.11286748
123	0xbe4f053c	-0.2021684
124	0x3d88c4d4	0.06678167
125	0xbc84de40	-0.016219258
126	0xbdbac29d	-0.09119151
127	0x3e0a4733	0.13503723
128	0xbde03014	-0.1094667
129	0xbe3c6f7d	-0.18401904
130	0x3c9352c4	0.017983802
131	0xbe1a9794	-0.15096885
132	0xbe9694d6	-0.29410428
133	0xbe4acade	-0.1980395
134	0x3c424e75	0.011859526
135	0x3e8ae819	0.271302
136	0x3ea6d71b	0.32585987
137	0xbdebe262	-0.115177885
138	0xbc2b7e8f	-0.010467186
139	0x3d95339a	0.07285233
140	0xbe4095c9	-0.18807139
141	0xbd63b0c2	-0.05558849
142	0x3c6fd571	0.014638291
143	0xbcac03c5	-0.020997891
144	0x3debe654	0.11518541
145	0xbe7bab72	-0.2457712
146	0x3db60b17	0.08888834
147	0x3d4105d4	0.0471247
148	0x3d61bc93	0.05511148
149	0xbe169595	-0.14705499
150	0xbdcd7d69	-0.10033686
151	0xbe873ecf	-0.26415107
152	0xbd463262	-0.048387893
153	0xbe1837ba	-0.14865008
154	0xbc538db9	-0.012912207
155	0xbe7d42df	-0.2473254
156	0xbe4612ee	-0.19343159
157	0xbde0ecf9	-0.10982699
158	0x3d0f33ec	0.034961626
159	0x3cb0b13e	0.02156889
160	0xbdf61d20	-0.12017274
161	0x3de91521	0.11380983
162	0x3df3a810	0.1189729
163	0xbd4b413c	-0.04962276
164	0x3dc36f5a	0.09542723
165	0xbd33c9ab	-0.043893497
166	0x3e210831	0.15725781
167	0xbd1a8b42	-0.037730463
168	0xbcd3ffa1	-0.02587873
169	0x3d894ce2	0.06704117
170	0xbdddd37c	-0.10831353
171	0xbbfd22f8	-0.007725116
172	0x3e121f71	0.14269806
173	0x39c205b4	0.00037006813
174	0x3d8ac57a	0.06775947
175	0xbd2d810f	-0.042359408
176	0x3e3e036b	0.18555991
177	0x3de65f0d	0.11248598
178	0x3d2c2e5c	0.0420364
179	0x3d2e3144	0.042527452
180	0x3da462ff	0.080266945
181	0x3d814119	0.063112445
182	0x3d29a6e8	0.04141894
183	0x3db4448d	0.088021375
184	0x3e0b6d00	0.13615799
185	0xbdaa6c48	-0.08321434
186	0xbd3962c9	-0.045260224
187	0xbdad1470	-0.08451164
188	0x3e14626a	0.14490667
189	0x3e3abe9a	0.18236771
190	0x3ce991fa	0.02851199
191	0xbdb2fb6e	-0.08739363
192	0xbbffbec1	-0.007804722
193	0x3cd80657	0.02637021
194	0x3de5d2de	0.1122186
195	0x3d2e17b5	0.042503078
196	0x3d2acce2	0.041699298
197	0x3e8a7187	0.2703974
198	0x3e7627d9	0.24038638
199	0x3d433cfa	0.047665574
200	0xbcfd27a2	-0.030902687
201	0xbe12fc20	-0.1435399
202	0x3e0ed772	0.13949373
203	0x3dabae8e	0.08382903
204	0x3e31b888	0.1735555
205	0x3993389a	0.00028080196
206	0x3df7a6ee	0.12092386
207	0xbd2c7e76	-0.04211279
208	0x3d02424b	0.031801503
209	0xbd360db9	-0.04444668
210	0x3de040e6	0.109498784
211	0x3e2568cb	0.16153257
212	0xbe3b7ca5	-0.18309267
213	0xbb93e332	-0.004513168
214	0xbe23c2d4	-0.1599229
215	0xbd6a497f	-0.057198998
216	0xbd44bb46	-0.04803016
217	0xbd48dfc8	-0.04904154
218	0xbb6ed699	-0.0036443828
219	0xbd647d5a	-0.055783607
220	0x3d113987	0.035455253
221	0xbdd6fa95	-0.104970135
222	0x3db70151	0.08935798
223	0xbd984461	-0.07434917
224	0xbc56b718	-0.013105176
225	0xbe867e78	-0.26268363
226	0x3ca490a4	0.020088501
227	0xbe1d53e2	-0.1536403
228	0x3dbd4962	0.09242512
229	0xbb943127	-0.004522461
230	0xbe0756df	-0.13216732
231	0xbe235416	-0.15950045
232	0xbd66aec7	-0.056319024
233	0x3e0665dd	0.13124795
234	0xbd73db04	-0.05953504
235	0xbcec86c6	-0.028872859
236	0xbe41c252	-0.18921784
237	0x3d958610	0.07300961
238	0xbe802e94	-0.25035536
239	0xbde0b727	-0.109724335
240	0xbc82eee2	-0.015983049
241	0x3d4bd109	0.0497599
242	0x3cfad782	0.03062034
243	0x3de98500	0.11402321
244	0x3e02c7f4	0.12771589
245	0xbd2ce40d	-0.042209674
246	0xbcc7b9c7	-0.024380578
247	0xbdc2cc7e	-0.0951166
248	0xbdeee01e	-0.11663841
249	0xbce7c477	-0.028291924
250	0x3d83e9d0	0.064410806
251	0xbd7f1557	-0.06227621
252	0xbd46f1c3	-0.048570406
253	0xbd7f51dc	-0.062333927
254	0x3e2e7ec0	0.17040539
255	0xbdcad52a	-0.09903939

enc2.4.weight f4 [16]
0	0x3f5d8b87	0.86541027
1	0x3f87e543	1.061684
2	0x3f7b6710	0.98204136
3	0x3f75ec38	0.96063566
4	0x3f6b2cea	0.9186541
5	0x3f872b00	1.0559998
6	0x3f719713	0.94371146
7	0x3f7170a2	0.9431249
8	0x3f713e62	0.94235814
9	0x3f707668	0.93930674
10	0x3f6478c6	0.89246786
11	0x3f899230	1.0747738
12	0x3f6e0381	0.92974097
13	0x3f7525a1	0.9576054
14	0x3f79fd17	0.9765181
15	0x3f82aad6	1.0208385

enc2.4.bias f4 [16]
0	0xbdb822bb	-0.08990999
1	0xbd489a04	-0.048975006
2	0xbd91ed6e	-0.07125364
3	0x3cb57db0	0.022154659
4	0xbd9ab696	-0.07554357
5	0xbd39601b	-0.04525767
6	0xbd6c2a5e	-0.057657592
7	0xbda5e616	-0.08100526
8	0xbd9a53de	-0.07535528
9	0xbceca63e	-0.028887864
10	0xbdb850ca	-0.08999784
11	0xbd335413	-0.04378135
12	0xbde9c9c6	-0.11415438
13	0xbc890170	-0.016724318
14	0x3ca245c0	0.01980865
15	0x3cafed90	0.021475583

enc2.4.running_mean f4 [16]
0	0xbfe3189c	-1.7741885
1	0x3e5e9e04	0.21739966
2	0x3fd6148b	1.6725019
3	0x3a406600	0.0007339418
4	0xbeab32a7	-0.33437082
5	0x3f863d3d	1.0487438
6	0xbf837b13	-1.0271934
7	0xbf27b970	-0.6551733
8	0xbf833840	-1.0251541
9	0xbe685210	-0.22687554
10	0x3f5a03b5	0.85161906
11	0xbe499f0e	-0.19689581
12	0xbf6f5317	-0.9348616
13	0x3df8226e	0.12115942
14	0x3f24422e	0.6416348
15	0xbf89411e	-1.0722997

enc2.4.running_var f4 [16]
0	0x3f328088	0.69727373
1	0x3fb88c05	1.441773
2	0x406ac2d3	3.6681411
3	0x3f8ce81c	1.1008334
4	0x405ebddc	3.480338
5	0x3f7c2309	0.9849096
6	0x3fae819f	1.3633307
7	0x40ec80c8	7.3907204
8	0x40a6c84c	5.2119503
9	0x3ff0bbc5	1.8807303
10	0x407f6256	3.990377
11	0x3ec98c33	0.39364776
12	0x3f0b7fac	0.54491687
13	0x3f8bed8d	1.093187
14	0x40a85494	5.2603245
15	0x400c50ef	2.1924398

bottleneck.0.weight f4 [32, 16, 3, 3]
0	0x3d977b34	0.07396546
1	0x3d806c76	0.06270687
2	0x3a9f3e82	0.0012149366
3	0x3e213f43	0.15746789
4	0xb9449cff	-0.00018750502
5	0x3e56cfac	0.20977658
6	0x3d2bcb68	0.04194203
7	0x3e895945	0.2682592
8	0x3c3b87d4	0.011445958
9	0xbb50b39f	-0.0031845344
10	0x3b0d5669	0.0021566397
11	0xbc63ba35	-0.013899376
12	0xbde1fc30	-0.11034429
13	0xbe916916	-0.28400487
14	0xbe3e43aa	-0.185805
15	0x3d987c14	0.07445541
16	0xbdc6f06f	-0.09713828
17	0xbe2d68f6	-0.1693457
18	0xbdd84f23	-0.10561969
19	0x3de0e2e3	0.10980775
20	0xbb90bc82	-0.004417003
21	0xbdc0eeed	-0.094205715
22	0xbe7451bc	-0.23859304
23	0x3d077768	0.03307286
24	0xbdd1f318	-0.102514446
25	0xbcb17b47	-0.021665229
26	0x3d035659	0.03206477
27	0x3a45e3b0	0.00075488817
28	0x3e47105d	0.19439836
29	0x3d0bb737	0.034110274
30	0xbe0b4db2	-0.13603857
31	0x3c791b76	0.015204301
32	0xbc7f67e6	-0.015588736
33	0xbe7e67a7	-0.24844228
34	0x3c4534ca	0.012036512
35	0xbda309a3	-0.079608224
36	0xbc8bfea3	-0.017089194
37	0x3dd176fa	0.10227771
38	0x3cc0be97	0.02352838
39	0xbdff9ed0	-0.12481463
40	0xbcbec304	-0.02328635
41	0x3c5d4848	0.013506003
42	0xbd3dabbf	-0.046306368
43	0xbc48d24d	-0.012257171
44	0x3da59920	0.08085847
45	0xbdae2fed	-0.08505235
46	0xbd46002d	-0.04834001
47	0xbe10de3b	-0.14147274
48	0x3db9f739	0.09080357
49	0x3d0175ab	0.031606358
50	0xbe0e917a	-0.13922682
51	0x3e916cea	0.28403407
52	0x3e07ecba	0.13273898
53	0x3d64835b	0.055789333
54	0x3e15a001	0.14611818
55	0xbd830ff8	-0.0639953
56	0xbd1a4f01	-0.037673
57	0x3daaa87b	0.08332916
58	0xbd99ae99	-0.07504005
59	0xbb8ef996	-0.004363249
60	0xbcfdb678	-0.030970797
61	0xbd0f7a04	-0.035028473
62	0x3e02620b	0.12732713
63	0xbc7631e2	-0.015026541
64	0xbbd1ee91	-0.006406613
65	0xbe38dc78	-0.18052852
66	0xbd92bc93	-0.07164874
67	0xbcd3f88e	-0.025875356
68	0xbde43d9f	-0.11144566
69	0xbdb48bbe	-0.08815716
70	0xbd4435ad	-0.04790275
71	0x3e590b62	0.21195748
72	0x3c7a3cdc	0.015273299
73	0x3d835a46	0.06413703
74	0xbdacfddf	-0.084468596
75	0xbdc2aaff	-0.09505271
76	0xbda7c73e	-0.08192299
77	0xbe11728f	-0.14203857
78	0xbe138794	-0.14407188
79	0xbd0ffb56	-0.035151802
80	0xbdae20d8	-0.08502358
81	0x3c1db941	0.0096266875
82	0x3def2c22	0.116783395
83	0x3d1b135a	0.037860252
84	0x3e618356	0.22022757
85	0xbcd48dce	-0.025946524
86	0x3e17754d	0.1479084
87	0x3cafeab1	0.021474214
88	0x3e0c4502	0.136982
89	0x3e54a56e	0.20766231
90	0x3d2d5ff8	0.04232785
91	0xbca0e185	-0.019638786
92	0xbdfb1cf9	-0.122613855
93	0xbbd615aa	-0.0065333443
94	0x3dd98966	0.1062191
95	0x3da7d34f	0.08194601
96	0x3ded0f4c	0.11575183
97	0xbd4e3261	-0.050341014
98	0x3dc47fef	0.09594714
99	0x3ce25ebd	0.027633065
100	0x3b912a22	0.0044300715
101	0xbc162963	-0.009165141
102	0xbe0fd025	-0.14044245
103	0x3d4329bd	0.047647227
104	0x3d028d12	0.031872816
105	0xbdb69e16	-0.08916871
106	0x3cbf9531	0.02338657
107	0xbdd837b4	-0.105574995
108	0xbce03f14	-0.027373828
109	0x3df0bcf7	0.11754792
110	0xbdd1baa1	-0.10240675
111	0x3cf3e6e6	0.029773187
112	0xbdd50b97	-0.10402601
113	0xbde81c39	-0.11333508
114	0x3d8b2639	0.067944
115	0xbdaccee1	-0.084378965
116	0xbc9357c9	-0.017986195
117	0x3db5d365	0.08878211
118	0xbd4300d6	-0.04760822
119	0x3d5a1ba8	0.05324903
120	0xbe01be83	-0.1267033
121	0xbc8c366e	-0.017115798
122	0x3d3e8e68	0.046522528
123	0xbd0b765c	-0.034048423
124	0x3daa92ca	0.08328779
125	0x3b702898	0.003664529
126	0xbd7a2f58	-0.061080307
127	0xbe08b402	-0.13349918
128	0xbc36ecc0	-0.011164844
129	0x3c03e47a	0.0080500785
130	0x3db76ee1	0.08956695
131	0xbc357c44	-0.0110769905
132	0xbcc308b5	-0.023807863
133	0x3d183297	0.03715762
134	0xbcf311e2	-0.029671613
135	0xbe681ac3	-0.22666459
136	0xbe8d0cd1	-0.2754884
137	0x3d3ee771	0.04660744
138	0xbde1bd72	-0.11022462
139	0xbd8a81c6	-0.067630336
140	0xbe11f794	-0.142546
141	0xbe809399	-0.25112608
142	0xbdc4fd64	-0.09618643
143	0x3c99cbbf	0.018773912
144	0x3d04fb29	0.032466087
145	0x3dc8b267	0.097996525
146	0xbd5c240c	-0.053745314
147	0xbc7e5f8a	-0.015525708
148	0x3ba79aa7	0.0051148715
149	0xbd3c1624	-0.045919552
150	0xbde69ad5	-0.112600006
151	0xbbf238f2	-0.0073920423
152	0xbd28e6f2	-0.04123587
153	0x3d8f8b27	0.07008963
154	0x3c7ede9d	0.015556005
155	0x3b9c7c57	0.0047755647
156	0x3d3596b8	0.04433319
157	0x3cf1b76f	0.029506413
158	0xbde26ed1	-0.11056293
159	0x3e8610ed	0.26184788
160	0xbd14fbcb	-0.03637294
161	0xbd2d2d98	-0.04227981
162	0xbd4f4ccb	-0.050610345
163	0x3b24bfcb	0.0025138732
164	0x3ce33ae2	0.027738038
165	0xbcd2e5e7	-0.025744392
166	0x3e05e0c7	0.13074027
167	0x3da9d27f	0.08292102
168	0xbe29603a	-0.16540614
169	0xbe02a91c	-0.12759823
170	0x3da8b3f1	0.08237446
171	0xbe46eecb	-0.1942703
172	0x3dff155d	0.124552466
173	0x3e084907	0.13309108
174	0xbe385f01	-0.18004991
175	0xbca179c7	-0.019711388
176	0x3bf7f6de	0.0075672707
177	0xbd46d055	-0.048538525
178	0xbd71647b	-0.058933716
179	0x3d52082f	0.051277336
180	0xbd9a1fec	-0.0752562
181	0x3d13878c	0.03601794
182	0xbdc2c2da	-0.09509821
183	0xbd8c20b9	-0.06842179
184	0x3d1276e6	0.03575792
185	0xbcf1235b	-0.029435804
186	0xbd827186	-0.06369309
187	0x3c4e6510	0.012597337
188	0xbe035b5e	-0.12827823
189	0x3df022ea	0.11725409
190	0x3dc5d842	0.096603885
191	0x3d7363fa	0.059421517
192	0x3d995a26	0.074878976
193	0xbca54d68	-0.020178512
194	0xbd8daf73	-0.0691823
195	0xbc7191eb	-0.014744262
196	0xbd58f899	-0.052971456
197	0x3d0889ac	0.03333442
198	0xbbe14bb2	-0.0068754787
199	0xbbbdcda8	-0.0057923384
200	0xbc14ed26	-0.009089744
201	0xbda59f80	-0.08087063
202	0x3df3847e	0.11890505
203	0x3e1d1146	0.1533862
204	0x3c441750	0.011968449
205	0xbe558682	-0.20852092
206	0x3d6dc2b9	0.05804703
207	0xbd8a7520	-0.06760621
208	0xbddb0145	-0.106936015
209	0xbe2205c1	-0.15822507
210	0xbc0035f5	-0.007825364
211	0xbcbe391e	-0.023220595
212	0xbc4d9152	-0.012546854
213	0x3cd311be	0.025765296
214	0xbe0773fb	-0.13227837
215	0xbdccd257	-0.10001057
216	0x3d77e6f1	0.060522977
217	0xbd575ce4	-0.05257882
218	0xbe58aece	-0.21160433
219	0x3dbae066	0.09124832
220	0xbdd8cf14	-0.10586372
221	0xbdf28dfe	-0.11843489
222	0x3da0a636	0.07844202
223	0xbd8bad89	-0.068202086
224	0xbd1b31d4	-0.037889317
225	0xbd0db7ab	-0.034598988
226	0xbdd4ce39	-0.10390896
227	0x3d354ae2	0.044260867
228	0xbe30eacf	-0.17277072
229	0xbca66052	-0.020309601
230	0xbd227efb	-0.03967188
231	0xbdcab1ef	-0.098972194
232	0xbe588b52	-0.21146896
233	0xbd99b991	-0.07506097
234	0xbe35b3cd	-0.1774437
235	0x3d215de7	0.039396193
236	0x3de72c8a	0.11287792
237	0xbd433b13	-0.04766376
238	0xbd4f0950	-0.05054599
239	0x3cdddae3	0.027081912
240	0x3da49c43	0.08037617
241	0xbd4506ec	-0.048102304
242	0xbde70115	-0.11279503
243	0xbd691edd	-0.0569142
244	0x3ce541d7	0.027985496
245	0x3d0cb7b1	0.03435487
246	0xbcad6c8c	-0.021169923
247	0xbc81b40c	-0.015832923
248	0x3dc686a4	0.096936494
249	0xbe5ce8f8	-0.21573246
250	0xbe0c07da	-0.1367487
251	0xbd054fd2	-0.032546826
252	0xbd554602	-0.052068718
253	0x3d718fa6	0.058974884
254	0x3cefa3e2	0.02925295
255	0x3e09613f	0.13416003

bottleneck.1.weight f4 [32]
0	0x3f809ca4	1.0047803
1	0x3f81dc16	1.014529
2	0x3f725389	0.94658715
3	0x3f70bc4a	0.94037306
4	0x3f84b1bd	1.0366741
5	0x3f83ca96	1.0296199
6	0x3f86afb8	1.0522375
7	0x3f6f9985	0.9359363
8	0x3f8624bd	1.0479962
9	0x3f7c59ab	0.9857432
10	0x3f82c590	1.0216541
11	0x3f6e6599	0.93123776
12	0x3f8a561b	1.0807527
13	0x3f88dc82	1.0692294
14	0x3f852502	1.0401919
15	0x3f858b48	1.043313
16	0x3f78f736	0.97252214
17	0x3f770b95	0.9650205
18	0x3f724b4f	0.9464616
19	0x3f767821	0.9627705
20	0x3f80d4c5	1.0064932
21	0x3f85edfa	1.046325
22	0x3f5e2fde	0.8679179
23	0x3f6efd43	0.93355197
24	0x3f773320	0.96562386
25	0x3f863eb9	1.0487891
26	0x3f850283	1.0391392
27	0x3f73798a	0.9510733
28	0x3f7f41df	0.99709886
29	0x3f71f2b7	0.9451098
30	0x3f87a235	1.0596377
31	0x3f7aed77	0.9801859

bottleneck.1.bias f4 [32]
0	0x3d82cfb4	0.063872725
1	0xbd1c9c4b	-0.03823499
2	0xbd5d99fa	-0.05410192
3	0xbd96bc9f	-0.07360195
4	0x3d1b8984	0.037972942
5	0x3c97d4bf	0.018534062
6	0xbc31af5a	-0.01084503
7	0xbdd99457	-0.10623997
8	0x3daf4ae0	0.08559203
9	0x3b678036	0.0035324222
10	0x3c50a13d	0.012733755
11	0xbdf82c33	-0.12117805
12	0x3da9bf2d	0.08288417
13	0x3d7e2842	0.06205011
14	0x3dc1b78e	0.094588384
15	0xbd70c50a	-0.05878166
16	0xbd9f16e9	-0.07768042
17	0x3b6a2d0d	0.0035732419
18	0xbcc393a3	-0.02387411
19	0x3c542995	0.012949367
20	0x3cc4ca8a	0.02402236
21	0x3d936c27	0.07198363
22	0xbe20779b	-0.15670626
23	0xbdf5f580	-0.12009716
24	0xbd9a2790	-0.07527077
25	0xbde58e70	-0.112088084
26	0x3d008975	0.03138109
27	0x3b4ded12	0.0031421822
28	0x3b8db2d6	0.0043242974
29	0xbdfb465b	-0.122692786
30	0x3d661020	0.05616772
31	0xbc36dc4b	-0.01116092

bottleneck.1.running_mean f4 [32]
0	0xbf0caed1	-0.5495425
1	0xbf4f686e	-0.8101872
2	0x3f559c56	0.83441675
3	0xbf53b5c7	-0.82699245
4	0xbfe92b50	-1.8216343
5	0xbfc972b4	-1.573813
6	0xbe342513	-0.17592268
7	0xbd6e293a	-0.058144785
8	0xbf0a7b5a	-0.5409447
9	0x3f411c15	0.75433475
10	0xbff10a96	-1.8831356
11	0xbefb2937	-0.49054882
12	0xbeffd97c	-0.49970615
13	0xbe0efc6a	-0.13963476
14	0xbe81f384	-0.253811
15	0x3ec6d65b	0.38835415
16	0x3f30544e	0.6887864
17	0xbf0cb8e9	-0.5496965
18	0x3f41b683	0.75669116
19	0xbfc86d06	-1.5658271
20	0xbfa9e3d6	-1.3272655
21	0xbe43fe51	-0.19139983
22	0x3f04e943	0.5191843
23	0x3f19e95d	0.6012171
24	0xbec628ac	-0.38702905
25	0x3f2fcd27	0.6867241
26	0xbcaf3ab7	-0.021390302
27	0xbf0aaf90	-0.5417414
28	0xbfc72e8e	-1.5561082
29	0x3f9ddb38	1.2332525
30	0xbf235b00	-0.6381073
31	0x3ed5f1ce	0.41786045

bottleneck.1.running_var f4 [32]
0	0x400029c5	2.0025494
1	0x3f492030	0.7856474
2	0x3fa15f18	1.2607145
3	0x3f64aff4	0.89330983
4	0x4082573c	4.0731487
5	0x40e4e97a	7.1535006
6	0x3f40de63	0.75339335
7	0x3ff28be7	1.8948945
8	0x3fa1587c	1.2605128
9	0x3fed60cf	1.8545169
10	0x40be0aaf	5.938804
11	0x3f1d04a0	0.6133518
12	0x3f2974d4	0.6619389
13	0x3f2fcc32	0.6867095
14	0x3f31f747	0.6951794
15	0x3edaeb05	0.4275743
16	0x3fd92407	1.696412
17	0x4064613e	3.5684352
18	0x3f3930dc	0.7234018
19	0x3fe0594b	1.752725
20	0x409aea03	4.841066
21	0x3f31049a	0.69147646
22	0x3fc1b7c0	1.5134201
23	0x3ef26941	0.47345927
24	0x3f81133e	1.0083997
25	0x3f29b492	0.66291153
26	0x3f217957	0.63075775
27	0x3f0328fb	0.51234406
28	0x40392e32	2.8934445
29	0x40253d98	2.5818844
30	0x3febad94	1.8412347
31	0x3f9cb863	1.224377

bottleneck.3.weight f4 [32, 32, 3, 3]
0	0xbcc90c9b	-0.024542144
1	0x3e174e67	0.14776002
2	0x3d362098	0.044464678
3	0x3d347611	0.04405791
4	0x3c4d4f4d	0.012531114
5	0xbd9807c9	-0.0742336
6	0xbbf4d4c6	-0.0074716536
7	0x3e118eef	0.14214681
8	0xbc5bc458	-0.013413511
9	0xbe38838e	-0.18018934
10	0xbd3834fb	-0.0449724
11	0xbcea67d7	-0.028613968
12	0x3d27d9f0	0.040979326
13	0xbd8e311e	-0.06942962
14	0xbd2dd419	-0.0424386
15	0x3ca7eb9d	0.020498091
16	0xbd040869	-0.032234583
17	0xbe4b8996	-0.19876704
18	0xbd5ae5f7	-0.053441968
19	0xbd41057d	-0.047124375
20	0x3d059498	0.032612413
21	0xbdb4926e	-0.08816992
22	0x3e094a91	0.13407351
23	0x3ba06740	0.004895121
24	0x3d7f8137	0.06237909
25	0xbd10d71e	-0.0353614
26	0x3d1be5c3	0.038060915
27	0xbd5c6c3e	-0.053814165
28	0xbd94b2c9	-0.07260663
29	0xbd85711c	-0.065157145
30	0x3e0b0077	0.13574396
31	0x3e1323bd	0.14369102
32	0xbb2437d6	-0.0025057695
33	0x3d03618e	0.032075457
34	0xbd048b09	-0.032359157
35	0x3c6e388e	0.014539851
36	0x3d2f7438	0.042835444
37	0xbd7b4177	-0.06134173
38	0xbce2af76	-0.027671557
39	0xbcb28eb3	-0.02179656
40	0x3dd2b3a0	0.10288167
41	0x3e1a4a1b	0.15067331
42	0xbc8428f2	-0.016132805
43	0xbd8bb274	-0.068211466
44	0x3c379b63	0.011206481
45	0xbe1e4d6b	-0.1545922
46	0x3e0eed85	0.13957794
47	0xbd439bbc	-0.04775594
48	0x3bae2283	0.0053141727
49	0x3c9cb45d	0.019128973
50	0x3cd0faed	0.025510276
51	0xbd4cccd2	-0.05000002
52	0x3ca10e02	0.01966
53	0x3c42f67f	0.01189959
54	0xbdda0e30	-0.10647237
55	0xbdfdcb06	-0.12392239
56	0xbcbc9b8d	-0.023023391
57	0xbe755926	-0.23959789
58	0x3dfca1ba	0.123355344
59	0xbe031c9f	-0.12803887
60	0xbde26c0a	-0.11055763
61	0xbe0e7770	-0.1391275
62	0xbd16af3a	-0.036788203
63	0xbd888421	-0.066658266
64	0xbe276f5a	-0.16351071
65	0xbd321405	-0.043476123
66	0xbd8664db	-0.065622054
67	0xba9d6560	-0.0012008362
68	0xbc3ecfd4	-0.01164623
69	0xbdd4d855	-0.103928246
70	0xbdecc47c	-0.11560914
71	0xbddf2477	-0.10895627
72	0x3d31229d	0.0432459
73	0x3e192108	0.14954007
74	0xbdb4a341	-0.08820201
75	0x3e10f45a	0.14155713
76	0xbc968708	-0.018374935
77	0x3c0fbadb	0.008772577
78	0x3dcf13c2	0.101111904
79	0x3db32a08	0.08748251
80	0x3d131215	0.035905916
81	0xbd8dc086	-0.069214866
82	0xbdbbf1b1	-0.09176958
83	0xbe2e8cd5	-0.1704591
84	0x3def6cc7	0.116906695
85	0x3ce37e2d	0.027770126
86	0xbe25b97e	-0.16184041
87	0x3d810515	0.062997974
88	0x3d19b64b	0.037527364
89	0xbcb390c0	-0.021919608
90	0x3bcc29df	0.0062305774
91	0xba5ad74a	-0.00083481206
92	0x3da35be3	0.079765104
93	0xbd3dfc4e	-0.046383195
94	0xbd8c59b0	-0.06853044
95	0x3d577424	0.052600995
96	0x3dc1135f	0.09427523
97	0xbcafea41	-0.021474006
98	0x3d86bcdc	0.06578991
99	0x3d3a4fb5	0.04548617
100	0x3d9695fd	0.07352827
101	0x3e0740a2	0.13208249
102	0xbdc042eb	-0.093877636
103	0x3dc751e0	0.09732413
104	0xbb86fa8e	-0.004119224
105	0x3dd50133	0.10400619
106	0xbcfd2982	-0.030903582
107	0x3df52850	0.119705796
108	0xbcae73f1	-0.02129552
109	0xbcd5ad6e	-0.026083674
110	0xbd1395c1	-0.03603149
111	0xbdf7e8fc	-0.12104985
112	0xbd84ae4b	-0.06478556
113	0x3d985421	0.07437921
114	0x3c980487	0.018556846
115	0x3c88d519	0.016703175
116	0x3d3cc395	0.04608496
117	0xbe23f51e	-0.16011474
118	0xbcf26eea	-0.029593904
119	0xbb6c3968	-0.003604496
120	0x3de9268a	0.11384304
121	0xbd464c65	-0.0484127
122	0x3d19247e	0.037388317
123	0xbcc86c79	-0.024465786
124	0x3e115b4c	0.14194983
125	0x3cb796ca	0.022410769
126	0xbd458b4e	-0.048228554
127	0xbda7b218	-0.081882656
128	0x3e09d9cd	0.1346199
129	0x3d93b7f2	0.07212819
130	0x3dbdb9a1	0.092639215
131	0xbdff7ba5	-0.12474755
132	0x3d2f5f46	0.04281547
133	0xbd5f3b13	-0.054499697
134	0xbdcd62f4	-0.100286394
135	0xbcee63ff	-0.029100416
136	0xbd9f0c2d	-0.07765994
137	0xbdf02d28	-0.11727363
138	0xbe04701c	-0.12933391
139	0x3e0034b0	0.12520099
140	0xbe259337	-0.1616944
141	0xbe475609	-0.19466414
142	0x3d6aab49	0.057292257
143	0x3d1c7414	0.03819664
144	0x3d769374	0.060199216
145	0x3e09b468	0.13447726
146	0x3dc8f03e	0.098114476
147	0x3d899bd6	0.067191765
148	0x3dab53d6	0.083656
149	0x3d46fd67	0.048581507
150	0x3d8814fd	0.06644628
151	0xbd094c00	-0.033519745
152	0xbc052f75	-0.00812899
153	0xbe448147	-0.1918994
154	0x3e463116	0.19354662
155	0x3ada66a4	0.0016662669
156	0x3db628b7	0.088944845
157	0xbe14057f	-0.14455222
158	0x3d948e8f	0.072537534
159	0x3c7ae377	0.015313021
160	0xbcb359ac	-0.021893345
161	0xbdf5e7bc	-0.120070904
162	0xbcb20aa9	-0.021733599
163	0xbd83f1f4	-0.06442633
164	0xbe4dbbdd	-0.20091195
165	0xbdc7e749	-0.09760911
166	0x3d6912a0	0.056902528
167	0x3c9eebbc	0.019399516
168	0x3cb3df6e	0.021957126
169	0xbd589e39	-0.052885268
170	0xbdd21706	-0.102582976
171	0x3c96e480	0.018419504
172	0x3e1f0ba0	0.15531778
173	0xbd339ed1	-0.04385263
174	0x3dd0fd7e	0.102046
175	0x3e2ddb19	0.1697811
176	0x3d9a1b9f	0.075247996
177	0x3c2102a3	0.009827289
178	0x3df02127	0.11725073
179	0xbe757c46	-0.23973188
180	0xbd7eb8d6	-0.062187992
181	0x3dee7e7c	0.11645219
182	0x3d3dc288	0.046328098
183	0xbd083877	-0.033256974
184	0x3cec3ff4	0.028839089
185	0xbe267b0a	-0.16257873
186	0x3caee604	0.021349914
187	0xbd22544e	-0.03963118
188	0xbba4a023	-0.0050239726
189	0xbd9cf591	-0.076640256
190	0xbe18947e	-0.14900395
191	0xbe2abfa5	-0.16674669
192	0xbd2f1185	-0.042741317
193	0x3ddac50a	0.106821135
194	0xbdc7a052	-0.097473755
195	0x3ceafd16	0.028685134
196	0xbe21d4cc	-0.15803832
197	0xbc9725d7	-0.01845066
198	0xbd9019ff	-0.07036208
199	0x3dd351d6	0.10318343
200	0xbcf2d454	-0.029642262
201	0xbe3e890d	-0.18606968
202	0xbbc497f6	-0.0059995605
203	0xbc04b9d7	-0.008100948
204	0xbcbcc9cb	-0.023045441
205	0x3da4b771	0.08042801
206	0xbbfdc0b6	-0.00774392
207	0xbe3279cc	-0.17429274
208	0xbd8e5fb3	-0.06951847
209	0xbd8fed64	-0.070277005
210	0xbdbdfd40	-0.09276819
211	0xbd8f969d	-0.07011149
212	0xbda35877	-0.07975858
213	0x3c5a9f80	0.013343692
214	0xbddf6830	-0.10908544
215	0xbc83762e	-0.016047563
216	0x3d7a98cc	0.061180875
217	0xbe040202	-0.12891391
218	0x3cf5f1ea	0.03002258
219	0x3db5523b	0.08853575
220	0xbce62546	-0.028093945
221	0xbcd2167b	-0.025645485
222	0x3d7d8813	0.06189735
223	0xbd3939d5	-0.04522117
224	0x3dd2fbd0	0.10301936
225	0x3d8fdc50	0.07024443
226	0xbe2d8811	-0.16946436
227	0xbe0370e0	-0.12836027
228	0xbdce19b3	-0.100634955
229	0xbe0478f2	-0.12936762
230	0xbe023430	-0.1271522
231	0xbd17adeb	-0.037031095
232	0xbe23235a	-0.15931454
233	0xbe1b42a7	-0.15162145
234	0xbcc8d881	-0.0245173
235	0x3e2354a1	0.15950252
236	0xbdfde9fe	-0.12398146
237	0xbb8fdb46	-0.004390153
238	0x3cd8ca6f	0.026463715
239	0xbd915c3f	-0.07097673
240	0xbde688e6	-0.1125658
241	0x3bc80163	0.006103681
242	0xbd99594a	-0.07487734
243	0xbc286c62	-0.010279747
244	0x3d232400	0.039829254
245	0xbdc758a7	-0.09733706
246	0x3d730259	0.05932841
247	0x3c8626fa	0.016376007
248	0xbd472025	-0.04861464
249	0x3c3bf2f9	0.011471503
250	0x3e59f39e	0.21284339
251	0x3c9f4484	0.01944185
252	0x3d98710a	0.074434355
253	0xbd423a16	-0.047418676
254	0xbb8cea0c	-0.0043003615
255	0x3d6b431b	0.057437044

bottleneck.4.weight f4 [32]
0	0x3f81bdb9	1.0136024
1	0x3f882c0d	1.0638443
2	0x3f85c791	1.0451528
3	0x3f85484b	1.0412687
4	0x3f8d1dd8	1.1024733
5	0x3f811d7d	1.0087124
6	0x3f84ce69	1.0375491
7	0x3f8345f1	1.025572
8	0x3f69d0c3	0.9133417
9	0x3f7a5125	0.97780067
10	0x3f82f127	1.0229844
11	0x3f743778	0.9539714
12	0x3f7f87ee	0.9981679
13	0x3f80a627	1.0050706
14	0x3f8fbad0	1.1228886
15	0x3f81b088	1.0131998
16	0x3f8425f5	1.0324084
17	0x3f869e3f	1.0517043
18	0x3f87c3c9	1.0606624
19	0x3f88e707	1.0695504
20	0x3f7bc904	0.983536
21	0x3f8f2d5c	1.1185718
22	0x3f840a47	1.0315636
23	0x3f8ca095	1.0986506
24	0x3f7bb02f	0.9831571
25	0x3f739902	0.95155346
26	0x3f6fb27e	0.9363173
27	0x3f8f7483	1.1207432
28	0x3f811242	1.0083697
29	0x3f85b87a	1.0446923
30	0x3f80dce5	1.0067412
31	0x3f885a9b	1.065265
