experiments_multi/Brain_Tumor_Segmentation_Separate_Train_Val_20260206_101849/final_model.pth (torch, 140797 bytes, 56 tensors)

enc1.0.weight f4 [8, 4, 3, 3]
0	0x3b4c0abf	0.0031134335
1	0x3d8e96a3	0.069623254
2	0xbe70dc35	-0.23521502
3	0xbd74030f	-0.05957323
4	0xbe2300c3	-0.1591826
5	0xbe1143b1	-0.14185978
6	0xbc301883	-0.010748032
7	0x3e24a42a	0.16078249
8	0xbe1101ba	-0.14160815
9	0xbc85f4e1	-0.016352119
10	0xbe440a51	-0.1914456
11	0x3b0b0d2e	0.0021217573
12	0x3ddd0e3d	0.10793731
13	0xbccb0c71	-0.024786206
14	0x3ea11ff6	0.31469697
15	0xbeb8df0f	-0.3610768
16	0x3e639d26	0.22227916
17	0x3debbad6	0.115102455
18	0x3e042f64	0.12908703
19	0xbda4aec3	-0.08041146
20	0xbe580d4c	-0.21098822
21	0x3e86a66f	0.26298854
22	0xbe9c4d0f	-0.3052754
23	0xbc2b895a	-0.010469759
24	0x3e65fb3b	0.22459118
25	0x3cd2ef26	0.0257488
26	0xbe4c3704	-0.19942862
27	0xbbc63bc2	-0.006049604
28	0x3dd07dda	0.10180254
29	0x3cc76759	0.024341272
30	0xbd944946	-0.07240538
31	0xbdab0e75	-0.08352367
32	0x3e05f4f7	0.13081728
33	0x3dff69c0	0.12471342
34	0xbdc7c4b1	-0.09754313
35	0xbe4e9ca0	-0.20176935
36	0x3cc8819d	0.024475867
37	0x3e23e74d	0.16006203
38	0x3db77dbd	0.089595295
39	0x3e93338f	0.28750274
40	0x3e5b25a5	0.21401079
41	0x3dc3f596	0.09568326
42	0x3e42c41e	0.19020125
43	0xbd88dd76	-0.06682865
44	0x3e8b242e	0.2717604
45	0xbeb439bd	-0.352003
46	0x3e0c7113	0.1371501
47	0xbe1af995	-0.1513427
48	0xbe09a344	-0.13441187
49	0xbe7e59a6	-0.24838886
50	0xbe402c85	-0.18766983
51	0x3e290a41	0.16507818
52	0x3d640d7c	0.055676922
53	0xbe073f38	-0.1320771
54	0x3e6b00bc	0.22949499
55	0x3e92fafc	0.2870711
56	0x3cbaa411	0.022783311
57	0x3d819ca7	0.06328707
58	0x3e11106c	0.1416642
59	0x3be8cfad	0.007104835
60	0xbde64d1b	-0.112451755
61	0xbe6b5dae	-0.22984955
62	0x3b87bda7	0.0041424814
63	0xbe15fa93	-0.14646368
64	0xbdc47b39	-0.09593815
65	0x3e03350b	0.12813203
66	0xbd75593a	-0.059899546
67	0x3d99ea7a	0.07515426
68	0xbe88ea68	-0.26741338
69	0xbd2f4255	-0.04278787
70	0xbbf944fe	-0.0076071015
71	0xbd95017f	-0.07275676
72	0x3ea0853e	0.31351656
73	0x3d8938bd	0.06700275
74	0xbe74734a	-0.23872104
75	0xbcfbed30	-0.030752748
76	0xbe04de45	-0.12975414
77	0xbd99f035	-0.07516519
78	0xbe352d02	-0.1769295
79	0xbe11bcbd	-0.14232154
80	0xbda824ab	-0.08210119
81	0x3ea59c2b	0.3234571
82	0xbe0fc2e1	-0.14039184
83	0xbeb9d91b	-0.3629845
84	0xbdcad34d	-0.09903584
85	0xbe2bc354	-0.1677373
86	0x3d48cb0a	0.04902176
87	0xbd4622f5	-0.04837318
88	0x3e8552b9	0.26039675
89	0xbd6abeb3	-0.05731077
90	0xbdc2aa42	-0.0950513
91	0xbd2a9f00	-0.04165554
92	0x3e9e022d	0.30861035
93	0xbe2983a9	-0.1655413
94	0xbe79aa54	-0.24381381
95	0x3dd0f29d	0.10202525
96	0x3c7911ba	0.01520198
97	0x3d3511cf	0.044206437
98	0x3e13a58f	0.14418624
99	0xbd009743	-0.031394254
100	0x3e50f1e3	0.20404772
101	0x3dca4728	0.09876853
102	0xbe59aa76	-0.21256432
103	0xbee26867	-0.44220278
104	0xbdd3dd3f	-0.10344934
105	0x3ee153ba	0.4400919
106	0x3d05a30a	0.03262619
107	0x3e3f2255	0.1866544
108	0xbd9a0849	-0.075211115
109	0xbe47d055	-0.19513066
110	0xbd9a50e0	-0.07534957
111	0x3e20ab76	0.15690407
112	0xbe15165c	-0.1455931
113	0xbe52224d	-0.20520897
114	0xbc856a49	-0.016286032
115	0xbccb7844	-0.02483762
116	0x3d7a43aa	0.061099686
117	0x3e5305ee	0.20607731
118	0x3e8eeffa	0.27917463
119	0xbcfb14e3	-0.030649608
120	0xbe55edc2	-0.20891479
121	0xbe5cd0c7	-0.21564017
122	0x3b3a249f	0.0028403176
123	0xbe137077	-0.1439837
124	0xbe270fdf	-0.16314648
125	0xbea9971a	-0.33123094
126	0xbe1284d7	-0.14308487
127	0x3ea136e4	0.3148719
128	0xbe688123	-0.22705512
129	0x3d641a64	0.05568923
130	0xbc5f29d9	-0.013620817
131	0xbdbba9ea	-0.09163268
132	0x3e4614c3	0.19343857
133	0xbd5b6b61	-0.0535692
134	0xbda38308	-0.079839766
135	0x3d083b75	0.033259828
136	0xbe154c92	-0.1457999
137	0x3e17508e	0.14776823
138	0xbd664352	-0.056216545
139	0xbdaf8989	-0.085711546
140	0x3e1f1d5c	0.15538543
141	0x3e2c54aa	0.16829172
142	0x3d54d3da	0.05195985
143	0x3da587f3	0.08082571
144	0x3ca01630	0.01954183
145	0xbe4e069c	-0.20119709
146	0x3ef90da9	0.48643234
147	0xbe76d3ca	-0.24104229
148	0xbe919215	-0.28431764
149	0x3e778ab9	0.24174012
150	0xbe8d1756	-0.27556866
151	0xbe60c542	-0.21950248
152	0xbe279aed	-0.16367693
153	0xbdddd886	-0.10832314
154	0x3d8c20ed	0.068422176
155	0xbd2d1bba	-0.04226277
156	0xbe68c11d	-0.22729917
157	0x3e273963	0.16330485
158	0x3e017b59	0.1264471
159	0xbe5e4de3	-0.21709399
160	0xbec9a300	-0.39382172
161	0x3d4d43f5	0.050113637
162	0xbe1eafaf	-0.15496705
163	0x3bb8b45f	0.0056367363
164	0x3d3660f1	0.044526044
165	0xbd69dd4e	-0.05709582
166	0x3d808f6b	0.06277355
167	0xbdb0c495	-0.08631245
168	0x3caacc1a	0.020849276
169	0xbce0a88b	-0.027424118
170	0x3dbe4e03	0.09292223
171	0xbd292cee	-0.041302614
172	0xbd258b06	-0.040415786
173	0x3cb93d95	0.022612372
174	0xbb035ad0	-0.0020043142
175	0xbe3fec40	-0.18742466
176	0x3e12456d	0.14284296
177	0x3eba5657	0.36393997
178	0xbdac6e47	-0.08419471
179	0xbd068326	-0.032839917
180	0x3cf8bfb2	0.030364845
181	0x3e960ae7	0.29305193
182	0xbd0d8edc	-0.03456007
183	0x3e0978a1	0.13424923
184	0x3d5332ff	0.051562306
185	0x3d93e7f4	0.07221976
186	0xbe6f5e34	-0.2337578
187	0xbc84187c	-0.016124956
188	0xbdb64f54	-0.089018494
189	0xbe51d357	-0.20490776
190	0xbe441699	-0.19149245
191	0x3d887383	0.06662657
192	0xbe9085dc	-0.28227127
193	0x3d0bd354	0.034137085
194	0xbe7bd4bd	-0.24592872
195	0xbd5ec782	-0.054389484
196	0xbcde0bd3	-0.027105248
197	0xbd9c1406	-0.07621007
198	0x3da56305	0.08075527
199	0xbed3bf06	-0.41356677
200	0xbda5b04f	-0.08090269
201	0xbba243b3	-0.004951918
202	0xbd53fda0	-0.051755548
203	0x3e453e8e	0.19262144
204	0x3e5001b5	0.20313151
205	0xbdf3e29d	-0.119084574
206	0x3e0be0fe	0.13660046
207	0xbe5b198e	-0.21396467
208	0x3ee82543	0.45340928
209	0x3e4b2708	0.19839108
210	0x3bbc9bbe	0.0057558706
211	0x3e509088	0.20367634
212	0x3d98ae6e	0.07455145
213	0x3e4861c9	0.19568552
214	0x3e19c517	0.1501659
215	0xbe82a3e1	-0.25515655
216	0x3dd857dd	0.105636336
217	0x3c448e13	0.011996764
218	0xbe63d571	-0.2224939
219	0xbdb96e40	-0.09054232
220	0x3d9488d9	0.07252664
221	0x3ef51785	0.47869506
222	0x3def3c21	0.116813906
223	0x3e8aa7d6	0.27081174
224	0xbd24e80b	-0.040260356
225	0xbd813460	-0.06308818
226	0xbe249e68	-0.16076052
227	0xbcb0adc0	-0.021567225
228	0x3d1c811a	0.03820906
229	0x3bb19037	0.005418803
230	0xbdbaf1ca	-0.09128149
231	0x3e11ae9a	0.14226761
232	0x3bd0963a	0.0063655647
233	0x3db55d9b	0.088557445
234	0x3e38a171	0.18030335
235	0x3d43b9f0	0.047784746
236	0x3c970717	0.018435998
237	0x3e187178	0.14887035
238	0xbcc6061e	-0.024172839
239	0x3d1f3170	0.038865507
240	0xbd025e52	-0.031828232
241	0x3c8cad7f	0.017172573
242	0xbdd6c4aa	-0.104867294
243	0x3d4479b8	0.047967643
244	0xbe53c603	-0.20681004
245	0xbe7ce85e	-0.24698016
246	0xbd6232a8	-0.05522409
247	0xbea3c14c	-0.3198341
248	0xbe998495	-0.29983965
249	0xbdbc1c7e	-0.09185122
250	0xbc82ddcf	-0.015974907
251	0x3d2d7c01	0.042354587
252	0x3e4188a9	0.18899788
253	0xbe9d4d60	-0.30723095
254	0xbe594eee	-0.21221516
255	0x3db5580f	0.088546865

enc1.1.weight f4 [8]
0	0x3f828025	1.0195357
1	0x3f739026	0.9514183
2	0x3f81a728	1.0129137
3	0x3f81331a	1.009372
4	0x3f79eb66	0.97624815
5	0x3f7ed141	0.99538046
6	0x3f75b897	0.95984787
7	0x3f89847b	1.0743555

enc1.1.bias f4 [8]
0	0x3cdaeff2	0.026725743
1	0x3e5ab161	0.21356727
2	0x3c81c756	0.015842121
3	0xbc845faa	-0.016158897
4	0xbd1147f7	-0.03546902
5	0x3e0ddef6	0.13854584
6	0x3db8bce2	0.090204015
7	0x3c307691	0.010770456

enc1.1.running_mean f4 [8]
0	0xbdafe013	-0.08587661
1	0x3d915f23	0.07098224
2	0xbdd72d94	-0.1050674
3	0xbe28e7eb	-0.1649472
4	0xbe5a833a	-0.21339121
5	0xbcd18328	-0.025575235
6	0x3b9afc99	0.004729819
7	0xbd9b4959	-0.07582349

enc1.1.running_var f4 [8]
0	0x3cc02c64	0.023458667
1	0x3ca4dec7	0.02012576
2	0x3d1e5484	0.03865482
3	0x3db18c66	0.08669357
4	0x3e11a183	0.14221768
5	0x3c49c275	0.012314429
6	0x3c5ab87b	0.013349648
7	0x3cc6a38a	0.024247903

enc1.3.weight f4 [8, 8, 3, 3]
0	0xbd0d293c	-0.034463152
1	0xbea43db9	-0.3207834
2	0xbdfb4b15	-0.1227018
3	0xbd821bfd	-0.063529946
4	0xbd6feb9a	-0.058574297
5	0x3d9a0f1e	0.075224146
6	0xbe703431	-0.2345741
7	0xbda60f2b	-0.08108362
8	0xbd660b16	-0.056162916
9	0x3e1dd46b	0.15413062
10	0xbd11a838	-0.035560817
11	0xbe0bee80	-0.136652
12	0x3d8b103c	0.06790206
13	0x3e2a6808	0.16641247
14	0xbdc14294	-0.09436527
15	0x3dd71e91	0.10503877
16	0xbdb4ffa1	-0.0883782
17	0xbd81c323	-0.063360475
18	0xbc8cf6e7	-0.017207576
19	0x3d97ba7e	0.074086174
20	0xbddc0b49	-0.1074434
21	0x3e36693c	0.17813581
22	0xbdca97be	-0.09892224
23	0xbe727a46	-0.23679456
24	0xbd9b907d	-0.07595918
25	0xbe48889f	-0.19583367
26	0xbdfffc48	-0.12499291
27	0xbcc2d6a8	-0.023783997
28	0xbd0964ec	-0.033543512
29	0x3edbdeb3	0.42943344
30	0xbe0d083a	-0.1377267
31	0xbebb1b1a	-0.36544114
32	0x3bae8c20	0.005326763
33	0xbe8fcae0	-0.2808447
34	0x3e57c9b3	0.21073036
35	0xbddf41b0	-0.10901201
36	0xbe07bddd	-0.13256021
37	0xbd3bb9d8	-0.04583153
38	0xbeb942dd	-0.36183825
39	0x3e461e27	0.1934744
40	0xbd9154a6	-0.070962235
41	0x3c939e08	0.018019691
42	0xbcc8ab6c	-0.024495803
43	0xbd0d831d	-0.034548867
44	0x3e0e059c	0.13869327
45	0x3e15837b	0.14600937
46	0xbedbfe96	-0.4296767
47	0xbd43caf3	-0.04780097
48	0xbdd2aa46	-0.10286383
49	0xbdb02208	-0.08600241
50	0x3e0f4d13	0.13994245
51	0xbe2d3caf	-0.1691768
52	0x3e8e5d85	0.27805725
53	0x3df96e47	0.12179237
54	0x3e5b617b	0.21423905
55	0x3ebdf575	0.3710133
56	0x3eda9a52	0.42695862
57	0x3eae301c	0.3402108
58	0x3d9c066b	0.07618412
59	0xbe4a2622	-0.19741109
60	0x3cd144a6	0.02554543
61	0xbe8cd275	-0.27504316
62	0x3e1f1df2	0.15538767
63	0xbdc56c4c	-0.096397966
64	0x3de74743	0.11292889
65	0xbe0b2ec9	-0.13592066
66	0xbe1ea799	-0.15493621
67	0xbe55489e	-0.20828483
68	0xbdf255a9	-0.11832745
69	0x3e48ec4f	0.19621395
70	0x3d776463	0.06039847
71	0xbe4e2b96	-0.20133814
72	0x3d4e9637	0.050436225
73	0xbd8c74a8	-0.06858188
74	0xbd1fe1c5	-0.03903367
75	0x3e341111	0.17584635
76	0xbd1bc2f5	-0.038027722
77	0x3d478461	0.04871023
78	0xbe5e3229	-0.21698822
79	0x3e082644	0.13295847
80	0x3d7d96f6	0.061911546
81	0xbd11d592	-0.035604067
82	0xbe85a502	-0.26102453
83	0xbe6221a3	-0.22083144
84	0xbe8a084e	-0.2695946
85	0xbdb8e259	-0.090275474
86	0xbe99160b	-0.2989963
87	0x3d040de5	0.032239813
88	0xbcd37531	-0.025812717
89	0x3e16f5ec	0.14742249
90	0xbdebbb5b	-0.115103446
91	0xbe29af18	-0.16570699
92	0xbd56ddd8	-0.05245766
93	0xbd27cd77	-0.04096743
94	0xbe7051c5	-0.23468693
95	0x3d26e194	0.04074247
96	0x3e67562a	0.22591463
97	0xbe703c47	-0.23460494
98	0xbdc3947b	-0.09549805
99	0xbdc4f2ba	-0.09616609
100	0xbda7798a	-0.081774786
101	0xbd5f2fa1	-0.05448878
102	0x3d127cfa	0.03576372
103	0xbe9caf63	-0.3060256
104	0x3eb1645f	0.3464689
105	0x3dd09e26	0.101864144
106	0x3d324929	0.043526802
107	0x3da88096	0.08227651
108	0xbd7af542	-0.061269052
109	0xbe4a99f9	-0.19785298
110	0x3d25570b	0.040366214
111	0x3e32517f	0.17413901
112	0xbed266ec	-0.41094148
113	0x3e61f072	0.22064379
114	0x3e59f844	0.21286112
115	0xbdc0532c	-0.09390864
116	0xbe3689c7	-0.17825995
117	0xbe1f5559	-0.15559901
118	0xbeb3e67a	-0.35136777
119	0x3bdf5eec	0.0068167355
120	0x3e432ad2	0.19059303
121	0x3b78ccfc	0.0037963977
122	0xbe3d3a31	-0.1847923
123	0x3e5a4bd5	0.2131799
124	0x3d62f9d6	0.055414043
125	0xbd28a7e4	-0.041175738
126	0x3c8978dd	0.016781265
127	0xbd8a438f	-0.06751167
128	0x3d628bcb	0.0553091
129	0x3d0bdc44	0.03414561
130	0xbe568193	-0.20947866
131	0x3ddd8751	0.10816825
132	0xbdc4929c	-0.09598276
133	0xbe7139e1	-0.23557235
134	0x3da87ec0	0.08227301
135	0x3e138d91	0.14409472
136	0xbe7343d7	-0.23756348
137	0x3c665697	0.014058731
138	0xbb8a7f58	-0.0042266063
139	0x3e2217fa	0.15829459
140	0x3e4a63d7	0.19764648
141	0x3e905eec	0.2819742
142	0x3deb5999	0.11491699
143	0xbe081710	-0.13290048
144	0xbe84bd50	-0.25925684
145	0xbe698e04	-0.22808081
146	0xbdb96b56	-0.09053676
147	0x3d0acc11	0.03388602
148	0x3c6345c4	0.013871614
149	0x3e2e3654	0.17012912
150	0x3d246824	0.04013838
151	0xbd2b693b	-0.041848402
152	0x3e245217	0.1604694
153	0x3ede1034	0.43371737
154	0xbd50e372	-0.05099816
155	0x3e9c44ff	0.3052139
156	0x3cc76c61	0.024343671
157	0xbe622a94	-0.22086555
158	0x3e1f7f03	0.15575795
159	0x3cba4a61	0.022740545
160	0x3e4c4a65	0.19950254
161	0x3e8d2c05	0.27572647
162	0xbe2c5921	-0.16830875
163	0xbce72ecc	-0.028220557
164	0xbe8c95dd	-0.27458087
165	0xbe8ce2ca	-0.27516776
166	0xbe0eda5d	-0.13950486
167	0xbed7d567	-0.42155
168	0xbe4cd88d	-0.20004483
169	0xbe1f96ec	-0.15584916
170	0xbe8151d3	-0.2525774
171	0x3dd49e04	0.103817016
172	0xbe0084c9	-0.12550654
173	0xbd07f08b	-0.033188384
174	0x3e35810c	0.17725009
175	0xbe7ec938	-0.24881446
176	0x3badc784	0.005303325
177	0xbeb3f458	-0.35147357
178	0xbe3697af	-0.178313
179	0xbe63982b	-0.22226016
180	0x3da3a6ee	0.07990824
181	0xbe83a6f4	-0.25713313
182	0x3dd7473b	0.10511633
183	0xbd761ca2	-0.0600859
184	0xbed0a534	-0.4075104
185	0xbe9bea1f	-0.30452058
186	0xbdf94d25	-0.12172917
187	0xbe923cc9	-0.28562
188	0x3db6cbbc	0.08925578
189	0xbde526db	-0.11189052
190	0x3e37afc4	0.17938143
191	0x3a6a234d	0.0008931652
192	0xbcf02ec0	-0.029319167
193	0xbcd3fda5	-0.025877783
194	0xbe8fe2b9	-0.28102663
195	0x3e3fc39c	0.18726963
196	0xbd3a3bc9	-0.04546717
197	0xbd72e7fd	-0.059303273
198	0x3dd2f1b1	0.10300005
199	0xbddab7df	-0.10679602
200	0xbe01c6ee	-0.12673542
201	0xbcb0a83b	-0.021564594
202	0xbce84251	-0.028351935
203	0xbddd41b0	-0.108035445
204	0xbe14b6fa	-0.14522925
205	0x3e6ccf65	0.2312599
206	0x3e6e2a0a	0.23258224
207	0xbe3dc17e	-0.18530843
208	0x3ecac388	0.39602304
209	0xbe0d0dbb	-0.13774769
210	0xbde23bfd	-0.11046598
211	0x3e167900	0.14694595
212	0x3e41c7a4	0.18923813
213	0xbdafed4b	-0.08590182
214	0xbabed15d	-0.0014558245
215	0xbe450e13	-0.1924365
216	0xbe97db47	-0.29659483
217	0xbe243356	-0.16035208
218	0xbe32c8b1	-0.1745937
219	0x3cfb0323	0.030641144
220	0xbc453b9f	-0.012038141
221	0xbebdf39d	-0.37099925
222	0xbe256146	-0.16150388
223	0x3d25da1a	0.0404912
224	0x3e1c296b	0.15250175
225	0x3ddc08a7	0.10743838
226	0xbcc7e112	-0.024399314
227	0xbe26d38c	-0.16291636
228	0xbe26e434	-0.1629799
229	0x3d10e8a2	0.035378106
230	0xbe45f9ad	-0.19333525
231	0x3d58f379	0.05296657
232	0xbb32ef0e	-0.0027303132
233	0x3e1c78c5	0.15280445
234	0xbeb6e137	-0.357187
235	0x3e888110	0.26660967
236	0x3e0f3490	0.13984895
237	0x3dfb1d00	0.12261391
238	0x3e4afb37	0.19822393
239	0xbbc77198	-0.0060865395
240	0xbc89d6b7	-0.016826017
241	0xbe2bafb6	-0.16766247
242	0xbd8fc207	-0.0701943
243	0x3cb4e809	0.0220833
244	0xbdb307c6	-0.08741717
245	0xbe44344f	-0.19160579
246	0xbe5f035d	-0.21778627
247	0x3d57bfa0	0.052672982
248	0x3e494207	0.19654094
249	0xbd02f32a	-0.03197018
250	0xbe3332bb	-0.17499821
251	0x3e17cf63	0.14825206
252	0x3d4c50d0	0.049881756
253	0xbd1fcf30	-0.03901595
254	0xbdedca74	-0.116108805
255	0xbe1ff906	-0.15622339

enc1.4.weight f4 [8]
0	0x3f764846	0.9620403
1	0x3f819ca8	1.0125933
2	0x3f74c20e	0.95608604
3	0x3f6ba841	0.9205361
4	0x3f88c1c7	1.0684136
5	0x3f6dcbaf	0.9288892
6	0x3f841771	1.0319654
7	0x3f775c8c	0.9662559

enc1.4.bias f4 [8]
0	0xbc3b6f91	-0.011440174
1	0xbc4d009e	-0.012512354
2	0x3cdb7825	0.026790688
3	0x3c198320	0.009369642
4	0x3cc7d577	0.02439378
5	0x3b89c2e4	0.004204141
6	0x3de64755	0.11244074
7	0xbd1c77ff	-0.038200375

enc1.4.running_mean f4 [8]
0	0xbf4ec597	-0.8077025
1	0xbf31ec9a	-0.6950165
2	0xbf9cd596	-1.2252681
3	0xbfb93133	-1.446814
4	0xbe60fa4f	-0.21970485
5	0xc01788fb	-2.3677356
6	0x3ed20764	0.41021264
7	0xbd48aaf4	-0.04899116

enc1.4.running_var f4 [8]
0	0x3fc27d59	1.5194503
1	0x3f64b420	0.8933735
2	0x405699ec	3.3531446
3	0x3f25b4cf	0.64729017
4	0x3f01a0d2	0.5063602
5	0x402fa120	2.7442093
6	0x3f4cf0d6	0.80054986
7	0x3e75d5e9	0.24007381

enc2.0.weight f4 [16, 8, 3, 3]
0	0x3d63f1a6	0.055650376
1	0xbdbf0e07	-0.093288474
2	0xbd17b642	-0.03703905
3	0x3da6699e	0.08125614
4	0x3d66b0a3	0.056320798
5	0xbd953cb5	-0.072869696
6	0x3b889517	0.0041681635
7	0xbd679ecb	-0.05654792
8	0x3ddf6705	0.10908321
9	0xbd41072a	-0.047125973
10	0xbd98e5cc	-0.07465705
11	0x3bf3f9c1	0.0074455445
12	0x3e6e1be7	0.23252831
13	0x3e8fbfe9	0.28076103
14	0x3df557c6	0.11979632
15	0x3d4dc8a3	0.05024017
16	0x3dd78417	0.10523241
17	0x3d20aeae	0.039229088
18	0x3c31f706	0.010862118
19	0x3cb6c4c2	0.022310618
20	0xbe0dd346	-0.13850126
21	0x3d0939ad	0.03350227
22	0xbe4ba460	-0.19886923
23	0xbdad7f0c	-0.08471498
24	0xbe78e5be	-0.2430639
25	0xbde256d3	-0.11051717
26	0x3b88e60f	0.0041778157
27	0xbd98f2ef	-0.07468211
28	0xbd4d662a	-0.05014626
29	0x3eb44559	0.35209158
30	0x3dc2ad9b	0.09505769
31	0x3e9b20a0	0.30298328
32	0x3ce69107	0.028145326
33	0x3d1a0d3c	0.037610278
34	0xbccdce16	-0.025122683
35	0x3e88b8a0	0.26703358
36	0xbcbf6d24	-0.023367472
37	0xbd65d565	-0.056111712
38	0xbd9bfd28	-0.07616645
39	0x3d5e444e	0.05426436
40	0x3e10b158	0.14130151
41	0xbbef2693	-0.0072982996
42	0x3da08d84	0.07839492
43	0x3de1e76f	0.110304706
44	0x3cc29b7a	0.023755778
45	0x3e34fe61	0.17675163
46	0x3d11f8bb	0.0356376
47	0x3da25589	0.07926471
48	0xbd00dcb2	-0.03146047
49	0x3db8d7de	0.090255484
50	0x3e21f627	0.15816556
51	0xbd8543c3	-0.06507065
52	0xbcd7500a	-0.026283283
53	0x3d9055a0	0.07047582
54	0xbdc013ba	-0.093787625
55	0xbd14e9ec	-0.036355898
56	0xbe9d7380	-0.30752182
57	0xbdc1aa91	-0.09456361
58	0xbc6bc083	-0.01438916
59	0x3c985334	0.018594362
60	0xbe77721a	-0.2416462
61	0xbe221256	-0.15827307
62	0x3ba595e2	0.005053268
63	0x3db30f2e	0.0874313
64	0x3d2cc76e	0.04218238
65	0xbda49538	-0.08036274
66	0xbbc23802	-0.005927087
67	0x3ba95977	0.0051681357
68	0x3e04c2e8	0.12964976
69	0xbdf4f684	-0.119610816
70	0xbcd10372	-0.025514338
71	0x3e5bb75a	0.21456662
72	0x3d876e33	0.06612816
73	0x3ce53f18	0.027984187
74	0x3de9005a	0.1137702
75	0x3d4dc91e	0.05024063
76	0xbc936035	-0.017990211
77	0xbd470864	-0.048591986
78	0xbe437801	-0.19088747
79	0x3dc959d3	0.09831586
80	0xbdc97834	-0.0983738
81	0xbc0ad08d	-0.008472574
82	0xbe15fde8	-0.14647639
83	0x3ddae327	0.10687857
84	0xbe38f5db	-0.18062536
85	0x3c112b9b	0.008860494
86	0xbd30f03b	-0.04319785
87	0xbd28028f	-0.041018065
88	0xbe0747b2	-0.13210943
89	0xbd5195b5	-0.051168162
90	0x3c93f376	0.018060427
91	0x3e63c4bb	0.22243015
92	0xbd50b182	-0.050950535
93	0x3ea016b9	0.31267336
94	0x3da395da	0.07987566
95	0x3e50cf28	0.20391524
96	0x3e09f512	0.13472393
97	0x3d1de279	0.03854606
98	0x3e36d97d	0.17856403
99	0x3dd854b0	0.10563028
100	0xbdba0063	-0.09082105
101	0x3d8a0f38	0.06741184
102	0xbe31fe4d	-0.17382164
103	0xbdcb76a4	-0.09934738
104	0x3d483acd	0.0488842
105	0x3d4911e3	0.049089324
106	0xbca7357c	-0.020411246
107	0xbc213514	-0.009839315
108	0x3d78f4c4	0.0607803
109	0xbe102e88	-0.1408025
110	0xbe0bbd1d	-0.1364636
111	0x3d3d1d02	0.046170242
112	0xbe1e2d47	-0.1544696
113	0x3cd5acea	0.026083428
114	0x3dc9376f	0.09825026
115	0xbd75e0f0	-0.06002897
116	0xbe18da76	-0.14927086
117	0xbcaa4ad6	-0.020787638
118	0xbd4ed38a	-0.050494708
119	0x3d6ea829	0.05826584
120	0xbebb35de	-0.36564535
121	0xbdc752ad	-0.09732566
122	0xbe5a77ab	-0.21334712
123	0x3c99c2cd	0.018769646
124	0xbd02af5b	-0.031905513
125	0xbe2eb481	-0.17061044
126	0x3d89d600	0.067302704
127	0xbe904570	-0.28177977
128	0xbda718c6	-0.08159022
129	0xbe007f9e	-0.12548682
130	0x3d204a7a	0.039133526
131	0xbdd596c9	-0.104291506
132	0xbdc28175	-0.09497348
133	0xba55878b	-0.00081455027
134	0xbe1d151d	-0.15340085
135	0x3e0726e6	0.13198432
136	0x3e3b1cf0	0.18272758
137	0xbe2c5cb4	-0.16832238
138	0x3c26c5b2	0.01017897
139	0xbe8a6eb3	-0.27037582
140	0x3c50dbb0	0.01274769
141	0x3e0d303d	0.13787933
142	0x3da8c361	0.082403906
143	0x3da11b7f	0.078665726
144	0x3c540079	0.012939566
145	0x3e5e40e3	0.2170444
146	0x3d73be10	0.05950743
147	0x3e60f57f	0.2196865
148	0xbca9b68a	-0.020716924
149	0xbe2c5f01	-0.16833116
150	0x3d844fc8	0.064605296
151	0x3db96814	0.090530545
152	0xbe1ba0a7	-0.15198003
153	0x3d05fef0	0.03271383
154	0xbe4025d7	-0.18764435
155	0xbd3d2e27	-0.046186592
156	0x3cf5e6a6	0.030017208
157	0xbcbe3afc	-0.023221485
158	0x3d1bd2c6	0.038042806
159	0xbdca617e	-0.098818764
160	0x3dfb9f2e	0.122862205
161	0x3cdcf900	0.026974201
162	0xbda72883	-0.08162024
163	0xbb5c796e	-0.0033641714
164	0x3d141777	0.03615519
165	0xbd133e2b	-0.03594796
166	0xbd2f2e23	-0.04276861
167	0xbdaf7fde	-0.085693106
168	0xbe03d381	-0.12873651
169	0x3dd324f2	0.10309781
170	0xbd8537b2	-0.06504764
171	0xbdfc4a0c	-0.12318811
172	0xbe5e277e	-0.21694753
173	0xbd7d33a2	-0.06181682
174	0x3e052bfc	0.1300506
175	0x3daa4a00	0.08314896
176	0xbd891969	-0.066943
177	0xbd751d30	-0.05984229
178	0x3cab4201	0.020905497
179	0xbda9ae31	-0.082851775
180	0x3d539dde	0.051664226
181	0xbdc1a908	-0.09456068
182	0xbce269e7	-0.027638389
183	0x3e128a19	0.14310493
184	0x3ddcb898	0.10777396
185	0x3b5da132	0.0033818004
186	0x3da0ef6e	0.078581676
187	0x3d8814bb	0.06644579
188	0xbb8e1b06	-0.0043367175
189	0x3c9304b3	0.017946577
190	0xbe8c41e0	-0.2739401
191	0xbde56f58	-0.11202878
192	0xbd74c7a8	-0.05976072
193	0xbd2a04a7	-0.041508343
194	0xbe595e8b	-0.21227472
195	0x3e0e0a43	0.13871102
196	0xbe554694	-0.20827705
197	0xbcbff773	-0.023433423
198	0x3d7e0126	0.062012814
199	0xbd11f902	-0.035637863
200	0x3bc319f2	0.0059540207
201	0xbd3bc41d	-0.045841325
202	0xbbd86602	-0.006603957
203	0xbe1b7613	-0.1518176
204	0xbd1a5f4a	-0.03768853
205	0xbd8ca380	-0.06867123
206	0xbc96c3e2	-0.018403951
207	0xbe47017a	-0.19434157
208	0x3e66ab7c	0.22526354
209	0x3e67de65	0.2264343
210	0x3d6dc392	0.05804784
211	0x3dd29bdd	0.10283635
212	0x3cf75f42	0.03019679
213	0x3dd1a9e1	0.1023748
214	0xbdf5653c	-0.119821995
215	0xbe1d5c6b	-0.15367286
216	0x3e2b29a6	0.16715106
217	0x3cb6dccf	0.022322087
218	0xbc0cbdae	-0.008590145
219	0xbcbec7b6	-0.023288589
220	0xbda89a30	-0.08232534
221	0xbdfd3d2b	-0.123651825
222	0xbdf35f68	-0.11883432
223	0x3ca24841	0.019809844
224	0xbb672bca	-0.0035273903
225	0xbd89af11	-0.067228444
226	0xbdfd2409	-0.12360389
227	0x3d0334e8	0.032032877
228	0xbbd8413e	-0.0065995743
229	0x3e0f394c	0.13986701
230	0x3e6bf39e	0.23042151
231	0x3cc7a3d0	0.024370104
232	0xbcadde71	-0.021224232
233	0x3e0b7712	0.1361964
234	0xbe36d219	-0.17853583
235	0xbe270625	-0.16310938
236	0x3b513f60	0.0031928644
237	0x3e30803c	0.17236418
238	0xbd13117b	-0.035905343
239	0x3d8cb0c8	0.06869656
240	0xbdc1ba9c	-0.09459421
241	0xbdfbcae9	-0.122945614
242	0xbe1dd88b	-0.15414636
243	0xbd934ca4	-0.071923524
244	0xbdf7a34c	-0.12091693
245	0x3c920032	0.017822359
246	0x3e879491	0.26480535
247	0x3e771c06	0.24131784
248	0xbdab84be	-0.08374928
249	0x3c913904	0.017727382
250	0x3dc5eef7	0.096647196
251	0x3aee9781	0.0018203111
252	0xbdf0e6c4	-0.11762765
253	0xbc068346	-0.008210009
254	0x3d3ede95	0.04659899
255	0xbd5a8506	-0.053349517

enc2.1.weight f4 [16]
0	0x3f81fb80	1.0154877
1	0x3f7b638f	0.9819879
2	0x3f7a2655	0.9771474
3	0x3f81e915	1.0149256
4	0x3f765d44	0.9623606
5	0x3f7d963f	0.9905738
6	0x3f7ef929	0.9959894
7	0x3f791e8b	0.9731223
8	0x3f83bb04	1.0291448
9	0x3f809783	1.0046238
10	0x3f820149	1.0156642
11	0x3f78b47f	0.97150415
12	0x3f83f374	1.0308671
13	0x3f7573a3	0.9587957
14	0x3f85ea91	1.0462209
15	0x3f7044ee	0.9385518

enc2.1.bias f4 [16]
0	0x3addd347	0.0016923927
1	0xbbadaece	-0.0053003794
2	0xba30e542	-0.0006748029
3	0x3c5bc3eb	0.01341341
4	0xbd35d933	-0.04439659
5	0xbc9c70aa	-0.019096691
6	0xbc2f1e9a	-0.010688448
7	0xbc9ace02	-0.01889706
8	0x3d5164b6	0.051121436
9	0x3b557a06	0.0032573952
10	0x3c24310e	0.010021461
11	0xbc8f111b	-0.017464211
12	0x3d677976	0.05651232
13	0x3d3db9a5	0.046319623
14	0xbcd1db61	-0.025617303
15	0xbde70ecd	-0.1128212

enc2.1.running_mean f4 [16]
0	0x3e8f3523	0.27970228
1	0xbf195b30	-0.59904766
2	0xbed6b88f	-0.41937682
3	0xbc844ae4	-0.016148992
4	0xbf231028	-0.6369653
5	0xbd9d1ae1	-0.07671142
6	0xbf486911	-0.7828532
7	0x3e217cf0	0.15770316
8	0x3ed34ad3	0.41268024
9	0x3f5bf60d	0.8592232
10	0x3e3f68d2	0.1869233
11	0xbe54739c	-0.20747226
12	0xbf9668e5	-1.1750761
13	0xbe9fe0e2	-0.3122626
14	0xbfc37387	-1.5269631
15	0x3e4fca98	0.20292127

enc2.1.running_var f4 [16]
0	0x3ea9573f	0.33074376
1	0x3ebff39b	0.37490544
2	0x3f221ab0	0.6332197
3	0x3fa08e88	1.2543497
4	0x3ea86e3f	0.3289661
5	0x3f04ab63	0.51824015
6	0x3f35e68b	0.71054906
7	0x3f02c7d7	0.5108618
8	0x3fd871db	1.6909746
9	0x3ee4a2ce	0.4465546
10	0x3fa67902	1.3005679
11	0x3eb9fc5c	0.36325347
12	0x3e93aad5	0.28841272
13	0x3eb7196c	0.35761583
14	0x3fad004f	1.3515719
15	0x3f8ab922	1.0837748

enc2.3.weight f4 [16, 16, 3, 3]
0	0xbdf8a6b6	-0.121411726
1	0xbdfdca88	-0.123921454
2	0x3c3d7fa5	0.011566077
3	0xbd2fba11	-0.042902056
4	0xbb9156a7	-0.0044353786
5	0x3e1ef8e1	0.15524627
6	0xbe6a79c3	-0.22898011
7	0xbc83b4db	-0.01607745
8	0x3d083cc3	0.033261072
9	0xbe248014	-0.16064483
10	0x3d9a0c59	0.075218864
11	0xbe150b58	-0.14555109
12	0xbe4b1ea9	-0.19835915
13	0x3d4c1fda	0.049835064
14	0x3c071b0c	0.008246195
15	0xbd091dec	-0.0334758
16	0xbe2baa81	-0.16764261
17	0xbc320b7d	-0.010866997
18	0xbe6bb69e	-0.23018882
19	0xbe8fed8c	-0.2811092
20	0xbea9909f	-0.3311815
21	0xbda6ea38	-0.081501424
22	0xbd74672e	-0.059668712
23	0xbdedd630	-0.11613119
24	0xbe57ac1f	-0.21061753
25	0xbe9ddfbb	-0.30834755
26	0xbde50006	-0.11181645
27	0xbda9ea8c	-0.082966894
28	0xbe312374	-0.1729868
29	0xbd03c146	-0.03216674
30	0xbe683b34	-0.22678834
31	0xbe5c12d1	-0.21491553
32	0xbd6f3f6e	-0.0584101
33	0xbebb2c30	-0.3655715
34	0x3dc447b0	0.09583986
35	0xbea3fb61	-0.32027724
36	0x3dca3eb6	0.098752424
37	0xbd8423c2	-0.06452133
38	0x3d05aeec	0.03263752
39	0x3c751a64	0.014959905
40	0xbd0874eb	-0.033314627
41	0xbd441d7a	-0.047879674
42	0x3db68e20	0.08913827
43	0x3d2456d2	0.04012186
44	0xbeada66c	-0.33916032
45	0xbe590c00	-0.21195984
46	0xbb4e491a	-0.0031476677
47	0x3d561a33	0.05227108
48	0xbd0af7cf	-0.033927735
49	0xbe4c79f0	-0.1996839
50	0x3e1859cc	0.14878005
51	0xbd179a46	-0.03701236
52	0x3e89a994	0.2688719
53	0x3cd0b029	0.025474625
54	0xbeadd2f6	-0.33950013
55	0x3c514a81	0.012774111
56	0xbe59aa51	-0.21256377
57	0xbbac03ef	-0.0052494924
58	0x3d6dbc09	0.058040652
59	0xbdf152eb	-0.117833935
60	0xbe395bef	-0.18101476
61	0x3c9ff815	0.019527474
62	0xbe223d0c	-0.158436
63	0x3e79d037	0.24395834
64	0x3e5a30ef	0.21307729
65	0x3e99232f	0.29909655
66	0x3e1b649a	0.15175095
67	0xbd5bc108	-0.053650886
68	0xbd8db329	-0.06918938
69	0x3d249a8b	0.040186446
70	0xbacf3a48	-0.0015810216
71	0xbd61edec	-0.05515854
72	0x3d9101ff	0.07080459
73	0x3e1b2969	0.15152515
74	0x3e0157a7	0.12631093
75	0xbdb63b8d	-0.08898077
76	0x3e58918e	0.21149275
77	0xbcc905fe	-0.02453899
78	0x3e34f060	0.17669821
79	0x3db06640	0.08613253
80	0x3cfa1ea4	0.030532189
81	0x3e4e1930	0.20126796
82	0xbde3df22	-0.111265436
83	0xbd8605a6	-0.06544046
84	0xbd63307d	-0.055466164
85	0x3d67339c	0.056445703
86	0xbe54d09f	-0.20782708
87	0x3e88edc2	0.26743895
88	0xbbc86cee	-0.006116501
89	0xbc1aa5dd	-0.009438959
90	0xbddb0891	-0.10694993
91	0xbd4d89db	-0.050180297
92	0x3dc18c07	0.09450536
93	0x3d3645e8	0.04450026
94	0x3d0b9650	0.034078896
95	0xbe1db864	-0.1540237
96	0xbdd04b47	-0.10170608
97	0xbd95f4d5	-0.07322089
98	0xbe24c756	-0.16091666
99	0x3e5e902f	0.21734689
100	0xbe4c8218	-0.19971502
101	0x3c493ac3	0.012282076
102	0xbd352c50	-0.044231713
103	0x3d39f084	0.04539539
104	0x3d3aef5f	0.04563844
105	0xbd9a8c6a	-0.07546313
106	0xbdc9b99e	-0.09849857
107	0x3e2f836f	0.17139982
108	0xbeb684ea	-0.3564828
109	0x3ce493e2	0.027902547
110	0xbdf62c3b	-0.12020155
111	0xbe13e555	-0.14442952
112	0x3e2e9294	0.17048103
113	0xbe9031f1	-0.28163102
114	0x3e390bc3	0.18070893
115	0x3ca5e13e	0.020249005
116	0x3e2676e9	0.16256298
117	0xbea60179	-0.32423
118	0xbd79360a	-0.06084255
119	0xbd7662ba	-0.060152747
120	0xbca88d45	-0.020575175
121	0xbe11dcf7	-0.14244448
122	0x3de313cf	0.110877626
123	0xbe5006aa	-0.20315042
124	0x3d6edd7e	0.0583167
125	0xbc40fb7e	-0.01177871
126	0xbddd600b	-0.10809334
127	0x3e0877cd	0.1332695
128	0xbdf9b8c9	-0.12193448
129	0xbe47d8b2	-0.19516256
130	0x3c274bd3	0.010210949
131	0xbe2cbf4a	-0.16869846
132	0xbe9c3cb0	-0.3051505
133	0xbe58885f	-0.21145771
134	0xbb10a143	-0.0022068776
135	0x3e8a5a1b	0.2702187
136	0x3ea86b0c	0.3289417
137	0xbde98fdc	-0.11404392
138	0xbbebb304	-0.007192971
139	0x3da17a06	0.07884602
140	0xbe3eaa4d	-0.18619652
141	0xbd4b51f8	-0.04963872
142	0x3cde04f8	0.027101979
143	0xbc5f3fad	-0.013626021
144	0x3de0a2a3	0.109685205
145	0xbe806485	-0.2507669
146	0x3dafba4d	0.08580456
147	0x3d20029e	0.039064996
148	0x3d3b4f62	0.045730002
149	0xbe1d04e7	-0.15333901
150	0xbdd594bd	-0.1042876
151	0xbe8aa562	-0.27079302
152	0xbd56cca1	-0.052441243
153	0xbe15fff1	-0.14648415
154	0xbc3c9dbd	-0.011512217
155	0xbe7975d4	-0.24361354
156	0xbe41915b	-0.18903105
157	0xbdd751e7	-0.105136685
158	0x3d28828d	0.041140128
159	0x3cd57fa6	0.026061844
160	0xbdebe71f	-0.11518692
161	0x3df3e218	0.11908358
162	0x3df4ae28	0.1194728
163	0xbd48605e	-0.048920028
164	0x3dc87c0d	0.09789286
165	0xbd33ab33	-0.04386444
166	0x3e21440b	0.15748613
167	0xbd141409	-0.03615192
168	0xbcd1b0d1	-0.025597008
169	0x3d8c535d	0.06851838
170	0xbdda713a	-0.106661275
171	0xbbc3a5f9	-0.005970713
172	0x3e13dcfd	0.14439769
173	0x3b2cf2b8	0.002638979
174	0x3d8e58af	0.06950509
175	0xbd28b2c5	-0.041186113
176	0x3e3febde	0.1874232
177	0x3deba6eb	0.115064465
178	0x3d3384f7	0.043827977
179	0x3d37aa20	0.04483998
180	0x3da4e5e0	0.08051658
181	0x3d802c74	0.06258479
182	0x3d272f83	0.040816795
183	0x3db544f9	0.08851046
184	0x3e0aec5c	0.13566726
185	0xbdaf5762	-0.08561589
186	0xbd318491	-0.043339316
187	0xbdac65f2	-0.08417882
188	0x3e12c7b7	0.14333998
189	0x3e3a842c	0.18214482
190	0x3cf19874	0.02949164
191	0xbdad8517	-0.084726505
192	0xbc0c60bb	-0.008567984
193	0x3ce86686	0.0283692
194	0x3dec5678	0.1153993
195	0x3d2d8789	0.042365585
196	0x3d366d77	0.044537988
197	0x3e8bd92a	0.2731412
198	0x3e758507	0.23976527
199	0x3d473e52	0.048643418
200	0xbd056dd9	-0.032575462
201	0xbe11be59	-0.14232768
202	0x3e101110	0.14069009
203	0x3da34f38	0.07974094
204	0x3e3604a5	0.17775209
205	0x3b625399	0.0034534691
206	0x3df0ec3e	0.117638096
207	0xbd333182	-0.043748386
208	0x3cdcf15b	0.026970556
209	0xbd4ca82f	-0.04996508
210	0x3dd395af	0.10331284
211	0x3e1e0d64	0.15434796
212	0xbe43411a	-0.19067803
213	0xbbdbd5d6	-0.006708841
214	0xbe2758db	-0.1634249
215	0xbd7a95b8	-0.06117794
216	0xbd48bbf4	-0.04900737
217	0xbd511e93	-0.05105455
218	0xbbeb7d50	-0.0071865693
219	0xbd6cd6ed	-0.057822157
220	0x3cfd14a1	0.030893626
221	0xbde30f75	-0.110869326
222	0x3db5cf5d	0.08877442
223	0xbd9e49f9	-0.07728953
224	0xbc817805	-0.0158043
225	0xbe85e039	-0.2614763
226	0x3c9cb597	0.019129558
227	0xbe1e6ae8	-0.15470469
228	0x3dbc838d	0.09204779
229	0xbbb86a31	-0.0056278934
230	0xbe05cd8e	-0.13066694
231	0xbe22c908	-0.15897
232	0xbd60795b	-0.054803234
233	0x3e0a7c56	0.13523993
234	0xbd7c9c31	-0.061672393
235	0xbd05f360	-0.032702804
236	0xbe45e414	-0.19325286
237	0x3d8e42fa	0.069463685
238	0xbe81df58	-0.2536571
239	0xbde5c04f	-0.112183206
240	0xbc833489	-0.016016262
241	0x3d4b27b3	0.049598407
242	0x3cfacc5b	0.030615022
243	0x3de76ec7	0.11300426
244	0x3e02f451	0.12788512
245	0xbd3dc429	-0.04632965
246	0xbccabf9d	-0.024749571
247	0xbdc8e715	-0.098097004
248	0xbdfe3552	-0.12412514
249	0xbcf4b11a	-0.029869605
250	0x3d716232	0.058931537
251	0xbd9542a1	-0.07288099
252	0xbd481551	-0.048848454
253	0xbd78ef9a	-0.060775377
254	0x3e31629a	0.1732277
255	0xbdc4bbb5	-0.09606115

enc2.4.weight f4 [16]
0	0x3f5f3f50	0.8720598
1	0x3f8849bc	1.0647502
2	0x3f79fd1e	0.9765185
3	0x3f75f504	0.9607699
4	0x3f688615	0.9082959
5	0x3f88a245	1.0674521
6	0x3f7021f4	0.9380181
7	0x3f72061c	0.9454057
8	0x3f737e4c	0.9511459
9	0x3f6cd28b	0.92508763
10	0x3f6038e3	0.875868
11	0x3f88be44	1.0683064
12	0x3f6eebc5	0.93328506
13	0x3f73b3f3	0.95196456
14	0x3f790757	0.97276825
15	0x3f81e4c4	1.0147939

enc2.4.bias f4 [16]
0	0xbdc02434	-0.09381905
1	0xbd35392c	-0.044243976
2	0xbd9c669f	-0.07636761
3	0x3cb7089f	0.022342978
4	0xbdaf8be8	-0.08571607
5	0xbd82dadd	-0.06389401
6	0xbd89e1c8	-0.067325175
7	0xbdbecbad	-0.09316192
8	0xbd95913e	-0.073030934
9	0xbd0677b1	-0.03282899
10	0xbdcf5930	-0.10124433
11	0xbd80b427	-0.06284361
12	0xbe086319	-0.13319053
13	0xbcb6e9d0	-0.022328287
14	0x3c8baffe	0.017051693
15	0x3c42b258	0.011883341

enc2.4.running_mean f4 [16]
0	0xc008b971	-2.1363184
1	0x3e7d7a34	0.24753648
2	0x3ff25b0d	1.8934036
3	0xbd67d372	-0.056598134
4	0xbecac9d9	-0.39607123
5	0x3f8bf84c	1.0935149
6	0xbf9caacd	-1.2239624
7	0xbf0102db	-0.5039498
8	0xbf39c908	-0.72572374
9	0xbe951c93	-0.29123363
10	0x3f014ddb	0.50509423
11	0xbd595f00	-0.053069115
12	0xbf65b912	-0.8973552
13	0x3dd8d56a	0.105875805
14	0x3f3202ce	0.6953553
15	0xbf8c2269	-1.0948001

enc2.4.running_var f4 [16]
0	0x3f151173	0.5822975
1	0x3fdc620e	1.7217424
2	0x4085b976	4.1788893
3	0x3f2ea39f	0.68218416
4	0x408604c2	4.188081
5	0x3fb0d499	1.381488
6	0x3fbc1e0c	1.469667
7	0x40e085aa	7.0163164
8	0x40b63083	5.693422
9	0x404361a0	3.0528336
10	0x408acfe5	4.3378778
11	0x3ea2f5f7	0.3182828
12	0x3f03eb38	0.5153079
13	0x3fbfb4fd	1.4977108
14	0x40ba5cc6	5.823825
15	0x3fa87f4d	1.3163849

bottleneck.0.weight f4 [32, 16, 3, 3]
0	0x3d8dd8f7	0.069261484
1	0x3d79f13a	0.061021067
2	0x3c269e18	0.010169528
3	0x3e2161ac	0.15759915
4	0xb88ec070	-6.806932e-05
5	0x3e630ac8	0.22172081
6	0x3d47300a	0.048629798
7	0x3e8de377	0.27712604
8	0x3d142866	0.03617134
9	0xbbe1a579	-0.006886181
10	0x39ee04fa	0.00045398605
11	0xbcbe9943	-0.02326644
12	0xbdedf1bd	-0.116183735
13	0xbe9394a8	-0.28824353
14	0xbe4e1166	-0.20123824
15	0x3d81198e	0.06303702
16	0xbddda7fe	-0.108230576
17	0xbe40e13f	-0.18835925
18	0xbdd32e3b	-0.10311552
19	0x3de7417d	0.11291788
20	0x3b60d558	0.003430685
21	0xbdc57598	-0.0964157
22	0xbe70a72c	-0.23501271
23	0x3d3470be	0.04405283
24	0xbdd1afdd	-0.102386214
25	0xbc3b051b	-0.011414791
26	0x3d3f6f00	0.046736717
27	0x3bdb0d3d	0.0066849277
28	0x3e4a7631	0.19771649
29	0x3d4541c1	0.04815841
30	0xbe076d5b	-0.1322531
31	0x3c9abf28	0.018889979
32	0xbc06fe20	-0.008239299
33	0xbe813d34	-0.25242007
34	0x3c29ef3a	0.010371977
35	0xbda1d4af	-0.07901894
36	0xbc82ebc8	-0.01598157
37	0x3de1b1b9	0.11020226
38	0x3d0acfbc	0.033889517
39	0xbdff9aa5	-0.12480668
40	0xbc999947	-0.018749846
41	0x3c92332e	0.01784667
42	0xbd400a33	-0.046884727
43	0xbc21d9b0	-0.009878561
44	0x3dac910b	0.08426102
45	0xbdc1b5d2	-0.094585076
46	0xbd6f14eb	-0.05836956
47	0xbe1924cb	-0.14955442
48	0x3da7cc4e	0.08193265
49	0x3ca875d6	0.020564001
50	0xbe18c319	-0.14918174
51	0x3e8c0751	0.27349332
52	0x3df989be	0.12184475
53	0x3d30eeb0	0.04319638
54	0x3e1ddfcf	0.15417407
55	0xbd5ae841	-0.05344415
56	0xbd25b37d	-0.040454376
57	0x3db1023a	0.08643003
58	0xbd97c47b	-0.074105226
59	0xbbcd2317	-0.0062602866
60	0xbd0cd61e	-0.034383886
61	0xbd132f4e	-0.035933785
62	0x3e003956	0.12521872
63	0xbc8f7393	-0.017511165
64	0xbc736851	-0.014856414
65	0xbe4d79f2	-0.2006605
66	0xbd911125	-0.07083348
67	0xbcef4f59	-0.02921264
68	0xbdffd602	-0.124919906
69	0xbdb39a27	-0.087696366
70	0xbd5bc562	-0.053655036
71	0x3e5322ad	0.20618697
72	0x3c82d511	0.015970739
73	0x3d7db2d3	0.06193812
74	0xbdc5cada	-0.096578315
75	0xbdc2f56e	-0.09519468
76	0xbda262e8	-0.07929021
77	0xbe130d44	-0.14360529
78	0xbe15b5d7	-0.14620148
79	0xbd0b3436	-0.03398534
80	0xbda77203	-0.08176043
81	0x3c43e577	0.011956564
82	0x3e001e6c	0.12511605
83	0x3d54cba7	0.05195203
84	0x3e66d2cc	0.2254135
85	0xbcb45870	-0.022014827
86	0x3e1c9b78	0.15293682
87	0x3c9e3285	0.019311199
88	0x3e101106	0.14068994
89	0x3e587ec6	0.2114211
90	0x3d507013	0.050888132
91	0xbc6b346e	-0.014355762
92	0xbdebcd43	-0.1151376
93	0xb90accc4	-0.00013236987
94	0x3de3671f	0.11103653
95	0x3daf5de4	0.0856283
96	0x3df73bda	0.12071963
97	0xbd3e338b	-0.046435874
98	0x3dbbd75c	0.09171936
99	0x3cf8b23f	0.030358432
100	0x3bf850a8	0.0075779743
101	0xbc718c62	-0.0147429425
102	0xbe15579b	-0.145842
103	0x3d3a41a4	0.045472756
104	0x3ce6a81f	0.028156338
105	0xbdd31483	-0.10306647
106	0x3c77e675	0.015130629
107	0xbdede75a	-0.116163924
108	0xbcc629a9	-0.024189787
109	0x3dede82a	0.116165474
110	0xbdbead46	-0.09310393
111	0x3cf8501d	0.030311638
112	0xbde5abda	-0.11214419
113	0xbdda400e	-0.10656749
114	0x3d933ee8	0.07189733
115	0xbdb2186a	-0.08696063
116	0xbc717c25	-0.014739071
117	0x3dc1a8df	0.09456038
118	0xbd30d41c	-0.043171033
119	0x3d73efd3	0.059554886
120	0xbe020c8b	-0.12700097
121	0xbc694568	-0.014237739
122	0x3d5a6f5a	0.05332885
123	0xbd020f38	-0.031752795
124	0x3daf5016	0.08560197
125	0x3b869e5f	0.004108235
126	0xbd6ee5cf	-0.05832463
127	0xbdff78c5	-0.12474207
128	0x3af42c40	0.001862891
129	0x3ba87ec8	0.0051420666
130	0x3dbe688d	0.09297285
131	0x3a19c090	0.0005865181
132	0xbcd28f70	-0.025703162
133	0x3d3072f0	0.043078363
134	0xbca6e29d	-0.02037173
135	0xbe65e067	-0.22448884
136	0xbe890109	-0.26758602
137	0x3d70a878	0.058754414
138	0xbdeab330	-0.114599586
139	0xbd7c957c	-0.061665997
140	0xbe017c72	-0.12645128
141	0xbe786526	-0.24257335
142	0xbda82f58	-0.08212155
143	0x3d2daef3	0.042403173
144	0x3d30bd78	0.04314944
145	0x3dd8c654	0.10584703
146	0xbd8fcf8e	-0.0702201
147	0x3b2b68e9	0.002615506
148	0x3cc3ea8c	0.023915552
149	0xbd5c8852	-0.053840943
150	0xbddb2f84	-0.10702422
151	0x3c1a57ba	0.00942033
152	0xbd178ae5	-0.036997695
153	0x3d8e4318	0.06946391
154	0x3c616229	0.013756313
155	0x3b08472e	0.002079438
156	0x3d33d210	0.043901503
157	0x3ccc0cec	0.024908505
158	0xbdf87248	-0.121311724
159	0x3e86b239	0.26307848
160	0xbd25d68b	-0.040487807
161	0xbd53fe47	-0.05175617
162	0xbd218b01	-0.039439205
163	0x3c621d7b	0.013800974
164	0x3d10f965	0.03539409
165	0xbc6cc8a2	-0.014452131
166	0x3e0ff16c	0.14056939
167	0x3db82e41	0.08993197
168	0xbe2112ad	-0.1572978
169	0xbdf41832	-0.119186774
170	0x3db4d020	0.08828759
171	0xbe406a39	-0.1879052
172	0x3e05316e	0.13007137
173	0x3e08a4cd	0.13344117
174	0xbe3a2d10	-0.18181252
175	0xbc99a828	-0.018756941
176	0x3be4718b	0.006971543
177	0xbd74ff20	-0.05981362
178	0xbd8d2efa	-0.06893726
179	0x3d1c61ce	0.03817921
180	0xbd9b80ba	-0.07592912
181	0x3d296a89	0.041361365
182	0xbdb4f103	-0.08835032
183	0xbd8bb87e	-0.068222985
184	0x3d1abfb2	0.03778047
185	0xbcd9894f	-0.026554732
186	0xbd8663f8	-0.06562036
187	0x3c4bb853	0.012434083
188	0xbe0602c6	-0.13086995
189	0x3dfb1a47	0.122608714
190	0x3dcf0ce6	0.10109882
191	0x3d851819	0.06498737
192	0x3da86d7e	0.08224009
193	0xbc56c494	-0.013108391
194	0xbd82576c	-0.06364331
195	0xbc054033	-0.008132982
196	0xbd3e304e	-0.046432786
197	0x3d14a442	0.03628946
198	0x3c0752f6	0.0082595255
199	0x3c94cb9a	0.018163491
200	0x3c81db33	0.015851593
201	0xbdac26e6	-0.08405857
202	0x3e043044	0.12909037
203	0x3e2b2d15	0.16716416
204	0x3b90ad00	0.0044151545
205	0xbe546d53	-0.20744829
206	0x3d888c37	0.06667369
207	0xbd88b185	-0.06674484
208	0xbdd908ca	-0.105973795
209	0xbe1baed5	-0.15203412
210	0xbb67f0ae	-0.003539126
211	0xbc958671	-0.018252583
212	0xbb160aaf	-0.0022894552
213	0x3cf0501b	0.029335072
214	0xbe00d674	-0.12581807
215	0xbdb3421a	-0.08752842
216	0x3d7c5e5e	0.061613433
217	0xbd7c37ee	-0.061576776
218	0xbe60576a	-0.21908346
219	0x3dbf56f8	0.0934276
220	0xbde2bbbc	-0.11070964
221	0xbe032035	-0.12805255
222	0x3da01d2e	0.078180656
223	0xbd93f8fb	-0.07225224
224	0xbd2a437f	-0.041568276
225	0xbd04fd5c	-0.032468185
226	0xbdc4676a	-0.09590037
227	0x3d52e377	0.05148646
228	0xbe2f981f	-0.17147873
229	0xbc83fafb	-0.016110888
230	0xbd1a68bf	-0.03769755
231	0xbdc77645	-0.09739355
232	0xbe568985	-0.20950897
233	0xbd9f4b77	-0.07778066
234	0xbe35352c	-0.17696065
235	0x3d348617	0.04407319
236	0x3df8bcc7	0.121453814
237	0xbd4ce375	-0.050021607
238	0xbd52c1f4	-0.0514545
239	0x3ce1c433	0.027559375
240	0x3da136a3	0.07871749
241	0xbd4fb89d	-0.05071317
242	0xbdecd9c5	-0.11564974
243	0xbd1aeae6	-0.037821673
244	0x3d1b3693	0.037893843
245	0x3d12a68d	0.035803366
246	0xbc8c82cd	-0.017152214
247	0xbc7c2728	-0.015390195
248	0x3dcc223f	0.099674694
249	0xbe5e3790	-0.21700883
250	0xbe0e3f6c	-0.13891381
251	0xbd173a24	-0.03692068
252	0xbd1cc4e9	-0.038273726
253	0x3d85080f	0.06495678
254	0x3cd3d72c	0.025859438
255	0x3e0de172	0.13855532

bottleneck.1.weight f4 [32]
0	0x3f7ecebb	0.99534196
1	0x3f828aa4	1.019856
2	0x3f733ec8	0.9501767
3	0x3f6cf734	0.925647
4	0x3f840d40	1.0316544
5	0x3f833791	1.0251333
6	0x3f8708b7	1.0549535
7	0x3f6da871	0.92835146
8	0x3f886012	1.0654318
9	0x3f7ee240	0.9956398
10	0x3f821c1d	1.016483
11	0x3f6f98ee	0.9359273
12	0x3f8b7685	1.0895544
13	0x3f882398	1.0635862
14	0x3f840e39	1.031684
15	0x3f861239	1.0474311
16	0x3f76db86	0.96428716
17	0x3f749f46	0.9555553
18	0x3f72dabe	0.94865024
19	0x3f7410c0	0.9533806
20	0x3f803487	1.001603
21	0x3f842389	1.0323344
22	0x3f6277a0	0.88463783
23	0x3f731e0a	0.9496771
24	0x3f77ad93	0.9674923
25	0x3f866350	1.0499058
26	0x3f84df31	1.0380613
27	0x3f705650	0.938817
28	0x3f7db289	0.9910055
29	0x3f737a81	0.951088
30	0x3f87e1a5	1.0615736
31	0x3f7b8fc7	0.9826626

bottleneck.1.bias f4 [32]
0	0x3d8a6d24	0.06759098
1	0xbd3b6f3f	-0.04576039
2	0xbd65b721	-0.05608285
3	0xbda55dbc	-0.08074519
4	0x3cf8f507	0.030390276
5	0x3c3754b0	0.011189625
6	0xbcd3eccd	-0.025869751
7	0xbdf87afe	-0.12132834
8	0x3dae7da0	0.08520055
9	0x3bc08c46	0.005876097
10	0x3b9f428d	0.0048602284
11	0xbdda9533	-0.10672989
12	0x3dab51a1	0.08365179
13	0x3d8b4c0b	0.068016134
14	0x3da9ad10	0.08284962
15	0xbd936b9f	-0.071982615
16	0xbdc90808	-0.09815985
17	0xbc48cd9a	-0.0122560505
18	0xbcf746de	-0.03018516
19	0x3bb89fb7	0.005634274
20	0x3ca9af19	0.020713376
21	0x3d8b3eeb	0.0679911
22	0xbe1e0485	-0.15431412
23	0xbe014af4	-0.12626249
24	0xbda493f8	-0.08036035
25	0xbe04c044	-0.12963969
26	0x3d047013	0.032333445
27	0xbc2a36ac	-0.010389011
28	0xbbd5cdd8	-0.0065247826
29	0xbdfd4158	-0.12365979
30	0x3d8bd720	0.06828141
31	0xbbb2b463	-0.0054536327

bottleneck.1.running_mean f4 [32]
0	0xbf04c679	-0.51865345
1	0xbf120541	-0.57039267
2	0x3fa82527	1.3136338
3	0xbf531a4b	-0.82461995
4	0xbfca3034	-1.579596
5	0xbfa87996	-1.3162105
6	0xbf0a8716	-0.54112375
7	0x3ce8c86d	0.028415883
8	0xbe5c3000	-0.21502686
9	0x3f4ce1f6	0.8003229
10	0xbfd7f6e8	-1.6872225
11	0xbed6b6fb	-0.41936478
12	0xbecbfdbb	-0.39842018
13	0xbe98c93c	-0.2984103
14	0xbe5e4786	-0.21706972
15	0x3e34f916	0.17673144
16	0x3f2f670a	0.685166
17	0xbecada02	-0.39619452
18	0x3ef4e87f	0.4783363
19	0xbfb357ea	-1.4011204
20	0xbfde1f99	-1.7353393
21	0xbe543289	-0.20722403
22	0x3f0acd75	0.5421975
23	0x3f4debc3	0.8043787
24	0xbeff979f	-0.49920365
25	0x3f31ab7a	0.6940228
26	0xbe5840d7	-0.21118484
27	0xbefe4d37	-0.49668285
28	0xbfd3814c	-1.6523833
29	0x3fa76042	1.307625
30	0xbf28db61	-0.65959746
31	0x3eeecaca	0.4663909

bottleneck.1.running_var f4 [32]
0	0x400fce3c	2.2469625
1	0x3f3fb1ae	0.7488049
2	0x3f61746d	0.88068277
3	0x3f89c98f	1.0764636
4	0x4081e7d4	4.0595493
5	0x40dd46ab	6.9148765
6	0x3eed8992	0.4639402
7	0x3fa52d91	1.2904531
8	0x3f60edc8	0.87862825
9	0x40111d63	2.2674186
10	0x40b5d2ae	5.6819677
11	0x3f5588e0	0.8341198
12	0x3f461347	0.77373165
13	0x3f6a71c0	0.9157982
14	0x3f553cc2	0.83295834
15	0x3efce2b5	0.49391714
16	0x3fa73e1a	1.3065827
17	0x4032e742	2.7953649
18	0x3f227627	0.63461536
19	0x3fdb0cee	1.7113321
20	0x40f65d14	7.698862
21	0x3f4dd9d0	0.8041048
22	0x3fda5d5e	1.7059743
23	0x3f250334	0.6445801
24	0x3f47e206	0.7807926
25	0x3fb99970	1.449995
26	0x3f2af944	0.667866
27	0x3f0957a8	0.5364938
28	0x408d2312	4.410531
29	0x40392986	2.8931594
30	0x4002ba20	2.0426102
31	0x3fde2759	1.7355758

bottleneck.3.weight f4 [32, 32, 3, 3]
0	0xbcb47a82	-0.022031073
1	0x3e1400a2	0.14453366
2	0x3d28f5bd	0.04124998
3	0x3d164c90	0.03669411
4	0x3baa29c6	0.005192968
5	0xbda389c4	-0.07985261
6	0xbc99fd78	-0.018797621
7	0x3e0ba395	0.1363662
8	0xbc99cceb	-0.01877447
9	0xbe3d7a35	-0.1850365
10	0xbd434437	-0.047672477
11	0xbc8820c2	-0.016617183
12	0x3d18324b	0.037157338
13	0xbd8e2207	-0.06940084
14	0xbd14127a	-0.036150433
15	0x3c76ed78	0.015071265
16	0xbd00c4cd	-0.031437684
17	0xbe47a2e2	-0.19495729
18	0xbd66d80a	-0.056358375
19	0xbd24b6b2	-0.040213294
20	0x3d3ad21c	0.045610532
21	0xbdb67336	-0.089086935
22	0x3e0ef5f4	0.13961011
23	0x3c73cad3	0.0148799
24	0x3d64070a	0.055670775
25	0xbd23fc1e	-0.04003536
26	0x3d087f2c	0.033324406
27	0xbd7ad22b	-0.061235588
28	0xbda93413	-0.082618855
29	0xbd95b060	-0.073090315
30	0x3e060111	0.13086344
31	0x3e0a485b	0.13504164
32	0xbc3ff89b	-0.011716987
33	0x3d089c5a	0.033352233
34	0xbd15afb8	-0.03654453
35	0x3beba10e	0.00719083
36	0x3d1d4fac	0.03840606
37	0xbd8ac997	-0.067767315
38	0xbd045bd3	-0.032314133
39	0xbcea5ab4	-0.028607704
40	0x3dc08751	0.094008096
41	0x3e13463f	0.14382266
42	0xbcc49c94	-0.024000444
43	0xbda04b00	-0.07826805
44	0x3b6148e7	0.0034375729
45	0xbe23caae	-0.15995285
46	0x3e08571a	0.13314477
47	0xbd51d9a3	-0.051232945
48	0xbb13d5c3	-0.0022557832
49	0x3c21de56	0.009879669
50	0x3ca3a6a5	0.019976923
51	0xbd6f1e58	-0.058378547
52	0x3c1e6eec	0.0096700005
53	0x3bbdad2b	0.0057884655
54	0xbdf46dd9	-0.11935014
55	0xbe01d937	-0.12680517
56	0xbc8a7bb9	-0.016904699
57	0xbe7b4083	-0.24536328
58	0x3dcb9281	0.09940053
59	0xbe133aee	-0.14377949
60	0xbe02036a	-0.12696615
61	0xbe2ba205	-0.16761024
62	0xbd878437	-0.06617015
63	0xbdb258f2	-0.08708371
64	0xbe364894	-0.17801124
65	0xbd8628bd	-0.06550739
66	0xbdb62a3a	-0.08894773
67	0xbcab579e	-0.020915803
68	0xbd27e12e	-0.040986232
69	0xbdffa8b4	-0.124833494
70	0xbe09f133	-0.13470916
71	0xbe09e9d4	-0.13468105
72	0x3d692890	0.05692345
73	0x3e1c3702	0.15255359
74	0xbda45067	-0.08023148
75	0x3e208d8b	0.15678994
76	0x3aa02737	0.0012218718
77	0x3cfbaac4	0.030721076
78	0x3e0ac6ae	0.13552353
79	0x3e050483	0.12990002
80	0x3d85c642	0.06531955
81	0xbd9ad999	-0.07561035
82	0xbdcaa776	-0.09895222
83	0xbe36bb42	-0.1784487
84	0x3df5278d	0.11970434
85	0x3d08ad7b	0.03336857
86	0xbe1d73ac	-0.15376157
87	0x3dad3320	0.08457017
88	0x3d78e425	0.06076445
89	0x39be2e54	0.0003627414
90	0x3a9f9f7d	0.0012178269
91	0xbc0eec76	-0.008723369
92	0x3d987242	0.07443668
93	0xbd5dd524	-0.054158345
94	0xbda1843e	-0.07886551
95	0x3d39f456	0.045399033
96	0x3daf9445	0.08573202
97	0xbd06eaae	-0.03293865
98	0x3d6ec3bb	0.058292132
99	0x3d1022c6	0.035189413
100	0x3d857da9	0.065181084
101	0x3df91014	0.1216127
102	0xbdd63ced	-0.104608394
103	0x3db03c81	0.0860529
104	0xbc1743ba	-0.009232456
105	0x3de7e52d	0.11323009
106	0xbc68f655	-0.014218886
107	0x3e1229e6	0.14273795
108	0xbd83c452	-0.064339295
109	0xbd836f3f	-0.06417703
110	0xbd71c92c	-0.059029743
111	0xbe22ddcd	-0.15904923
112	0xbdc23330	-0.094824195
113	0x3d77fcfa	0.06054399
114	0x3c331ef3	0.010932672
115	0x3bf32358	0.007419985
116	0x3d397214	0.04527481
117	0xbe315f72	-0.17321566
118	0xbd59623c	-0.0530722
119	0xbca1c5c1	-0.019747617
120	0x3dd461c4	0.1037021
121	0xbd9382db	-0.07202693
122	0x3c675deb	0.014121513
123	0xbcba4916	-0.022739928
124	0x3e164122	0.14673284
125	0x3d1c4579	0.03815219
126	0xbd15bf60	-0.036559463
127	0xbd87a4f0	-0.06623256
128	0x3e164519	0.14674796
129	0x3dba4e51	0.09096969
130	0x3de12b80	0.10994625
131	0xbdebec4e	-0.11519681
132	0x3d7c9cc8	0.061672956
133	0xbd31969a	-0.043356515
134	0xbdc9a96b	-0.09846767
135	0xbd6ec014	-0.05828865
136	0xbdcc27cf	-0.099685304
137	0xbe054e22	-0.13018087
138	0xbe07425c	-0.13208908
139	0x3df934ee	0.12168299
140	0xbe199480	-0.14998055
141	0xbe382702	-0.1798363
142	0x3d8cf9c1	0.06883574
143	0x3d3b6b5f	0.045756694
144	0x3d5ff205	0.054674167
145	0x3dffd880	0.12492466
146	0x3dbc5466	0.09195785
147	0x3d87259e	0.06598972
148	0x3d8fbe0b	0.0701867
149	0x3d18530d	0.03718858
150	0x3d87a2a0	0.06622815
151	0xbd1edbc4	-0.038783804
152	0xbbef2dba	-0.007299152
153	0xbe486c41	-0.19572546
154	0x3e407e88	0.18798268
155	0xbb5dbbfc	-0.0033833971
156	0x3dae0a65	0.08498076
157	0xbe1ba725	-0.1520048
158	0x3d88e60b	0.06684502
159	0x3c3449d7	0.011003933
160	0xbcf34ea5	-0.029700587
161	0xbe011659	-0.12606181
162	0xbcc84f7f	-0.02445197
163	0xbd91e3d2	-0.071235314
164	0xbe52b120	-0.2057538
165	0xbdb1a758	-0.086744964
166	0x3d76353f	0.060109373
167	0x3c9260c2	0.017868403
168	0x3cec1eb6	0.028823238
169	0xbd43335b	-0.0476564
170	0xbdce393c	-0.1006951
171	0x3c5153c0	0.012776315
172	0x3e162f20	0.14666414
173	0xbd572c6d	-0.052532602
174	0x3dc039cd	0.093860246
175	0x3e2443cc	0.16041487
176	0x3d88ded4	0.06683126
177	0xbad1c353	-0.0016003646
178	0x3dc89883	0.09794714
179	0xbe813dca	-0.25242454
180	0xbd82e239	-0.06390805
181	0x3de614dc	0.11234447
182	0x3d3086ad	0.043097187
183	0xbd121e20	-0.03567326
184	0x3cc4cf35	0.024024585
185	0xbe2aeb14	-0.16691238
186	0x3c8e638e	0.017381456
187	0xbd3975c9	-0.045278344
188	0xbc2362ba	-0.009972269
189	0xbd8a629f	-0.06757092
190	0xbe06c79e	-0.13162085
191	0xbe173fa4	-0.1477037
192	0xbcea3974	-0.028591849
193	0x3dfdc621	0.12391306
194	0xbda9bd4f	-0.08288061
195	0x3cfd694f	0.030934004
196	0xbe1e5c9a	-0.15465012
197	0xbca8f8b6	-0.020626407
198	0xbd636e8d	-0.05552535
199	0x3de6dd0b	0.11272629
200	0xbca564ef	-0.02018973
201	0xbe40ccfc	-0.18828195
202	0xbc232726	-0.009958064
203	0xbc37aa40	-0.011210024
204	0xbd23aa8f	-0.03995758
205	0x3d81dbb0	0.0634073
206	0xbc9be861	-0.019031705
207	0xbe3d2b63	-0.18473582
208	0xbdb39535	-0.08768693
209	0xbda8f907	-0.08250623
210	0xbde2f029	-0.11080963
211	0xbdc10e9a	-0.09426613
212	0xbdd4d27b	-0.103917085
213	0xbbc4abae	-0.006001911
214	0xbe09ea4f	-0.13468288
215	0xbd1df34d	-0.038562108
216	0x3d90ceb3	0.07070675
217	0xbe0399ea	-0.12851682
218	0x3cd4d741	0.025981547
219	0x3dc048b2	0.093888655
220	0xbd0f03be	-0.03491568
221	0xbd1b3fe6	-0.037902735
222	0x3d80718c	0.06271657
223	0xbd49d330	-0.04927367
224	0x3dbf9535	0.09354631
225	0x3d5915dd	0.052999366
226	0xbe3801f9	-0.17969503
227	0xbe0f76c5	-0.1401015
228	0xbde91b8b	-0.113822065
229	0xbe126eb5	-0.14300044
230	0xbe145dcd	-0.14488907
231	0xbd52d12f	-0.051469024
232	0xbe41ae3c	-0.18914121
233	0xbe404d4c	-0.18779486
234	0xbcd7a580	-0.026324034
235	0x3e1ff942	0.15622428
236	0xbe042e55	-0.129083
237	0x3c43e992	0.011957543
238	0x3d0eb5df	0.034841415
239	0xbd8b0437	-0.06787913
240	0xbdafe019	-0.08587665
241	0x3cd66c50	0.026174694
242	0xbd81eb12	-0.06343664
243	0xbcc32ab0	-0.023824066
244	0x3cc093f2	0.023508046
245	0xbe001af8	-0.12510288
246	0x3d4cba03	0.049982082
247	0x3c0aa9fa	0.008463377
248	0xbd93d0f3	-0.07217588
249	0x3c8dd8dd	0.017315323
250	0x3e6217e1	0.22079422
251	0x3c9c1666	0.01905365
252	0x3d8a5074	0.067536265
253	0xbd6ac6bf	-0.057318445
254	0xbc233673	-0.009961712
255	0x3d4569f7	0.04819676

bottleneck.4.weight f4 [32]
0	0x3f82209e	1.0166204
1	0x3f88b845	1.0681235
2	0x3f89fb54	1.0779824
3	0x3f8588cf	1.0432376
4	0x3f8cdcb7	1.1004857
5	0x3f80ee4f	1.0072726
6	0x3f83471a	1.0256073
7	0x3f859ed9	1.0439101
8	0x3f6ed3cf	0.93291944
9	0x3f7bbe82	0.98337567
10	0x3f8382a8	1.0274248
11	0x3f74fd2b	0.95698804
12	0x3f7da6a0	0.99082375
13	0x3f80fbc1	1.0076829
14	0x3f9214e4	1.1412625
15	0x3f82568b	1.0182661
16	0x3f852baa	1.040395
17	0x3f86a2ef	1.0518473
18	0x3f8a59e8	1.0808687
19	0x3f89c74b	1.0763944
20	0x3f7931e0	0.9734173
21	0x3f90b1d1	1.1304265
22	0x3f8418ff	1.0320128
23	0x3f8d565c	1.104198
24	0x3f7cde23	0.98776454
25	0x3f72e0f4	0.948745
26	0x3f6d588a	0.92713225
27	0x3f900bb5	1.1253573
28	0x3f80bb89	1.0057231
29	0x3f84a625	1.0363203
30	0x3f7eeaff	0.99577326
31	0x3f891ab2	1.0711272

bottleneck.4.bias f4 [32]
0	0x3d41ef77	0.047347512
1	0x3d80700a	0.0627137
2	0x3d0ea56e	0.034825735
3	0x3d900c80	0.07033634
4	0x3dd2938f	0.10282051
5	0xbd9e7f42	-0.07739116
6	0x3d16ddd9	0.036832664
7	0xbc72828d	-0.014801634
8	0xbe19b9f8	-0.15012348
9	0xbd976182	-0.07391645
10	0xbd5d6d00	-0.05405903
11	0xbd128819	-0.035774324
12	0x3c68c4b6	0.014207056
13	0xbdaa81d6	-0.083255455
14	0x3ddd94a3	0.10819366
15	0xbd12b908	-0.03582099
16	0x3d743b75	0.059627015
17	0x3d772986	0.060342334
18	0x3d2a8ed4	0.041640118
19	0x3ce19e16	0.027541202
20	0x3c95ccb1	0.018286081
21	0x3bd084f6	0.0063635064
22	0x3d926267	0.07147675
23	0x3d8d9cf1	0.069147
24	0xbc25ddfa	-0.010123724
25	0xbd6dd887	-0.058067825
26	0xbd009609	-0.031393085
27	0x3d929c69	0.07158739
28	0x3d013c14	0.031551436
29	0x3cfbd966	0.030743312
30	0xbd881e7b	-0.06646439
31	0x3bf3d50e	0.0074411696
