experiments_multi/Brain_Tumor_Segmentation_Separate_Train_Val_20260206_163839/best_model_state.pth (torch, 141221 bytes, 56 tensors)

enc1.0.weight f4 [8, 4, 3, 3]
00000000: 8816 bd3c b06d 98bd 38ea 823e 8ea6 4ebd
00000010: c3eb 59bd 036e b1bd f873 353e b3d5 4f3d
00000020: d7b0 213c fdc8 a43d 5722 19be 82c3 21be
00000030: 5f63 a43c bfd2 413e e838 353e f439 4a3e
00000040: 4453 e03d ca5e abbc 1e86 4e3e 2f0f 8d3e
00000050: 72f2 32be eb9d 2a3e bfaa a8bd 832b b0bc
00000060: 83eb 68be 6945 243d 999d dd3d 8c8c 683d
00000070: da6a c53c 8cde 173e de01 0bbd e289 8d3e
00000080: 5f94 043d 0493 cabd 0c7c 58bd 7f69 e6bd
00000090: f242 2cbe c489 9bbc 159a b93d 9809 153e
000000a0: f98a f53d 084a d03c 7a44 92be 96a0 ba3e
000000b0: 40ee afbd 3d6e 87be 2333 303d 2707 88be
000000c0: c280 cc3c 1df6 9c3e f29c da3d a48c 223e
000000d0: 9afb de3e a7f0 a0be 9b19 1cbe 9a09 973d
000000e0: 9e97 323d e3f5 0ebe 0306 7dbe 09f1 dd3d
000000f0: 4355 d6bd a6b1 fb3e 31d3 f03b e862 963e
00000100: 4748 3c3e b066 0dbe 8c0d cfbd e1a3 bf3d
00000110: 9240 ad3e fbef c73d 69cc 273e 3386 a3bd
00000120: e715 863e 307b c43d 00c1 0a3e 352f 423c
00000130: 4a9c 81bd 837d a6ba bffb 57bd 7600 cf3e
00000140: be4f 74bd 9201 cd3e 61c1 323e 2405 6f3d
00000150: 635d 403e d465 28bd 3974 c83d c5c4 a3be
00000160: be0f 4cbe 95cb 9c3e df31 6ebe b2d4 30be
00000170: 9158 d4bd 4488 9a3e f909 363e f152 91bd
00000180: 6542 793e 0891 513e 88f2 c73d 2c74 6dbe
00000190: 1e72 653e 6617 13be 6fbe 57bd 14d5 293d
000001a0: de76 9ebd 2077 1abd b5b9 35be 7dfa 2d3e
000001b0: f5e0 533e 40ad 02bd f1a3 91bc a5ba d8be
000001c0: 2f9f a73d e580 2e3e fcc7 553d a604 17be
000001d0: 79e8 8dbd a692 a7bb 6c23 90bd 3314 b0bd
000001e0: 97af 1abe ad6f 683c 98a9 bfbd c1d5 6ebc
000001f0: 6fa0 153e f165 0cbd b2b7 aa3e b316 853e
00000200: 4e3c 30bd 90db 4ebc 276c ac3d a855 3abe
00000210: e815 343e a15a c9bd b0fd 15be 9b85 61bd
00000220: f5ef 0abd 497d debc edf8 9c3d fdd4 f23d
00000230: b18f 28bd 5966 24be 3d09 013d 5f46 9bbd
00000240: 8de4 2f3e 5166 42be f1f2 b13e b172 48be
00000250: a5b9 91be 5986 1cbe 130c e83e e817 f93e
00000260: 4a30 bd3e ac29 7cbc 4545 8bbc e875 0abe
00000270: 5b0d 393d 19f4 353c ec3a 813c 716a 8fbc
00000280: 4151 bcbd 68c1 f6bd b518 97bd 711f 8abe
00000290: d5c4 593d 38af 023e a8df fa3c 7039 963e
000002a0: 281d 8a3d 3688 1f3e ed73 88be 0dd3 1ebe
000002b0: ebea 54be afff 6abd 28d8 44be fa1a 0cbe
000002c0: abf5 29bd 327d 9abd 399e 873d e50b a9be
000002d0: f4d0 fe3b 42b8 f7ba c7a3 c1be e753 073e
000002e0: 7105 db3d ecba d6bd ba07 eabd 24b0 d4bd
000002f0: 1a56 40be 65d0 8e3e 6b3e 6d3d 059d 7cbe
00000300: 5fd1 7a3d 1d1a 94bd f590 143e da36 193e
00000310: 103a 753e 9793 853d ea85 e0bd 0798 4bbe
00000320: 1324 643e 5afe 87bd 6196 c7bd 1549 45bc
00000330: f3f7 e9bd 772f 883c 142d f0bd 3b47 4dbe
00000340: 3b2b a7bd 5caa ae3d f9b5 d83d 0ccd c73c
00000350: 3aaf 3fbe e786 cebd 91ba 33bd c522 9b3c
00000360: fb41 c2be 7a71 01be cadd adbd 276b 5ebe
00000370: b899 3bbe 1df3 59bd 7c4a 3abb 7e08 0ebd
00000380: 9947 0f3d acb5 af3d f8af 013d a033 a83e
00000390: e65e b23b 6059 8dbd 43c1 b2be a651 243e
000003a0: 111d a63e d0f7 fbbc a919 d5bd ea08 99be
000003b0: 2005 0b3c 00d8 a53d 090c cdba 4065 013d
000003c0: 8483 8bbe d27a 1a3e 33ef 1c3e 5091 e0bd
000003d0: 1a4c babd 6c6f aa3e dfa8 da3d 1ebf 77be
000003e0: 9507 8f3e 1a24 c03c 1787 db3d e920 703d
000003f0: b228 a53d f73c 97bd b4e8 63be ca87 dabe
0.023082033 -0.07442796 0.2556932 -0.050451808 -0.053203356 -0.08663561 0.1772002 0.05074091
0.009868822 0.08046148 -0.14954506 -0.15797237 0.020066915 0.1892805 0.1769749 0.1974867
0.10953382 -0.020919222 0.20168349 0.27550647 -0.17475298 0.16661803 -0.08235692 -0.021505123
-0.2274609 0.040105257 0.10821075 0.05677466 0.024098802 0.14830989 -0.033937328 0.2764426
0.03236806 -0.09891322 -0.052852675 -0.112505905 -0.16822413 -0.01898659 0.09062592 0.14554441
0.119893976 0.025425926 -0.28567868 0.36450642 -0.085903645 -0.26451293 0.043017518 -0.26567957
0.02496374 0.3065652 0.10674466 0.15873963 0.43551332 -0.31433603 -0.15244143 0.07374878
0.043601625 -0.13960986 -0.24709325 0.108369894 -0.10465481 0.49158973 0.0073493947 0.29372334
0.18386947 -0.13808703 -0.10110006 0.09357429 0.33838326 0.097625695 0.1638657 -0.07984581
0.26188585 0.09593809 0.13550186 0.011852075 -0.06328638 -0.00127022 -0.05273032 0.4043004
-0.05964636 0.4004026 0.1745658 0.05835451 0.18785624 -0.041112736 0.09787793 -0.3198606
-0.1992788 0.3062407 -0.23261212 -0.17268637 -0.10368455 0.30182087 0.17777242 -0.07095898
0.24341734 0.20465481 0.09763056 -0.23188847 0.22406814 -0.14364395 -0.052671846 0.041462973
-0.07737516 -0.037711263 -0.17746623 0.16990085 0.20691283 -0.031903505 -0.017778369 -0.42329898
0.08184659 0.17041357 0.052192673 -0.14747867 -0.06929106 -0.0051139174 -0.07038006 -0.08597603
-0.15106045 0.014186782 -0.09358519 -0.01457733 0.14611982 -0.034276906 0.33343273 0.2599388
-0.04302626 -0.01262559 0.08419066 -0.18196738 0.17586482 -0.09831739 -0.14647555 -0.055059057
-0.033920247 -0.02715935 0.07664666 0.118570305 -0.04115266 -0.16054668 0.03150295 -0.075817816
0.17177029 -0.18984343 0.34755662 -0.19575001 -0.28461948 -0.15285625 0.45321712 0.48651052
0.36950904 -0.015390795 -0.017000804 -0.1352154 0.045178752 0.011105561 0.015775166 -0.01750681
-0.091951855 -0.12048608 -0.07377759 -0.26977113 0.05316623 0.12762153 0.030624226 0.29340696
0.06743842 0.15579304 -0.26650944 -0.15510197 -0.20792739 -0.057372745 -0.19223082 -0.13682166
-0.041494053 -0.0754341 0.066219755 -0.33016887 0.007776374 -0.0018899518 -0.37820265 0.132156
0.10694397 -0.10484871 -0.11427255 -0.10385159 -0.18782845 0.27893367 0.057920855 -0.24669273
0.061234828 -0.07231543 0.14508422 0.1496233 0.2394793 0.06522291 -0.10963042 -0.19882213
0.22279386 -0.066403106 -0.097454794 -0.01204135 -0.11424246 0.016624196 -0.11727348 -0.20046704
-0.081625424 0.08528587 0.105815835 0.024389766 -0.18719187 -0.10084324 -0.043879095 0.018937478
-0.37940964 -0.12640944 -0.084895685 -0.21720563 -0.18320358 -0.053210367 -0.0028425744 -0.034676068
0.03498039 0.08579573 0.031661958 0.32851887 0.0054434417 -0.069018126 -0.34913072 0.16046771
0.3244405 -0.030757815 -0.10405285 -0.29889613 0.008485109 0.08097839 -0.0015643846 0.0315907
-0.27248776 0.15085915 0.15325622 -0.10965216 -0.090965465 0.33288133 0.10676741 -0.24193999
0.27935472 0.023454715 0.10719126 0.058625136 0.08064403 -0.07384675 -0.22256738 -0.42681724

enc1.1.weight f4 [8]
00000000: 1bbd 7f3f cf3f 803f 55cf 7c3f ea10 803f
00000010: 0548 823f 7886 803f 10a0 7b3f 4698 803f
0.9989793 1.0019473 0.98753864 1.0005162 1.0178229 1.0041037 0.9829111 1.004647

enc1.1.bias f4 [8]
00000000: 4817 0a3b 47c6 213b 5bc4 8cba b982 0c3b
00000010: 7a3c 9dbb dedc eab9 d365 15bc 5a40 343b
0.0021071006 0.0024684833 -0.0010739671 0.0021440221 -0.004798469 -0.00044796517 -0.009118515 0.0027504177

enc1.1.running_mean f4 [8]
00000000: 8158 413e 06b0 503e 6fe2 803e 0932 70bd
00000010: 0f51 00bd 82c1 dabd d46a 80bd 7939 b3be
0.18881418 0.20379648 0.25172755 -0.058641467 -0.031327303 -0.1068144 -0.06270376 -0.35004786

enc1.1.running_var f4 [8]
00000000: 2c39 fb3d 59e3 193e 89e4 5f3e 6450 823c
00000010: 47be 823c 540a 373d 350c 9b3c 26b1 d93e
0.12266764 0.15028132 0.21864523 0.015907474 0.015959872 0.044687584 0.01892672 0.42517966

enc1.3.weight f4 [8, 8, 3, 3]
00000000: f9ac 783e d6f5 233d c91c b43c bc88 f53d
00000010: 3b1e 1ebe eea9 f0bc 3f54 f33d 442c f0bd
00000020: c420 92bd 6ecd 523d a5a6 b5bd bf40 5bbe
00000030: 84c4 a73c e864 32be 9c3e bf3d bbea 053e
00000040: 962c ecba 4275 15be 294b 233d b396 21be
00000050: 29db 673e e689 0d3d ae5f 1b3e e9b6 8ebd
00000060: 9675 3c3e ecbf cabd b905 a7be cf86 a5be
00000070: 61ef a43e bafb 893e 8499 d8bc e9af a4bd
00000080: 3988 723d 69c1 533d bace a0bd 4049 e63d
00000090: 5361 17bd f83d 8fbd 995f 53bd 6011 353e
000000a0: 1d44 d73d 7604 4bbe dd2e c83d 251a a03d
000000b0: 6cc9 413e 0672 823e 8a38 343d 6c57 0d3e
000000c0: e6bd f7bd 55ff ae3a d216 7dbd c9ee 56bd
000000d0: 5efb 483e b79f e6be 364a 5e3d 74a2 4fbd
000000e0: 0c31 42be a63c e8bc 9732 85be bab8 3d3e
000000f0: a7b4 833e 664e 283d ca18 dbbd d8f6 7d3d
00000100: 1cec d83c 4e30 f13c 782f 4e3e 0ca5 e9bc
00000110: 77db 26be 5a91 64be 5ff9 26be 5d36 33bd
00000120: 7dc1 723d 0192 ddbd 5ab9 533e 54df 3dbd
00000130: f955 863e 0569 bcbd caa6 3a3d c321 50be
00000140: 621e 33be af71 053e 7990 a2bd a145 283e
00000150: 5952 82bd 4c0b 373d 2568 893d 45a5 133e
00000160: 3064 2d3e f6b2 81be 4e3b 73be 21b0 d3bc
00000170: 3856 073e df4c a23e 03e3 16bd cd77 843c
00000180: ed56 823d ecd2 24be 4c18 3cbe 3534 f4bc
00000190: ca28 c73c 45cc 96bd e4d6 8fbe 9d31 1cbe
000001a0: 87de f0bd 5dda a9be cfd8 63bd cb2c 163d
000001b0: ac3a 923d cadd 01be 2d7a 103e 0a8c 323d
000001c0: cf78 95bc 4b56 833e 1231 f7bd 3916 19bd
000001d0: 1efc 0dbe ef0a 47be 1525 803d 466b 29be
000001e0: 0a6b 6e3e 3c9a e53c 39ef 90bc 69ff f03d
000001f0: 7132 923e 8177 a23b 019a 983d da1e 893c
00000200: b098 c03e 9cf9 08bd 6103 81be 3c12 783e
00000210: e267 0ebd 92b2 ecbc cf3a 593e e968 2d3e
00000220: fb83 6b3e 41c2 76be 372e f8bd e495 f0bc
00000230: 9389 273e f5db 93bd b89f 883d b9fc c1be
00000240: 85e1 933d 539d 16bd 7052 4c3d d44e 3cbe
00000250: e3be a53b b292 2d3e 2aeb 963e ec19 79bd
00000260: 29ff 9a3e c9a9 3ebe 2ed1 1f3e 7457 dd3b
00000270: 42d4 82be 4f9d d0be 6559 d73d e295 f0bd
00000280: da9f 593d ad55 d63d c032 15be 641a 14be
00000290: 0f17 d53c a44a 0b3e 7a27 013e 34c0 553d
000002a0: 0179 02be cba6 69bd 24c6 a0bb d4f1 1a3e
000002b0: bd9e 293d 1101 b0bd ddf4 4a3c 7767 0e3e
000002c0: 1fd2 e7bd a545 8bbc eeb3 dc3c 8dd4 21be
000002d0: a10b 7b3d f8cf e6be 028e a4be a26c 2b3e
000002e0: d246 a53d c497 2b3e 8af6 c43e d6dc d5bd
000002f0: bbef b93d a3ec 313e db74 49be 81e9 ed3d
00000300: 0e1c 78be 5183 163e 3df1 46be 718b 57be
00000310: bce4 043e 5bbb 9dbd 4983 363e 6ded aa3d
00000320: d7f0 333d 85e4 133d eaf6 113e 3213 9e3e
00000330: f750 27be 79bc f6bd 11c0 b93c 8d1f 22bd
00000340: ef3f 113e ff70 55bd a862 80be 8d47 3c3e
00000350: d728 1abe 628d 02be f963 adbd 0f26 a03c
00000360: 03f9 1bbe cfcc 54be e44d ec3d 361d 313d
00000370: a315 53be 841c 213e 6cae a23d 7e1a 673e
00000380: 6129 7bbe 4623 09bd 5cea d6bc 8d20 5f3e
00000390: 0306 823e fcdc 4fbe 1559 46be 6655 b9bc
000003a0: f797 1abe 3f7b 83be 3184 f23d f686 5cbe
000003b0: 4f66 0a3e 3152 65be 62f3 1c3d 7b00 7d3e
000003c0: 12d4 e73d 2883 dcbd 1d6c 14be 20cc f5bd
000003d0: bf04 99bd b43d 313c 13d0 553c 775a 243d
000003e0: 0d9d 0ebb b112 cf3c 420f 603e 4887 8ebd
000003f0: 39aa 44be 9644 61be 3a73 bdbe 1212 ccbe
0.24284734 0.04002937 0.021986382 0.11988971 -0.1544122 -0.029377904 0.11881303 -0.11727193
-0.07135156 0.051465444 -0.088696755 -0.21411417 0.020479448 -0.17421305 0.09338114 0.13077824
-0.0018018659 -0.14595512 0.0398666 -0.15780143 0.22642197 0.03455534 0.15173218 -0.06968481
0.1840423 -0.098998874 -0.32621554 -0.32329413 0.32213882 0.26949865 -0.02644039 -0.08041365
0.059211943 0.051698122 -0.0785193 0.1124444 -0.03695805 -0.069942415 -0.05160484 0.1768241
0.105110385 -0.1982592 0.097745635 0.07817487 0.18924493 0.25477618 0.043999232 0.1380288
-0.12096767 0.0013351241 -0.06178934 -0.052473817 0.19627139 -0.45043728 0.05426999 -0.050692037
-0.18964022 -0.028349232 -0.2601516 0.18527499 0.25723764 0.04109039 -0.106980875 0.062002987
0.026479773 0.029441979 0.20135295 -0.028521083 -0.16294657 -0.22321072 -0.16306065 -0.043753017
0.059266556 -0.10818864 0.20676175 -0.04635556 0.26237467 -0.091997184 0.04556922 -0.20325379
-0.17492059 0.13031648 -0.07937712 0.16432811 -0.06363363 0.044688508 0.06709317 0.14418514
0.1693275 -0.2533185 -0.23753092 -0.02584082 0.13216484 0.31699273 -0.03683759 0.016170407
0.06364236 -0.16096085 -0.18368644 -0.02981005 0.024311442 -0.0736318 -0.28093636 -0.15253301
-0.11761194 -0.3317441 -0.055626687 0.03666381 0.07140097 -0.12682262 0.14109106 0.043590583
-0.018246083 0.25651774 -0.12069906 -0.03737471 -0.13865706 -0.19437765 0.06257073 -0.16544828
0.2328302 0.028027646 -0.017692195 0.117674656 0.2855411 0.0049580936 0.07451249 0.016738344
0.3761649 -0.03344117 -0.2519789 0.24225706 -0.03476704 -0.028893743 0.2121384 0.16934551
0.22999565 -0.2409754 -0.1211819 -0.029368348 0.16361074 -0.07219688 0.06671089 -0.37888125
0.07220749 -0.03677113 0.049883306 -0.18389446 0.005058156 0.16950491 0.2947629 -0.060815737
0.30272797 -0.18619455 0.1560714 0.00675481 -0.25552565 -0.40745017 0.105150975 -0.11747338
0.053130962 0.1046556 -0.14570141 -0.14463192 0.026011972 0.13602692 0.12612715 0.052185252
-0.12741472 -0.05704383 -0.0049064327 0.15131313 0.04141115 -0.085939534 0.0123874815 0.13906656
-0.11319374 -0.017000983 0.026941266 -0.15803738 0.061290387 -0.45080543 -0.32139593 0.16740659
0.080701485 0.16757113 0.38469344 -0.10442512 0.09078928 0.17375426 -0.19673483 0.11616803
-0.24229452 0.1469853 -0.19427963 -0.21049286 0.1297788 -0.07701751 0.17823519 0.083460666
0.043930855 0.036106605 0.14254346 0.3087402 -0.1633948 -0.12047667 0.022674592 -0.03958087
0.14184545 -0.052109715 -0.2507527 0.1838667 -0.15054642 -0.12749246 -0.08466334 0.019549398
-0.15231709 -0.20781253 0.11538294 0.04324075 -0.20613723 0.15733534 0.079434246 0.225687
-0.24527504 -0.033480905 -0.026234798 0.21789761 0.25395212 -0.20299143 -0.1936992 -0.022623729
-0.15097032 -0.25679967 0.1184162 -0.21535859 0.1351559 -0.22394635 0.038318045 0.24707215
0.11319746 -0.107672036 -0.14494367 -0.120018244 -0.07471608 0.010817934 0.013050097 0.040125336
-0.002176109 0.025277467 0.2188082 -0.069593966 -0.1920556 -0.2199882 -0.37001973 -0.39857537

enc1.4.weight f4 [8]
00000000: 3ffc 803f 1efa 7a3f 68b0 7f3f 6b01 803f
00000010: 0aff 803f cce3 7f3f bc75 813f 1440 7f3f
1.0076979 0.980379 0.9987855 1.0000433 1.0077832 0.99956965 1.0114055 0.9970715

enc1.4.bias f4 [8]
00000000: 78d9 1fbc d5d1 2abc af45 12bc 3994 13bb
00000010: e10c 87bc 1364 f2ba 36d1 3d3c 8d8c 56bb
-0.009756438 -0.010426004 -0.008927747 -0.0022518768 -0.016485633 -0.0018492959 0.011585524 -0.0032737583

enc1.4.running_mean f4 [8]
00000000: c331 56bd e960 ebbc 37de d7bd 00d8 2bbf
00000010: 6910 00bf 2f6e 6cbe 1703 5fbf 0782 c9be
-0.05229355 -0.028732734 -0.10540431 -0.67126465 -0.5002504 -0.23088907 -0.8711409 -0.39357015

enc1.4.running_var f4 [8]
00000000: 3200 8d3d 5007 a43d 44a9 9f3d 98d6 103f
00000010: 0f4a 0e3e 5d5d 8e3e f321 1040 02c9 9d3e
0.06884803 0.08009207 0.07795957 0.56577444 0.13895439 0.27805606 2.252072 0.3081742

enc2.0.weight f4 [16, 8, 3, 3]
00000000: fd3c 783d bfce 8cbd 0dd7 b3bc 738e 6dbd
00000010: 6f6a 323e 8405 913b fb04 01be 6b03 c73d
00000020: 333f b43d b9e6 63be e39d 49be abc2 39be
00000030: a0b3 2d3e 1fda 0e3e 7f09 90bd 90be 58bd
00000040: f733 57bd 8586 e33c e802 c8bd 53dd 25bd
00000050: c8e9 c1bd 3bd4 893d 6093 aebd 69d6 bc3d
00000060: 349f a23d b1ac 14bd ea35 4f3e 0e04 1fbd
00000070: f49b 653d 700c e8bd a943 5b3d b712 3dbd
00000080: 1ceb 8a3e eb16 ba3b b3a1 3a3c 2526 253e
00000090: 47ed 2abe 5377 043d 15ed 563d 2df0 5fbd
000000a0: 59da 34be f698 8e3c 37e3 2fbe e6ea 4abe
000000b0: 468d 84bd b7c2 d13b 35de 1b3d d8de 6bbe
000000c0: 8466 1d3e 2204 2dbd 3757 85ba 8c06 5d3e
000000d0: da7d 52be 68ac 5cbd 531a 5f3e bed9 d9bc
000000e0: 0804 b2bd 3c86 d33d 271d 91bd 0ef8 8fbd
000000f0: f9d1 4abc 9e8e 0dbe 17ee dfbd 978d 44bd
00000100: f235 48bc 6113 d53d bf79 dd3d cfc1 05be
00000110: a652 7b3e ef3e b03d 225c eabd b23a 00be
00000120: a964 d83d 20df 71be fed6 513e f59c b73b
00000130: 5de6 06be f2dd aa3e 05ab ceba 8dac 173d
00000140: 57f4 0a3e 4bf8 acbd c776 473d 293a 2bbc
00000150: 0356 b9bc a526 ed3d 15c0 41bd ec6f 633c
00000160: ed0c 91bd 703f d13b 6600 f6bd 8877 97bd
00000170: b3a8 543d aa5a cb3d 18a4 9dbc 6239 01bc
00000180: 0ae8 39bc f225 be3c 69d6 90bc f630 363e
00000190: f789 4c3d 565d 94bd 907a 19be 5bbf 80bd
000001a0: 2402 dd3d dede 3ebd b82a 94be 4a73 1a3d
000001b0: d803 fdbd 9428 b93d 136e 75bd 37d6 463b
000001c0: a833 993d 6e9d 003d 3c31 073d 540b f2bc
000001d0: 3ae8 433d 4097 1b3d 7e35 8fbd ef53 733d
000001e0: a8eb d63d c26f 053e a3dd f0bd 8920 d03d
000001f0: d79f 0a3e ec58 063d f2e2 b9bd e002 47be
00000200: b01f d5bd 5304 04bd 4db1 333d 36eb ce3d
00000210: 0170 a2bd 6837 2d3e c858 543d 06ce 6c3d
00000220: d1f8 2bbe bc79 933d 0b4c a8bd b243 473c
00000230: 817b 7f3d fcc2 06be 6899 fbba 04c9 d53d
00000240: 968d fd3c 03de 69be 71c6 0e3e 6979 02be
00000250: f8e1 2b3d a998 a0bd 7be7 f03d 352d a3bc
00000260: 34d0 ef3d 12d2 f23d 6aea c3bd 4ab1 c63b
00000270: 9532 2abe a3d5 87bd 5a86 42bc dda3 06be
00000280: e1c3 a1bd ffa7 5bbc eea1 cdbc b219 093e
00000290: 68c8 4bbd 9555 4e3d fc13 f73d ed5d 41be
000002a0: b833 bf3d b533 0a3e ce01 c13d ed0b c4bd
000002b0: d0c7 0c3e 36ea 36bc 5c66 063e 234a 0bbc
000002c0: 0589 843c bb7d 0dbe 3108 c9bd 0f86 1c3e
000002d0: 2364 37bd 4fbe 1dbd 7b86 11bb 0588 b63d
000002e0: 4b84 663e e6e6 743d 7bf1 063e 8770 513d
000002f0: de96 e4bd 2ad3 e83d f252 5abd 7e5f 993c
00000300: 7016 68bd 2561 44bd ecc1 f139 914d 063e
00000310: 44a4 5cbe 30f9 e0bd 3995 21bd dcf6 94bd
00000320: cf13 9cba 3647 abbd 71be 933c 2615 0cbd
00000330: ed13 b23d e9b9 103e f902 793d 1dc6 f3bd
00000340: add5 ce3d 81f7 743c 5154 6abd 6f1b 86bd
00000350: 83ba 8ebc 83cf 2ebe 17bd 213d 718e cf3c
00000360: f32b c03d e440 a63e ecc1 b03a c4be 523c
00000370: d916 043e 043e c8bd 76a9 44bd 3abf cb3d
00000380: 6b79 d0bd 626c 2fbd 8475 d13d 6976 01be
00000390: fe40 71bd ba8a 0cbd c7a9 afbd 066c 813d
000003a0: 5c69 0b3e c3ec a2bd a899 99bc f5fb 0cbe
000003b0: 359c 15be 9b45 ab3c 1928 19bd fa87 b43d
000003c0: 195b bbbc dc57 103d 5b72 e5bd dfd8 e63d
000003d0: b9bf 06be bc4b d3bd 631f 6b3d f5e8 4cbe
000003e0: 2c23 943d 98e3 f33d 0a42 11be 1d53 22be
000003f0: 022c 18be c3da 703d 42f0 c43d a21c df3a
0.060605038 -0.06875371 -0.02195313 -0.05799718 0.17423414 0.0044257063 -0.12599556 0.09717449
0.08801117 -0.22255982 -0.19689135 -0.18140666 0.16963053 0.13950394 -0.07033061 -0.05291611
-0.052539792 0.027774105 -0.09766179 -0.040494274 -0.09468418 0.06729933 -0.08524203 0.09220583
0.07940522 -0.036297504 0.2023541 -0.038822226 0.05605693 -0.11330497 0.053531323 -0.046160426
0.271325 0.0056790016 0.011391091 0.16127832 -0.16692077 0.03234036 0.052472193 -0.05467241
-0.17661418 0.017406922 -0.1717652 -0.19816169 -0.06472258 0.0064013856 0.03805371 -0.23034227
0.15371138 -0.04224027 -0.0010173087 0.21584529 -0.20555821 -0.053875357 0.21787386 -0.026593085
-0.08692175 0.103283376 -0.070856385 -0.070297346 -0.012379163 -0.13823935 -0.10934084 -0.047986593
-0.012219893 0.10404087 0.10814237 -0.13062213 0.24543247 0.08605754 -0.11443354 -0.1252239
0.105660744 -0.23620272 0.2049217 0.0056034275 -0.13173814 0.33372456 -0.001576752 0.03702979
0.13569771 -0.084457956 0.04869726 -0.010450878 -0.022624021 0.115796365 -0.047302324 0.013881665
-0.070825435 0.006385736 -0.12011795 -0.07395846 0.051918697 0.09929402 -0.019243285 -0.007887216
-0.011346826 0.023211453 -0.017680364 0.17792115 0.04993626 -0.07244365 -0.1498816 -0.06286498
0.10791424 -0.04659926 -0.28938842 0.037707604 -0.12354249 0.09040943 -0.059919428 0.0030340084
0.07480556 0.031400137 0.033005938 -0.029546417 0.04782889 0.03798604 -0.06992625 0.059406217
0.104941666 0.13030913 -0.11761024 0.101624556 0.13537537 0.032799646 -0.090764895 -0.1943469
-0.104064345 -0.032230686 0.04387026 0.10103457 -0.07931519 0.16915667 0.05184248 0.057813667
-0.16794135 0.07200953 -0.08217629 0.012162136 0.062373642 -0.13160318 -0.0019195499 0.10438731
0.030951302 -0.22838597 0.13942887 -0.12741627 0.041963547 -0.078416176 0.117629014 -0.019919017
0.117096335 0.11856474 -0.09566195 0.006063615 -0.16620858 -0.06632545 -0.011872852 -0.13148446
-0.07898689 -0.013406753 -0.025101628 0.13388708 -0.04975167 0.050374586 0.120643586 -0.18883486
0.093360364 0.13496287 0.09424172 -0.09572587 0.13748097 -0.011164239 0.13124985 -0.008501562
0.016178617 -0.13817494 -0.098160155 0.15285514 -0.044773232 -0.03851157 -0.00222054 0.089126624
0.22511403 0.059790514 0.13178055 0.051132705 -0.11161588 0.11368401 -0.05330176 0.018722292
-0.056662023 -0.047944207 0.00046111585 0.13115527 -0.21547037 -0.10985029 -0.03944895 -0.07273647
-0.0011907759 -0.08363192 0.018035145 -0.034199856 0.08695207 0.14133419 0.06079385 -0.119030215
0.10099349 0.014951588 -0.057209317 -0.06548201 -0.01742292 -0.17071347 0.03948697 0.025336476
0.09383383 0.32471383 0.0013485528 0.012862865 0.1289934 -0.097774535 -0.048013173 0.09948583
-0.10179409 -0.04282797 0.102274925 -0.12642826 -0.058899872 -0.034311987 -0.08577304 0.06319432
0.1361441 -0.07955315 -0.018750027 -0.13767989 -0.1461037 0.020907214 -0.037391756 0.08814998
-0.022870587 0.03524004 -0.11203452 0.11271834 -0.13159074 -0.103171796 0.05740298 -0.20010741
0.07233271 0.119086444 -0.14185348 -0.15852018 -0.14860538 0.058802377 0.09616138 0.0017022083

enc2.1.weight f4 [16]
00000000: 4f61 7f3f f4d7 7d3f 5655 803f 4ddf 803f
00000010: 9647 7e3f 5fe3 7e3f 3e3e 7d3f 00be 7e3f
00000020: 89e8 813f 0b5f 803f 6407 7f3f ac6e 813f
00000030: f04f 823f 676e 803f c723 803f 7a32 803f
0.99757856 0.99157643 1.0026042 1.0068146 0.9932798 0.9956569 0.989231 0.99508667
1.0149089 1.0029005 0.9962065 1.0111899 1.0180645 1.0033692 1.0010918 1.0015404

enc2.1.bias f4 [16]
00000000: 681b f0bb c221 80bc 58d8 a6bb 479a 44bb
00000010: ef8c 09bc d90e 763b 5408 95bc dfd1 b33b
00000020: 5467 243c 2fc1 263c 9c01 4b3c aa32 f0ba
00000030: aaf6 b43b fdaa 883b e5d1 d8b9 a713 e23b
-0.007327486 -0.015641097 -0.005091708 -0.0029999183 -0.008395418 0.003754547 -0.018192448 0.005487665
0.010034401 0.0101778945 0.01239052 -0.0018325646 0.0055225687 0.004170774 -0.00041355114 0.0068993154

enc2.1.running_mean f4 [16]
00000000: 6a76 93be f43a 073e d47c b2bd 6289 8fbe
00000010: 13e0 10be ff9a e8bd 8f5e cabc 4fae ecbd
00000020: f86b 3c3f 3564 e0be 2626 093f f625 ba3e
00000030: 1ee7 ca3e 0a5d d93e 8c42 9dbd b4d1 7d3e
-0.2880128 0.13206083 -0.08715215 -0.28034502 -0.14147978 -0.11357688 -0.024703292 -0.11556684
0.7360225 -0.43826452 0.53573835 0.36357087 0.39629453 0.42453796 -0.076787084 0.24787027

enc2.1.running_var f4 [16]
00000000: 1c54 d43e 08f9 603e 56b0 7b3e 5d71 4f3e
00000010: 5659 ae3e edd7 913e 46c3 233e f702 bd3e
00000020: 2f83 de3e 5f03 8a3e bb26 853f 40e2 813e
00000030: a480 fb3e bb60 c03e b131 803e c425 c33e
0.4147042 0.21969998 0.24578986 0.20258088 0.34052533 0.2848505 0.1599246 0.36916324
0.4345946 0.26955697 1.0402445 0.25367928 0.49121583 0.375738 0.25037912 0.3811475

enc2.3.weight f4 [16, 16, 3, 3]
00000000: be3c 393e 8bdb f5bd 2944 d2bb cdfc 8e3e
00000010: b144 043d 70ad 113e 8230 103e 7a74 4ebd
00000020: a92c 27be d6a8 99bd 12a1 97bc 1ff6 54bd
00000030: 4186 5e3d a482 74bc c7c2 43bd dd42 4b3e
00000040: df8c 0cbd 1f1b cb3d d818 b13d 3a48 a13d
00000050: 6ddd 793d 2f7a 163e 3763 253e 4456 893d
00000060: f444 953c 74aa e9bd 7a97 dabd 3388 06be
00000070: 67bf 71bd e374 01bd 8705 18bc cdcd 893a
00000080: f19d c0bc 628e 133d 4544 f8bd 8b52 b43d
00000090: 5366 3e3c aec8 5fbe 7271 4e3e 8d1c e3bd
000000a0: 2edf cabd 5b43 df3c 42e5 a43c 2c79 9dbd
000000b0: 80f9 3e3c 2413 07be 37f9 203e fbf0 d2bc
000000c0: 2554 a9bd 8f1e 863d 9c01 5fbe d6ea 20bd
000000d0: 90ff dc3d c883 cb3b 7539 eabd c518 90bd
000000e0: 767f 3a3e a0ba 073d ef84 033e b06b 233d
000000f0: ae01 633b 245d 7cbd a5bc 813d 550a 21be
00000100: f7f7 d7bd 3db9 72be fb09 a63b b597 9ebd
00000110: e490 97bd 68d5 a23d dd5d 84bd 6b6a 9cbd
00000120: 18c3 7d3e ae3f 203e 19c0 e8bc beb4 223e
00000130: ce7e 9ebd 0a77 d53c 1adc d33d 97c7 a5bd
00000140: 48bc 0a3e 1dd6 803e 11b0 efbd 295a bdbd
00000150: 96c9 8f3d 720b 693d fc7f d93d 8869 4f3e
00000160: 264b a5bc 8c7e bfba 873e dbbd e7db 423e
00000170: d809 cfbc ebf6 70bd 8682 b33b 9f5a a4bd
00000180: 9e25 783d 0f2d 86bd 858b 95bd ed9d 443e
00000190: 39fb 81bd 42d2 173e 14d6 8bbc 0abb 3b3e
000001a0: ab3d fd3d 1f1a 0bbe 260d 1b3e a181 fd3d
000001b0: 52a4 de3d d031 863e 8e27 123e 6c0f 5ebd
000001c0: e9b3 3a3e 55ad d43d 5c08 553d 3563 f0bd
000001d0: f1ee 0d3d 8ccd dc3d 23a0 91bd e769 b33d
000001e0: a40b 7bbd 9860 7bbd e834 c2bd 10c3 0d3d
000001f0: af55 b6bd db44 1e3e 5d76 a53c 6824 4f3e
00000200: 0877 c2bd 5964 bdbc 20cd 02be 9131 633e
00000210: fa60 7bbe 0dcd 84bc c3e5 7dbd e471 a63d
00000220: d64c 6dbd 8094 813d e0e2 2c3e 4e3a 1fbe
00000230: e2d4 17bd 2a05 8bbb 42fd 71bd 8f7f 62bd
00000240: 6251 9abd 9bab 363b f2a1 3d3d a8bc b43d
00000250: 455a 773e fd75 aabd f156 23be fafd cb3b
00000260: 144b 79bc a16f 07be 373a 3dba e975 6fbe
00000270: f3e7 0fbe 261a b4bb b760 4c3e 7098 883b
00000280: 1a2a 8e3c f38d 903a 41b1 223d c6c8 b0bd
00000290: b23b 4abe d0b4 733d 265f debd 7bf7 35be
000002a0: 5357 a5bd f5e9 aabd 51ee fb3c 6709 30bd
000002b0: 4f1a 9f3c d61b f03d e755 9b3d 9a3d 79bd
000002c0: 1346 8c3d 3b1b 0bbe 3abc f63c 2c61 1a3d
000002d0: 50d0 0e3e 8f80 033b c724 93be 6635 be3d
000002e0: 1254 693d 4d6b 92ba 97de 883c c11b 413b
000002f0: ab9f ed3d f453 c63b af83 d13d 9360 53bd
00000300: 188e ccbb fe43 a7bc 155e d33c 96ba 043d
00000310: 4855 babc 5f8b ccbd 8f0e 4c3c 201d 403d
00000320: 9000 823d 7929 e43b 0c99 e4bd fbbc 66bd
00000330: f486 e8bc 9baa 833b 7ecd ad3d 30d4 533e
00000340: a91c 3fbc a3d6 273e b34a 2e3e d952 a83c
00000350: aaba 34be 02d3 913d 024c 833c 80a1 fe3d
00000360: a59c 3fbe bf89 39bd 3eb1 833c 289f 2c3e
00000370: 8507 f0bd 042a 4a3c 34bb 363e bea9 d4bc
00000380: ce8c 33be 7247 363e 510b 2abd fdab e7bd
00000390: 3d04 7a3e fa08 35be c346 913e 9628 6b3e
000003a0: dd05 b9bd 10fd e0bc 05b7 933d 55dd ec3d
000003b0: 7a35 09be 19c7 4f3e 5d66 30be f893 c5bc
000003c0: 18a5 33be 7938 76bd 8c4b 2abc 61e2 1f3e
000003d0: 14b3 ee3d 72b4 bbbd 5517 7e3d 7521 35bd
000003e0: e4a3 493e 7a08 d7bd cb67 b53d 30e0 88bd
000003f0: 9d8c 583c 2471 34bd 3e5a 6abd c5af f8bd
0.18089578 -0.12004765 -0.0064168167 0.27927247 0.03229207 0.14226317 0.14081004 -0.05040405
-0.1632563 -0.07502906 -0.018509421 -0.051992532 0.054327253 -0.014923725 -0.047793176 0.19849725
-0.034314033 0.09917282 0.08647317 0.07875104 0.061002184 0.14695047 0.16151129 0.06705907
0.018221356 -0.114094645 -0.10673423 -0.13137893 -0.059020426 -0.031605612 -0.009278662 0.0010513604
-0.023512812 0.03602446 -0.121223964 0.08804806 0.011621076 -0.21853897 0.20160463 -0.1108943
-0.099058494 0.027253797 0.02012885 -0.07689127 0.011656165 -0.13190895 0.15720068 -0.025749674
-0.082680024 0.06548797 -0.21777958 -0.039286457 0.10790932 0.006210778 -0.1143674 -0.070359744
0.18212685 0.033136964 0.12843679 0.03989762 0.0034638452 -0.061612263 0.06334809 -0.15726598
-0.105453424 -0.23703475 0.0050671077 -0.077437796 -0.074006826 0.0795086 -0.064632155 -0.07637485
0.24781454 0.15649292 -0.028411912 0.1588926 -0.0773903 0.026057739 0.103447154 -0.08094709
0.13548386 0.25163355 -0.11703504 -0.09245712 0.07020871 0.05689568 0.10620114 0.202551
-0.020177435 -0.0014609857 -0.107052855 0.19029199 -0.025273249 -0.05882923 0.005478206 -0.08025097
0.06058275 -0.06551563 -0.07302002 0.19200869 -0.06346745 0.148263 -0.017069854 0.18333068
0.12365278 -0.13584183 0.15141734 0.123782404 0.10871185 0.2620988 0.14272901 -0.054213926
0.18232693 0.10384623 0.052009925 -0.11737672 0.0346517 0.107813925 -0.07110622 0.08760434
-0.0612904 -0.061371416 -0.09482747 0.034609854 -0.089030616 0.15455954 0.020198042 0.20228732
-0.0949536 -0.023119139 -0.12773561 0.22186877 -0.24548712 -0.016211057 -0.061986696 0.08127192
-0.057934605 0.06327152 0.16883421 -0.15549585 -0.037068255 -0.004242559 -0.059079416 -0.05529743
-0.07535054 0.002787328 0.04629702 0.08825046 0.24155529 -0.08323286 -0.15951134 0.0062253447
-0.015215654 -0.13226177 -0.00072184525 -0.23384823 -0.14053325 -0.005496281 0.19958769 0.0041685626
0.01735406 0.0011028632 0.039719824 -0.086320445 -0.19749334 0.059498608 -0.10857992 -0.17770188
-0.080732964 -0.08345405 0.030753287 -0.042977717 0.019421725 0.11724059 0.07584744 -0.060849763
0.06849303 -0.13584606 0.03011905 0.037690327 0.13946652 0.002006564 -0.28738996 0.09287529
0.05696494 -0.0011170894 0.016707702 0.0029466006 0.1160272 0.0060524885 0.10230195 -0.051605772
-0.006242525 -0.020418163 0.025801698 0.032404505 -0.022745743 -0.099875204 0.012454643 0.046902776
0.063477635 0.0069629517 -0.11162004 -0.05633257 -0.028384663 0.0040181405 0.0848646 0.20686412
-0.011664548 0.16390471 0.17020683 0.020547317 -0.17649332 0.07120325 0.016027454 0.124331474
-0.18712099 -0.04529738 0.016075727 0.16857588 -0.11720184 0.012339119 0.1784485 -0.025959846
-0.17534181 0.17800692 -0.0415147 -0.11312101 0.2441568 -0.17679206 0.283743 0.22964701
-0.090343215 -0.02746442 0.072126426 0.11565653 -0.13399306 0.20290793 -0.17226548 -0.024118409
-0.17543447 -0.06011245 -0.010393988 0.156137 0.1165525 -0.091652766 0.06203397 -0.04422136
0.19691426 -0.10499664 0.088576876 -0.06683385 0.013217119 -0.04405321 -0.057214968 -0.121429004

enc2.4.weight f4 [16]
00000000: 7a4e 833f 65b0 7d3f 64a3 7e3f fd03 823f
00000010: 49d2 7f3f 9241 7e3f 919e 7d3f 6674 7f3f
00000020: da43 7d3f 9d25 803f 110d 803f 8131 7d3f
00000030: 15e4 7f3f 7ebd 803f f63c 7e3f 6e90 803f
1.0258324 0.9909728 0.99468064 1.0157467 0.99930245 0.993188 0.9907008 0.99786985
0.9893166 1.0011479 1.0003988 0.9890366 0.999574 1.0057828 0.9931177 1.0044076

enc2.4.bias f4 [16]
00000000: f604 5b3b ccb9 213b e5ab 95bb bcc1 55bb
00000010: 01cf 4cbc 6445 0dbc f99e 80bc 3768 0fbc
00000020: b852 b03b 68a7 17bc 3a8d 83bc 4653 0cbc
00000030: 6d88 60bc e1e2 643c 1fc7 433c 30c9 283b
0.0033419705 0.0024677394 -0.0045676106 -0.0032616695 -0.012500525 -0.008622501 -0.015700804 -0.008752874
0.0053809546 -0.009256221 -0.016058553 -0.008564776 -0.013704401 0.013970108 0.01194933 0.0025754683

enc2.4.running_mean f4 [16]
00000000: 44af 093f 041c de3d 4472 5bbe 36b1 0bbd
00000010: 7a1a 0f3d 043c 3a3e 20c7 003f d79d c1be
00000020: 35a1 d7be caf5 47bd 0fd5 123f 2471 e9be
00000030: dc89 333e ef9d 073d 311b eebe fe4c 0dbe
0.5378306 0.10845187 -0.21430308 -0.03410455 0.03493736 0.18186957 0.5030384 -0.37815735
-0.4211518 -0.048818387 0.5735635 -0.45594132 0.17533058 0.0331096 -0.4650512 -0.13798901

enc2.4.running_var f4 [16]
00000000: 19b5 a63f 9ab4 e23e 809f 183f 83c6 223f
00000010: 2b6f 1a3f dbae 693f c8f7 3c3f 5d07 c23f
00000020: 4970 013f 4947 3c3f 9ced 713f 125a 583f
00000030: 91bd 283f f771 f53e dd89 383f 98b4 c93e
1.3024017 0.44278413 0.5961838 0.63584155 0.6032588 0.91282433 0.73815584 1.5158497
0.5056196 0.7354627 0.9450319 0.84512436 0.65914255 0.4793851 0.7208536 0.39395595

bottleneck.0.weight f4 [32, 16, 3, 3]
00000000: 43ff 50be 5b99 243d 6529 27bc 5f73 73bd
00000010: 3a3b 133d 60a3 52bd a994 a6bd ae62 873c
00000020: de6e 36bd e4d3 e2bb cac9 b9bc 8563 0bbd
00000030: 32ce 67bd f020 0f3b 9a0b 3f3e 7ac5 1b3e
00000040: 616f 3dbe 169b f9bc 3e7f 85bd 022c f1bc
00000050: 963c 933d 72fe 223d 70cf 08be 8ebf 90bd
00000060: 2cdf 16bd 6d6f 48bd 2062 5bbb 9074 d23d
00000070: 3149 cc3d 11fc 913d cc39 643d be32 113d
00000080: a117 acbd 82bf 8abc cd23 b73d cc54 673d
00000090: 31f6 c73c e192 923c a9fe ed3d aa66 07bd
000000a0: 78cf 4a3d 66fe 09bd dbbf 87bd 6678 bc3d
000000b0: 60b9 ddbd 3891 ab3d 76aa 93bd f2fc 443d
000000c0: 94ef e93c a1ab 13bd 20e8 bd3c 78b0 32bd
000000d0: d9c1 c0bd a94e e4bb 3bbc bc3d 1642 2b3d
000000e0: 55ef f8bc 80dc 98bd 219f efbd aacc 91bd
000000f0: 06b2 23bd 6224 0c3d 6de2 47bd 84e5 b53c
00000100: 65d3 eebd 44b7 05be ea15 b2bd 3f21 83bd
00000110: 2445 d43d 7315 8abd d426 723c 1352 143e
00000120: aaf8 ac3d afaf af3d b5a6 0a3e b625 59bc
00000130: b5b2 033e e430 2abd 846f 3abe af66 373d
00000140: 826d 31bd 116f a33c f374 f43d e64b ca3d
00000150: 3f72 cd3c 41f4 d83d 743c df3d f2c3 843d
00000160: ef03 aebc 27ad 51bd bcf7 b23d ca40 f73d
00000170: 57ff c23a 8c2d 233e 57d1 533e 85de 353b
00000180: 5755 8fbb 9d98 07be 9562 b43c 7b08 3238
00000190: d437 39bd 3a12 b53d ba82 9dbd ac06 d33d
000001a0: 1966 ebbb 9238 a4bd 94cf 08bd ce4d 86bd
000001b0: d628 f9bd ecbc 2c3e 066d dabd f723 d8bd
000001c0: 3248 03bc d748 be3d 1c77 42bd edc5 4b3d
000001d0: 3e78 a73d c63f 9cbd b698 a1bd 7df5 123d
000001e0: b726 c1bc ec54 ffbc f8e1 4a3d 7d31 44bd
000001f0: 8522 d83d d224 ff3d 340d 1cbd 872d 763d
00000200: 7ad1 42bd c7ab 53bd 1ee3 343c 227f bf3d
00000210: 4fc2 213d 5a65 863e fc3f d93d 2567 993d
00000220: 304f a53d 974f 51ba 97f4 67bd 9c43 f7ba
00000230: 513b 92bd 893b 003e ecff 5dbd 33c9 0cbe
00000240: 9bf2 603d 7059 953d 9c5d c53d a41a 073d
00000250: 16b2 b3bd 6400 d9bd d516 b13c 85a3 073d
00000260: 76f3 893d 006f 903d 57f6 243d 87ac 0d3d
00000270: ed6d 033d a2ea 7c3c 738f 90bd 1544 a13c
00000280: e53e 2fbd d57d 873d 5fdd 02bd 91b9 06bd
00000290: 2e69 553c ff25 87bd 056e c33c ef9b 8e3c
000002a0: 5323 363d 2e15 423d 601a bf3d bcde 2f3d
000002b0: 88ea 7f3c 67d3 a7bb adbd 313e afa4 173c
000002c0: 7693 08be 78bc f6ba 7250 45bd 760f 0fbd
000002d0: b1e3 253e e494 07bd 488d 983d dde1 4abd
000002e0: 0967 3fbc 1abb 283c d716 92bd 4a43 243b
000002f0: 6112 663d ae32 ed3d bda3 923b 4a76 873d
00000300: ad4a e8bd d806 3abd 517b a73d f7ab d93d
00000310: 0333 d83c eef7 94bc e9b3 223e 0952 833d
00000320: a37f db3d d861 ecbd e5c8 04bc 1bba c13c
00000330: f6bd 09bd 8813 813d 67d5 4fbc 2c25 d5bc
00000340: ebc5 053d 5ddd 5fbd efda 11be 71f2 c03b
00000350: 0666 6e3d d741 f2bd bf23 af3d ae42 dabd
00000360: 511c e93b d079 a3bc c322 8d3d c454 153e
00000370: 6970 e73d e9dd 703d e1bb a7bd fe2a 3bbd
00000380: d61a 0fbe 984d 93bd 4869 df3c d2b2 24be
00000390: fc17 41bd 92ed a9bd 289b 25be d25d 983d
000003a0: 8ce2 fa3d 0f52 32bd 302c 6b3d fe2e 8bbb
000003b0: 0a24 823d 7ab0 aabd 4d6b e8bd c26f 143d
000003c0: 0971 fe3d 397c 5f3d 04fd bf3b 6373 a43d
000003d0: 862e 933c 7a16 ddbd 62f2 273e 080a 6ebc
000003e0: 78e7 4b3d 3ff7 833d 7ea2 d33d 5d2b 1fbe
000003f0: c7c4 1abe e440 a93d e0f4 523d 4865 0e3e
-0.20409875 0.040185314 -0.01020274 -0.0594362 0.035945155 -0.051425338 -0.081338234 0.016526546
-0.044539325 -0.006922232 -0.022679228 -0.034030456 -0.056593128 0.00218397 0.1865677 0.1521205
-0.18499519 -0.030469459 -0.0651841 -0.02943993 0.0718929 0.03979344 -0.13360381 -0.07067786
-0.036833927 -0.04893439 -0.0033475235 0.10276139 0.09974898 0.07128156 0.055719182 0.035448782
-0.08402944 -0.016937021 0.08942375 0.056477353 0.024409385 0.017892303 0.11620838 -0.033056892
0.049514264 -0.03368988 -0.066283904 0.09202652 -0.10826373 0.08377308 -0.07210247 0.04809279
0.028556623 -0.03605235 0.023181975 -0.043625325 -0.094119735 -0.006967385 0.092155896 0.04181107
-0.03038756 -0.07463932 -0.11700273 -0.07119115 -0.0399647 0.034214385 -0.04879992 0.022204168
-0.11661414 -0.13058192 -0.08695586 -0.064028256 0.1036475 -0.06742372 0.014779765 0.14484434
0.084458664 0.08578431 0.13540156 -0.01325362 0.1286114 -0.041550532 -0.18206602 0.04477566
-0.043317325 0.019950422 0.11936369 0.09877758 0.02507889 0.10593463 0.109002024 0.06482686
-0.02124211 -0.05119052 0.08738658 0.120729044 0.0014877123 0.15935344 0.20685326 0.002775104
-0.004374187 -0.13241811 0.022019664 4.2446405e-05 -0.045219257 0.08841367 -0.0769095 0.10304007
-0.007183802 -0.080186024 -0.033401087 -0.06557809 -0.12165992 0.16868943 -0.10665326 -0.10553735
-0.008012818 0.09291237 -0.047476873 0.049749304 0.08177231 -0.07629351 -0.078904554 0.035878647
-0.023578031 -0.031168424 0.049531907 -0.04789876 0.10553459 0.12458195 -0.03809853 0.060102012
-0.047563054 -0.05167749 0.011040477 0.093504205 0.039491948 0.262492 0.10607907 0.074903764
0.080717444 -0.0007984577 -0.056629743 -0.0018864754 -0.0714022 0.12522711 -0.054199144 -0.13748626
0.054918867 0.072924495 0.09636995 0.03298439 -0.087742016 -0.10595778 0.021617332 0.03311493
0.067358896 0.070524216 0.04027399 0.034588363 0.032087255 0.0154368 -0.07058611 0.019685784
-0.04278459 0.066157974 -0.031949397 -0.032891814 0.013025565 -0.06599044 0.023856172 0.01740834
0.04446728 0.04738348 0.093312025 0.042937025 0.015619881 -0.0051216367 0.17357512 0.009255572
-0.13337502 -0.0018824479 -0.04817242 -0.034926854 0.16200139 -0.033100978 0.07448822 -0.049531806
-0.01168228 0.010298515 -0.071332626 0.0025064521 0.05616987 0.11581932 0.0044750855 0.06614359
-0.11342368 -0.045416683 0.081778176 0.10628503 0.026391512 -0.018184628 0.15888943 0.06412131
0.10717704 -0.115421 -0.008104538 0.023648312 -0.033628426 0.063025534 -0.012685156 -0.026018701
0.032659452 -0.054654468 -0.14243673 0.0058882763 0.058202766 -0.11828964 0.0855174 -0.106572494
0.0071139713 -0.019955546 0.06891396 0.14583117 0.113007374 0.05880538 -0.08190132 -0.045695297
-0.13975081 -0.07192534 0.027271882 -0.1608384 -0.047142014 -0.08297266 -0.16172469 0.0743977
0.12250242 -0.04353529 0.057415187 -0.0042475453 0.0635453 -0.083344415 -0.11348591 0.036239393
0.124239035 0.054561827 0.0058590192 0.08029821 0.01796652 -0.10795303 0.16401055 -0.014528759
0.049781293 0.06443643 0.10333727 -0.15543886 -0.15114127 0.0826433 0.051503062 0.13905823

bottleneck.1.weight f4 [32]
00000000: 1a10 7f3f b812 813f e1aa 803f 126a 7f3f
00000010: 1f21 7f3f e716 823f ddd9 7e3f 5718 7e3f
00000020: a10a 7c3f e57b 803f e321 803f ade1 7f3f
00000030: 5b81 803f 20ea 803f df91 7f3f 83d9 803f
00000040: d0b3 7e3f 210e 7e3f bf18 803f bc05 803f
00000050: 95ed 7c3f e605 7f3f 5ddf 803f 3adf 7d3f
00000060: d561 7e3f 6830 7f3f 71cb 7c3f 5d6d 803f
00000070: 3349 813f 7eeb 7f3f 8e87 813f 1b20 803f
0.99633944 1.0083838 1.0052148 0.99771225 0.99659914 1.0163239 0.99551183 0.9925589
0.9845372 1.003781 1.0010341 0.9995373 1.0039476 1.0071449 0.99831957 1.0066379
0.9949312 0.9924031 1.0007552 1.000175 0.9880002 0.99618375 1.0068165 0.9916874
0.9936803 0.9968324 0.98747927 1.0033375 1.0100464 0.9996871 1.0119493 1.0009798

bottleneck.1.bias f4 [32]
00000000: 2374 a7bb dbf4 343c 5aea 673b ff20 24bc
00000010: 72d6 8bba 9144 a73a 7f43 7c3b d73e e439
00000020: c5b6 043c aff0 333b ea73 45bc 82e8 073a
00000030: 1509 813b 4180 033b 3d40 0b3b e8be 743b
00000040: c40a e138 445c 4fbc 0213 42bb 4dba 393b
00000050: 8d8c 0fba 7198 a1ba 14b2 14b9 6395 2fbc
00000060: 3303 93b9 81bf 1bbb 982c 12bc c5ad 353c
00000070: 2ff7 9c39 66d9 a2bb eb26 283b 6842 87bb
-0.00511028 0.011044706 0.0035387487 -0.0100176325 -0.0010668768 0.0012761523 0.003849238 0.00043534368
0.008100216 0.002745669 -0.012051562 0.00051844877 0.0039378502 0.002006546 0.0021248006 0.0037345234
0.00010730841 -0.012656275 -0.002961338 0.0028339804 -0.0005475961 -0.0012328756 -0.00014180719 -0.010716769
-0.00028040409 -0.0023765268 -0.008921765 0.011088793 0.00029938805 -0.0049697636 0.0025657963 -0.0041277893

bottleneck.1.running_mean f4 [32]
00000000: 3591 a63e 2888 c83e 779e 0f3e 327b ec3e
00000010: bb66 1e3f 1613 223f 66da f83e 42a5 acbe
00000020: e2e4 d33e 49f4 723e 526a 433e a6ed 8e3e
00000030: 02f7 4abd 6da7 253e 24a4 9fbd f3db 66bd
00000040: 8973 03bf 92e3 be3e 2471 363e 66c8 913c
00000050: b96f f63e 44d4 0ebf 1aa2 183f d93f 11bf
00000060: 8a15 a93d 288a f23e 246a ffbd cf83 a6be
00000070: 7cd7 83bd 49f8 323e 9e6d e33c 601d 2b3e
0.3253266 0.3916638 0.14025293 0.4618774 0.61875504 0.6331037 0.48604125 -0.33719832
0.4138556 0.23726 0.19083527 0.27915686 -0.04955197 0.16177149 -0.07794979 -0.056362104
-0.5134817 0.37282997 0.17816597 0.017795753 0.48132113 -0.5579264 0.5962235 -0.5673805
0.082560614 0.4737103 -0.124714166 -0.32522437 -0.06437585 0.17477526 0.02776223 0.16710424

bottleneck.1.running_var f4 [32]
00000000: 8a82 6a3f f43d a13f 6b7d 013f 1123 853f
00000010: 9188 463f cec1 d33f c1dc 123f 2d2d 2b3f
00000020: 79b0 933f 3ce9 863f b519 e93e d83e 023f
00000030: 1619 293f 34bb 0d3f 3318 133f 19d2 a73e
00000040: 6c83 bf3f 6a2a 0240 a534 6b3f c887 eb3e
00000050: 5858 b23f 1806 bd3f 67db 1c40 881b 413f
00000060: d8a6 123f eb13 523f 8a4e 5b3f f30d 7e3f
00000070: 6a1e 3d3f 3245 973f 9fa6 e83e e3fb 353f
0.91605437 1.2597032 0.50582 1.0401326 0.77552134 1.654352 0.57368094 0.6686581
1.153823 1.0539927 0.45527425 0.5087714 0.66053903 0.55363774 0.574588 0.3277748
1.4961982 2.0338387 0.91877204 0.4600203 1.393321 1.4767485 2.4508913 0.75432634
0.57285833 0.8206164 0.85666716 0.99240035 0.73874533 1.1817992 0.45439622 0.71087474

bottleneck.3.weight f4 [32, 32, 3, 3]
00000000: b313 883b 2474 e53d b40e cfbc 8dee 74bc
00000010: 626f 023e 8ea9 f7bd f8f5 f83c cfba d13d
00000020: c7e6 a3bd 314d 92bb 8343 6d3d 329b b6bd
00000030: cab4 f8bd 51c3 c3bd 351e f03d 2b62 1bbd
00000040: e5b2 313d dcaa f13a 3615 79bd bdf1 c7bd
00000050: 7c93 9c3b 1903 84bd 0150 b03d 10bf 05bd
00000060: 25f7 26bd 9cb4 aebd 06e2 90bd 2ead 063d
00000070: 00bb 443d 1917 4bbd d5f9 5b3d b4e1 b93d
00000080: 5ac7 03be 6830 7a3d a826 a83d 4886 f83c
00000090: 8ca7 ab3d 2959 ee3c a00b b83c 487a e6bd
000000a0: fda5 d9bd 3fe4 abbb 2ae9 0f3d 8299 693d
000000b0: 1d9d bcbd 84de b33d 3a9b 29bd 5789 b53d
000000c0: 2c0d 88bd e763 efbc 74b9 3fbe 4791 073c
000000d0: f74c 1fbd 51fc 05be f940 283e 8add 02bb
000000e0: b139 293e bcb8 83bd 21f6 80be 5974 80bd
000000f0: 91be b23c 6f4a 8abd 443a bf3c 0899 3cbc
00000100: f60b 393e ec82 883d 97f2 74bd c3f8 db3d
00000110: 5482 efbc c86a b2bd c534 68bd b334 403e
00000120: 5f7a 533d eca5 ee3d 5ce6 1fbd 882a a5bc
00000130: 32fa c23d 0e49 163d 8148 9a3c 152e dc3c
00000140: adf4 993d 3c8b 43bd db67 39bd 5f36 cc3c
00000150: ea4b e13d 148b 3ebd 5e84 8a3d 56f3 e7bd
00000160: cd65 c53c ab42 933d 4659 a03c 28aa 59bd
00000170: 1c3d a7bc fece 0a3d bfe0 0cbe 805f 1d3e
00000180: 8898 1a3e 7c5e c93c adb4 073e 40d8 20bc
00000190: 081e a4bd 173e 8fbd 0fc6 15be 7b14 b13d
000001a0: 8a8e f3bc 07e4 833d 12b0 3b3c 57c7 f93d
000001b0: b763 aebd d8b7 343e 8203 7b3c 7a27 5e3c
000001c0: c806 c73b fce8 eebd 9784 bf3d 9ef5 debc
000001d0: 10cc 21bd fda9 7d3d c161 c13d 8a58 e53c
000001e0: 5356 bf3d 2dcd 513e 3a62 e4bd 8195 05bd
000001f0: 5598 7b3c bfa4 27bd 2a91 bd3d 69be 6b3d
00000200: 1ee8 0db9 91bc 1f3e dd07 683d 6890 653c
00000210: d9e6 b53c 8257 59be 61ab 92ba 01f4 74bc
00000220: 04b6 173e f812 5a3c 448b cf3d 507f 2b3b
00000230: 8a28 cdbd 54e8 e53d 6ca0 473d 7a97 693d
00000240: 6d9e acbd 3fd5 8ebd f6f4 f23c a2b2 323e
00000250: 7b02 98bd 0d5c fdbc 28ea e9bd 907d 49bd
00000260: ff68 c93d 3ba2 20be f18a 66bd ae02 0f3c
00000270: e7a3 023e b18f 223e 78a9 1cbc c133 5d3d
00000280: 394d c53d 7567 c83c a72f 253d 1d35 14be
00000290: d460 f4bc 6633 bf3d a34f 17bb 448c 6cbc
000002a0: 18ba 003e 84c3 04be d016 1fbd 4013 7f3b
000002b0: 9564 89bd 3e94 a83d 769c c7bd d297 3b3d
000002c0: f089 c13b 9e67 a23d 6715 543d 1d38 be3d
000002d0: f40c 013d 055a 7c3d e9b3 6abd 3fd4 03be
000002e0: f435 49bd 9d59 e93d 2c2c e73d 85e9 c03d
000002f0: 5343 b13c 5810 4c3d efd4 20be f93d cc3d
00000300: 08c8 93bd ae34 983d f8ee cfbd 31aa cfbd
00000310: 6f1c dabd 3f56 c3bd 3a65 a33d ee1c 6ebd
00000320: 4c46 ce3d e434 dfbd 4b17 84bc 40c4 a53d
00000330: d1a9 febd 83bf 603c 9e0b 80bd 5f98 38bd
00000340: e35c d5bd ba09 24bd bb6c ee3b d7d5 813d
00000350: aa6d 0d3e fb82 af3c 8074 02be df06 983d
00000360: aab8 7f3d 0fca 213d b9bd 07bd 2949 15bd
00000370: 9cf4 ac3d 1e8c 733d 32df 59be ade2 103e
00000380: cc28 5bbd fcdc ef3d a36a 933c 8f17 c4bd
00000390: cc13 833c e013 e03d 9c18 643c da88 08bd
000003a0: 326b f23d 6136 fb3a 5daa 01be 3460 763c
000003b0: d423 cfbd 1382 8abd 5262 e43d b3e0 a73b
000003c0: 6345 23bd 58dd 27bc d66f 883d e02e 1dbd
000003d0: f0d3 a13d b6be 44bd e5e1 b73d 094a 54bd
000003e0: 4247 0cbd 97b7 e23c adfa 253d f4c5 093d
000003f0: e34f 693c ae13 d1bd d5fa 71bd 159a 883d
0.004152739 0.11203793 -0.025275566 -0.014949453 0.12737802 -0.12092887 0.030390725 0.10240709
-0.08003002 -0.0044647683 0.057925712 -0.0891632 -0.12143858 -0.09558738 0.117245115 -0.037935417
0.043383498 0.0018437761 -0.060811244 -0.09762905 0.0047783237 -0.06445903 0.086090095 -0.032652915
-0.04076304 -0.08530542 -0.070743605 0.03288 0.0480299 -0.049582575 0.053705055 0.090762526
-0.12869015 0.06108132 0.08210498 0.030337468 0.083815664 0.02909525 0.02246648 -0.11253792
-0.10627363 -0.005245715 0.035134472 0.057031162 -0.092096545 0.08782676 -0.0414078 0.08864086
-0.06643137 -0.029222442 -0.18723089 0.008274383 -0.03889176 -0.13084532 0.16431035 -0.0019968473
0.16525914 -0.0643172 -0.2518778 -0.062721916 0.021819385 -0.06752478 0.023343213 -0.011511095
0.18070969 0.06665596 -0.059801664 0.10740807 -0.02923695 -0.08711773 -0.05669095 0.18770103
0.051630374 0.11652741 -0.039038047 -0.020161882 0.09520377 0.036690764 0.0188334 0.026877442
0.07517371 -0.047740206 -0.04526506 0.02492827 0.110008076 -0.046519354 0.06763528 -0.113257095
0.024096394 0.0719045 0.019573819 -0.05314079 -0.020414881 0.03388881 -0.13757609 0.15368462
0.15097249 0.024581186 0.13252516 -0.009817183 -0.080135405 -0.069942646 -0.14626335 0.086464845
-0.029731054 0.06439977 0.011455553 0.12196224 -0.08515113 0.17648256 0.015320661 0.013559217
0.0060738064 -0.11665532 0.093514614 -0.027216729 -0.03950125 0.06192969 0.09442473 0.02799632
0.09342637 0.20488425 -0.11151548 -0.03261328 0.015356143 -0.0409286 0.092562035 0.057554636
-0.00013533278 0.15599276 0.056648124 0.01401148 0.022204803 -0.21224788 -0.0011189991 -0.014950753
0.14815527 0.013310187 0.10133985 0.0026168413 -0.10017498 0.11225954 0.048736975 0.057029225
-0.08428655 -0.06974267 0.029657822 0.17450956 -0.07422348 -0.030927682 -0.11421615 -0.04919201
0.098344795 -0.15686886 -0.05628485 0.008728666 0.12757836 0.15875126 -0.009561889 0.054004434
0.0963387 0.024463395 0.040328648 -0.14473386 -0.029831327 0.09335975 -0.0023088239 -0.014437739
0.12570989 -0.12965208 -0.038840115 0.0038921386 -0.067086376 0.082314 -0.097466394 0.045799084
0.005906336 0.0792992 0.051778223 0.092880465 0.031506494 0.061609287 -0.057300482 -0.12873934
-0.04912372 0.113940455 0.11287722 0.0941954 0.021638548 0.049820274 -0.15706228 0.09972758
-0.07215887 0.07431923 -0.101530015 -0.10139883 -0.106499545 -0.095379345 0.07978292 -0.05813306
0.10072002 -0.1089876 -0.016124388 0.08094072 -0.12434734 0.013717535 -0.06252216 -0.045067187
-0.10418107 -0.04004834 0.0072761453 0.06339615 0.13811365 0.021424761 -0.12739754 0.074231856
0.06243197 0.03949934 -0.033139918 -0.036446724 0.08445093 0.059459798 -0.21276549 0.1414897
-0.053505704 0.11712071 0.017995184 -0.09574806 0.01600065 0.10941291 0.013921883 -0.033333637
0.11836852 0.0019165986 -0.12662645 0.015037585 -0.101142555 -0.06763091 0.111515656 0.005123222
-0.039861094 -0.010245644 0.06661956 -0.03837478 0.07901752 -0.04803344 0.08978633 -0.051828418
-0.034247644 0.027675433 0.040522266 0.03363605 0.014240238 -0.10208832 -0.059077103 0.06670014

bottleneck.4.weight f4 [32]
00000000: 8d23 803f c13f 813f 90d7 7e3f a240 803f
00000010: d9b8 813f d29a 7f3f 3ef1 7d3f d620 7e3f
00000020: b3c7 803f ac04 7e3f b2d0 803f 21d0 7c3f
00000030: 59b0 803f 6935 7f3f 5b81 803f 4614 7f3f
00000040: 56bd 823f ae48 7f3f 18ca 803f 96aa 813f
00000050: 5952 803f c833 823f cdfa 803f 4309 803f
00000060: 67bd 7e3f f008 7e3f 6882 803f fe18 7d3f
00000070: 1498 7e3f 54d8 7e3f af4a 803f ead9 7e3f
1.0010849 1.0097581 0.9954767 1.0019724 1.0134536 0.9984561 0.9919623 0.99268854
1.0060943 0.9922588 1.0063689 0.9875508 1.0053817 0.9969087 1.0039476 0.9964031
1.0214031 0.99720275 1.0061674 1.0130184 1.002513 1.0172052 1.0076538 1.0002826
0.99507755 0.9923239 1.0039797 0.9886626 0.994508 0.9954884 1.0022792 0.9955126

bottleneck.4.bias f4 [32]
00000000: 9d27 633b d635 103c d183 babb f858 8a3b
00000010: e3d6 b93b eac6 d2ba 48cc aebb d957 b7bb
00000020: 565a 113c d6cb 0bbc 1bac bf3b 4894 27bc
00000030: d576 603a bef5 91b9 ae3b 203b ffba 09bb
00000040: dc97 0f3b d993 f3ba 0616 51bb 60db e73a
00000050: 885d a03b 01ba b13b ee21 fcba 5c8a d23a
00000060: 9deb 87bb 42d4 74bc 2479 32bc b7af 65bc
00000070: cf33 f4bb 5ac9 b4bb fb53 003c 4412 26bb
0.0034661063 0.008801898 -0.0056919833 0.0042220317 0.0056713684 -0.001608101 -0.005334411 -0.005595189
0.008871635 -0.008532485 0.005849374 -0.010228224 0.0008562629 -0.00027839647 0.0024449634 -0.0021016
0.0021910584 -0.0018583491 -0.0031903996 0.001768928 0.0048939623 0.0054237847 -0.0019236186 0.0016062963
-0.0041479603 -0.014943184 -0.01089314 -0.014018944 -0.007452465 -0.005517167 0.0078325225 -0.0025340477

bottleneck.4.running_mean f4 [32]
00000000: b921 fd3e 1c1f 8cbe 2cd7 61bf 70c1 1bbe
00000010: 91b9 0d3f c45f 2bbe 47bf 29bf 2b5b 083d
00000020: de8f 08bf f312 c6be f2fd ed3e 6c8c 3cbf
00000030: 9832 24bd 4a11 94be 8961 e03e 1ce5 c23d
00000040: 6b50 163e a23b 753e c418 723e ecd4 103e
00000050: 696d 33bf c870 ca3e 3e9b 853d 9c33 c83e
00000060: 06c5 ffbc 1c42 86be fc70 253d eedd 223d
00000070: a22a d73d 5875 fabe 6651 4cbf 9125 1a3f
0.4943979 -0.27367485 -0.8821895 -0.1521051 0.55361277 -0.1673575 -0.6630749 0.03329007
-0.53344524 -0.38686332 0.46482807 -0.73651767 -0.040087312 -0.2891944 0.43824413 0.095163554
0.14679115 0.2394853 0.2364226 0.14143723 -0.7008882 0.3953917 0.06523751 0.39101875
-0.031221878 -0.26222312 0.040390953 0.03976243 0.105061784 -0.4891765 -0.79811704 0.6021357

bottleneck.4.running_var f4 [32]
00000000: e4e8 e63f 3c87 433f 4a83 0a40 278c 733f
00000010: 5424 2940 20b3 c23f 1a6a bc3f bc90 213f
00000020: d761 2e40 b84c 943f 77a6 a93f 06fb 4140
00000030: 4cbb 903f 4e8c e13f f5f2 bb3f 12d9 823f
00000040: 9537 5a3f 655c c33f e7d7 0a40 3552 c53f
00000050: 30ea 4640 d5dc e43f 099b 423f 22e8 4d3f
00000060: dd3b 433f 1eff 9a3f 303e 003f ba42 263f
00000070: 5dc6 b03f 6e6b 513f e32a 2540 0c79 f63f
1.8039823 0.76378226 2.1642632 0.9513573 2.6428423 1.5210915 1.471988 0.6311147
2.7247217 1.1585913 1.3253926 3.0309463 1.1307158 1.7620943 1.468352 1.0222495
0.8524106 1.5262572 2.1694276 1.5415713 3.1080437 1.7879893 0.76017815 0.8043233
0.7626322 1.2109106 0.5009489 0.64945567 1.3810536 0.8180455 2.5807426 1.925569
