experiments_multi/Brain_Tumor_Segmentation_Separate_Train_Val_20260206_163839/checkpoint_epoch_10.pth (torch, 141437 bytes, 56 tensors)

enc1.0.weight f4 [8, 4, 3, 3]
00000000: b9e5 e1bc c603 02be f20f 4a3e 6a7d dfbd
00000010: c436 dcbd 91b6 14be 7e10 d63d 4059 8dbc
00000020: 9b88 69bd c8ca 863d 2da6 1ebe 4e04 32be
00000030: 7e2d 873d 5263 833e 230f 573e e6d6 7d3e
00000040: 2ba8 2e3e f9dc 863b c853 263e df45 6f3e
00000050: ade3 5ebe 3503 0e3e 1942 f0bd 027f 78bd
00000060: 0e06 70be cdc6 9e3c 6694 a53d 6572 423c
00000070: 698a 06bd d3fe af3d e3b3 79bd f407 7a3e
00000080: 45d8 c2bb 778f d2bd 3d57 6abd c59d f5bd
00000090: 0fb0 26be 2b76 6abc d2ba bb3d 4ee8 1a3e
000000a0: 3604 003e 48a1 c53c 25fe 90be 426b bb3e
000000b0: 4010 b4bd 525b 80be 70df 5a3d fd70 88be
000000c0: c4bd 463d 1a79 a43e 0872 bd3d 383d 333e
000000d0: 7831 e43e f32f a7be f73f 18be c792 9a3d
000000e0: e78e 303d cd02 0ebe d92f 80be e05b d33d
000000f0: 86ce e1bd bedf f43e f498 d4bb f99c 963e
00000100: d58f 363e 6faf 1cbe 38ec c1bd 1eea b73d
00000110: 2696 9f3e 771a c23d 9887 183e 0764 e6bd
00000120: 2798 923e 9922 ec3d cfe9 1b3e 8c20 093d
00000130: 43f0 2ebd 1ea4 763c e3f4 03bd c5f8 d73e
00000140: de7e 46bd 62a0 cb3e d26d 563e 697f e83d
00000150: 8256 823e e5ac 243d ebf6 133e 63b7 78be
00000160: 5a9c 05be b18d 9e3e f278 72be 129e 38be
00000170: 448c e8bd 0b2a 953e 6ad0 273e eb47 adbd
00000180: e7c0 6f3e 6b75 463e c532 b23d a5cc 79be
00000190: cdf3 533e 044f 1fbe 90bb 7abd 8fa0 183d
000001a0: edf6 a3bd 37e1 efbc 10cb 30be ca67 243e
000001b0: 54c2 503e 5ea8 12bd 14cc b7bc 0911 dabe
000001c0: 6048 a13d 6694 2b3e fc2a 4c3d 29c2 19be
000001d0: 4162 93bd 1d4f 9ebc fe9f adbd db9e c3bd
000001e0: 8399 2abe 30ee f139 e6af cdbd 6898 e4bc
000001f0: b22e 0a3e 5123 22bd 07d8 aa3e 1b06 863e
00000200: d019 21bd d962 3dbc 580c b23d 0362 35be
00000210: a27a 363e a30d c1bd afda 0fbe 7e4d 5bbd
00000220: b5b9 fbbc 3ff9 b6bc e9ec a13d 6589 fb3d
00000230: 867f 0ebd 89d2 20be 7c7b 173d f21e 8cbd
00000240: 42ef 283e 0232 4dbe 4098 ac3e 46a0 4bbe
00000250: f767 94be eae7 22be 42d1 e83e 0f7d f93e
00000260: 60fb bc3e afd5 a9bc 85ca d0bc e6c5 10be
00000270: aba1 393d f076 3c3c d6f9 873c 43b7 57bc
00000280: d427 b0bd 9c7d eabd bad3 a6bd 5766 8ebe
00000290: 8521 3d3d 57a9 023e 6317 fd3c 29d0 953e
000002a0: 00ed 933d 32ef 253e 68e1 85be 8da2 24be
000002b0: fea2 5cbe b811 89bd 2532 42be d5ff 08be
000002c0: 9beb 22bd 49be 92bd a516 983d f5d7 a3be
000002d0: d917 cc3c 3402 ab3b 7a1d c3be ddfd 083e
000002e0: 0578 d53d 3065 eebd bae4 efbd 2f31 e8bd
000002f0: 2547 4ebe 175a 963e ee03 813d 793e 7fbe
00000300: 30a3 723d 2449 9ebd 319c 073e 3da5 143e
00000310: 7096 693e 8a4a 503d b7f5 bdbd 4b34 49be
00000320: 2eea 5d3e 66cc 84bd 5726 cebd 3b28 adbc
00000330: 70a8 eebd 0048 243c 0cae 02be 513b 35be
00000340: 073f 94bd a95c b13d 10f1 dc3d 4c90 c53c
00000350: 425c 46be e8f9 c4bd e6bb 40bd 353c 4a3c
00000360: be69 c2be afc0 01be a90b b0bd d750 60be
00000370: 6c7f 38be 43ae 41bd 4d6c f1bb cf90 ffbc
00000380: 7c7e 393d 1cd5 ce3d 9ca7 0d3d 39c5 a13e
00000390: 748a 113d bc4c 2cbd b9b9 aabe bacb 453e
000003a0: 4b70 b93e 708d b03b a172 d9bd ccbd 99be
000003b0: 08c5 0a3c c521 a03d 1d24 a5bb 67c9 ea3c
000003c0: 60f9 8abe b7ed 173e c542 183e 5611 f0bd
000003d0: 49e8 d4bd 5904 a13e 25bd d03d 1222 7fbe
000003e0: 2ee4 883e af83 a23c 68dd d33d 9a7b 5a3d
000003f0: 849a c73d d590 6ebd dce6 6cbe f451 b4be
-0.02757536 -0.12696752 0.19732645 -0.10912593 -0.10752633 -0.14522769 0.104523644 -0.017254472
-0.057015043 0.06581646 -0.15493079 -0.17384455 0.06600474 0.25661713 0.21001868 0.24789008
0.17056338 0.0041156975 0.16242898 0.23366497 -0.21766539 0.13868411 -0.11731357 -0.060668
-0.2343981 0.019381905 0.080849454 0.011868094 -0.032846842 0.08593526 -0.06096257 0.24417096
-0.0059461915 -0.1028127 -0.057212103 -0.11992983 -0.16278099 -0.0143104 0.091664925 0.1512768
0.12501606 0.024124756 -0.28318897 0.3660527 -0.08792162 -0.25069672 0.053435743 -0.26648703
0.04852082 0.32123643 0.09250265 0.17503822 0.44568992 -0.3265377 -0.1486815 0.07547527
0.043105032 -0.13868256 -0.25036505 0.10320258 -0.11025719 0.47826952 -0.00648796 0.29416636
0.17828305 -0.15301298 -0.09468883 0.08980201 0.31169242 0.09477704 0.14895475 -0.112495475
0.28631708 0.115300365 0.1522591 0.033478305 -0.0427096 0.015053777 -0.032215964 0.42181984
-0.048460834 0.397708 0.2094033 0.113524266 0.25456625 0.040203948 0.1444966 -0.24288706
-0.13047925 0.30967477 -0.2367895 -0.18029049 -0.113548785 0.2913364 0.16388097 -0.08460983
0.2341343 0.19380729 0.0870109 -0.24394472 0.20698471 -0.15557486 -0.06121403 0.037262496
-0.08006082 -0.029282195 -0.17264962 0.16055217 0.2038663 -0.0358051 -0.02243618 -0.42591122
0.078751326 0.16755828 0.04984568 -0.15015472 -0.07196475 -0.019324834 -0.08477782 -0.09551784
-0.16660123 0.00046144566 -0.100433156 -0.027904704 0.13494375 -0.03958446 0.3336794 0.26176533
-0.039331257 -0.011559212 0.08693761 -0.1771317 0.17820218 -0.09426429 -0.14048265 -0.0535407
-0.0307282 -0.022335647 0.07906515 0.12282065 -0.034789585 -0.15705313 0.036983 -0.0684184
0.1649752 -0.20038608 0.33709908 -0.19885358 -0.2898557 -0.1590878 0.4547215 0.48728225
0.36910534 -0.020731775 -0.025487194 -0.14137992 0.045320194 0.011502966 0.016598623 -0.013166252
-0.086013466 -0.11449739 -0.081458524 -0.27812454 0.046174545 0.1275991 0.03089494 0.29260376
0.072229385 0.16204527 -0.26148534 -0.16077633 -0.21546552 -0.06692833 -0.18964441 -0.13378842
-0.039775472 -0.071652 0.07426194 -0.320007 0.024913715 0.0052187685 -0.38108426 0.13378091
0.104232825 -0.11640394 -0.11713548 -0.11337506 -0.20144327 0.29365608 0.06299578 -0.24926175
0.05923766 -0.07728794 0.13243176 0.14516158 0.22811294 0.050852336 -0.09275382 -0.19648854
0.21671364 -0.064842984 -0.100659065 -0.021137347 -0.11653221 0.010026932 -0.12761706 -0.17698409
-0.07238584 0.08660252 0.107881665 0.024116658 -0.19371131 -0.09617978 -0.047054194 0.012343456
-0.379713 -0.12671159 -0.08595974 -0.21905838 -0.18017358 -0.04728533 -0.007367647 -0.03119698
0.04528664 0.10099241 0.034583673 0.3159578 0.03553243 -0.042065367 -0.3334482 0.19315997
0.36218485 0.0053879544 -0.10617567 -0.30027616 0.0084698275 0.07818941 -0.0050397054 0.02866049
-0.27143383 0.14836775 0.1486922 -0.117220566 -0.103958674 0.3144863 0.101923265 -0.2491534
0.26736587 0.019838182 0.10344964 0.053340532 0.097462684 -0.05824359 -0.23134941 -0.35218775

enc1.1.weight f4 [8]
00000000: 776e 833f f24d 7f3f ebe0 7a3f 4d6a 7b3f
00000010: 0adc 823f 54d9 813f bd58 6f3f a721 833f
1.0268086 0.9972831 0.9799945 0.9820908 1.02234 1.0144448 0.9349478 1.0244645

enc1.1.bias f4 [8]
00000000: fda8 5b3c d849 06bc 9bf5 b33b 2bbd 08bc
00000010: c7e2 00bd fc28 b63b e0ce 1b3d 09bc 9c3c
0.013406989 -0.008196317 0.005491925 -0.008345882 -0.03146627 0.005559085 0.03803909 0.01913263

enc1.1.running_mean f4 [8]
00000000: 2ccb 773d fa58 473e 1187 ab3e 2c4f 93bd
00000010: 7d23 f1bc 6b13 eabd 2af5 31bd d5c2 b9be
0.060496494 0.19467536 0.33501485 -0.07192835 -0.029435867 -0.11429485 -0.043446697 -0.36281458

enc1.1.running_var f4 [8]
00000000: b85e 6f3c 38da 0b3e 0ed3 c63e 698a ba3c
00000010: d5f4 863c 1b7d 4c3d ee2f 443c 943c e83e
0.014609985 0.13657463 0.38832897 0.022771077 0.016474167 0.049923997 0.011974318 0.45358717

enc1.3.weight f4 [8, 8, 3, 3]
00000000: fd60 7c3e 660e 313d c187 d63c b3c7 f83d
00000010: 6092 24be 6636 27bd 5f07 f53d c835 01be
00000020: b52d aabd ee23 823d 495a 9bbd e8dd 49be
00000030: 3d4f 0f3d 81f1 24be f867 d43d d82b 183e
00000040: d6fe 1f3c 7440 08be 50e2 4e3d 33ca 11be
00000050: b95a 7e3e 7605 203d 5512 223e b291 4ebd
00000060: 3a2e 413e 64b5 bfbd 65c3 a1be c601 a1be
00000070: 0d34 a73e 9a37 893e 69dd 68bc 126e 97bd
00000080: 3ccc 753d f90e 7f3d fbf4 90bd 3553 f03d
00000090: 3aed 4dbd e549 b4bd 952e 98bd 2b95 2b3e
000000a0: 75cc c03d b015 5bbe a245 c63d bafc 953d
000000b0: c472 373e 4b31 783e d2f4 063d 9535 003e
000000c0: be79 06be b06d 00bc 7c95 a0bd 5d11 84bd
000000d0: da33 393e 60ae f2be c45b ba3d 9de9 adbc
000000e0: 4e19 36be 8285 b03c 98c9 48be 38a5 423e
000000f0: 6a84 883e bc0a 313d 0c11 ecbd 6402 353d
00000100: 94e0 373c 6441 773c c0f7 3a3e 4439 38bd
00000110: 8b17 37be 7a62 7cbe d1f7 3dbe be63 88bd
00000120: 4e5d c43d 0d3a 86bd 90ce 753e da7d c1bc
00000130: 45d3 953e 1232 75bd 0d59 323d 22b8 49be
00000140: 3c83 24be 11e0 193e bc40 5bbd fe76 3d3e
00000150: 9341 65bd 61cd 693d 254f a53d c1b4 083e
00000160: 4147 263e fe0f 82be 5534 58be de0e edbb
00000170: d85d 0c3e 7439 b23e ffe5 5fbb 41b8 2a3d
00000180: 1336 b73d b5ed 02be f0d9 1abe 9e21 93bb
00000190: 7b67 623d de5f 01bd 4c1a 86be ff14 0cbe
000001a0: 080c bdbd f0a0 9dbe b24c 40bd 263a 3a3d
000001b0: 4093 683d ee74 0ebe 7bc4 033e 7337 023d
000001c0: 3640 e7bc 803e 7c3e 0a8c 05be ea63 3abd
000001d0: c823 15be cd46 41be 235b 8e3d e4a3 1fbe
000001e0: a801 723e 6381 093d c3d9 2bbc 3813 f93d
000001f0: 93aa 943e e666 1b3c beaa 963d 4f94 e53c
00000200: 84d5 c43e 105a 863b ebb9 78be ac65 5c3e
00000210: 99d2 093d b92e 953c 9973 503e 2131 313e
00000220: 2039 6e3e 2a82 73be a644 ebbd a290 c8bc
00000230: 15dc 2b3e 3fe4 84bd c98e 963d 8fad bebe
00000240: 7083 a23d a34a c1bc 7968 8d3d 9573 34be
00000250: f24a b03c b1bc 483e bc82 973e 0a79 59bd
00000260: f6fa a03e 0614 3fbe 1690 223e f4b9 703c
00000270: 3dac 80be f9c5 cbbe 022d f93d 20a7 e4bd
00000280: ccb0 7e3d b4c1 ec3d 4653 0cbe c7f7 08be
00000290: 84b3 fd3c f1c6 163e 1a59 123e e73c 903d
000002a0: 8f63 e3bd 1894 0fbd 006a ce3c ecc3 1d3e
000002b0: 54b4 393d 66e5 9fbd 9a94 733c 5ea9 103e
000002c0: 49f3 debd bb60 35bc 2f9d eb3c 0238 21be
000002d0: 52eb 973d 9a22 e0be 4e8f 9ebe 366f 393e
000002e0: 6622 c53d 8027 3a3e bfbe c93e 74e5 bfbd
000002f0: 9f67 cd3d d214 323e 7dd7 49be 635f ee3d
00000300: b295 7abe a729 133e b328 4abe 4fcb 5cbe
00000310: b163 fd3d d8e8 acbd 96ce 123e 3fdd 263d
00000320: c735 2c3d a0c4 003d 0949 eb3d 8cdf 8e3e
00000330: b717 0dbe e6f0 94bd 1e48 443d b7f4 29bd
00000340: 11e4 0e3e c64b 65bd 32e0 82be dbc1 363e
00000350: 2a8d 21be ef40 09be bd3e bbbd 48b0 413c
00000360: 3c8c 1dbe cf80 57be 91c0 dd3d b9d0 2b3d
00000370: edea 58be 2236 183e 5278 9f3d 17b5 643e
00000380: 8ff7 7cbe cbff 19bd 5fa2 09bd 8228 523e
00000390: a24f 7d3e 3169 5abe b4d6 52be f921 ecbc
000003a0: 0e23 22be 309b 87be 033a ef3d a425 5dbe
000003b0: e5af 0a3e 4096 66be 9b28 163d f2af 7a3e
000003c0: d7d1 e63d 2b65 e1bd 7d26 1abe 4858 fabd
000003d0: 9b42 9abd 5c72 173c f0f5 323c a351 213d
000003e0: 4586 1a3a 197f ec3c cea9 643e 12d1 84bd
000003f0: d3d7 3fbe fa93 5bbe a306 bbbe 530a c9be
0.24646373 0.043226622 0.02618778 0.121474646 -0.16071463 -0.040823363 0.119642965 -0.12618172
-0.08309499 0.06354509 -0.0758558 -0.19713557 0.034987677 -0.16107751 0.10371393 0.14860475
0.0097653475 -0.13305837 0.050508797 -0.14237289 0.24839295 0.039067708 0.15827306 -0.050431915
0.1886529 -0.093607694 -0.31594387 -0.31446666 0.326569 0.26800233 -0.014212945 -0.07394041
0.060009226 0.06227014 -0.07077976 0.117346205 -0.050275065 -0.08803157 -0.0743076 0.16756122
0.09413997 -0.21394992 0.0968125 0.073235944 0.17914873 0.24237554 0.032948323 0.1252044
-0.13132378 -0.007838652 -0.07841012 -0.06448624 0.18086186 -0.47398663 0.09099534 -0.02122956
-0.1778309 0.021548036 -0.19608152 0.19008338 0.26663524 0.043223128 -0.11526689 0.044191733
0.011222977 0.015091274 0.18258572 -0.044976488 -0.17880075 -0.24646941 -0.18551566 -0.06659649
0.09588109 -0.06554041 0.24004579 -0.023619581 0.29262748 -0.059862204 0.043541957 -0.19699147
-0.16065687 0.15026881 -0.053528532 0.18502423 -0.05597074 0.05708063 0.08071736 0.13350202
0.16238119 -0.25402826 -0.21113713 -0.0072344383 0.13707674 0.34809458 -0.0034164188 0.041679624
0.08945861 -0.1278599 -0.15122199 -0.0044900915 0.055274468 -0.031585567 -0.26191938 -0.13679884
-0.092308104 -0.30786848 -0.046948142 0.04546561 0.056781054 -0.13911793 0.1286792 0.03179116
-0.02822886 0.24633217 -0.13041702 -0.04550544 -0.1456443 -0.18874665 0.06950977 -0.15589863
0.23633444 0.03357066 -0.01048893 0.12161869 0.29036388 0.009484982 0.07356785 0.02802482
0.3844415 0.0041000918 -0.24289672 0.2152316 0.033648107 0.018210756 0.20356597 0.17303897
0.23263979 -0.23780122 -0.11487703 -0.024483029 0.16783173 -0.06488847 0.07351453 -0.3724179
0.07935226 -0.02359516 0.06904692 -0.17622216 0.021520112 0.1960323 0.2959193 -0.053093947
0.31441468 -0.18659982 0.15875277 0.014692772 -0.25131407 -0.3979948 0.12166788 -0.11164689
0.062180325 0.115603834 -0.13703641 -0.1337577 0.030969389 0.14724328 0.14291802 0.07042866
-0.11102974 -0.035053343 0.02519703 0.1540677 0.04533799 -0.07807426 0.014866972 0.14127108
-0.10886247 -0.011070426 0.028761474 -0.15744022 0.07417931 -0.437764 -0.30968708 0.1810883
0.096257016 0.1817913 0.3940334 -0.093699366 0.1002953 0.17390755 -0.19711109 0.11639287
-0.24471167 0.14371358 -0.19742088 -0.21561931 0.1237253 -0.08442849 0.14336619 0.04073834
0.042043474 0.031437516 0.1148854 0.27904928 -0.13778578 -0.0727251 0.04792034 -0.041493144
0.13954188 -0.055980466 -0.25561672 0.17847387 -0.15776506 -0.13403676 -0.09142826 0.011821814
-0.15385526 -0.2104523 0.10827745 0.0419471 -0.21183367 0.148644 0.07786621 0.22334705
-0.24703811 -0.03759746 -0.033602115 0.20523265 0.24737409 -0.2132919 -0.20589715 -0.028824793
-0.15833685 -0.26485586 0.11680987 -0.2159639 0.13543661 -0.22518253 0.03665982 0.2448118
0.112704925 -0.110056244 -0.15053745 -0.122238696 -0.07532235 0.009243574 0.010922894 0.039384495
0.00058946415 0.028869199 0.223304 -0.064851895 -0.18734674 -0.21443167 -0.365285 -0.3926569

enc1.4.weight f4 [8]
00000000: fdc8 753f fb7f 7a3f bfd4 783f dfaf 7f3f
00000010: 0142 7a3f 368e 7f3f 3107 823f 2991 7d3f
0.9600981 0.9785153 0.97199625 0.99877733 0.97756964 0.9982637 1.0158445 0.9904962

enc1.4.bias f4 [8]
00000000: 2d07 773c 08d8 79bc 9e6c aabb 0280 87ba
00000010: 06a7 0abd f122 c53a 16cd 813c 1851 18bc
0.015077394 -0.01524926 -0.0052009365 -0.0010337832 -0.033850692 0.001504032 0.015844863 -0.009296678

enc1.4.running_mean f4 [8]
00000000: e645 42bd 1732 a83e 20ff 28b9 161b 1fbf
00000010: 161d ccbe fc5a a9be 272a 5bbf 03e4 fbbe
-0.04742994 0.32850716 -0.0001611677 -0.62150705 -0.3986594 -0.33077228 -0.85611194 -0.49197397

enc1.4.running_var f4 [8]
00000000: e491 943d ec69 b13e 8f34 833e 53ee 473f
00000010: e784 703e e1c5 173f b39b 2940 ac56 a63e
0.07254389 0.34651124 0.25626037 0.7809803 0.23488198 0.59286314 2.6501281 0.32488

enc2.0.weight f4 [16, 8, 3, 3]
00000000: 3e7f c63d 24cb 86bd 22fe 7fbc 2e3a d8bc
00000010: c250 243e 796f bdba 9f8c adbd b780 bc3d
00000020: 67c0 9e3d 6c82 7bbe 8598 68be 5d71 48be
00000030: bdb8 223e c952 023e 3985 9abd 7615 5dbd
00000040: cb0a 6ebd 60d9 c23c 1980 b0bd d16d 40bc
00000050: d28a 64bd 423e a03d 4816 6bbd f283 e63d
00000060: 3667 9e3d 38c2 d5bc c43a 503e 62e3 2ebd
00000070: 6c01 4b3d cfeb fbbd 16a7 583d 9597 4ebd
00000080: 7d69 863e ce03 ad3b ec01 bc3b db4e 1f3e
00000090: 697e 2ebe 0f33 923c 312c 673c 45db 87bd
000000a0: 54fa 51be 264d 73bc 4229 40be c13f 70be
000000b0: ba9a cbbd 6f23 8738 abbe 1b3d 26e3 67be
000000c0: 2fcc 153e 8df7 2abd 711e c73a 74b3 593e
000000d0: f013 4fbe d4fb 5cbd d2cc 643e 699c bebc
000000e0: a0cc aebd 0527 dd3d 38ce 8abd 93fa 90bd
000000f0: aef2 20bc 9195 0bbe 5681 e0bd b64e 44bd
00000100: 5da1 44bc c0f2 de3d 5267 e53d e8ce 03be
00000110: a028 813e 1620 be3d e16f e0bd ce15 f6bd
00000120: 484e cf3d 0add 62be cf90 5c3e fb6a 2f3c
00000130: 19c4 debd d711 b33e b633 7dbb f332 393d
00000140: 5b03 193e 761c 91bd 5a61 553d 0668 b0bc
00000150: 3ffa 83bc 6102 fc3d a88c 4dbd 7fee 703c
00000160: 3586 9dbd 4d5c 6c3b dd0a 0abe 8de6 90bd
00000170: 6724 5e3d def7 a53d ecd7 b6bc 5066 023c
00000180: efa3 fcbc d6fe 9f3c 4f6b 02bc 7cc5 4f3e
00000190: 50a7 9c3d 556c 1fbd 6ab4 e8bd 7c41 acbc
000001a0: 3f82 123e e270 21bc 07b2 7fbe a174 953d
000001b0: 22c2 d3bd 5f49 f63d 719e a6bc d2f3 e73c
000001c0: 9370 e53d 813e 743d fcf0 3e3d 749d 7fbb
000001d0: a023 883d c510 2d3d 438f 97bd ad01 5f3d
000001e0: d483 003e 4b90 073e 4c3d f2bd 5b76 f33d
000001f0: e1d5 123e 8acd 063d 1018 b0bd 94a4 41be
00000200: e08e c6bd d4c9 ebbc 3e28 453d d55b da3d
00000210: 60dd 92bd ea08 343e 444e 7b3d f5c9 723d
00000220: 42a5 28be 0d3a 9b3d b7f0 6ebd 8990 b23c
00000230: 46d4 883d e856 e4bd f629 2d3c 725b df3d
00000240: 5dd5 483d eee0 5fbe 77ff 003e 5285 fabd
00000250: 2588 273d 236f bcbd f43f e83d 9cff 12bd
00000260: d84e e43d c30b 033e 1cb0 9dbd 8f30 083d
00000270: 70ad 2ebe ae62 54bd 8e7e 733c cb31 25be
00000280: 2b8a afbd 9a8c 0e3b 09a2 f1bc b52e 1f3e
00000290: f23f f5bc e92b 283d b31f 073e 159e 2bbe
000002a0: 17d3 6f3d cdfe e83d 01d9 c43d 8e91 cebd
000002b0: 3ad6 0b3e d076 dcbb 7b58 ff3d af7b 6dbc
000002c0: 2a20 2e3c f58f 2abe 98b6 edbd 6443 113e
000002d0: 9b70 1dbd 939a 18bd f809 a2bb 3030 da3d
000002e0: 823a 6a3e 4c9d 623d 9d20 193e 8eab 5c3d
000002f0: ac94 e2bd 8b3c cd3d 5331 80bd 6f5d 1c3b
00000300: 8b1c 5fbd c0c2 51bd 960a 19bc 644c 023e
00000310: a27c 5dbe 765b f1bd 61d4 61bd 0249 babd
00000320: d6e7 b1bc 0836 cfbd 092d f9ba 668f 60bd
00000330: b7ad 903d 3a79 f93d 45ee 1d3d 652f f7bd
00000340: 6e5c d93d def9 df3c 2c8c 6fbd 104e 76bd
00000350: 13cc ecbb ba2e 36be b60c 103d 1a86 333d
00000360: b1e1 053e 7508 b13e 94a2 443b 22c9 cb3c
00000370: 78bb 0c3e 8fb9 a1bd 0df2 6dbd 3a67 a23d
00000380: 5b28 babd abb6 16bd 2b44 bf3d 9410 16be
00000390: 63d6 69bd ece6 23bd e277 d8bd 1be6 863d
000003a0: 023c 143e ef1e 8fbd 69b8 863b e352 febd
000003b0: ff6d 1dbe 7aba 353d e9bf 72bb c220 da3d
000003c0: 1201 b4bb ef6c 7b3d d41a 8dbd cc43 ef3d
000003d0: 4c57 06be 1241 d0bd 0119 713d f30e 4abe
000003e0: bd7f 9e3d fba8 fd3d 29fe 0abe da4a 1abe
000003f0: a71f 0cbe 1b4b 5a3d 61fc 9a3d aaf5 2a3c
0.09692238 -0.06581715 -0.015624555 -0.02639493 0.16046432 -0.0014452777 -0.08474087 0.09204238
0.077515416 -0.24561471 -0.22714432 -0.19574495 0.15890785 0.12726893 -0.075449415 -0.053975545
-0.05811576 0.023785293 -0.08618183 -0.011744932 -0.055796452 0.07824375 -0.057394296 0.11255635
0.0773453 -0.026093587 0.20334917 -0.042697318 0.049561903 -0.12300836 0.05289372 -0.05043753
0.26252356 0.0052799946 0.005737534 0.15557425 -0.17040409 0.017846612 0.014109657 -0.06633619
-0.20505649 -0.014849937 -0.18765739 -0.2346182 -0.09941621 6.443902e-05 0.038023632 -0.22645244
0.14628671 -0.04173999 0.0015191567 0.21259862 -0.2022245 -0.0539511 0.22343758 -0.023267942
-0.08535123 0.10798458 -0.06777614 -0.07079043 -0.009823484 -0.13631274 -0.10962169 -0.047926627
-0.012001363 0.10886145 0.112013474 -0.12871897 0.25226307 0.09283464 -0.10958839 -0.12015878
0.10122353 -0.22154632 0.21539615 0.0107066585 -0.108772464 0.34974548 -0.0038635558 0.045214605
0.14942686 -0.070855066 0.052094795 -0.021533977 -0.016110538 0.12305141 -0.05018297 0.014705299
-0.076916136 0.0036065758 -0.13480707 -0.07075224 0.054233935 0.081039175 -0.022319756 0.0079589635
-0.030839888 0.019530695 -0.007960155 0.20290178 0.076491 -0.038921673 -0.11362536 -0.02102732
0.14307497 -0.0098535735 -0.24970256 0.07297636 -0.10339762 0.12025713 -0.020339223 0.028314505
0.112031125 0.05962992 0.04661654 -0.0039003761 0.0664742 0.04225232 -0.07400372 0.054444958
0.12550288 0.13238637 -0.11828098 0.11887809 0.14339401 0.03291086 -0.085983396 -0.18910438
-0.0969522 -0.028782763 0.04813408 0.10662047 -0.0717113 0.17581525 0.061353937 0.059274632
-0.16469291 0.07579432 -0.058335032 0.021797435 0.06681113 -0.111493886 0.010569086 0.10906114
0.049031604 -0.21863148 0.12597452 -0.1223246 0.040901322 -0.09200885 0.11340323 -0.0358883
0.11147851 0.12797455 -0.07699606 0.033249434 -0.17058349 -0.05185192 0.014861716 -0.16132276
-0.08571275 0.0021751286 -0.02949621 0.15545161 -0.029937718 0.0410575 0.13195686 -0.16759522
0.05855092 0.113767244 0.09611703 -0.10086356 0.1365594 -0.0067280307 0.12468048 -0.0144948205
0.010627786 -0.16656478 -0.116070926 0.14185864 -0.038437467 -0.03725679 -0.004945036 0.10653722
0.22873881 0.05532579 0.14953847 0.053874545 -0.11063513 0.10021313 -0.06259408 0.0023859402
-0.05447058 -0.05121112 -0.009340903 0.12724453 -0.21629575 -0.11785023 -0.05513418 -0.090959564
-0.021716993 -0.101177275 -0.0019010614 -0.054824255 0.070643835 0.12181325 0.03855731 -0.12069587
0.10613333 0.027340826 -0.058483288 -0.06013304 -0.007226476 -0.17791262 0.035168372 0.04382906
0.13074376 0.34576765 0.003000413 0.024876181 0.13743389 -0.078967206 -0.058092166 0.07929845
-0.090897284 -0.0367953 0.09339174 -0.14654762 -0.05708922 -0.040015146 -0.10569741 0.06586858
0.14476016 -0.06988322 0.004111339 -0.12418153 -0.15373991 0.04436729 -0.0037040657 0.10650779
-0.0054932917 0.061383184 -0.06889883 0.11682853 -0.13119239 -0.10168661 0.058861736 -0.19732265
0.07739208 0.12385746 -0.13573517 -0.15067616 -0.1368395 0.053294282 0.07567669 0.010434547

enc2.1.weight f4 [16]
00000000: 30cd 813f 251d 7e3f 73e8 7e3f 59f1 7b3f
00000010: 47d1 7f3f 006b 7e3f 8245 783f ccb6 803f
00000020: 44c2 7e3f 7094 813f 065d 813f c808 813f
00000030: 5e21 823f f678 813f 0334 7d3f 1636 833f
1.0140743 0.9926322 0.9957344 0.9841514 0.99928707 0.9938202 0.9698106 1.0055785
0.99515176 1.0123425 1.0106514 1.0080805 1.0166433 1.0115039 0.9890749 1.0250881

enc2.1.bias f4 [16]
00000000: 33b4 b33b 88f5 42bd 5041 64ba 517b 82bc
00000010: 011e 773b 2b3d fb3c 50cb d7bc 5491 ea3c
00000020: 6976 4abc bf42 f53c d3e5 823c 8ced 02bd
00000030: c796 33bc 2253 023c cd08 233b b211 523d
0.005484128 -0.047597438 -0.0008707242 -0.015927942 0.0037707093 0.030668816 -0.026342064 0.028633751
-0.012357333 0.029939054 0.01597873 -0.031964824 -0.010961241 0.007954391 0.0024877072 0.051286407

enc2.1.running_mean f4 [16]
00000000: 58f3 91be 42ea d83e 935b 11be cee6 1bbe
00000010: 89ff e6bd d198 31be e7fb d5bd eeca 94be
00000020: 2652 773f 6aa2 c5be b7bc 353f f89e ef3e
00000030: a691 e73e e080 c83e 952d 203d 1693 953e
-0.2850597 0.42366225 -0.14195089 -0.15224764 -0.11279208 -0.17343451 -0.10448437 -0.29061073
0.96609724 -0.38600475 0.7099108 0.4680097 0.45228308 0.39160824 0.03910597 0.2921378

enc2.1.running_var f4 [16]
00000000: eee6 303f 9349 c83e fa45 793e 47e1 873e
00000010: 7bf5 253f f06b 903e 6009 c43e 83fd bd3e
00000020: 8bcc 493f 83c5 9b3e dc2e c23f 0f08 c73e
00000030: 9478 953e 2f1f a03e 466e 653e 4292 8a3e
0.6910237 0.39118633 0.243431 0.2653906 0.648277 0.2820735 0.38288403 0.37107477
0.7882773 0.30424127 1.517055 0.38873336 0.29193556 0.3127379 0.22405347 0.2706471

enc2.3.weight f4 [16, 16, 3, 3]
00000000: 5a46 473e f458 bfbd 5c83 923c c2de 923e
00000010: e0c9 4f3d 61b6 193e b59b 273e 7e50 16bd
00000020: 0039 29be 5231 b3bd e21c e9bc 8e98 5bbd
00000030: 2ab1 023d c68d 1bbd 16f9 37bd 826d 3b3e
00000040: 7c09 56bd adbe b43d 0f2f 943d 7b41 913d
00000050: d420 3c3d d89a fe3d b1fa 113e b0e9 653d
00000060: baaa 953a 9856 fdbd 343d d8bd 7910 13be
00000070: 8657 98bd a9c1 37bd efa3 09bd 0e6f 64bc
00000080: 3a3a 56bd 19b8 193c ee8b 13be 6859 5f3d
00000090: d620 373d 8c00 41be f690 533e 15ec bdbd
000000a0: 3a3d a8bd 0e0b a33c 4659 c63c 3c46 98bd
000000b0: 5706 163c 6bd9 f7bd 89f9 333e ecbd 9dbb
000000c0: a058 aabd 9658 863d f2e5 5fbe a5d0 62bd
000000d0: 7e63 b73d a38f a1bc e780 f0bd bc66 b0bd
000000e0: f9eb 303e 7c61 1c3d 5528 e83d 3b9f bc3c
000000f0: d89f 573b 1f99 8fbd 8ebf 4d3d 6e74 37be
00000100: 08d2 f4bd 7d76 82be cb8f 31bc bb76 a5bd
00000110: 9048 b5bd eb68 573d 70a2 b5bd 83e3 c2bd
00000120: f7ee 623e 8841 0f3e 63cb 4bbd de5e 0b3e
00000130: 4b43 d9bd 3f6c d13b 3997 a63d f2e6 eabd
00000140: a295 ef3d 1e97 903e 17d6 a3bd 4262 4ebd
00000150: 6e8e bc3d 83e3 9c3d eec2 023e 0061 673e
00000160: 6d45 d6ba d9ea 933c bcd0 0cbe 7363 273e
00000170: 6437 4dbd bd74 bbbd 294b aabc 69b6 d4bd
00000180: 97a6 133d 33a5 b5bd b077 c5bd b9d1 353e
00000190: ce11 99bd 1d93 033e bde0 07bd 09ea 303e
000001a0: 92a3 c13d 9c69 04be 190d 0d3e 96f7 e23d
000001b0: 24b7 d43d 9418 803e c027 183e 3028 01bd
000001c0: 5a92 3a3e 9645 bd3d fcd8 9a3d 20a0 dbbd
000001d0: b276 603d e720 043e ca25 2fbd ac33 003e
000001e0: 8cbe 39bd 4fa5 0ebd 14ea 7ebd 6648 373d
000001f0: 6e5a 9fbd 724e 2b3e fd87 413c 3747 553e
00000200: 8955 b0bd 62b1 05bd 3716 0abe 4421 5f3e
00000210: ae9f 91be d868 2fbd d7d8 85bd 8d59 893d
00000220: 6479 b1bd f13e 4b3d 1c0d 1b3e f9dd 31be
00000230: a18c bcbc e7d9 00bc 4818 88bd 0dff 71bd
00000240: 08b7 1abd ad8a 1e3d 830b 8b3d 4ab6 d63d
00000250: d792 843e d606 83bd fab3 ebbd ca9c 3f3d
00000260: 48bd 9b3c d175 20be fad9 a2bc d3e3 6cbe
00000270: 47ec 31be 5634 d3bc 5038 4a3e 48fe 993a
00000280: 16c1 983c 3b18 39bb 9ea9 893c 5d55 cfbd
00000290: 5a50 57be dce4 483d 76b0 f7bd 6e24 4ebe
000002a0: 095c c1bd b37d d9bd 9af8 673c e7b1 e6ba
000002b0: 0d7c 533d c89a f03d 77a6 b63d c944 33bd
000002c0: b716 a83d 0d53 12be 7eff 153d a6b9 593d
000002d0: 0dc4 233e ffbd 823c 4316 8ebe dd9f d13d
000002e0: c2af 993d b79f f43b e4eb 093d b379 a23c
000002f0: 559e ef3d 851c 9c3c efa7 d83d 3ba3 60bd
00000300: 0ebb 1f3c e848 94bb 60cb 523d 406b 2f3d
00000310: 4d4c 14bc 97fd 87bd 30e5 f43c fac5 343d
00000320: cc3b 253d 99cf ee3c 6a0d e5bd c000 9ebd
00000330: 670d 22bc 2c7a 6b3c 7a67 a43d a0d1 4d3e
00000340: cf47 8fbc b4da 193e 638f 2d3e cddf ed3c
00000350: 477f 33be 31cb 873d bb12 bb3c fbf0 033e
00000360: 15db 31be 05e9 30bd eada 953c 1882 163e
00000370: a627 09be f1ea a63c ed1a 133e 9d3f 4bbd
00000380: c7bc 36be 58e7 393e 503f 05bd c091 b6bd
00000390: 4d9d 7d3e 6d9e 2abe 0004 983e ae03 6b3e
000003a0: 17b6 9cbd 3815 3cbc 37fe af3d fd5b 023e
000003b0: 66a1 f0bd dbeb 5a3e a876 20be d4fd 4fbc
000003c0: 5242 1fbe 72ad e5bc fc08 db3b 1a99 1d3e
000003d0: 4676 d23d ea71 e7bd fbb6 353d 90fd 83bd
000003e0: 83ae 233e fdb4 cabd d719 ad3d d86c afbd
000003f0: bfc4 903b fcad 9fbd c421 ddbd 50cb fbbd
0.1946043 -0.09343138 0.017884903 0.28685576 0.050729632 0.15010978 0.16367991 -0.036697857
-0.1652565 -0.087496415 -0.028456155 -0.053612284 0.031907238 -0.037977003 -0.04491528 0.18303493
-0.05225514 0.08825431 0.07235538 0.070925675 0.045929745 0.12431878 0.14255787 0.056131065
0.0011418678 -0.12370032 -0.105585486 -0.14361753 -0.07438569 -0.044862423 -0.033603605 -0.013942493
-0.052301623 0.009382271 -0.14408848 0.054528624 0.04470905 -0.18847865 0.20660767 -0.09273545
-0.08214803 0.019902732 0.02421249 -0.07435271 0.009156785 -0.12102016 0.17575659 -0.0048139
-0.08317685 0.06559865 -0.21865061 -0.05537476 0.089545235 -0.019721812 -0.11743336 -0.08613345
0.17277516 0.038178906 0.11335818 0.023025146 0.003290167 -0.070116274 0.05023151 -0.17915508
-0.11954123 -0.25481024 -0.010837506 -0.08079287 -0.08851731 0.052590292 -0.08868873 -0.09516051
0.2216147 0.13989842 -0.04975451 0.13610408 -0.10608538 0.006391078 0.08134312 -0.114698306
0.11698462 0.28240293 -0.07999819 -0.050386675 0.09206854 0.07660582 0.12769672 0.22595596
-0.0016347595 0.01805632 -0.13751501 0.1634653 -0.050101653 -0.091531254 -0.020787792 -0.103863545
0.036047544 -0.088694 -0.09641969 0.17755784 -0.07474099 0.12849088 -0.03317331 0.17276777
0.09455027 -0.12930912 0.13774528 0.110823795 0.10386494 0.25018752 0.14858913 -0.031532466
0.18219891 0.09241788 0.07560918 -0.10723901 0.054800697 0.12903176 -0.042760648 0.12519711
-0.045347735 -0.03482562 -0.062234953 0.04474678 -0.0778092 0.16729143 0.011812207 0.20827948
-0.086100645 -0.03263987 -0.13485037 0.21790034 -0.28442138 -0.042824596 -0.065354995 0.067065336
-0.086657315 0.049620572 0.1514172 -0.17369832 -0.023016276 -0.007864452 -0.06645256 -0.059081126
-0.03777221 0.03870647 0.06789305 0.10483988 0.2589328 -0.06397788 -0.11508937 0.046780385
0.019011155 -0.15669943 -0.01987933 -0.23133783 -0.17375289 -0.025781792 0.19748044 0.0011748755
0.018646758 -0.0028243202 0.016804513 -0.10123704 -0.21026745 0.049046382 -0.12094204 -0.20131084
-0.094413824 -0.10619678 0.014158392 -0.0017600626 0.051631976 0.11748272 0.089184694 -0.04376677
0.082074575 -0.14289494 0.03662061 0.053155564 0.15992756 0.015959738 -0.2775136 0.102355696
0.07504226 0.0074653286 0.03367223 0.019833421 0.11700121 0.019056568 0.10578906 -0.05484317
0.009749187 -0.0045252927 0.051463485 0.04282689 -0.009051395 -0.06640165 0.029894441 0.044134118
0.04034023 0.029151725 -0.11184199 -0.07714987 -0.009890891 0.01437239 0.08027549 0.20099497
-0.017490296 0.15024835 0.16949229 0.02903738 -0.17529021 0.066305526 0.02283608 0.12884896
-0.1736873 -0.043190975 0.018292863 0.14698064 -0.13394031 0.0203757 0.1436574 -0.049621213
-0.1784545 0.18154657 -0.032531083 -0.08914518 0.24767037 -0.16661997 0.29690552 0.22950622
-0.076519184 -0.011479668 0.085934095 0.12730403 -0.11749534 0.21379034 -0.15670264 -0.012694795
-0.15552643 -0.028036807 0.0066844206 0.15390435 0.10276465 -0.11301024 0.044363957 -0.064448476
0.1598454 -0.09897802 0.08452194 -0.08565682 0.004417985 -0.07796857 -0.10797456 -0.12294638

enc2.4.weight f4 [16]
00000000: 1a47 823f d30e 7c3f e3a2 7e3f e1d8 823f
00000010: 6905 7d3f b740 783f 617f 7a3f 27b6 7e3f
00000020: 2df5 793f a556 7c3f a208 7c3f ac77 783f
00000030: d3d8 763f 1dfe 853f 2cb7 7e3f 4997 813f
1.0177948 0.9846012 0.99467295 1.0222436 0.9883638 0.96973747 0.97850615 0.9949669
0.97639734 0.9856971 0.9845067 0.97057605 0.964246 1.0468174 0.9949825 1.0124294

enc2.4.bias f4 [16]
00000000: 3eac a7bc 48c0 74bc 8ab2 d7bc 87d6 3f3c
00000010: 2eb8 44bd 151c 04bd e75b 9fbc a3cf 4fbb
00000020: 3f08 2f3c 06e5 12bd 791a 82bd 47e4 e8bb
00000030: 9f5b 02bd 25e9 2c3d 6f29 fe3c 77c8 823b
-0.020467874 -0.014938422 -0.026330251 0.011708862 -0.04802721 -0.032253344 -0.019453002 -0.0031709454
0.010683118 -0.035862945 -0.063527055 -0.007107291 -0.031825658 0.04221453 0.031025616 0.0039911824

enc2.4.running_mean f4 [16]
00000000: f092 c33e 6d2a 803e 5951 20bd 8e40 443e
00000010: 63c8 bf3e 3ee6 213f 1f0b f23e d892 e0be
00000020: fae0 16bf 79c3 b4bd 89b0 733f a10d 1bbf
00000030: e085 b93d 9488 81bf fcfa eabe c0b9 f6bb
0.38198042 0.25032368 -0.03914008 0.1916525 0.3745757 0.63241947 0.4727411 -0.43862033
-0.58937037 -0.08826346 0.95191246 -0.6056767 0.09058738 -1.0119805 -0.4589461 -0.0075294673

enc2.4.running_var f4 [16]
00000000: aedd b03f deb9 4f3f e42c 313f 27d0 a43f
00000010: 7780 b53f 5a97 a73f 3e30 b03f 839d 1540
00000020: 2f14 1e3f 5df7 883f a563 9940 4e6c ec3f
00000030: 6831 383f 9cb3 5d3f 0301 243f 091c 973f
1.3817651 0.81142986 0.6920912 1.2876023 1.4179829 1.3093064 1.3764722 2.3377388
0.6174955 1.0700489 4.7934136 1.8470552 0.7195039 0.8660219 0.64064044 1.1805431

bottleneck.0.weight f4 [32, 16, 3, 3]
00000000: 556b 2fbe e927 493d d311 a7bc c93b 1ebd
00000010: 01a6 263d 8193 6bbd 051b a2bd a373 423c
00000020: 04bd 16bd 97ab 7bbb 1b8d edbb 8922 bebc
00000030: dae4 76bd 4bc0 353c d67c 393e cae5 163e
00000040: 8429 47be 7e85 41bd 0f6a 45bd b99d a4bc
00000050: 759d 9d3d 56f6 6a3d 22d7 e9bd 39a6 8bbd
00000060: 9f5b 20bd 441c 50bd b3bf 77bc 18ee ba3d
00000070: 939c d43d 3b06 903d ed76 803d 04c4 493d
00000080: cd9f d0bd 9d87 17bd a82c 633d 7e9a 2fbc
00000090: 1790 3b3d 2c4f cd3c 2207 dd3d 79f5 7ebc
000000a0: 083a 4c3d 7532 32bd b29e a4bd 57ea 9b3d
000000b0: 3774 fcbd 3844 d33d b103 56bd 778f 163d
000000c0: 241f 8d3c 6cc7 4bbd faa4 263c ae2b 79bd
000000d0: 04e9 d7bd d713 3fbc 73ec eb3d 5532 8a3d
000000e0: effd 1dbd 7fbb 85bd e02b f6bd a6c0 ccbd
000000f0: cc91 83bd aeac 63bc 9ffb a1bd c6f8 cd3c
00000100: c54e e6bd 1c8a 09be 7f2f dbbd 1ac0 acbd
00000110: c395 9c3d 4ff4 cabd e1a8 84bc 9310 c93d
00000120: 3ea1 883d 0cf7 a53d b352 113e b8b2 babc
00000130: f1ed fe3d 695c 47bd d584 31be 7334 623d
00000140: c4a6 1cbd 59ab 68bc 6423 b13d d8a8 9a3d
00000150: e948 153d 6e7f e63d 0707 b33d 3f56 5a3d
00000160: 13d8 31bd ebc7 cbbd 5792 023e abbe 203e
00000170: 1d33 4d3c 2dd5 3e3e f42b 653e 5218 2f3b
00000180: d759 ec39 13a9 03be 9c35 d73c 3b18 64bb
00000190: 362a 02bd 7453 a63d a96c 84bd 3b45 d23d
000001a0: 2fc0 dcbc a134 86bd 9964 18bd 39e9 b1bd
000001b0: a479 a3bd 1c19 673e ec91 8fbd a9bf b1bd
000001c0: 5e7d bf3c 8206 ac3d 8cdc 73bd bf9d fb3c
000001d0: a324 823d 22fc dabd 558a cbbd d21d 183d
000001e0: aa96 e7bc e4ea d0bc aaa4 713d 438f 07bd
000001f0: 43f1 e63d 6c70 f13d dc96 3ebd 0f5f 733d
00000200: e9fe 96bd 84aa 5ebd 081f 41bc 8c42 763d
00000210: c412 a43c ffa3 823e a078 e33d 3646 b63d
00000220: c8e5 da3d d768 9f3c ccbe f3bc eaa0 d03c
00000230: 2ce4 8ebd 7f65 053e 1025 62bd 7945 38be
00000240: e1c1 833d f40b 883d 0ff7 9c3d 574d 003d
00000250: ca3f c5bd c080 06be 5f10 833c df50 9b3c
00000260: bfa6 333d d707 943d a955 a83d 6b26 ab3d
00000270: 4ab4 493d 2e5c 4f3d d534 0ebd 8161 2e3d
00000280: 4d36 aebc bf84 ac3d ec07 01ba 38f0 f8bc
00000290: e1f4 72bc f6a9 62bd 0d21 8f3c 2f7a f5bb
000002a0: 5571 fa3c c1b2 4c3d 5d62 a83d 3477 033d
000002b0: 9921 053c c08d 9c3c 155e 2b3e b92e 9fbb
000002c0: e201 f5bd 7828 283d 12b9 b1ba a6b9 983c
000002d0: 5883 273e 070a 1fbd ee6b 2b3d 1002 67bd
000002e0: a2d5 eebc e8df 9dbc 3546 9abd e7e7 0bbc
000002f0: 0990 403d d9d6 033e 66b7 ea39 5c44 583d
00000300: 7c17 95bd ab35 a5bc 5fb5 b33d dc2e 133e
00000310: f309 1f3d f0dc 6cbc f755 2d3e f8f7 823d
00000320: cf8b 013e daf2 8cbd b141 5f3c 9923 403d
00000330: 00e2 5d3c 49c5 bd3d 8f55 b13c 2e1f 253b
00000340: 914a 833d 9e0d 82bc 5b9d d7bd c07c 363d
00000350: 2b8c c73d 63c9 7abd 839d 163e 9a71 36bd
00000360: 1614 d939 6322 d53c eb6b e73d 9777 0c3e
00000370: ab10 b13d 85d2 1a3d c0ef dcbd 3447 8abd
00000380: 080e 1cbe 530b 77bd 943c 323d d65e 10be
00000390: f0e7 09bd 1425 94bd 50e4 26be 1c89 c23d
000003a0: b5b3 173e 998e ddbc 0072 823d 81b2 543b
000003b0: 54ba 823d 82c7 a7bd 45d5 f8bd 62e7 bf3c
000003c0: 811d 023e a8a6 403d 9fcd 1eba 8b19 8a3d
000003d0: e471 cd3c 446e a2bd fca5 393e 9f84 243d
000003e0: 3154 b53d 5007 c53d 0413 0b3e a3d5 12be
000003f0: b1d8 1abe 7f3a b43d 7414 a63d 1ff2 293e
-0.17130788 0.049110327 -0.020394241 -0.038631234 0.040685657 -0.057513718 -0.0791531 0.01186839
-0.036801353 -0.0038401836 -0.007249487 -0.023209827 -0.060276844 0.0110932095 0.18114027 0.14736095
-0.1944943 -0.04724645 -0.04819685 -0.02009474 0.07696048 0.05736383 -0.114179865 -0.06818814
-0.039149877 -0.050808206 -0.015121388 0.09127444 0.10381427 0.07032438 0.06272683 0.0492592
-0.101867296 -0.036994565 0.05546251 -0.010717986 0.04579171 0.025062166 0.10792376 -0.015561455
0.04986003 -0.04350515 -0.08038081 0.07613056 -0.12326854 0.10315746 -0.052249614 0.036757912
0.017226763 -0.04975073 0.010171169 -0.06083267 -0.10542491 -0.011662445 0.115197085 0.06747881
-0.038572248 -0.06529903 -0.12020087 -0.09997682 -0.06424293 -0.0138961505 -0.07909321 0.025143038
-0.11245493 -0.13431591 -0.107024185 -0.08435078 0.07645752 -0.099098794 -0.016193809 0.098176144
0.066713795 0.08103761 0.14191703 -0.022790298 0.124477275 -0.048672114 -0.17335828 0.0552258
-0.038244978 -0.014201009 0.08649328 0.07551736 0.036446486 0.11254774 0.08741575 0.053304907
-0.043418955 -0.09950241 0.12751137 0.15697734 0.012524393 0.18636008 0.22380048 0.0026717377
0.00045080364 -0.12857465 0.02627068 -0.0034804482 -0.031778537 0.08121386 -0.06466038 0.10267111
-0.026947109 -0.06553007 -0.037205312 -0.08687062 -0.079821855 0.22568172 -0.07010254 -0.086791344
0.02337521 0.08399679 -0.0595365 0.030714868 0.06354644 -0.10692622 -0.09938494 0.037137814
-0.028270084 -0.02550263 0.058994927 -0.03309561 0.11276486 0.11789021 -0.04653059 0.059416827
-0.07372839 -0.054361835 -0.011787184 0.060122058 0.02002848 0.25515744 0.11106992 0.089001104
0.106883585 0.019459171 -0.029754065 0.025467355 -0.06977114 0.13026999 -0.055211127 -0.17995252
0.06433464 0.06642905 0.0766431 0.031323757 -0.096313074 -0.13135052 0.015999017 0.01895946
0.043860193 0.07228058 0.082194634 0.08356937 0.049244203 0.05062502 -0.034718353 0.042573456
-0.021266127 0.08423757 -0.000492214 -0.030387983 -0.0148288915 -0.05533787 0.017471815 -0.007491372
0.030571619 0.04997516 0.08221886 0.032096103 0.008125686 0.01911056 0.16735108 -0.0048578647
-0.1196325 0.04105422 -0.0013559184 0.018643212 0.16358697 -0.038827922 0.041850977 -0.05639845
-0.029154602 -0.019271806 -0.07532922 -0.008539177 0.047012363 0.12874927 0.000447686 0.052799568
-0.0727987 -0.020167192 0.08774828 0.14373344 0.038827848 -0.0144569725 0.16927324 0.063949525
0.12650989 -0.06882258 0.013626502 0.04690895 0.013542652 0.09266145 0.021647243 0.0025195586
0.06410707 -0.015875634 -0.1052806 0.044552565 0.09743532 -0.061227214 0.14708523 -0.044541933
0.0004140443 0.026017373 0.112998806 0.13717495 0.08645757 0.037798423 -0.10787916 -0.06751862
-0.15239727 -0.060313534 0.043514803 -0.14098677 -0.03366846 -0.072336346 -0.16298032 0.09498808
0.14814647 -0.027045535 0.063694 0.003245503 0.063831955 -0.0819235 -0.12150053 0.023425762
0.12706567 0.047033936 -0.00060578616 0.06743153 0.025078721 -0.07931188 0.18129724 0.04016554
0.08853949 0.096205354 0.13581473 -0.14339308 -0.15121724 0.0880022 0.0810937 0.16596268

bottleneck.1.weight f4 [32]
00000000: cc0a 813f c256 813f bcff 803f 73b1 783f
00000010: a57b 7e3f 5686 813f dc1e 803f e0df 843f
00000020: 5011 7a3f e0c6 773f 2f59 7c3f 8d8a 7e3f
00000030: a0b0 813f 90d4 833f 8695 803f 9f93 833f
00000040: cb91 853f d19b 7a3f 9bf6 773f ccb4 833f
00000050: 83d0 743f 0f2d 803f 8faf 813f abd9 7d3f
00000060: 135e 813f f9ac 7b3f 7b8a 7b3f 57aa 823f
00000070: 1e79 7f3f 50f3 7b3f 3c14 833f b576 7e3f
1.008142 1.0104601 1.0078044 0.97145766 0.99407417 1.0119121 1.0009418 1.0380821
0.97682667 0.96787834 0.98573583 0.9943016 1.0132027 1.0299244 1.0045631 1.0279425
1.0435117 0.97894007 0.96860665 1.028955 0.95630664 1.0013751 1.0131701 0.9916026
1.0106834 0.9831081 0.9825818 1.0208234 0.99794185 0.9841814 1.024055 0.9939988

bottleneck.1.bias f4 [32]
00000000: 3f93 6fbc 5599 14bd 26a9 793c d272 15bd
00000010: d630 c7bb c0eb e0bb 3815 903b 7bfa a0bc
00000020: e77a 0a3c b4ab d9bc bf9f c7bc 3e09 54bd
00000030: c81c 883c 2dc0 a8bb 09bc f83b d1f1 463b
00000040: 4862 233d b5bf efbc 6dca 88bc 8a66 493d
00000050: b46c 69bd e9e2 43bc dd62 f33c f57d b1ba
00000060: 3e08 1a3d c8f7 b0bc 39ce d83b 6438 003d
00000070: b244 bd3b 41de aabc 9136 30bd 15e0 8fba
-0.014622509 -0.03627904 0.015238082 -0.036486454 -0.0060788197 -0.006864041 0.0043970607 -0.019650688
0.008452154 -0.026571132 -0.024368165 -0.051766627 0.016615286 -0.0051498623 0.007590775 0.0030356536
0.03988865 -0.029266218 -0.016698087 0.049170054 -0.056988433 -0.011955955 0.029710228 -0.0013541566
0.037605517 -0.021602526 0.0066163805 0.03130378 0.0057760114 -0.020857932 -0.04302079 -0.0010976816

bottleneck.1.running_mean f4 [32]
00000000: 2345 943e fc4d 503f 52ca a93e 8244 3b3f
00000010: 8fb3 a03f 91e4 e53e 87c4 093f 857e 89bd
00000020: 677b 023f c187 4b3f d9d4 4d3e 5ceb 633e
00000030: 512d 5dbe 7154 853d 17e8 1abf 187d 963d
00000040: d49c 27bf c9fa 263f 2ec5 3f3f 20d2 3f3e
00000050: c1b2 363f ec74 bebe d881 083e 4b52 50bf
00000060: 9012 66be 1206 223f 482b 383f 24dc b0be
00000070: 331d 23be 76db fb3d 4543 463e c277 cebd
0.28958997 0.81368995 0.3316217 0.7315141 1.2554797 0.44900945 0.538155 -0.06713585
0.5096955 0.7950402 0.20100726 0.22257751 -0.21599318 0.065102465 -0.6051039 0.073480785
-0.65473676 0.6522642 0.7491025 0.187325 0.71366507 -0.3719858 0.13330781 -0.8137557
-0.22468019 0.6329051 0.7194104 -0.34542954 -0.15929107 0.12297718 0.19361599 -0.10081436

bottleneck.1.running_var f4 [32]
00000000: 7c3e b53f e842 b03f 666c 133f 8264 0740
00000010: 75bb c03f 284d 453f 193a 1c3f b6bf f43e
00000020: 6ca3 2f3f 8bf4 7b40 8cfb 053f d8e3 a33e
00000030: 14b5 933f 7a1f b63e af06 8e3f 57b2 ba3e
00000040: 8928 1040 c564 0d40 2866 2440 efbb f33e
00000050: 8212 b93f f008 5f3f 0c79 ca3e 6d1e 0540
00000060: a3d8 673f a988 b23f ee61 893f 7163 963f
00000070: 1cb2 b23f e24c 2a3f 9200 1f3f d097 3a3f
1.4159694 1.3770418 0.5758728 2.1155095 1.5057207 0.77070856 0.6102615 0.47802514
0.68608737 3.9368007 0.52336955 0.32009768 1.1539636 0.3557089 1.109579 0.36464188
2.252474 2.2092755 2.5687351 0.4760432 1.4458773 0.8712301 0.39545476 2.079982
0.90564936 1.3947955 1.0733011 1.1749097 1.3960605 0.66523564 0.62110245 0.728879

bottleneck.3.weight f4 [32, 32, 3, 3]
00000000: 3add 14bc f3e5 cd3d bc69 1cbd bfe6 17bc
00000010: 623e f83d b06f f4bd 36e0 7a3c e132 ce3d
00000020: e147 9dbd ef35 12bc 4c26 4c3d 109a c4bd
00000030: 9eda 08be a8ba ffbd 574b bc3d cd53 63bd
00000040: 1c3a dd3c 2f72 71bc 5e7e 8bbd aba9 e0bd
00000050: d7dc 60b9 ee90 70bd 1545 b33d 78c1 16bd
00000060: 7b99 01bd dcb0 b5bd 94c1 8abd 9e99 513c
00000070: 7fc2 ad3c 6dd1 6ebd e18d 453d ff34 943d
00000080: 17d0 09be ea34 743d b71e 8b3d 547f 8f3c
00000090: 9b15 363d 1d82 073c 9b50 d23c a0e2 febd
000000a0: eae1 e3bd da03 b1ba 6478 e23c fce7 633d
000000b0: 8e42 abbd e336 ab3d fbfa 41bd c85e a33d
000000c0: 3eaa 9fbd ad04 51bd fac7 45be 1034 aebb
000000d0: 82d1 56bd fa35 09be 44eb 213e c439 edbc
000000e0: 41f6 183e af7c 83bd 1ba2 8fbe 7737 8ebd
000000f0: d990 dd3c d84a 90bd 0dbc 113d 36ad 723c
00000100: ce7e 3e3e 2cb8 523d b78f dcbb 2c62 133e
00000110: 5597 6ebc ae5a 30bd 17b5 49bc 7d5d 593e
00000120: 0cd6 573d 0953 b23d d269 8dbd bdf5 9d3b
00000130: 4d9a 8e3d 1153 763b ab15 8a3d 27b7 483d
00000140: fe09 b63d c9cb 66bd 4342 5abd 386f c73c
00000150: 47fd ce3d 52eb 60bd 235f 703d 0c78 f2bd
00000160: d4f6 8b3c cf0f 853d 90a2 d33c 13ca 23bd
00000170: eff6 f2bc f20e 133d 764c 05be 2de2 1f3e
00000180: 56a3 0f3e 2be5 d43c cd55 0f3e 043a 19b9
00000190: 1bba a5bd 657f 93bd 1a8c 03be 522f bd3d
000001a0: 81e0 cfbc dae4 b13d 6f44 033d 1a56 0b3e
000001b0: 5a67 87bd 62b3 263e ce09 43bc e596 3c3d
000001c0: 452b 603b a6f6 05be 2cb7 193e 05c9 0e3c
000001d0: 6f20 b3bc ba73 dd3d cdc7 093e a5a9 da3c
000001e0: d261 fd3d 2269 5b3e 633f edbd 7072 26bc
000001f0: 0552 003d 8938 dcbc 6076 b43d 77de 5e3d
00000200: 2efd 00bc 2c35 2c3e 60bd 8e3d f92f 593c
00000210: d0ae bc3c d87f 5bbe 4e86 5dbc 668c a5bd
00000220: 7795 dd3d 8b19 5d3c bfa5 b93d 2d7c b0bb
00000230: 39ab b8bd 7c44 233e 3fea ae3d 9462 b83d
00000240: c60b b6bd 1010 a2bd e23c 963c 6c2e 3a3e
00000250: fe47 78bd 38a4 88bc b8f8 95bd 41ee 253b
00000260: b48e 0c3e c91a 33be 34eb 95bd da78 b4bb
00000270: f0dc e53d df6f 173e 054a a5bc 641c 243d
00000280: 327b ba3d eae7 c83c aab7 253d c26e 16be
00000290: 448b 18bd 30d6 b53d a0b4 b3bb 3110 a1bc
000002a0: 40ac f93d e13b 0cbe 3e90 36bd e5be 023c
000002b0: 8457 97bd 86c1 3f3d 1b39 c2bd 966c 543c
000002c0: 8961 14bd 691a 1b3e 12dc b33d efa2 c73d
000002d0: 7260 303d d18a 713d 161d 99bd edaa 09be
000002e0: 99a9 82bd 180e ac3d 02a1 bf3d 2d2e 9d3d
000002f0: 6059 92bb 4ae4 153d d91e 2fbe 2f84 f03d
00000300: d438 81bd 4f1c c33d f62a 99bd df11 c9bd
00000310: f4d9 e5bd 8f6f c7bd f130 2a3d 13b1 8fbd
00000320: ffac d33d 3cbe 06be aebf bdbc 5206 af3d
00000330: f0a6 02be d3e1 b53b 1718 97bd 3478 0dbd
00000340: 7c55 cbbd dfbf 1fbd 1fff 8d3c 5625 813d
00000350: 05ed 0b3e c216 d93c 1a86 00be f532 983d
00000360: 647d 933d 67ed 543d 1a28 84bc 7ebe 0bbd
00000370: 93b4 a53d 7069 813d e07e 59be 8703 123e
00000380: 480d 08bd 9c25 f63d 98c9 c03b e90c b2bd
00000390: b41f e23b beaa b73d 0d99 00bb ec0f 15bd
000003a0: c74e e13d 09fd 54b9 662e e3bd 8508 9a3c
000003b0: 522b a2bd 0297 a1bd 4cb8 ba3d c870 c33c
000003c0: 69f3 40bd 532e 5dbc c61c af3d 0f2d 0bbc
000003d0: 98aa af3d 4abd 4abd 4a44 ff3d b30f 0dbd
000003e0: 1467 cdbc 3c06 6a3d e803 663d 2304 253d
000003f0: 1a41 f93b 604f d1bd 007a 7fbd 5eeb 733d
-0.009085948 0.10053625 -0.038186774 -0.009271323 0.121212736 -0.11935365 0.015312245 0.10068298
-0.076797254 -0.008923992 0.04984121 -0.095996976 -0.13364646 -0.12486774 0.091940574 -0.05549984
0.027005248 -0.014736696 -0.06811212 -0.109698616 -0.00021444574 -0.058731966 0.08753411 -0.0368056
-0.03164051 -0.08871624 -0.06775203 0.012792973 0.021210907 -0.058305193 0.04823101 0.07236671
-0.13458286 0.059620775 0.06792968 0.01751677 0.0444542 0.0082707675 0.025673201 -0.12445569
-0.11127074 -0.0013505176 0.027645297 0.05564116 -0.08362304 0.08360078 -0.047358494 0.079770625
-0.07796143 -0.05102985 -0.19314566 -0.005316265 -0.052445896 -0.13399497 0.15812403 -0.028958209
0.14937688 -0.06420266 -0.28053364 -0.06944173 0.027046608 -0.07045525 0.03557973 0.0148118045
0.1860306 0.05144517 -0.0067309993 0.14392918 -0.014562448 -0.04305523 -0.012311242 0.21227069
0.052694365 0.08707244 -0.06904949 0.004820554 0.06963024 0.0037586133 0.06742414 0.049002793
0.088886246 -0.05634669 -0.05328585 0.024345025 0.101069026 -0.05491192 0.05868448 -0.118393034
0.01708547 0.06497156 0.025834352 -0.039987635 -0.029658763 0.035902925 -0.13017449 0.15613623
0.14027151 0.025988182 0.13997574 -0.0001461283 -0.080921374 -0.07202033 -0.12846413 0.09237541
-0.025375606 0.08686228 0.032047685 0.13607064 -0.066115096 0.16279367 -0.011904193 0.04604234
0.0034205478 -0.1308237 0.15011281 0.008714919 -0.021866051 0.10813089 0.13455124 0.026692221
0.12372173 0.21426824 -0.11584356 -0.01015912 0.03132822 -0.026882427 0.08811641 0.054411378
-0.007872863 0.16817158 0.06969714 0.0132560665 0.023032576 -0.21435487 -0.01352079 -0.080834195
0.10819524 0.013494859 0.09064817 -0.0053858967 -0.09017033 0.15944093 0.08540773 0.09003177
-0.08888964 -0.0791322 0.018339578 0.18181771 -0.060615532 -0.016679868 -0.0732283 0.0025319012
0.13726312 -0.17490686 -0.07320252 -0.0055075707 0.11223781 0.14788769 -0.020176897 0.040066138
0.09105529 0.024524648 0.04045836 -0.14690688 -0.03724219 0.08878744 -0.0054841787 -0.019661041
0.12191057 -0.13694717 -0.044571154 0.007980083 -0.07389739 0.046815418 -0.09483548 0.012965342
-0.03622583 0.15146793 0.087822095 0.09747874 0.043060727 0.058970276 -0.07476251 -0.1344411
-0.063800044 0.08401126 0.09356882 0.07674823 -0.0044662207 0.036594667 -0.17101611 0.11743962
-0.06309667 0.09526884 -0.07478897 -0.09817862 -0.11223212 -0.09738075 0.04155058 -0.07016196
0.10335731 -0.13158506 -0.023162689 0.085461274 -0.12758994 0.005550602 -0.07377642 -0.034538463
-0.09928414 -0.039001342 0.017333565 0.063059494 0.13664635 0.02650011 -0.12551156 0.07431594
0.07201651 0.051984217 -0.016132403 -0.034117214 0.080910824 0.06318939 -0.21239805 0.14259158
-0.03321579 0.12018892 0.005883407 -0.08693869 0.006900752 0.08968113 -0.0019622475 -0.036392137
0.11001354 -0.00020312158 -0.11092834 0.01880289 -0.07918419 -0.078901306 0.09117183 0.02385749
-0.047107134 -0.013499814 0.0855041 -0.0084946295 0.0857746 -0.049496926 0.12464197 -0.0344388
-0.025073566 0.05713485 0.05615607 0.04028715 0.0076066377 -0.10220218 -0.062372208 0.059550636

bottleneck.4.weight f4 [32]
00000000: 4f01 833f 332d 853f bee7 823f cfac 7f3f
00000010: 8d45 873f 4fd6 823f 5322 823f 7b1b 843f
00000020: 1301 843f 8b74 813f a7b8 823f 8420 7c3f
00000030: c26e 803f 67f9 823f 4030 813f b193 7e3f
00000040: 0b92 853f a742 7d3f 81cc 813f d203 853f
00000050: 357a 833f a324 813f 54ac 803f b94c 823f
00000060: f385 7a3f 07ee 7b3f 3192 823f ce73 863f
00000070: 0ac3 813f 62d0 7a3f 24d5 813f ee0a 7c3f
1.0234774 1.0404419 1.0226972 0.9987306 1.05681 1.0221652 1.0166725 1.0320886
1.0312828 1.0113691 1.0212601 0.98487115 1.0033801 1.0232362 1.009285 0.9944411
1.0435194 0.9892983 1.0140535 1.0391791 1.027167 1.0089306 1.005259 1.0179664
0.9786064 0.98410076 1.0200864 1.0504091 1.0137646 0.97974217 1.014317 0.9845418

bottleneck.4.bias f4 [32]
00000000: 87b6 b5bc e0d0 e83c e455 bf3c 13be bd3c
00000010: ba87 e73a 0d9b 6b3c 25a5 e73b 6c1d 7dbc
00000020: 537f 663c 5376 00bd b988 95bc 1901 b2bc
00000030: ebba 053b 3fb7 f2bc bb82 a7ba c3c8 19bc
00000040: b965 bfbc b84d 90bc c29e 94bc a7c8 b63c
00000050: d8cc 223d 6974 b03b 7588 acbb f784 08bd
00000060: 4e63 8bbc 6355 3bbd 5f87 54bd df86 c03c
00000070: 1853 253b 2518 ecbc 856c 0c3d c97f c5b9
-0.022181762 0.028419912 0.023356386 0.023161924 0.0017664351 0.014380229 0.0070692473 -0.015448909
0.014068442 -0.031362843 -0.018253671 -0.021729039 0.0020405601 -0.029628394 -0.001278005 -0.009386244
-0.023363935 -0.017615184 -0.018142108 0.022312475 0.039746135 0.005384971 -0.0052652904 -0.03332993
-0.017015126 -0.045735728 -0.051886912 0.023501812 0.002522653 -0.028820107 0.03428318 -0.00037669975

bottleneck.4.running_mean f4 [32]
00000000: d483 ee3e d78d 2fbf 49e4 a8be 9762 debd
00000010: 4c44 e63e 292b 97bd 0a3a 9fbe 6212 bc3e
00000020: e922 85be f77e 163d 572d ee3d d38c 51bf
00000030: 4677 eebd 8768 473e ac5c f13e a7b0 453d
00000040: e1c2 183f 0aec d0bd af64 263e 259e 143e
00000050: 626a 1abf f5ed 573f c554 9b3e 96a1 e03e
00000060: 9929 3fbe c8d2 a43b 6eb1 5a3d 9c56 88bf
00000070: 6d2f 0ebe c2e1 d5be 51a2 97bf f9c7 f93e
0.46584952 -0.68575805 -0.32986668 -0.10858648 0.4497398 -0.07381279 -0.31098968 0.36732775
-0.26003197 0.036742177 0.11629742 -0.81855506 -0.11643843 0.19473468 0.47141016 0.048264172
0.5967236 -0.10201271 0.16249345 0.14513452 -0.6031858 0.8434747 0.30338112 0.4387328
-0.18668212 0.00503001 0.053391866 -1.0651431 -0.13885279 -0.41773802 -1.184641 0.4878538

bottleneck.4.running_var f4 [32]
00000000: 0ad8 bb3f babd 3a3f f0ee b83f d217 3a3f
00000010: d915 d63f 0032 973f 3e28 0a3f 354f 1b3f
00000020: 6560 0740 6089 883f f024 3f3f 304e 0b40
00000030: 1e0e 8d3f b147 c53f e68c 923f 5466 853f
00000040: 3364 af3f b590 853f 6f1a 993f 7ee0 ac3f
00000050: 8585 0f40 9040 8c40 6b14 d93f c44d a23f
00000060: a536 843f b8a6 533f 6c39 813f 44d5 3d3f
00000070: 1584 0640 9ea8 383f 13b7 8c40 bba1 8b3f
1.4675305 0.7294575 1.4447918 0.72692597 1.6725417 1.1812134 0.53967655 0.60667735
2.1152585 1.0666924 0.7466574 2.1766472 1.1019933 1.5412503 1.1449249 1.0421853
1.3702453 1.0434786 1.1961192 1.350601 2.2425244 4.382881 1.6959356 1.2679982
1.0329176 0.8267627 1.0095649 0.7415354 2.1018116 0.7213229 4.397348 1.0908731
