experiments_multi/Brain_Tumor_Segmentation_Separate_Train_Val_20260206_163839/checkpoint_epoch_5.pth (torch, 141365 bytes, 56 tensors)

enc1.0.weight f4 [8, 4, 3, 3]
0	0xbbeed8e2	-0.007289038
1	0xbdd6931f	-0.1047728
2	0x3e662bb6	0.22477612
3	0xbda848db	-0.08217021
4	0xbdaa1895	-0.0830547
5	0xbdeead7d	-0.11654184
6	0x3e11d302	0.1424065
7	0x3c92e369	0.017930703
8	0xbcb32c6c	-0.021871768
9	0x3da147c5	0.07875017
10	0xbe136366	-0.14393386
11	0xbe1b479e	-0.15164039
12	0x3d5ae816	0.05344399
13	0x3e6af8b6	0.22946438
14	0x3e55aa57	0.2086576
15	0x3e7a4274	0.24439412
16	0x3e1f9841	0.15585424
17	0x3c413cc4	0.011794273
18	0x3e330c28	0.17485106
19	0x3e7c9123	0.2466474
20	0xbe52f915	-0.2060283
21	0x3e14688d	0.14493008
22	0xbddbb203	-0.107273124
23	0xbd4920f0	-0.049103677
24	0xbe76d974	-0.2410639
25	0x3cb4919a	0.022042084
26	0x3db1d40f	0.08683025
27	0x3ca05e08	0.019576088
28	0xbc8a22bd	-0.016862268
29	0x3dd8cd5f	0.105860464
30	0xbd769895	-0.060204107
31	0x3e7dd08b	0.24786584
32	0x3adb91e0	0.0016751848
33	0xbde82a62	-0.11336209
34	0xbd8a8316	-0.06763284
35	0xbe035dbf	-0.1282873
36	0xbe286c0e	-0.1644747
37	0xbc722259	-0.014778697
38	0x3dbff64f	0.093731515
39	0x3e1968c5	0.14981373
40	0x3dffd4f5	0.1249179
41	0x3ce4a8b2	0.027912471
42	0xbe91119c	-0.28333747
43	0x3ebbc515	0.366738
44	0xbdad4d8f	-0.08462059
45	0xbe821717	-0.2540824
46	0x3d58717e	0.05284261
47	0xbe862f1d	-0.2620782
48	0x3d21c4f9	0.03949449
49	0x3ea2aead	0.31773892
50	0x3dd0d5bf	0.10197019
51	0x3e2ada1e	0.16684768
52	0x3ee1d2a1	0.4410601
53	0xbea4595b	-0.32099423
54	0xbe198e60	-0.14995718
55	0x3d986c7d	0.074425675
56	0x3d2c9551	0.042134587
57	0xbe0efecb	-0.13964383
58	0xbe7fca4e	-0.24979517
59	0x3dd44f05	0.10366634
60	0xbde0c5d3	-0.10975232
61	0x3ef6b2dc	0.48183334
62	0xbb52f97b	-0.003219216
63	0x3e989563	0.29801473
64	0x3e3dfb51	0.18552901
65	0xbe113e12	-0.14183834
66	0xbdc4005a	-0.095703796
67	0x3dc0d7e3	0.09416177
68	0x3ea72b32	0.32650143
69	0x3dbf2d5e	0.09334825
70	0x3e1d0285	0.15332992
71	0xbdcb0bf5	-0.0991439
72	0x3e8e897e	0.27839273
73	0x3de40231	0.111332305
74	0x3e1aefd3	0.15130548
75	0x3ce7ff3f	0.028319953
76	0xbd3b882f	-0.04578417
77	0x3c798c03	0.015231135
78	0xbd0ac10a	-0.033875503
79	0x3ed85962	0.42255694
80	0xbd3162de	-0.043307178
81	0x3ecad61c	0.39616477
82	0x3e4760a1	0.19470455
83	0x3dbd9bf9	0.09258265
84	0x3e668f95	0.2251571
85	0x3b98a610	0.004658468
86	0x3e05977a	0.13046065
87	0xbe8d1d18	-0.2756126
88	0xbe1f56fa	-0.15560523
89	0x3ea2adf2	0.31773335
90	0xbe6e6b2f	-0.23283075
91	0xbe3352af	-0.1751201
92	0xbddce902	-0.1078663
93	0x3e974d0c	0.2955097
94	0x3e2e048c	0.16993922
95	0xbda11e5f	-0.07867121
96	0x3e70b5cf	0.23506854
97	0x3e49b881	0.19699289
98	0x3dbb108a	0.09134014
99	0xbe720f2b	-0.23638599
100	0x3e5f9607	0.21834575
101	0xbe16b891	-0.14718844
102	0xbd72a2bb	-0.059237223
103	0x3d1bb219	0.038011644
104	0xbda3bf43	-0.07995465
105	0xbd1a01db	-0.037599426
106	0xbe371b33	-0.1788147
107	0x3e27455b	0.16335051
108	0x3e5137ff	0.20431517
109	0xbd0f4a3f	-0.034982916
110	0xbcad2e68	-0.021140292
111	0xbed9b741	-0.42522624
112	0x3da29df0	0.079402804
113	0x3e2c2cad	0.16813917
114	0x3d4eebfb	0.050518017
115	0xbe190315	-0.14942582
116	0xbd9208d8	-0.07130593
117	0xbc81a214	-0.015824355
118	0xbda5940e	-0.0808488
119	0xbdbc3293	-0.09189334
120	0xbe263ea0	-0.16234827
121	0x3b7e4013	0.0038795515
122	0xbdc9b01a	-0.09848042
123	0xbcc1c926	-0.023655485
124	0x3e0dd24c	0.13849753
125	0xbd1a50d3	-0.037674736
126	0x3eab45c3	0.3345166
127	0x3e863fa9	0.26220444
128	0xbd215764	-0.039389983
129	0xbc2e8fd0	-0.010654405
130	0x3db30aa4	0.08742264
131	0xbe3585c2	-0.17726806
132	0x3e3735f6	0.17891678
133	0xbdc067c4	-0.09394792
134	0xbe1022df	-0.14075802
135	0xbd58abbf	-0.052898165
136	0xbcfa55a9	-0.030558424
137	0xbcb868cd	-0.02251091
138	0x3da2ef86	0.07955842
139	0x3dfb3d27	0.12267523
140	0xbd117deb	-0.035520475
141	0xbe20a6a3	-0.15688567
142	0x3d15d666	0.03658142
143	0xbd8e2079	-0.069397874
144	0x3e243a2b	0.16037814
145	0xbe50944e	-0.20369074
146	0x3eaad4bc	0.33365428
147	0xbe503717	-0.20333515
148	0xbe9659d3	-0.29365405
149	0xbe2649b2	-0.1623905
150	0x3ee6d361	0.45083144
151	0x3ef7af06	0.4837572
152	0x3ebb4225	0.36573902
153	0xbcbca85d	-0.0230295
154	0xbcdc855c	-0.02691906
155	0xbe136a77	-0.14396082
156	0x3d309604	0.043111816
157	0x3c140e6c	0.009036642
158	0x3c63097a	0.01385724
159	0xbc76ab3b	-0.015055473
160	0xbdb533b3	-0.088477515
161	0xbdf03263	-0.117283605
162	0xbda20810	-0.07911694
163	0xbe8cef6d	-0.27526417
164	0x3d460de8	0.048353106
165	0x3e0381d1	0.1284249
166	0x3d0389c3	0.0321138
167	0x3e96d8d3	0.294623
168	0x3d94d6bb	0.07267519
169	0x3e268038	0.16259849
170	0xbe8550ff	-0.26038358
171	0xbe26994a	-0.16269413
172	0xbe5e2927	-0.21695386
173	0xbd8bd41c	-0.06827566
174	0xbe4577dd	-0.19284005
175	0xbe0c79ab	-0.13718288
176	0xbd2eddb3	-0.042691898
177	0xbd949cff	-0.07256507
178	0x3d9324e6	0.07184772
179	0xbea5aff8	-0.32360816
180	0x3c6f748f	0.014615192
181	0x3a31643f	0.0006766952
182	0xbec2cbb6	-0.38046044
183	0x3e04e91b	0.12979548
184	0x3dd3bdab	0.10338911
185	0xbde7d0c5	-0.113191165
186	0xbdf581d4	-0.119876534
187	0xbdeb7a2f	-0.11497914
188	0xbe4e0022	-0.20117238
189	0x3e91e294	0.28493178
190	0x3d7726d6	0.06033977
191	0xbe7e0290	-0.24805665
192	0x3d6a2584	0.057164684
193	0xbd9cd1f3	-0.07657232
194	0x3e0c4988	0.13699925
195	0x3e13055a	0.1435751
196	0x3e69a068	0.22815096
197	0x3d593c56	0.053036056
198	0xbdd0186e	-0.101609096
199	0xbe498887	-0.19680987
200	0x3e62f6dc	0.22164482
201	0xbd89d688	-0.06730372
202	0xbdccb0b2	-0.099946395
203	0xbc8d9568	-0.017283157
204	0xbdf2f9df	-0.118640654
205	0x3c03a5d9	0.008035147
206	0xbe030877	-0.12796198
207	0xbe43b9ed	-0.19113894
208	0xbd9eee2c	-0.077602714
209	0x3db05f35	0.08611909
210	0x3dd2eafe	0.102987275
211	0x3cb2df3a	0.021834958
212	0xbe452e16	-0.19255862
213	0xbdd1e143	-0.102480434
214	0xbd52e2c0	-0.051485777
215	0x3c24b804	0.010053638
216	0xbec1c872	-0.3784824
217	0xbe005ebb	-0.12536137
218	0xbdaac5eb	-0.08338531
219	0xbe5e3056	-0.21698126
220	0xbe380513	-0.17970686
221	0xbd400b41	-0.046885733
222	0xbb351dfa	-0.0027636276
223	0xbcf32559	-0.029680895
224	0x3d38e3a7	0.04513898
225	0x3dc2ba04	0.09508136
226	0x3d05f8db	0.03270803
227	0x3ea4244c	0.32058942
228	0x3cc75266	0.024331283
229	0xbd564b7d	-0.052318085
230	0xbead24e2	-0.33817202
231	0x3e3b9809	0.18319716
232	0x3eb2b1e8	0.34901357
233	0xbbcc58d8	-0.006236177
234	0xbddcab7a	-0.10774894
235	0xbe9adcfe	-0.3024673
236	0x3ba97b15	0.005172143
237	0x3d9d0d59	0.076685615
238	0xbbc72e01	-0.006078482
239	0x3cdd03bd	0.026979322
240	0xbe8cb876	-0.27484483
241	0x3e16c522	0.14723638
242	0x3e17f1e2	0.14838365
243	0xbdea0846	-0.11427359
244	0xbdc9df5c	-0.098570555
245	0x3ea4e9f8	0.32209754
246	0x3dd4019e	0.10351871
247	0xbe7c0bc2	-0.2461386
248	0x3e8bb69b	0.27287754
249	0x3cadcace	0.021214869
250	0x3dd771dd	0.105197646
251	0x3d66eaf1	0.0563764
252	0x3db27316	0.08713357
253	0xbd995425	-0.074867524
254	0xbe71beae	-0.23607895
255	0xbec49bf7	-0.38400242

enc1.1.weight f4 [8]
0	0x3f821f84	1.0165868
1	0x3f80140b	1.0006117
2	0x3f7a705d	0.978277
3	0x3f7d51db	0.98953027
4	0x3f8312a6	1.0240066
5	0x3f80c44c	1.0059905
6	0x3f73eab0	0.9527998
7	0x3f817e00	1.0116577

enc1.1.bias f4 [8]
0	0x3c0efc37	0.008727125
1	0xbb0e6342	-0.0021726643
2	0x3b1aa18d	0.0023594827
3	0x3ab11271	0.0013509524
4	0xbc9c5dc4	-0.01908768
5	0xb8bcd9a2	-9.005076e-05
6	0x3c9203a1	0.017823996
7	0x3bf85c02	0.0075793276

enc1.1.running_mean f4 [8]
0	0x3e0cb699	0.1374153
1	0x3e6dadea	0.23210874
2	0x3eb63ff0	0.35595655
3	0xbd935eb7	-0.071958
4	0xbd479d8e	-0.04873424
5	0xbe10bc64	-0.14134365
6	0xbd613010	-0.054977477
7	0xbed6b59b	-0.4193543

enc1.1.running_var f4 [8]
0	0x3d626085	0.05526783
1	0x3e26f615	0.1630481
2	0x3eba7269	0.36415413
3	0x3ca3cbbb	0.019994607
4	0x3cbdc0ab	0.02316316
5	0x3d808548	0.062754214
6	0x3c660498	0.014039181
7	0x3f0230ec	0.508559

enc1.3.weight f4 [8, 8, 3, 3]
0	0x3e78b85d	0.24289079
1	0x3d1b564e	0.037924103
2	0x3c9eeb9a	0.019399453
3	0x3df32c60	0.11873698
4	0xbe2244d4	-0.15846568
5	0xbd0dd260	-0.034624457
6	0x3df25922	0.11833407
7	0xbdf64d79	-0.120264955
8	0xbd991e51	-0.074764855
9	0x3d5a4c57	0.05329546
10	0xbdb29452	-0.08719696
11	0xbe58251e	-0.21107909
12	0x3cc42f67	0.023948384
13	0xbe2f6c2e	-0.17131111
14	0x3dc379e6	0.09544735
15	0x3e0bebe6	0.13664207
16	0x3b06191c	0.0020461744
17	0xbe1025ee	-0.14076969
18	0x3d24c48f	0.040226515
19	0xbe1e9cfb	-0.15489571
20	0x3e6e8898	0.23294294
21	0x3d074cd5	0.033032257
22	0x3e1a9552	0.15096024
23	0xbd84f7b3	-0.064925574
24	0x3e3bcdad	0.18340178
25	0xbdcb7ad5	-0.09935538
26	0xbea66829	-0.32501343
27	0xbea29bd5	-0.31759515
28	0x3ea659b3	0.3249031
29	0x3e896c84	0.26840603
30	0xbc97d532	-0.018534277
31	0xbd9bff3c	-0.076170415
32	0x3d74cae4	0.059763804
33	0x3d7122e6	0.058871172
34	0xbd9660f6	-0.073427126
35	0x3dedbdd7	0.11608475
36	0xbd2f07ea	-0.042732157
37	0xbda12e88	-0.07870203
38	0xbd80f4b9	-0.06296677
39	0x3e314859	0.17312755
40	0x3dce6b52	0.100790635
41	0xbe51fe95	-0.20507272
42	0x3dc99d32	0.09844436
43	0x3d9de7e7	0.077102475
44	0x3e3e131b	0.18561976
45	0x3e8186ab	0.25298056
46	0x3d2ffed5	0.042967636
47	0x3e0bd6eb	0.13656203
48	0xbdfa8b60	-0.12233615
49	0x3a7ef801	0.00097262865
50	0xbd85937b	-0.0652227
51	0xbd604f1d	-0.05476295
52	0x3e45972a	0.19295946
53	0xbee9db6b	-0.45675215
54	0x3d8d6345	0.069037
55	0xbd49e786	-0.049293064
56	0xbe4890e8	-0.19586527
57	0xbc3d530b	-0.0115554435
58	0xbe7e6246	-0.24842176
59	0x3e3a3c0c	0.18186969
60	0x3e84e00e	0.2595219
61	0x3d01ecfd	0.03172015
62	0xbdf04e00	-0.11733627
63	0x3d720079	0.059082482
64	0x3cc78d3f	0.024359344
65	0x3cdfe224	0.027329512
66	0x3e4a1e8c	0.19738215
67	0xbd021a53	-0.031763386
68	0xbe2a54c9	-0.16633905
69	0xbe6b5e1d	-0.2298512
70	0xbe2d7eb0	-0.16942859
71	0xbd4f3ff3	-0.050598096
72	0x3dab4f9e	0.08364795
73	0xbdab2683	-0.08356955
74	0x3e66df2e	0.22546074
75	0xbce4901b	-0.027900746
76	0x3e8ff0d1	0.28113416
77	0xbd9b437b	-0.0758123
78	0x3d54f6d9	0.051993225
79	0xbe495d0b	-0.196644
80	0xbe2c4a23	-0.16825156
81	0x3e12bcb3	0.14329796
82	0xbd83dd1b	-0.06438657
83	0x3e33da02	0.17563632
84	0xbd6f1386	-0.05836823
85	0x3d51539d	0.05110513
86	0x3d9567ec	0.07295212
87	0x3e0d3748	0.1379062
88	0x3e272c58	0.1632551
89	0xbe83a6f6	-0.2571332
90	0xbe605b73	-0.21909885
91	0xbc47d93d	-0.01219779
92	0x3e0d6f1b	0.13811915
93	0x3eadbf45	0.3393499
94	0xbc620ebb	-0.013797457
95	0x3d0da3a8	0.034579903
96	0x3dac3e88	0.084103644
97	0xbe0cb2f5	-0.13740142
98	0xbe2553a2	-0.16145185
99	0xbc70ff7f	-0.0147093525
100	0x3d32d143	0.0436566
101	0xbd41fce6	-0.047360323
102	0xbe8b34a1	-0.2718859
103	0xbe13b353	-0.14423876
104	0xbdd2872e	-0.1027969
105	0xbea5480d	-0.32281533
106	0xbd5c46d4	-0.053778484
107	0x3d25daf3	0.04049201
108	0x3d836b3c	0.06416938
109	0xbe07bc5b	-0.13255446
110	0x3e0b11fc	0.13581079
111	0x3d1b930d	0.037982035
112	0xbcba6342	-0.022752408
113	0x3e80d063	0.25158986
114	0xbe0061e0	-0.12537336
115	0xbd29e446	-0.041477464
116	0xbe11ba77	-0.14231287
117	0xbe451db7	-0.19249617
118	0x3d857849	0.06517083
119	0xbe23fdaa	-0.16014734
120	0x3e6f0309	0.23341002
121	0x3cf37e32	0.02972326
122	0xbc6c8063	-0.014434907
123	0x3df3f547	0.11912017
124	0x3e92fb5c	0.28707397
125	0x3bd0d8de	0.006373509
126	0x3db43457	0.087990455
127	0x3d045d11	0.032315318
128	0x3ec41f63	0.38305196
129	0x3b25e7db	0.0025315199
130	0xbe738505	-0.23781212
131	0x3e694c6c	0.22783059
132	0x3c934626	0.017977785
133	0x3bbdfa1a	0.0057976367
134	0x3e54b111	0.2077067
135	0x3e2dd4c4	0.16975695
136	0x3e6b0d36	0.22954258
137	0xbe771978	-0.2413081
138	0xbdf3ab04	-0.11897853
139	0xbce64584	-0.02810932
140	0x3e286031	0.16442944
141	0xbd8d3bb0	-0.0689615
142	0x3d8e9c44	0.06963399
143	0xbec09847	-0.37616178
144	0x3d9c30f5	0.07626525
145	0xbcff92fe	-0.031198021
146	0x3d6ef54e	0.05833941
147	0xbe34bc3c	-0.1764993
148	0x3c78785a	0.015165413
149	0x3e3c473f	0.18386553
150	0x3e9adac9	0.30245045
151	0xbd55366a	-0.052053846
152	0x3ea043b5	0.31301656
153	0xbe3e8b3c	-0.18607801
154	0x3e207870	0.15670943
155	0x3c2c4f44	0.010516945
156	0xbe806143	-0.25074205
157	0xbecd59e9	-0.40107659
158	0x3decad1d	0.11556456
159	0xbde1e667	-0.11030274
160	0x3d768eb5	0.06019469
161	0x3de6b46b	0.11264881
162	0xbe0d584a	-0.13803211
163	0xbe0ae7c3	-0.13564973
164	0x3d028197	0.031861868
165	0x3e148bf8	0.14506519
166	0x3e0de241	0.1385584
167	0x3d87a8de	0.06624006
168	0xbde8d6f6	-0.113691255
169	0xbd2471ef	-0.040147718
170	0x3c8f221a	0.017472316
171	0x3e1e5c96	0.15465006
172	0x3d3c78f0	0.046013772
173	0xbda01894	-0.07817188
174	0x3c742351	0.014900998
175	0x3e1216e6	0.14266548
176	0xbdda407b	-0.1065683
177	0xbc5642c6	-0.013077443
178	0x3cfa6bbf	0.030568955
179	0xbe1dd850	-0.15414548
180	0x3d98eb07	0.07466703
181	0xbedfd17e	-0.43714517
182	0xbe9dd29a	-0.3082474
183	0x3e3a68c8	0.18204033
184	0x3dc65016	0.09683244
185	0x3e3b72c0	0.18305492
186	0x3ecb2908	0.39679742
187	0xbdbb1e6d	-0.09136663
188	0x3dd154c0	0.10221243
189	0x3e333fcd	0.17504807
190	0xbe48b60a	-0.19600692
191	0x3def037f	0.11670589
192	0xbe795654	-0.24349338
193	0x3e145a8c	0.14487666
194	0xbe497e85	-0.1967717
195	0xbe5b4c92	-0.21415928
196	0x3e003228	0.12519133
197	0xbda92e36	-0.08260767
198	0x3e227b4f	0.15867351
199	0x3d6438c1	0.055718187
200	0x3d1d9cf0	0.038479745
201	0x3d213470	0.03935665
202	0x3e003344	0.12519556
203	0x3e92fa2c	0.2870649
204	0xbe0a16e3	-0.13485293
205	0xbda984c0	-0.08277273
206	0x3d37f0c4	0.044907346
207	0xbd2255e3	-0.03963269
208	0x3e10c0d9	0.14136066
209	0xbd5cf85a	-0.053947784
210	0xbe8206ba	-0.25395757
211	0x3e389036	0.18023762
212	0xbe1f351a	-0.155476
213	0xbe07ffff	-0.13281249
214	0xbdb8c70d	-0.09022341
215	0x3c5cb2f6	0.013470402
216	0xbe1a7943	-0.1508532
217	0xbe53a71e	-0.20669219
218	0x3deaf0f7	0.11471742
219	0x3d356009	0.04428104
220	0xbe547cf2	-0.20750788
221	0x3e1e6775	0.15469153
222	0x3da35b94	0.079764515
223	0x3e66a120	0.22522402
224	0xbe7b4a34	-0.24540025
225	0xbd08c10a	-0.03338722
226	0xbce3efe3	-0.027824348
227	0x3e5a79f5	0.21335585
228	0x3e8128a4	0.2522632
229	0xbe53f818	-0.20700109
230	0xbe4b2bcf	-0.1984093
231	0xbcc683f3	-0.02423284
232	0xbe1cfe68	-0.15331423
233	0xbe84ba31	-0.25923303
234	0x3df5cd0d	0.12002001
235	0xbe5a6715	-0.21328385
236	0x3e0d4d7e	0.13799092
237	0xbe6383a4	-0.22218186
238	0x3d24120c	0.040056273
239	0x3e7edd99	0.2488922
240	0x3dec9813	0.11552443
241	0xbdd9eba9	-0.10640652
242	0xbe15065c	-0.14553207
243	0xbdfd4c5b	-0.12368079
244	0xbd9daf36	-0.076994345
245	0x3c106dc5	0.008815234
246	0x3c1967a3	0.009363088
247	0x3d1ab307	0.03776839
248	0xbb2c5219	-0.0026294051
249	0x3ccc2f4e	0.0249249
250	0x3e604f0e	0.21905157
251	0xbd8c5d71	-0.0685376
252	0xbe4533fb	-0.1925811
253	0xbe6109c3	-0.2197638
254	0xbebda8c6	-0.37042826
255	0xbecc3ca0	-0.39890003

enc1.4.weight f4 [8]
0	0x3f7c22a9	0.9849039
1	0x3f79e6b4	0.9761765
2	0x3f7a015a	0.9765831
3	0x3f801c40	1.0008621
4	0x3f7d77c5	0.9901088
5	0x3f7dc462	0.9912778
6	0x3f81c976	1.0139606
7	0x3f7fed51	0.9997149

enc1.4.bias f4 [8]
0	0x3aa6d7d3	0.0012729116
1	0xbc7d4b82	-0.015459897
2	0xbc052abb	-0.0081278635
3	0xba7d4417	-0.000966133
4	0xbcda0017	-0.026611371
5	0xbbc5ebaa	-0.0060400562
6	0x3c623178	0.01380574
7	0xbb054c2a	-0.0020339587

enc1.4.running_mean f4 [8]
0	0xbd87918e	-0.06619559
1	0x3e59d937	0.21274267
2	0x3cb72ff6	0.022361737
3	0xbf34ea3d	-0.7066992
4	0xbeea1522	-0.45719248
5	0xbeb04cc4	-0.34433568
6	0xbf671ce1	-0.9027844
7	0xbef2e30f	-0.47438857

enc1.4.running_var f4 [8]
0	0x3d6622dc	0.05618559
1	0x3e582b44	0.21110255
2	0x3e17de47	0.14830886
3	0x3ee0bc2e	0.4389357
4	0x3e0e5f60	0.1390357
5	0x3f263b4c	0.6493423
6	0x402a75dc	2.6634436
7	0x3eb2cead	0.34923306

enc2.0.weight f4 [16, 8, 3, 3]
0	0x3dbf2418	0.09333056
1	0xbd5d6476	-0.054050885
2	0xbc9c1cf1	-0.01905677
3	0xbd0d2316	-0.03445729
4	0x3e30862d	0.17238684
5	0xba56ec5f	-0.0008198674
6	0xbdd9b8e4	-0.10630968
7	0x3dc25193	0.09488215
8	0x3da9d6e0	0.08292937
9	0xbe692739	-0.22768869
10	0xbe562655	-0.2091306
11	0xbe3d5d81	-0.184927
12	0x3e30ab7b	0.17252915
13	0x3e115fb5	0.14196666
14	0xbd8a1629	-0.06742508
15	0xbd42bd88	-0.047544032
16	0xbd44a552	-0.048009224
17	0x3d0549f6	0.032541238
18	0xbdb12dac	-0.08651289
19	0xbca4343d	-0.02004444
20	0xbd895d51	-0.06707252
21	0x3d9e36c5	0.0772529
22	0xbd82f374	-0.06394091
23	0x3ddce1ca	0.10785253
24	0x3da77534	0.081766516
25	0xbce9f639	-0.02855979
26	0x3e5210b7	0.20514189
27	0xbd1d8a4f	-0.03846198
28	0x3d65fa3c	0.056146845
29	0xbdedd035	-0.11611978
30	0x3d660950	0.056161225
31	0xbd3bb046	-0.045822404
32	0x3e8a433e	0.27004427
33	0x3bf7a28a	0.007557218
34	0x3c3fe6ac	0.011712711
35	0x3e262062	0.1622329
36	0xbe2d5cda	-0.16929951
37	0x3c9d59f9	0.019207941
38	0x3cced3d4	0.025247492
39	0xbd816bab	-0.06319364
40	0xbe4d14ed	-0.20027514
41	0xbc0b7e18	-0.00851395
42	0xbe3edebc	-0.18639654
43	0xbe67dd2e	-0.22642967
44	0xbdbce589	-0.09223468
45	0x3b8077c0	0.0039205253
46	0x3d2e73c9	0.04259089
47	0xbe651957	-0.22372948
48	0x3e1917f8	0.1495055
49	0xbd16ce9b	-0.036818128
50	0x3baf225f	0.0053446735
51	0x3e5ac41f	0.21363877
52	0xbe4c4416	-0.19947848
53	0xbd46cb6a	-0.048533835
54	0x3e65ce4a	0.22441974
55	0xbca94e88	-0.02066733
56	0xbda7bf25	-0.08190755
57	0x3de02e36	0.10946314
58	0xbd85b5ab	-0.06528791
59	0xbd881052	-0.06643738
60	0xbbeecf8b	-0.0072879246
61	0xbe0863f0	-0.13319373
62	0xbdd842a9	-0.105595894
63	0xbd381e95	-0.04495104
64	0xbbe16538	-0.0068785213
65	0x3de430aa	0.111420944
66	0x3de60b29	0.112325974
67	0xbe00cf79	-0.12579145
68	0x3e8260a6	0.25464362
69	0x3db93ac3	0.09044411
70	0xbdde9301	-0.108678825
71	0xbdf0e88e	-0.11763106
72	0x3dcfdf33	0.10149994
73	0xbe6fabcb	-0.23405378
74	0x3e5eb473	0.21748523
75	0x3ba638b5	0.005072678
76	0xbe018488	-0.12648213
77	0x3eac0625	0.33598438
78	0xbb89692c	-0.0041934457
79	0x3d294dbb	0.041333895
80	0x3e0ccb79	0.13749494
81	0xbda62e88	-0.08114344
82	0x3d31004d	0.043213177
83	0xbcc097cd	-0.023509884
84	0xbcb645bd	-0.02225005
85	0x3de4288f	0.111405484
86	0xbd59662f	-0.053075965
87	0x3c4b6fca	0.012416789
88	0xbda6491e	-0.08119415
89	0x3881dd1e	6.1923856e-05
90	0xbe0279e2	-0.12741807
91	0xbd95ee98	-0.07320899
92	0x3d55219b	0.052034
93	0x3db9bd70	0.090693355
94	0xbcc36c87	-0.02385546
95	0xbb0c5cb4	-0.002141756
96	0xbc9a7148	-0.018852845
97	0x3cb2f269	0.021844106
98	0xbc6aacb2	-0.0143234
99	0x3e4515db	0.19246618
100	0x3d8489ce	0.06471597
101	0xbd5544d6	-0.0520676
102	0xbe03b16a	-0.12860647
103	0xbd1ee243	-0.03879
104	0x3e064448	0.13111985
105	0xbccf0945	-0.025272975
106	0xbe86fd7b	-0.26365265
107	0x3d8020ec	0.06256279
108	0xbde26ace	-0.110555276
109	0x3de5353f	0.111917965
110	0xbd070598	-0.03296432
111	0x3c900591	0.01758078
112	0x3dc71779	0.09721274
113	0x3d5cb865	0.05388679
114	0x3d2cb83c	0.042167887
115	0xbc3c4394	-0.011490721
116	0x3d817ec8	0.0632301
117	0x3d1dedf3	0.038557004
118	0xbd97e151	-0.074160226
119	0x3d6db496	0.05803355
120	0x3decf998	0.11571044
121	0x3e0144f4	0.1262396
122	0xbdf59e79	-0.11993117
123	0x3de2c490	0.110726476
124	0x3e0d08b1	0.13772847
125	0x3cf4a1cb	0.029862305
126	0xbdaefd07	-0.08544355
127	0xbe41571b	-0.18880884
128	0xbdc6d6c4	-0.09708932
129	0xbcea7e8e	-0.0286248
130	0x3d4812c0	0.048846006
131	0x3dda7518	0.10666865
132	0xbd94d15d	-0.072664954
133	0x3e345d44	0.17613703
134	0x3d754d70	0.059888303
135	0x3d7ade5c	0.061247215
136	0xbe2c6d29	-0.16838516
137	0x3d949a5c	0.07256004
138	0xbd93600a	-0.07196052
139	0x3c3e54c8	0.011616893
140	0x3d783e46	0.060606264
141	0xbdfa3010	-0.122161984
142	0x3af888d3	0.0018961675
143	0x3dd4f8c8	0.10399014
144	0x3d0db48b	0.034596007
145	0xbe6adc3a	-0.22935572
146	0x3e03342b	0.12812869
147	0xbdf9bc80	-0.12194157
148	0x3d37545b	0.044758182
149	0xbda5ec64	-0.081017286
150	0x3df4f0db	0.11960002
151	0xbc8fb6b2	-0.01754317
152	0x3df9fb09	0.12206084
153	0x3df4e374	0.11957446
154	0xbdaa38a3	-0.08311584
155	0x3cec12f9	0.02881764
156	0xbe29a88f	-0.16568206
157	0xbd503497	-0.050831404
158	0x3c77596c	0.015097003
159	0xbe13e3a6	-0.1444231
160	0xbd98722f	-0.07443654
161	0x3b958252	0.0045626545
162	0xbcb92792	-0.022601876
163	0x3e1e9f34	0.15490419
164	0xbcda7d1f	-0.02667099
165	0x3d574ea7	0.052565243
166	0x3e0a857d	0.13527484
167	0xbe279b27	-0.1636778
168	0x3dab4d57	0.08364361
169	0x3e087965	0.13327558
170	0x3de1370c	0.109968275
171	0xbdd3c123	-0.10339572
172	0x3e0569ad	0.13028593
173	0xbc6c688a	-0.014429221
174	0x3df9a764	0.1219013
175	0xbc82447a	-0.015901793
176	0x3c1c6c62	0.009547325
177	0xbe23f023	-0.16009574
178	0xbde7a6e2	-0.11311127
179	0x3e13f893	0.14450292
180	0xbd424879	-0.047432397
181	0xbd3ca5ee	-0.04605668
182	0xbc24e27c	-0.010063764
183	0x3dbb6bff	0.09151458
184	0x3e62fbdd	0.2216639
185	0x3d5ad3eb	0.053424757
186	0x3e0ae85c	0.135652
187	0x3d49728d	0.04918151
188	0xbdec3afd	-0.115346886
189	0x3dd814f4	0.105508715
190	0xbd79ace6	-0.060955904
191	0x3bd53128	0.006506104
192	0xbd6fd2f3	-0.058550786
193	0xbd5550ef	-0.052079137
194	0xbc1ef350	-0.009701565
195	0x3e001815	0.12509187
196	0xbe602ee9	-0.21892895
197	0xbde9c769	-0.114149876
198	0xbd463a00	-0.048395157
199	0xbda933c2	-0.08261825
200	0xbc50de78	-0.012748353
201	0xbdc0c391	-0.09412301
202	0x3bc4ac49	0.0060019833
203	0xbd38c336	-0.045108043
204	0x3d9bce05	0.076076545
205	0x3e04ee15	0.12981446
206	0x3d4ccaac	0.04999797
207	0xbdf4383b	-0.119247876
208	0x3dce3a9c	0.100697726
209	0x3cb86634	0.022509672
210	0xbd739d6c	-0.0594763
211	0xbd87f5e1	-0.066386946
212	0xbc4ab9b5	-0.012373378
213	0xbe359d77	-0.1773585
214	0x3d0c0375	0.034182984
215	0x3d132c24	0.035930768
216	0x3e035bf6	0.12828049
217	0x3eae29ce	0.3401627
218	0xbb40d31e	-0.002942271
219	0x3cd75278	0.026284441
220	0x3e0b1abb	0.13584416
221	0xbdb8c267	-0.09021454
222	0xbd36bcf8	-0.04461381
223	0x3dc44022	0.09582545
224	0xbdbd0ba1	-0.09230734
225	0xbd113207	-0.0354481
226	0x3dc77747	0.09739547
227	0xbe0bdeb1	-0.13659169
228	0xbd5f3bca	-0.05450038
229	0xbd0ebecf	-0.034849938
230	0xbdbe8223	-0.09302165
231	0x3d8b371e	0.06797622
232	0x3e146f31	0.14495541
233	0xbd957829	-0.07298309
234	0x3b4b7124	0.003104278
235	0xbe02adf4	-0.1276167
236	0xbe1883e1	-0.14894058
237	0x3d2ed432	0.042682834
238	0xbc91d020	-0.017799437
239	0x3dc5e951	0.09663642
240	0xbb89a556	-0.004200618
241	0x3d468e4e	0.048475556
242	0xbdc35061	-0.095368154
243	0x3df4350d	0.11924181
244	0xbe0275eb	-0.12740295
245	0xbdcc2873	-0.099686526
246	0x3d83a7b2	0.0642847
247	0xbe470f62	-0.19439462
248	0x3da30f1d	0.07961867
249	0x3e0274ff	0.12739943
250	0xbe072fe0	-0.13201857
251	0xbe186680	-0.1488285
252	0xbe12c1a5	-0.14331682
253	0x3d5c7573	0.053822946
254	0x3daceb77	0.08443349
255	0x3b88c09c	0.0041733515

enc2.1.weight f4 [16]
0	0x3f80c319	1.0059539
1	0x3f7dc0d3	0.9912235
2	0x3f807ec4	1.0038686
3	0x3f7f8ba4	0.9982245
4	0x3f7f6c8f	0.9977502
5	0x3f7e4048	0.99316835
6	0x3f785365	0.9700225
7	0x3f7fef16	0.9997419
8	0x3f818845	1.0119711
9	0x3f806d36	1.0033329
10	0x3f815c7d	1.010635
11	0x3f80d158	1.0063887
12	0x3f823a5c	1.017406
13	0x3f7e84e6	0.99421537
14	0x3f7e4a39	0.99332005
15	0x3f819f49	1.0126735

enc2.1.bias f4 [16]
0	0xbbf7d919	-0.007563722
1	0xbd2c4419	-0.04205713
2	0xbac1dd2d	-0.0014790647
3	0xbc7cfed3	-0.015441614
4	0xbb3c5c7d	-0.002874165
5	0x3c8cf84d	0.017208243
6	0xbd00f78f	-0.03148609
7	0x3c55b33a	0.013043219
8	0x3b1f122f	0.0024272313
9	0x3c9c647b	0.019090882
10	0x3cce30d3	0.025169766
11	0xbcc880d4	-0.024475493
12	0xbaeac730	-0.0017912146
13	0xb9af5488	-0.00033441582
14	0xbb014d04	-0.0019729743
15	0x3d0cd15e	0.034379356

enc2.1.running_mean f4 [16]
0	0xbe41c502	-0.18922809
1	0x3e80576d	0.250667
2	0xbdb2a44d	-0.08722744
3	0xbe154cfc	-0.14580148
4	0xbc70f037	-0.014705709
5	0xbda742c8	-0.081670344
6	0xbd6a7901	-0.057244305
7	0xbdbde9a0	-0.09273076
8	0x3f4e8cc6	0.80683553
9	0xbeaf6da0	-0.34263325
10	0x3f0919dd	0.5355509
11	0x3efb1d96	0.4904601
12	0x3eaaa60e	0.33329815
13	0x3eae6022	0.3405772
14	0x3bfaac6a	0.007649948
15	0x3e74a6ad	0.23891707

enc2.1.running_var f4 [16]
0	0x3f07daa3	0.5306799
1	0x3e8524d6	0.26004666
2	0x3e8d8c14	0.27645934
3	0x3e6ce74a	0.23135105
4	0x3ec55e61	0.38548568
5	0x3e867044	0.26257527
6	0x3e92fab8	0.28706908
7	0x3edb201c	0.42797935
8	0x3f0d76c6	0.5525936
9	0x3e9cf4e3	0.30655584
10	0x3fa27656	1.2692363
11	0x3eaaf542	0.33390242
12	0x3e9a60e8	0.3015206
13	0x3ecf0663	0.4043456
14	0x3e5e6606	0.21718606
15	0x3e7a7ed9	0.24462451

enc2.3.weight f4 [16, 16, 3, 3]
0	0x3e4869ca	0.19571605
1	0xbdd69a2a	-0.10478623
2	0x3acdda70	0.0015705358
3	0x3e94835b	0.29006466
4	0x3d462bc1	0.04838157
5	0x3e166d67	0.14690171
6	0x3e1beb63	0.15226512
7	0xbd246b2a	-0.040141262
8	0xbe26245d	-0.16224809
9	0xbda4c31a	-0.08045025
10	0xbce1d39e	-0.027566727
11	0xbd8462af	-0.06464135
12	0x3d331a71	0.04372639
13	0xbce03414	-0.027368583
14	0xbd603561	-0.054738406
15	0x3e439c7a	0.1910266
16	0xbd2ced3b	-0.042218428
17	0x3dbc6cee	0.09200464
18	0x3db5ea29	0.08882553
19	0x3db1d8a3	0.08683898
20	0x3d73e980	0.059548855
21	0x3e109c42	0.14122108
22	0x3e22fafd	0.15916057
23	0x3d834f2c	0.06411585
24	0x3c6e6f08	0.014552839
25	0xbdf0f799	-0.117659755
26	0xbdd9db8c	-0.10637578
27	0xbe0102ba	-0.12598696
28	0xbd839e1a	-0.0642664
29	0xbd34ccb1	-0.04414052
30	0xbc0c1e9d	-0.008552221
31	0xbaa50ac0	-0.0012591705
32	0xbd16b978	-0.03679797
33	0x3ce7a3fc	0.028276436
34	0xbe032153	-0.12805681
35	0x3d98582a	0.07438691
36	0x3c77bbf2	0.015120493
37	0xbe5bb6af	-0.21456407
38	0x3e430598	0.19045103
39	0xbde377fe	-0.11106871
40	0xbdc8c581	-0.09803296
41	0x3c61a6e9	0.013772705
42	0x3c2d2d60	0.0105699
43	0xbdb08e89	-0.086209364
44	0xbb158d62	-0.0022819866
45	0xbdf95444	-0.121742755
46	0x3e2e9361	0.17048408
47	0xbc4f61d8	-0.012657605
48	0xbd94e4e3	-0.07270219
49	0x3d8d3b70	0.068961024
50	0xbe6430e9	-0.22284283
51	0xbd3a1ded	-0.045438696
52	0x3dd417fb	0.103561364
53	0xbc44491b	-0.01198032
54	0xbdef0386	-0.11670594
55	0xbd9b1b84	-0.075736076
56	0x3e368359	0.17823543
57	0x3d1a96a8	0.037741333
58	0x3dfcd95e	0.12346147
59	0x3d083970	0.0332579
60	0x3b8eafac	0.004354438
61	0xbd87c746	-0.06629805
62	0x3d5a2bdd	0.053264488
63	0xbe2cd5d6	-0.16878447
64	0xbdea4af1	-0.11440075
65	0xbe743b3a	-0.23850718
66	0xbb6fcd87	-0.003659101
67	0xbda9e666	-0.08295898
68	0xbd9adb54	-0.07561365
69	0x3d8d793c	0.06907889
70	0xbd9ac0a3	-0.07556274
71	0xbda85f00	-0.08221245
72	0x3e72374b	0.23653905
73	0x3e123ce3	0.14281039
74	0xbd3628ef	-0.04447263
75	0x3e1fc42d	0.15602179
76	0xbdb71a2b	-0.08940538
77	0x3c473982	0.012159707
78	0x3dd05762	0.10172917
79	0xbdb9f972	-0.09080781
80	0x3e029171	0.12750794
81	0x3e85ac00	0.26107788
82	0xbdd129f6	-0.102130815
83	0xbda17cab	-0.07885107
84	0x3da157eb	0.07878097
85	0x3d854f1d	0.0650923
86	0x3de72fdd	0.11288426
87	0x3e5b5c68	0.21421969
88	0xbc171b49	-0.009222814
89	0x3bb73a22	0.005591647
90	0xbdf63ae0	-0.12022948
91	0x3e363545	0.17793758
92	0xbd2b9357	-0.04188856
93	0xbd8f7940	-0.070055485
94	0xbb7d58ce	-0.0038657668
95	0xbdbd0769	-0.09229929
96	0x3d66d5b3	0.056356143
97	0xbd8dbe3a	-0.069210485
98	0xbd9d00d6	-0.07666175
99	0x3e3ee6eb	0.18642776
100	0xbd96ef77	-0.07369893
101	0x3e0702a3	0.131846
102	0xbcaf9bcf	-0.0214366
103	0x3e310278	0.17286098
104	0x3dd532a2	0.10410048
105	0xbe06054e	-0.13087961
106	0x3e144dfa	0.1448287
107	0x3dde7eee	0.10864054
108	0x3df2e404	0.11859897
109	0x3e89fdea	0.26951534
110	0x3e1cf45b	0.15327589
111	0xbd203371	-0.03911156
112	0x3e405352	0.18781784
113	0x3ddc2f69	0.1075123
114	0x3d8fdc91	0.070244916
115	0xbddcc951	-0.107805856
116	0x3d27cd6e	0.040967397
117	0x3de921a8	0.113833725
118	0xbd88d5b7	-0.06681388
119	0x3db8eddf	0.09029745
120	0xbd6a4a3c	-0.0571997
121	0xbd73d3ae	-0.059528045
122	0xbdc4d7e0	-0.096114874
123	0x3d069b41	0.032862905
124	0xbdbbda41	-0.09172488
125	0x3e15f168	0.1464287
126	0x3ccbed49	0.02489342
127	0x3e565946	0.20932493
128	0xbdae240f	-0.085029714
129	0xbc82651c	-0.015917353
130	0xbdf56ed7	-0.11984032
131	0x3e5fdf29	0.21862473
132	0xbe83877d	-0.25689307
133	0xbc91dc3a	-0.017805208
134	0xbd7fdcb1	-0.062466327
135	0x3d847eee	0.064695224
136	0xbda3ce3b	-0.0799832
137	0x3d3e7cce	0.04650574
138	0x3e187593	0.14888601
139	0xbe32e0ea	-0.1746861
140	0xbd1c1265	-0.03810348
141	0xbc397a2b	-0.011320631
142	0xbd9e51ad	-0.07730422
143	0xbd9678a9	-0.07347233
144	0xbd597b3e	-0.05309605
145	0x3cc518c3	0.024059659
146	0x3d82279c	0.06355211
147	0x3dbe9067	0.09304886
148	0x3e7d1594	0.24715263
149	0xbd965513	-0.07340445
150	0xbe072631	-0.13198163
151	0x3cdc4109	0.02688648
152	0xb9a6b38f	-0.0003179577
153	0xbe13cdd8	-0.14433992
154	0xbbc4a90d	-0.0060015977
155	0xbe713018	-0.23553503
156	0xbe1f9686	-0.15584764
157	0xbc60b998	-0.013716124
158	0x3e45663f	0.19277285
159	0xbab5f68f	-0.0013882684
160	0x3c8d45bd	0.017245168
161	0xbbc7081c	-0.0060739648
162	0x3cadf943	0.021237021
163	0xbdc4c0e3	-0.09607103
164	0xbe524160	-0.20532751
165	0x3d688d41	0.056775335
166	0xbde87654	-0.11350694
167	0xbe42d9ee	-0.19028446
168	0xbdb2acf8	-0.087243974
169	0xbdc204c1	-0.09473563
170	0x3ca34509	0.01993038
171	0xbc65f93c	-0.014036473
172	0x3d225586	0.039632343
173	0x3e029e21	0.12755634
174	0x3dacfa32	0.084461585
175	0xbd5100ee	-0.051026277
176	0x3dae9b29	0.08525688
177	0xbe0bf434	-0.13667375
178	0x3d08e5a3	0.033422124
179	0x3d4a77b1	0.049430553
180	0x3e1d79c8	0.15378487
181	0x3c5543fe	0.013016699
182	0xbe91417f	-0.28370282
183	0x3dc9b868	0.09849626
184	0x3d893ad9	0.067006774
185	0x3b4f9ba7	0.003167847
186	0x3cc1f523	0.02367646
187	0x3c34aa9e	0.011027006
188	0x3de9a002	0.11407472
189	0x3cba03cc	0.022706889
190	0x3de3ec04	0.11129001
191	0xbd635d8c	-0.055509135
192	0x3b9c08c8	0.004761789
193	0xbc1ce683	-0.009576443
194	0x3d23b259	0.039965007
195	0x3cca0e72	0.024665091
196	0xbcb86b2b	-0.02251204
197	0xbdb12841	-0.08650256
198	0x3c98f78f	0.018672733
199	0x3d3b9c6c	0.045803472
200	0x3d516b4b	0.051127713
201	0x3c619091	0.0137673775
202	0xbde6719b	-0.11252137
203	0xbd8d5e74	-0.06902781
204	0xbca19695	-0.019725123
205	0xb95b6137	-0.00020921683
206	0x3d9fc92a	0.07802041
207	0x3e518045	0.20459087
208	0xbc6ab845	-0.01432616
209	0x3e23e41d	0.16004987
210	0x3e32023f	0.1738367
211	0x3d052f7e	0.032515995
212	0xbe2d6472	-0.16932848
213	0x3d990c81	0.07473088
214	0x3cecd670	0.028910846
215	0x3e0bec98	0.13664472
216	0xbe3d1171	-0.18463685
217	0xbd498d8c	-0.049207255
218	0x3c60eb78	0.013728015
219	0x3e1ad0ff	0.15118788
220	0xbe0243ae	-0.1272113
221	0x3c50bd46	0.012740439
222	0x3e1e2e91	0.15447451
223	0xbd223114	-0.039597586
224	0xbe3b0e22	-0.1826711
225	0x3e34bae8	0.17649424
226	0xbd1308e9	-0.03589717
227	0xbdce538c	-0.10074529
228	0x3e798e15	0.24370606
229	0xbe2c6947	-0.16837035
230	0x3e958616	0.29203862
231	0x3e645a61	0.22300102
232	0xbdae6888	-0.085160315
233	0xbcb58d3d	-0.022162074
234	0x3da41e46	0.08013587
235	0x3e02f66b	0.12789313
236	0xbdf4d061	-0.119538076
237	0x3e597622	0.2123647
238	0xbe22019d	-0.15820928
239	0xbc6baedf	-0.014384954
240	0xbe22ba45	-0.15891369
241	0xbd0ef9b4	-0.034906104
242	0x3b2d77be	0.0026469077
243	0x3e179177	0.14801584
244	0x3dd408c9	0.10353238
245	0xbdcec34c	-0.10095844
246	0x3d4982a3	0.04919685
247	0xbd8139a6	-0.06309824
248	0x3e33d682	0.17562297
249	0xbdd85b5b	-0.105643
250	0x3da22be8	0.07918531
251	0xbda8d15b	-0.082430564
252	0xbb48895d	-0.0030599453
253	0xbd994508	-0.0748387
254	0xbdad8b35	-0.08473817
255	0xbe007676	-0.1254519

enc2.4.weight f4 [16]
0	0x3f82cb97	1.0218381
1	0x3f7cbefd	0.98728925
2	0x3f7e503c	0.9934118
3	0x3f826f75	1.0190264
4	0x3f7ea2fb	0.9946744
5	0x3f7bd066	0.98364866
6	0x3f7bd153	0.9836628
7	0x3f7ef4c3	0.99592227
8	0x3f7ad6a5	0.9798377
9	0x3f7e6227	0.9936852
10	0x3f7d7490	0.99005985
11	0x3f7a848a	0.9785849
12	0x3f7cca4f	0.987462
13	0x3f82c3bd	1.0215985
14	0x3f7fc77b	0.9991376
15	0x3f8137cd	1.0095154

enc2.4.bias f4 [16]
0	0xbc464d43	-0.012103382
1	0xbb4aa961	-0.0030923712
2	0xbc436913	-0.011926907
3	0x3bd608ba	0.006531802
4	0xbd072f40	-0.033004045
5	0xbcbedaa3	-0.023297613
6	0xbca48f34	-0.020087816
7	0xbb7dc435	-0.0038721685
8	0x3bb006d3	0.0053719073
9	0xbcfc991e	-0.03083473
10	0xbd56e9f0	-0.052469194
11	0xbbc05bbf	-0.005870312
12	0xbc9f8169	-0.019470887
13	0x3cfe77e4	0.031063028
14	0x3ceda43c	0.029008977
15	0x3a33e4f2	0.00068624236

enc2.4.running_mean f4 [16]
0	0x3edd6ad6	0.43245572
1	0x3e3e50e2	0.18585542
2	0xbcee6831	-0.029102417
3	0x3d027bf1	0.03185648
4	0x3eb7250c	0.35770452
5	0x3f01dd97	0.50728744
6	0x3f0cd845	0.550175
7	0xbf0cb64b	-0.54965657
8	0xbf0e9a4e	-0.557042
9	0x3c2fd7e9	0.010732629
10	0x3f4daa2f	0.80337805
11	0xbf0ee943	-0.5582468
12	0x3dea84b0	0.114510894
13	0xbf42c659	-0.76083905
14	0xbee0c926	-0.43903464
15	0xbb95f131	-0.0045758714

enc2.4.running_var f4 [16]
0	0x40044cd6	2.0671897
1	0x3f4097f9	0.7523189
2	0x3f231165	0.63698417
3	0x3f69f1a9	0.9138437
4	0x3fa8478d	1.3146836
5	0x3f9a7b44	1.2068868
6	0x3f907a20	1.128727
7	0x403e8b14	2.9772387
8	0x3f24ab0b	0.6432349
9	0x3f67a87a	0.9049145
10	0x405c6d6d	3.4441788
11	0x3f911ebd	1.1337506
12	0x3f43577f	0.76305383
13	0x3f60e612	0.8785106
14	0x3f1a272b	0.60216016
15	0x3f584b88	0.8449025

bottleneck.0.weight f4 [32, 16, 3, 3]
0	0xbe3c694e	-0.18399546
1	0x3d3d1fa7	0.046172764
2	0xbc88fac0	-0.01672113
3	0xbd299578	-0.04140231
4	0x3d289af1	0.04116339
5	0xbd78b297	-0.06071719
6	0xbd9f69b9	-0.07783837
7	0x3c36cbb7	0.011156968
8	0xbd44dd04	-0.04806234
9	0xbb344334	-0.0027505876
10	0xbc27ed6d	-0.010249478
11	0xbcc70392	-0.024293695
12	0xbd4560b2	-0.04818792
13	0x3c8633ea	0.016382176
14	0x3e41fd47	0.18944274
15	0x3e1bc24d	0.15210839
16	0xbe3aaace	-0.1822922
17	0xbd100e0a	-0.03516964
18	0xbd5aaca3	-0.053387295
19	0xbca4ce6b	-0.020117959
20	0x3d9dedbf	0.07711362
21	0x3d4ba069	0.049713526
22	0xbdfda30e	-0.12384616
23	0xbd946c91	-0.0724727
24	0xbd2f0f85	-0.04273941
25	0xbd5e7050	-0.05430633
26	0xbc633b3e	-0.013869105
27	0x3dc830a4	0.097749025
28	0x3dd64870	0.10463035
29	0x3d8e2d80	0.06942272
30	0x3d6a97d6	0.05727371
31	0x3d13d8da	0.036095478
32	0xbdcb529f	-0.09927868
33	0xbd013b15	-0.031550486
34	0x3d8e2423	0.06940486
35	0x3cd11b48	0.025525704
36	0x3d1d3bd4	0.038387135
37	0x3cbe56b3	0.0232347
38	0x3de2ad12	0.11068167
39	0xbc974cc6	-0.018469226
40	0x3d4b981f	0.04970562
41	0xbd351989	-0.044213805
42	0xbd9063fe	-0.07050322
43	0x3daab291	0.0833484
44	0xbdf2bcb0	-0.118523955
45	0x3dce738c	0.100806326
46	0xbd69a055	-0.05703767
47	0x3d2a6f20	0.041609883
48	0x3ce3a9b2	0.027790878
49	0xbd241cfd	-0.040066708
50	0x3c4346de	0.0119187515
51	0xbd590516	-0.052983366
52	0xbdd988d9	-0.10621805
53	0xbc9e43cb	-0.019319436
54	0x3de53538	0.11191791
55	0x3d6b7b4f	0.057490643
56	0xbd1868e0	-0.03720939
57	0xbd87d8c8	-0.066331446
58	0xbe00034e	-0.1250126
59	0xbdc4f478	-0.09616941
60	0xbd6e79f6	-0.05822178
61	0x3b1c374b	0.0023836668
62	0xbd9a4d3c	-0.075342625
63	0x3c3e767f	0.011624931
64	0xbdf88b19	-0.12135906
65	0xbe0dec53	-0.13859682
66	0xbdd998c3	-0.1062484
67	0xbdaa61e9	-0.08319456
68	0x3da4ff1b	0.0805647
69	0xbdb27177	-0.08713048
70	0xbc2d69d4	-0.010584313
71	0x3dde0092	0.108399525
72	0x3d9e799c	0.07738039
73	0x3dab2415	0.083564915
74	0x3e0db8e7	0.13840066
75	0xbba04626	-0.004891175
76	0x3e069371	0.13142182
77	0xbd40edd7	-0.04710182
78	0xbe2beb7e	-0.16789052
79	0x3d634c4b	0.05549268
80	0xbd191995	-0.037377913
81	0xbc43f344	-0.0119598545
82	0x3dc25ebc	0.094907254
83	0x3dab15c3	0.0835376
84	0x3cde056a	0.027102191
85	0x3dd862df	0.10565733
86	0x3db8f1fd	0.090305306
87	0x3d795bd7	0.0608786
88	0xbd1108b4	-0.03540869
89	0xbda4bcf3	-0.08043852
90	0x3de65106	0.11245923
91	0x3e100cc4	0.1406737
92	0x3bc211f2	0.0059225494
93	0x3e3a180f	0.1817324
94	0x3e5bca9c	0.21464008
95	0xbbbacc66	-0.0057006357
96	0x3acd9a68	0.0015686275
97	0xbe095f7d	-0.13415332
98	0x3c821ad5	0.015881935
99	0x3b683009	0.0035429022
100	0xbcf5b93f	-0.029995559
101	0x3dbdb658	0.09263295
102	0xbd8ed610	-0.06974423
103	0x3ddfa2e3	0.1091974
104	0xbc213174	-0.009838451
105	0xbd930472	-0.07178582
106	0xbd06d46c	-0.032917425
107	0xbd989bb7	-0.07451575
108	0xbde30e4b	-0.110867105
109	0x3e45367b	0.19259064
110	0xbdbf7303	-0.093481086
111	0xbdaed25a	-0.08536215
112	0x3bf75f02	0.0075491676
113	0x3da2ad05	0.07943157
114	0xbd6d13d4	-0.057880238
115	0x3cdc9cf2	0.026930306
116	0x3d7106f8	0.058844537
117	0xbdc2210d	-0.0947896
118	0xbdbcdb89	-0.092215605
119	0x3d103b9e	0.035213105
120	0xbc9d4103	-0.019196039
121	0xbcbc38ef	-0.022976367
122	0x3d6190db	0.055069786
123	0xbd0216d0	-0.031760037
124	0x3de69d67	0.11260491
125	0x3df58299	0.119878
126	0xbd5a0bdf	-0.053233977
127	0x3d212741	0.039344076
128	0xbda2016d	-0.07910428
129	0xbd88fbf4	-0.06688681
130	0xbc72c961	-0.01481852
131	0x3d865f8b	0.06561192
132	0x3cd9beb9	0.026580201
133	0x3e80175f	0.2501783
134	0x3dc3a4ff	0.09552955
135	0x3db32261	0.08746792
136	0x3dc6cc1a	0.09706898
137	0x3b9e212e	0.0048257327
138	0xbd3f23ba	-0.04666493
139	0x3b0c6e3e	0.0021428014
140	0xbda96742	-0.08271648
141	0x3de7800a	0.113037184
142	0xbd8ea19f	-0.069644205
143	0xbe2d5f53	-0.16930895
144	0x3d6d2817	0.05789956
145	0x3d8ee967	0.06978112
146	0x3db0fc16	0.086418316
147	0x3cfac596	0.030611794
148	0xbdbe980a	-0.09306343
149	0xbdf6a75a	-0.120436385
150	0x3c95aaa4	0.018269844
151	0x3cedd919	0.029034184
152	0x3d69d4e2	0.057087786
153	0x3d9100df	0.07080244
154	0x3d6066dc	0.054785594
155	0x3d72ae94	0.059248522
156	0x3d431ee9	0.0476369
157	0x3d08e530	0.033421695
158	0xbd5431fa	-0.051805474
159	0x3d16cd34	0.03681679
160	0xbcfde8ff	-0.03099489
161	0x3d92d174	0.07168856
162	0xbc13b8a6	-0.009016192
163	0xbca1fe4a	-0.019774575
164	0xbbd978c6	-0.006636712
165	0xbd64c295	-0.05584963
166	0x3cd2d66a	0.025737006
167	0xbbc33a68	-0.0059578903
168	0x3d15328c	0.03642516
169	0x3d644241	0.055727247
170	0x3db5d0a9	0.088776894
171	0x3d391a88	0.045191318
172	0x3c9b624d	0.018967772
173	0x3b8ff880	0.004393637
174	0x3e32998e	0.17441389
175	0x3ae0d787	0.0017154076
176	0xbe04baf7	-0.12961946
177	0x3cdc479d	0.026889617
178	0xbc92ba9b	-0.017911246
179	0xbb579286	-0.0032893731
180	0x3e236d1b	0.15959589
181	0xbd0e8ab5	-0.03480025
182	0x3d660cd9	0.056164596
183	0xbd69a4a5	-0.057041783
184	0xbcb2e07b	-0.021835556
185	0xbbe33605	-0.00693393
186	0xbd9bbe3e	-0.07604645
187	0xbb227a65	-0.002479219
188	0x3d6b6da3	0.057477605
189	0x3df6bf26	0.120481774
190	0xbad4cc5a	-0.0016235218
191	0x3d8f577c	0.06999108
192	0xbdb2ce46	-0.0873075
193	0xbc8b9013	-0.017036473
194	0x3dc6149c	0.096719
195	0x3e0b26e1	0.1358905
196	0x3d28de78	0.041227788
197	0xbc4d5064	-0.012531374
198	0x3e2c8e4c	0.16851157
199	0x3d8512ca	0.06497724
200	0x3dee2a88	0.11629206
201	0xbdb69821	-0.08915735
202	0x3a7e1b74	0.0009693422
203	0x3d092c58	0.033489555
204	0xbb8cac4b	-0.004293
205	0x3da5dc91	0.0809871
206	0x3c09d3bc	0.008412298
207	0xbbd6f2e3	-0.006559716
208	0x3d6a05fd	0.057134617
209	0xbce9f1a7	-0.028557612
210	0xbdfa7df3	-0.12231054
211	0x3d0a3e8a	0.03375105
212	0x3da3b688	0.079937994
213	0xbdadf8dd	-0.084947325
214	0x3e0201fd	0.12696071
215	0xbd7a043c	-0.061039194
216	0x3b7edc61	0.003888868
217	0xbbcc5b3b	-0.0062364615
218	0x3db589aa	0.08864148
219	0x3e130343	0.14356713
220	0x3dc2d5ee	0.0951346
221	0x3d2df843	0.04247309
222	0xbdb69cdd	-0.08916638
223	0xbd782b7d	-0.06058835
224	0xbe1b98ab	-0.15194957
225	0xbd717cb7	-0.058956828
226	0x3d3c4d6c	0.045972273
227	0xbe0f72bc	-0.14008611
228	0xbd2a8ae2	-0.041636355
229	0xbda2301f	-0.079193346
230	0xbe2564dc	-0.16151756
231	0x3daa62c8	0.08319622
232	0x3e0e8e0d	0.13921376
233	0xbcedca24	-0.029027052
234	0x3d5fd6eb	0.05464832
235	0xbb4c537e	-0.0031177695
236	0x3d8911ff	0.066928856
237	0xbdb1b58b	-0.08677205
238	0xbdf006f5	-0.11720077
239	0x3d0bb481	0.03410769
240	0x3df92993	0.12166133
241	0x3d5263f8	0.05136487
242	0x3bc6cd5c	0.006066961
243	0x3d9f6fb1	0.07784975
244	0x3c58a1aa	0.0132221375
245	0xbdb208f1	-0.08693112
246	0x3e302672	0.17202166
247	0x3c50adac	0.012736719
248	0x3da7303c	0.08163497
249	0x3db691b0	0.089145064
250	0x3e001f78	0.12512004
251	0xbe1653f0	-0.14680457
252	0xbe2797d8	-0.16366518
253	0x3d9d1117	0.07669275
254	0x3d92e4d4	0.07172552
255	0x3e23d9a2	0.16000989

bottleneck.1.weight f4 [32]
0	0x3f80edba	1.0072548
1	0x3f80f8cb	1.0075926
2	0x3f80d754	1.0065713
3	0x3f7b1da6	0.98092115
4	0x3f805bd8	1.0028028
5	0x3f81fadd	1.0154682
6	0x3f804de6	1.0023773
7	0x3f82492c	1.017858
8	0x3f7a6d34	0.9782288
9	0x3f7c6349	0.98589
10	0x3f7db892	0.99109757
11	0x3f7d2980	0.9889145
12	0x3f8041cd	1.0020081
13	0x3f8262ec	1.0186439
14	0x3f8077ca	1.0036557
15	0x3f81c851	1.0139257
16	0x3f80a2fd	1.004974
17	0x3f7acb6a	0.97966635
18	0x3f79f1b9	0.97634465
19	0x3f829b45	1.0203635
20	0x3f76d61b	0.9642045
21	0x3f7e6212	0.99368393
22	0x3f8242b7	1.017661
23	0x3f7e52c8	0.99345064
24	0x3f7e59fa	0.99356043
25	0x3f7b5d27	0.98189014
26	0x3f7dc09e	0.99122036
27	0x3f81fdc9	1.0155574
28	0x3f80fdcf	1.0077456
29	0x3f7d9a89	0.99063927
30	0x3f842ad4	1.032557
31	0x3f7e2118	0.9926925

bottleneck.1.bias f4 [32]
0	0xb97cbd9c	-0.00024103228
1	0xbc9a49f9	-0.018834101
2	0x3c39fb27	0.011351383
3	0xbcd3c0d7	-0.02584879
4	0x3a99756d	0.0011707969
5	0x3c0b210a	0.008491764
6	0x3bf17285	0.007368388
7	0xba1bc058	-0.0005941442
8	0x3c0908e6	0.008363938
9	0xbc405fdb	-0.011741604
10	0xbce20f8f	-0.02759531
11	0xbcc753b8	-0.024331912
12	0x3c057d1f	0.008147507
13	0xba3708c0	-0.00069822
14	0xba893a3a	-0.0010469623
15	0x3c14a302	0.009072067
16	0x3ca41354	0.020028748
17	0xbc1589f9	-0.0091271335
18	0xbc1a9695	-0.009435316
19	0x3d1bc149	0.038026128
20	0xbd08ba5c	-0.03338085
21	0xbb9c67c6	-0.004773113
22	0x3c49f613	0.012326735
23	0xbb464633	-0.0030254244
24	0x3cd81094	0.026375093
25	0xbc153431	-0.009106682
26	0xbc1ad913	-0.009451169
27	0x3cb37b2a	0.021909315
28	0x3c26a7ef	0.010171874
29	0xbbb7d11e	-0.0056096455
30	0xbc90b1ec	-0.017662965
31	0xbc0b1f74	-0.008491386

bottleneck.1.running_mean f4 [32]
0	0x3e83bdcb	0.25730738
1	0x3f31a26a	0.6938845
2	0x3ee8111f	0.45325562
3	0x3f04754c	0.5174148
4	0x3f8d0472	1.1016982
5	0x3eff955c	0.4991864
6	0x3f3a8c1b	0.72870034
7	0xbe3104df	-0.17287014
8	0x3ef59b92	0.47970253
9	0x3f037ed1	0.5136538
10	0x3e727174	0.23676091
11	0x3eb3f8bb	0.35150704
12	0xbe881e00	-0.26585388
13	0x3df2038a	0.11817081
14	0xbebd83a8	-0.37014508
15	0x3c5f9179	0.013645523
16	0xbf62cbd8	-0.8859229
17	0x3f1c4fe1	0.61059386
18	0x3f1610cd	0.58619386
19	0x3deff7a9	0.11717159
20	0x3f61bb5a	0.881765
21	0xbeff3243	-0.49843034
22	0x3ec44fc3	0.38342103
23	0xbf5c8fde	-0.86157024
24	0xbe9e3662	-0.30900866
25	0x3f21b799	0.6317077
26	0x3f379a08	0.7171941
27	0xbe7137a6	-0.23556384
28	0xbe06b1a4	-0.13153702
29	0x3e1a4461	0.15065147
30	0x3e40106c	0.18756264
31	0xbe0c2a2f	-0.13687967

bottleneck.1.running_var f4 [32]
0	0x3fd107d2	1.6330512
1	0x3faacdd3	1.3344063
2	0x3f2ffe5f	0.68747514
3	0x3fa59828	1.2937059
4	0x3fa925c0	1.3214645
5	0x3f8096db	1.0046037
6	0x3f3457c3	0.70446414
7	0x3efb440a	0.49075347
8	0x3f61191d	0.87928945
9	0x4015bc93	2.3396347
10	0x3f2276a9	0.6346231
11	0x3ecd4900	0.40094757
12	0x3f9cb369	1.2242252
13	0x3eb66a34	0.35627902
14	0x3f71a47e	0.9439162
15	0x3eb83cce	0.3598389
16	0x404b2027	3.1738374
17	0x4018d039	2.387709
18	0x3ff4d2a2	1.912678
19	0x3ef1d934	0.47236025
20	0x4011a5d0	2.2757454
21	0x3fa67fa9	1.3007709
22	0x3f907adb	1.1287493
23	0x3fdf4f94	1.744616
24	0x3f447ecd	0.7675598
25	0x3fb84c52	1.4398291
26	0x3f8a7e69	1.0819827
27	0x3f8702e6	1.054776
28	0x3f9ee2ce	1.2412965
29	0x3f46582f	0.7747831
30	0x3f22a929	0.6353937
31	0x3f454c86	0.7706989

bottleneck.3.weight f4 [32, 32, 3, 3]
0	0xbc2d0b2f	-0.010561748
1	0x3dd5d8f5	0.10441772
2	0xbcaf3633	-0.021388149
3	0xbc885e20	-0.016646445
4	0x3df10c60	0.117699385
5	0xbdfa7ca2	-0.12230803
6	0x3c612362	0.013741346
7	0x3dc0409f	0.093873255
8	0xbda46ed5	-0.08028952
9	0xbc1fa901	-0.0097448835
10	0x3d5a2bc1	0.053264383
11	0xbdb7add2	-0.089687005
12	0xbe048309	-0.12940611
13	0xbde4cd39	-0.111719556
14	0x3dcfc3df	0.10144781
15	0xbd561d70	-0.052274168
16	0x3d06fd35	0.03295632
17	0xbb9a20a8	-0.0047036
18	0xbd84bae5	-0.0648096
19	0xbdd46de0	-0.103725195
20	0x3b9dba2c	0.004813453
21	0xbd7c22c8	-0.061556607
22	0x3dafb598	0.08579558
23	0xbd1b6151	-0.037934605
24	0xbcd6cc37	-0.026220424
25	0xbdaace41	-0.08340121
26	0xbd915307	-0.07095914
27	0x3bc251c7	0.005930159
28	0x3cb2a6bc	0.02180802
29	0xbd716199	-0.058930967
30	0x3d27af99	0.040938947
31	0x3d8f1f73	0.0698842
32	0xbe0b1d98	-0.13585508
33	0x3d544bbf	0.05183005
34	0x3d895799	0.06706161
35	0x3cb94b06	0.022618782
36	0x3d2052fd	0.039141644
37	0x3b431a14	0.0029770182
38	0x3cc5c675	0.024142483
39	0xbe08bd52	-0.1335347
40	0xbdee0869	-0.11622698
41	0xbb152608	-0.0022758264
42	0x3cc69776	0.024242144
43	0x3d513a66	0.051081084
44	0xbdb352f5	-0.08756057
45	0x3d9fc72d	0.07801662
46	0xbd4ca2ac	-0.049959823
47	0x3da1a36e	0.078925
48	0xbd9f3914	-0.07774559
49	0xbd47436e	-0.04864829
50	0xbe45ff65	-0.19335707
51	0xbb17d8c5	-0.0023169976
52	0xbd4c58da	-0.049889423
53	0xbe047f18	-0.12939107
54	0x3e1bcabc	0.15214056
55	0xbcd5f12f	-0.026115982
56	0x3e22d1f8	0.15900409
57	0xbd8b11da	-0.06790514
58	0xbe8c4363	-0.27395162
59	0xbd82cd18	-0.06386775
60	0x3cdae08c	0.0267184
61	0xbd8ae067	-0.067810826
62	0x3d11167c	0.035421833
63	0xbb196653	-0.0023406937
64	0x3e3e5b80	0.18589592
65	0x3d6a9169	0.05726758
66	0xbcf0582a	-0.029338915
67	0x3e086513	0.13319807
68	0xbcdb1d83	-0.02674747
69	0xbd7593b1	-0.059955303
70	0xbcd4f248	-0.025994435
71	0x3e45ed73	0.19328861
72	0x3d5e7ab7	0.05431625
73	0x3dc1ead0	0.09468615
74	0xbd872991	-0.06599725
75	0x3bda0793	0.006653735
76	0x3da8cd2b	0.08242258
77	0x3c8f5d80	0.017500639
78	0x3d7e79e8	0.062127978
79	0x3d5ae8eb	0.053444784
80	0x3dc7037d	0.09717462
81	0xbd8464c5	-0.06464533
82	0xbd6d3ced	-0.05791943
83	0x3cb85496	0.022501271
84	0x3db9df66	0.09075813
85	0xbd74ba18	-0.059747785
86	0x3d75f75b	0.06005035
87	0xbe006139	-0.12537088
88	0x3c75e2d6	0.015007695
89	0x3d89b03c	0.06723067
90	0x3ca02c02	0.019552235
91	0xbd4b93b7	-0.04970142
92	0xbd08b749	-0.03337792
93	0x3cb1bf3c	0.021697633
94	0xbe141e0b	-0.14464585
95	0x3e13de8c	0.14440364
96	0x3e0e057d	0.13869281
97	0x3caecf47	0.021339072
98	0x3e076853	0.1322339
99	0xbab5ea23	-0.0013878982
100	0xbd97e074	-0.07415858
101	0xbd8fd4e7	-0.0702303
102	0xbe0c5133	-0.1370285
103	0x3db4ddee	0.08831392
104	0xbd0547ad	-0.03253906
105	0x3d977847	0.07395988
106	0x3c937007	0.017997755
107	0x3df4e8bf	0.11958455
108	0xbd939f6c	-0.07208142
109	0x3e2b162b	0.16707675
110	0xbbbfe852	-0.005856552
111	0x3cf0c508	0.029390827
112	0x3c06d594	0.008229632
113	0xbdfa15ef	-0.12211215
114	0x3e06c872	0.13162401
115	0x3bb249f4	0.005440945
116	0xbcaffc95	-0.021482745
117	0x3db4f747	0.08836227
118	0x3df5569a	0.119794086
119	0x3cbd645a	0.02311914
120	0x3de8ca08	0.113666594
121	0x3e52ecd9	0.20598163
122	0xbdfd0452	-0.1235434
123	0xbc87e1b1	-0.01658711
124	0x3cc43299	0.023949908
125	0xbd0b44fe	-0.034001343
126	0x3db90eb8	0.090360105
127	0x3d5bede2	0.05369366
128	0xbc32713b	-0.010891254
129	0x3e26e3b5	0.16297801
130	0x3d8054e9	0.06266195
131	0x3bd2c9a3	0.0064327284
132	0x3cc0c14e	0.023529675
133	0xbe5d86c7	-0.21633445
134	0xbc87b9ce	-0.01656809
135	0xbd8801f7	-0.06641
136	0x3deb6193	0.1149322
137	0x3ae47d6b	0.0017432397
138	0x3db4e6b1	0.088330634
139	0xbb614e42	-0.003437892
140	0xbdce0c4b	-0.100609384
141	0x3e17b3db	0.14814703
142	0x3da3cef8	0.079984605
143	0x3da03f50	0.07824576
144	0xbda755fe	-0.081706986
145	0xbd905915	-0.07048241
146	0x3cd2177f	0.02564597
147	0x3e3e2de2	0.1857219
148	0xbd6c9110	-0.05775553
149	0xbc840b94	-0.016118802
150	0xbdae1f03	-0.08502009
151	0xbc6389b7	-0.013887814
152	0x3e02dc29	0.12779297
153	0xbe323ef3	-0.17406826
154	0xbd88372b	-0.066511475
155	0x3ad5f760	0.0016324334
156	0x3de4f234	0.11179009
157	0x3e1890b3	0.14898948
158	0xbc867806	-0.016414654
159	0x3d29de49	0.041471753
160	0x3dbc5a28	0.091968834
161	0x3cd8a52f	0.026445953
162	0x3cfb1952	0.030651722
163	0xbe1a1e2e	-0.15050575
164	0xbd05fdd6	-0.03271278
165	0x3daf27bc	0.085525006
166	0xbbdc3142	-0.006719739
167	0xbc8a93ec	-0.016916238
168	0x3df28b56	0.118429825
169	0xbe0cda14	-0.13755065
170	0xbd2b8bd7	-0.04188141
171	0x3c80e0ce	0.015732195
172	0xbd925b39	-0.071463056
173	0x3d4ac4f8	0.04950425
174	0xbdb0cf8a	-0.08633335
175	0x3cecb020	0.028892577
176	0xbcf03efd	-0.02932691
177	0x3e0b0ea7	0.13579808
178	0x3daa8284	0.08325675
179	0x3dc84024	0.09777859
180	0x3d123142	0.035691507
181	0x3d64ef72	0.055892415
182	0xbd878910	-0.066179395
183	0xbe117bfc	-0.14207453
184	0xbd8de77c	-0.06928918
185	0x3dbd16ef	0.0923289
186	0x3dbdf762	0.092757
187	0x3da14841	0.078751095
188	0x3bac43e2	0.0052571157
189	0x3d528a83	0.051401626
190	0xbe190831	-0.14944531
191	0x3e06f143	0.13177972
192	0xbd80b86b	-0.06285175
193	0x3dcce95d	0.10005448
194	0xbd6865b7	-0.056737628
195	0xbdcf9892	-0.10136522
196	0xbde0ac4e	-0.109703645
197	0xbda35313	-0.079748295
198	0x3d5da75b	0.05411468
199	0xbd98dfeb	-0.07464584
200	0x3dbfa62b	0.09357866
201	0xbe07ebf2	-0.132736
202	0xbd07ed83	-0.033185493
203	0x3d984825	0.074356355
204	0xbe0d6b75	-0.13810523
205	0x3a5a8649	0.000833605
206	0xbd9b2ddc	-0.07577106
207	0xbd090fef	-0.03346246
208	0xbdc7e27b	-0.097599946
209	0xbd14be69	-0.0363144
210	0x3c92ad08	0.017904773
211	0x3d86eca5	0.06588105
212	0x3e1062ec	0.14100236
213	0x3cceb947	0.025234831
214	0xbdfe3b98	-0.1241371
215	0x3d9fb24e	0.07797681
216	0x3d6c8e44	0.057752863
217	0x3d2d7194	0.042344645
218	0xbce6a3a4	-0.028154202
219	0xbd13fe9a	-0.03613148
220	0x3dabbee2	0.083860174
221	0x3d765f05	0.06014921
222	0xbe508539	-0.2036332
223	0x3e168752	0.14700058
224	0xbd0f5010	-0.034988463
225	0x3dea3155	0.114351906
226	0x3ba02c6f	0.0048881094
227	0xbdc06864	-0.09394911
228	0x3bf63f99	0.0075149057
229	0x3dc7cb86	0.09755616
230	0x3c140eb4	0.009036709
231	0xbd083e4e	-0.033262543
232	0x3dedb8f9	0.11607546
233	0x3c06e4f2	0.008233296
234	0xbde1f66e	-0.11033331
235	0x3cabdf78	0.020980582
236	0xbda1252a	-0.078684166
237	0xbd973803	-0.0738373
238	0x3dc1a77c	0.09455773
239	0x3c9b9970	0.018994063
240	0xbd2e293b	-0.04251979
241	0xbc5f07c2	-0.013612689
242	0x3da7bf2b	0.08190759
243	0xbc7c2095	-0.015388628
244	0x3dc05ee3	0.09393098
245	0xbd21fec4	-0.039549604
246	0x3df3a6d2	0.11897053
247	0xbd1692b1	-0.03676099
248	0xbcd77870	-0.026302546
249	0x3d5fc300	0.054629326
250	0x3d6623c1	0.05618644
251	0x3d2ad285	0.041704673
252	0xbb917da0	-0.0044400245
253	0xbddc32ec	-0.107519
254	0xbd770bb2	-0.060313888
255	0x3d5cde08	0.053922683

bottleneck.4.weight f4 [32]
0	0x3f81ffc3	1.0156177
1	0x3f84079e	1.0314825
2	0x3f8080ee	1.0039346
3	0x3f7e8dbf	0.9943504
4	0x3f85b36a	1.0445378
5	0x3f801a9f	1.0008124
6	0x3f801294	1.000567
7	0x3f815719	1.0104705
8	0x3f81291c	1.009067
9	0x3f80ab34	1.0052247
10	0x3f824c96	1.0179622
11	0x3f7c6ad5	0.9860051
12	0x3f812a93	1.0091118
13	0x3f802f31	1.0014402
14	0x3f809078	1.0044088
15	0x3f7bfdd9	0.98434216
16	0x3f84bb5b	1.0369676
17	0x3f7e29c4	0.9928248
18	0x3f81a06c	1.0127082
19	0x3f842272	1.0323012
20	0x3f813904	1.0095525
21	0x3f813eee	1.009733
22	0x3f8139bf	1.0095748
23	0x3f81225f	1.0088614
24	0x3f7b78f6	0.98231447
25	0x3f7c58a3	0.9857275
26	0x3f827f23	1.0195049
27	0x3f81ee8d	1.0150925
28	0x3f807028	1.0034227
29	0x3f7c1adb	0.9847848
30	0x3f81c8be	1.0139387
31	0x3f7c8970	0.98647213

bottleneck.4.bias f4 [32]
0	0xbba21768	-0.004946638
1	0x3ccfaf32	0.025352094
2	0x3bd03dcf	0.0063550244
3	0x3c85775a	0.016292263
4	0xb9c41466	-0.0003739923
5	0x3ba0b30f	0.004904158
6	0xbb504cbb	-0.0031784016
7	0xbc5a8898	-0.013338231
8	0x3aca8d6a	0.0015453522
9	0xbc8f820c	-0.017518066
10	0xbc12b028	-0.008953132
11	0xbc946b06	-0.018117439
12	0xbb548427	-0.0032427402
13	0xbc794a15	-0.015215416
14	0xbb5b86b1	-0.003349703
15	0xbc5a8404	-0.013337139
16	0xbc8ad010	-0.016944915
17	0xbbb3f136	-0.005491401
18	0xbbe4adc5	-0.0069787228
19	0x3cbcd161	0.023049058
20	0x3c7d160d	0.015447152
21	0x3c21590c	0.009847891
22	0xbabb8a37	-0.0014308159
23	0xbc848060	-0.016174495
24	0xbc8738c4	-0.01650656
25	0xbcf97036	-0.030449014
26	0xbd04ebf2	-0.032451577
27	0x3cbe061f	0.023196278
28	0xbb2b3eec	-0.0026130034
29	0xbca0a5e6	-0.019610357
30	0x3cc0432e	0.023469534
31	0xbb6b0987	-0.0035863833
