experiments_multi/Brain_Tumor_Segmentation_Separate_Train_Val_20260206_163839/final_model.pth (torch, 140861 bytes, 56 tensors)

enc1.0.weight f4 [8, 4, 3, 3]
-0.027335452 -0.1272385 0.19606066 -0.109888144 -0.10833975 -0.14669298 0.10224078 -0.019411536
-0.05887842 0.068222106 -0.15408021 -0.17570178 0.06945898 0.260265 0.20975365 0.2495078
0.17266713 0.0040494134 0.16223213 0.23380344 -0.21686985 0.13914245 -0.11705209 -0.060314007
-0.23257978 0.02008486 0.08124139 0.011813655 -0.034326945 0.084000915 -0.060506284 0.24372521
-0.0066592474 -0.10149304 -0.056244418 -0.11879773 -0.16289365 -0.014643839 0.09105739 0.15127964
0.124808066 0.02353697 -0.28313756 0.36606959 -0.08821203 -0.2517821 0.052006394 -0.26836017
0.04811673 0.32025895 0.09037026 0.1748699 0.4452659 -0.32800293 -0.14895491 0.075202204
0.04288772 -0.13893205 -0.25068197 0.10304355 -0.11050283 0.47777689 -0.006826932 0.2937291
0.17721894 -0.15418425 -0.09413053 0.08959635 0.31079662 0.09613153 0.14971325 -0.11258423
0.28781995 0.116183564 0.15267241 0.033973537 -0.042268194 0.015514883 -0.032501616 0.42184922
-0.048693806 0.3976406 0.2096418 0.11392597 0.2557619 0.04213756 0.14455721 -0.24149232
-0.12943836 0.30775765 -0.23772435 -0.18087396 -0.114011765 0.29064474 0.1632198 -0.08504401
0.23395443 0.1935447 0.086676106 -0.24468778 0.20573539 -0.1561215 -0.06155329 0.03728273
-0.07966367 -0.02877211 -0.17179358 0.16060986 0.20401403 -0.03566134 -0.022343548 -0.42578205
0.07889966 0.16771095 0.050002836 -0.15001063 -0.0718136 -0.01933228 -0.08481013 -0.0955647
-0.16661641 0.0005088866 -0.10029714 -0.027916802 0.13493733 -0.039465338 0.33380753 0.2619167
-0.039175704 -0.011437474 0.0870843 -0.17697875 0.17832246 -0.094128 -0.14031939 -0.05347689
-0.03059898 -0.02221021 0.079146594 0.12297677 -0.034612626 -0.15694275 0.03714634 -0.068218425
0.16678765 -0.19857594 0.33887023 -0.19704106 -0.28815287 -0.15745407 0.45616522 0.48867443
0.3704571 -0.019042918 -0.02380945 -0.13964713 0.047176287 0.013138835 0.018208481 -0.011570693
-0.08448878 -0.11299769 -0.08089991 -0.27752537 0.046799246 0.12822507 0.031508718 0.29321966
0.07250368 0.16232608 -0.2611995 -0.15950379 -0.2142069 -0.06587093 -0.18827344 -0.13254642
-0.038725305 -0.07081447 0.07513568 -0.31916505 0.026769033 0.0055649034 -0.3814419 0.13514653
0.10464204 -0.11638297 -0.11575053 -0.11200507 -0.20047882 0.29511422 0.06285189 -0.24987578
0.059935458 -0.0774723 0.13198416 0.14586298 0.22872378 0.05108177 -0.091115415 -0.19655262
0.21580228 -0.06350304 -0.10020548 -0.02143546 -0.11506245 0.011291597 -0.12687771 -0.17465807
-0.07203859 0.086532526 0.10923444 0.024646197 -0.1935507 -0.094734386 -0.04575102 0.01319374
-0.37995398 -0.12698606 -0.08648038 -0.21946786 -0.1804868 -0.047753137 -0.00812375 -0.031670257
0.044824716 0.101449534 0.034659266 0.31534827 0.036438126 -0.041361593 -0.33345714 0.19380437
0.36304155 0.0058722454 -0.1065013 -0.30052692 0.008414217 0.07781049 -0.005437634 0.028409284
-0.2716272 0.14794017 0.14819992 -0.11791966 -0.10494677 0.3132379 0.10132713 -0.2499495
0.26621422 0.019226262 0.10277194 0.052449655 0.10110649 -0.05460685 -0.23028256 -0.3463789
00000000: 99ee dfbc cf4a 02be 20c4 483e 090d e1bd
00000010: 3be1 ddbd af36 16be 9d63 d13d f104 9fbc
00000020: 802a 71bd 08b8 8b3d 34c7 1dbe 2beb 33be
00000030: 8240 8e3d 7441 853e a9c9 563e f97e 7f3e
00000040: a7cf 303e f1b0 843b 2e20 263e 2b6a 6f3e
00000050: 2113 5ebe 5c7b 0e3e 02b9 efbd d20b 77bd
00000060: 6529 6ebe 0189 a43c e361 a63d 0f8e 413c
00000070: 699a 0cbd ac08 ac3d 70d5 77bd 1a93 793e
00000080: d135 dabb 95db cfbd 8c60 66bd 394c f3bd
00000090: 98cd 26be b6ec 6fbc 4c7c ba3d 0de9 1a3e
000000a0: 5f9b ff3d 9bd0 c03c 68f7 90be 796d bb3e
000000b0: 82a8 b4bd 95e9 80be a804 553d 8166 89be
000000c0: 0c16 453d fbf8 a33e 0b14 b93d 1811 333e
000000d0: e4f9 e33e 00f0 a7be a387 18be 9d03 9a3d
000000e0: 09ab 2f3d 3444 0ebe 6359 80be 7f08 d33d
000000f0: 4f4f e2bd 2c9f f43e 75b4 dfbb a963 963e
00000100: e278 353e 7ae2 1dbe 82c7 c0bd 4b7e b73d
00000110: bc20 9f3e 9ce0 c43d 6e4e 193e 9092 e6bd
00000120: 235d 933e a6f1 ed3d 2856 1c3e d627 0b3d
00000130: 6a21 2dbd 2332 7e3c 6a20 05bd 9ffc d73e
00000140: 2873 47bd 8c97 cb3e 57ac 563e 0552 e93d
00000150: 39f3 823e 6f98 2c3d ce06 143e c349 77be
00000160: 7d8b 04be 6992 9d3e 036e 73be 0637 39be
00000170: 007f e9bd 63cf 943e 1723 273e 8e2b aebd
00000180: c091 6f3e 9530 463e 3e83 b13d 6f8f 7abe
00000190: 4cac 523e 51de 1fbe 4d1f 7cbd c7b5 183d
000001a0: b526 a3bd 7db3 ebbc a8ea 2fbe e976 243e
000001b0: 0ee9 503e a011 12bd d109 b7bc 1b00 dabe
000001c0: 2596 a13d 6bbc 2b3e c6cf 4c3d 639c 19be
000001d0: 0213 93bd bb5e 9ebc efb0 adbd 6db7 c3bd
000001e0: 7e9d 2abe cd66 053a 9668 cdbd c7b1 e4bc
000001f0: 032d 0a3e 68a6 21bd d2e8 aa3e f219 863e
00000200: b476 20bd 3e64 3bbc 4159 b23d eb39 35be
00000210: 2a9a 363e 2ec6 c0bd e3af 0fbe 950a 5bbd
00000220: b6aa fabc 30f2 b5bc 9c17 a23d 3fdb fb3d
00000230: f8c5 0dbd 9ab5 20be c326 183d 1ab6 8bbd
00000240: 62ca 2a3e 7e57 4bbe 6680 ad3e 22c5 49be
00000250: c688 93be a43b 21be 7d8e e93e 8933 fa3e
00000260: 8eac bd3e e5ff 9bbc 090c c3bc a8ff 0ebe
00000270: ec3b 413d 4544 573c f429 953c 0193 3dbc
00000280: 7408 adbd 556b e7bd daae a5bd ce17 8ebe
00000290: 91b0 3f3d 6f4d 033e 490f 013d e320 963e
000002a0: cf7c 943d cf38 263e f1bb 85be f654 23be
000002b0: 0e59 5bbe 57e7 86bd c1ca 40be 40ba 07be
000002c0: 6d9e 1ebd 2d07 91bd bce0 993d 9a69 a3be
000002d0: bb4a db3c cb59 b63b 5a4c c3be da63 0a3e
000002e0: 914e d63d 325a eebd 9d0e edbd ea62 e5bd
000002f0: 524a 4dbe 3619 973e 7eb8 803d 70df 7fbe
00000300: e27e 753d cca9 9ebd db26 073e 1b5d 153e
00000310: 9136 6a3e 1e3b 513d b89a babd 1745 49be
00000320: 46fb 5c3e e20d 82bd 8838 cdbd 6b99 afbc
00000330: dda5 ebbd 6400 393c 3bec 01be 91d9 32be
00000340: f888 93bd f737 b13d 4eb6 df3d d2e6 c93c
00000350: 2832 46be 1a04 c2bd 6c65 3bbd 8e2a 583c
00000360: 5489 c2be a208 02be a01c b1bd 2fbc 60be
00000370: 88d1 38be cb98 43bd 7a19 05bc acb8 01bd
00000380: 1f9a 373d c6c4 cf3d e0f6 0d3d 5475 a13e
00000390: 2540 153d c66a 29bd e5ba aabe a774 463e
000003a0: 95e0 b93e f76b c03b 5b1d dabd aade 99be
000003b0: c9db 093c 1b5b 9f3d 2e2e b2bb 96ba e83c
000003c0: b812 8bbe a17d 173e b8c1 173e dd7f f1bd
000003d0: 55ee d6bd b860 a03e 9984 cf3d c3f2 7fbe
000003e0: 3b4d 883e 6580 9d3c 187a d23d 73d5 563d
000003f0: eb10 cf3d 6fab 5fbd 31cf 6bbe 9358 b1be

enc1.1.weight f4 [8]
1.0268186 0.9977236 0.9794025 0.9817608 1.0226142 1.0160131 0.9328918 1.0254844
00000000: cb6e 833f d06a 7f3f 1fba 7a3f ad54 7b3f
00000010: 06e5 823f b80c 823f ffd1 6e3f 1343 833f

enc1.1.bias f4 [8]
0.013119947 -0.008210882 0.0046507646 -0.008959487 -0.031178772 0.00643947 0.03909057 0.019998958
00000000: 0cf5 563c ef86 06bc 7165 983b d0ca 12bc
00000010: a06a ffbc 3102 d33b 6f1d 203d dbd4 a33c

enc1.1.running_mean f4 [8]
0.074826546 0.22564134 0.38297898 -0.08533748 -0.037405103 -0.12463105 -0.043594692 -0.41727504
00000000: a93e 993d 860e 673e d215 c43e 6bc5 aebd
00000010: 1836 19bd 903e ffbd 5990 32bd 13a5 d5be

enc1.1.running_var f4 [8]
0.018282207 0.1569107 0.43578908 0.027513001 0.018101083 0.050732303 0.010752695 0.51670396
00000000: 91c4 953c 33ad 203e bf1f df3e f262 e13c
00000010: b948 943c adcc 4f3d 122c 303c b646 043f

enc1.3.weight f4 [8, 8, 3, 3]
0.24572718 0.04311478 0.026948247 0.12138929 -0.16081226 -0.04103375 0.11986246 -0.12638958
-0.08338256 0.06358511 -0.075623356 -0.19639093 0.03521378 -0.16077553 0.103876084 0.14902347
0.009827235 -0.13287684 0.051489454 -0.14091259 0.25027117 0.039501715 0.15903771 -0.048677675
0.18904331 -0.09287368 -0.31451887 -0.31398883 0.32695338 0.2682924 -0.013539899 -0.07360698
0.060044188 0.06268591 -0.07064767 0.11708525 -0.049460612 -0.087489285 -0.0740115 0.1682558
0.0948411 -0.2131833 0.09780539 0.07413914 0.17997274 0.24172115 0.03204399 0.12398395
-0.13180296 -0.008790673 -0.08015599 -0.06538629 0.17918217 -0.4762297 0.09036119 -0.022478545
-0.17938234 0.021391403 -0.19462183 0.18815592 0.2651621 0.04294153 -0.11535232 0.0431582
0.010343038 0.014181839 0.1815381 -0.045960836 -0.17996722 -0.24777123 -0.18691781 -0.06822306
0.096075736 -0.0645968 0.24081397 -0.024011144 0.29339078 -0.05832856 0.04243904 -0.19686264
-0.15952544 0.15112741 -0.052177098 0.18627113 -0.055298753 0.058258254 0.08217293 0.13376656
0.16317798 -0.25282127 -0.21008632 -0.0064831246 0.13720718 0.34922758 -0.0021610328 0.042574264
0.090323865 -0.12655912 -0.14979953 -0.003906933 0.055860344 -0.030653657 -0.26131967 -0.13649768
-0.091642685 -0.30694667 -0.046985157 0.045329645 0.056908146 -0.13889422 0.12884456 0.03176747
-0.028014868 0.24667966 -0.13050944 -0.04536308 -0.1453081 -0.188178 0.070034735 -0.15558182
0.23677205 0.034170393 -0.010109351 0.12175849 0.2907368 0.009818218 0.07131234 0.026931256
0.38406518 0.0031850745 -0.24432585 0.2136443 0.034680717 0.01893465 0.20291549 0.17319512
0.23278683 -0.23758042 -0.11471333 -0.024344895 0.16791217 -0.06476521 0.0735871 -0.37239712
0.08078946 -0.022021415 0.070603415 -0.17549562 0.022613639 0.19746628 0.29560265 -0.0530122
0.31449607 -0.18651828 0.15898383 0.015033829 -0.25145388 -0.397792 0.12204906 -0.11205196
0.062079985 0.11554121 -0.13660645 -0.13338083 0.030923875 0.14789258 0.1436189 0.07092877
-0.11046448 -0.034386948 0.02596472 0.15444984 0.045852162 -0.077346034 0.0151086 0.14153461
-0.10841716 -0.0105444705 0.029032918 -0.15721698 0.07317253 -0.43893555 -0.31114963 0.1800798
0.09512258 0.18020752 0.3925753 -0.09520868 0.09874927 0.17337357 -0.19770312 0.115965225
-0.24491663 0.14339292 -0.19776897 -0.21564354 0.12357081 -0.08475653 0.14328663 0.04051778
0.04314887 0.03112603 0.11383265 0.27762654 -0.13823867 -0.07251682 0.04770885 -0.04198781
0.13913968 -0.05628601 -0.25594747 0.1782293 -0.1579525 -0.13414787 -0.091523536 0.011737498
-0.15355775 -0.21027312 0.108180255 0.04228414 -0.21197072 0.14829995 0.07799709 0.22328416
-0.24709733 -0.037658215 -0.033919573 0.20471205 0.24722391 -0.21377847 -0.20637707 -0.029052177
-0.15875946 -0.26529497 0.11689742 -0.21597044 0.13536128 -0.22511092 0.036569037 0.24463318
0.112831436 -0.110127665 -0.15076037 -0.122457065 -0.07529618 0.009195308 0.0107608475 0.039278824
0.00070285966 0.028913347 0.22335446 -0.06483772 -0.18717064 -0.21419814 -0.3650381 -0.39232758
00000000: e89f 7b3e 2099 303d 92c2 dc3c f39a f83d
00000010: f8ab 24be 0113 28bd 737a f53d 456c 01be
00000020: 7ac4 aabd e938 823d 6be0 9abd b41a 49be
00000030: 533c 103d 57a2 24be fcbc d43d 9c99 183e
00000040: 6902 213c de10 08be 9be6 523d 644b 10be
00000050: 8b23 803e 8dcc 213d c8da 223e 3e62 47bd
00000060: 9294 413e 8e34 bebd 9e08 a1be 25c3 a0be
00000070: 6f66 a73e 9f5d 893e 74d6 5dbc 42bf 96bd
00000080: e5f0 753d 7861 803d baaf 90bd 64ca ef3d
00000090: 3697 4abd 952d b3bd 5793 97bd 404b 2c3e
000000a0: 0d3c c23d b94c 5abe 314e c83d 43d6 973d
000000b0: c64a 383e c085 773e 8f40 033d 4ceb fd3d
000000c0: 5bf7 06be c106 10bc d328 a4bd 3fe9 85bd
000000d0: 887b 373e 61d4 f3be 4a0f b93d ed24 b8bc
000000e0: 01b0 37be 063d af3c f24a 47be f2ab 403e
000000f0: 54c3 873e 75e3 2f3d d63d ecbd a7c6 303d
00000100: d875 293c f25a 683c 20e5 393e 6e41 3cbd
00000110: 5449 38be beb7 7dbe 6267 3fbe 88b8 8bbd
00000120: 5bc3 c43d 544b 84bd f097 763e 05b3 c4bc
00000130: 5137 963e eee9 6ebd 8fd4 2d3d 5c96 49be
00000140: a35a 23be 25c1 1a3e a7b7 55bd dcbd 3e3e
00000150: f280 62bd 35a0 6e3d 484a a83d 1afa 083e
00000160: 2118 273e ca71 81be de20 57be 6470 d4bb
00000170: 0a80 0c3e f5cd b23e 1da0 0dbb 5a62 2e3d
00000180: b8fb b83d b798 01be 0c65 19be bb05 80bb
00000190: d1cd 643d 611d fbbc b1cb 85be 0cc6 0bbe
000001a0: 29af bbbd 1d28 9dbe 8273 40bd 94ab 393d
000001b0: 8418 693d 493a 0ebe d4ef 033e 9b1e 023d
000001c0: 707f e5bc 9899 7c3e 44a4 05be a3ce 39bd
000001d0: a6cb 14be bcb1 40be 5f6e 8f3d d750 1fbe
000001e0: 5f74 723e 41f6 0b3d b1a1 25bc 845c f93d
000001f0: 74db 943e 97dc 203c 340c 923d f09e dc3c
00000200: 31a4 c43e afbc 503b 8e30 7abe 92c5 5a3e
00000210: 5e0d 0e3d d71c 9b3c 14c9 4f3e 105a 313e
00000220: ac5f 6e3e 4848 73be d3ee eabd f26e c7bc
00000230: 2bf1 2b3e 9fa3 84bd d5b4 963d d6aa bebe
00000240: f274 a53d 4166 b4bc 8698 903d 20b5 33be
00000250: 3d40 b93c 9a34 4a3e 3b59 973e 5223 59bd
00000260: a105 a13e a6fe 3ebe a8cc 223e 7350 763c
00000270: 90be 80be 65ab cbbe dcf4 f93d 7f7b e5bd
00000280: 9547 7e3d dfa0 ec3d 90e2 0bbe fc94 08be
00000290: 1154 fd3c 2771 173e d510 133e 1a43 913d
000002a0: 343b e2bd 54d9 0cbd f7b3 d43c 1928 1e3e
000002b0: 7acf 3b3d 9967 9ebd 108a 773c 73ee 103e
000002c0: d109 debd b7c2 2cbc 71d6 ed3c 7dfd 20be
000002d0: 7bdb 953d 29bc e0be 014f 9fbe d766 383e
000002e0: a1cf c23d 5288 383e a1ff c83e c5fc c2bd
000002f0: 0f3d ca3d d788 313e b072 4abe 2d7f ed3d
00000300: 6dcb 7abe 98d5 123e f383 4abe a9d1 5cbe
00000310: b112 fd3d d594 adbd bbb9 123e f9f5 253d
00000320: dfbc 303d 04fc fe3c 1821 e93d 1125 8e3e
00000330: 708e 0dbe b383 94bd 5b6a 433d 69fb 2bbd
00000340: a27a 0e3e 298c 66bd 8c0b 83be be81 363e
00000350: 4dbe 21be 0f5e 09be b170 bbbd a34e 403c
00000360: 3e3e 1dbe d651 57be 9c8d dd3d 2232 2d3d
00000370: da0e 59be f1db 173e f0bc 9f3d 9aa4 643e
00000380: 1507 7dbe 803f 1abd 40ef 0abd 09a0 513e
00000390: 4428 7d3e bee8 5abe 8354 53be d5fe edbc
000003a0: d791 22be bed4 87be ea67 ef3d 5b27 5dbe
000003b0: 269c 0a3e 7a83 66be 6ac9 153d 1f81 7a3e
000003c0: 2b14 e73d 9d8a e1bd ed60 1abe c5ca fabd
000003d0: e234 9abd eba7 163c 444e 303c d5e2 203d
000003e0: 1d40 383a afdb ec3c 08b7 643e a3c9 84bd
000003f0: a9a9 3fbe c256 5bbe 46e6 babe 29df c8be

enc1.4.weight f4 [8]
0.9581793 0.9776295 0.9714167 0.9995291 0.97966963 0.9994211 1.0163586 0.9883584
00000000: 3d4b 753f ed45 7a3f c4ae 783f 24e1 7f3f
00000010: a1cb 7a3f 10da 7f3f 0a18 823f 0e05 7d3f

enc1.4.bias f4 [8]
0.016154816 -0.015674185 -0.005080334 -0.0001274096 -0.03350813 0.0025474024 0.016351225 -0.010436064
00000000: 1b57 843c 2667 80bc ee78 a6bb 4199 05b9
00000010: d23f 09bd 52f2 263b 01f3 853c 06fc 2abc

enc1.4.running_mean f4 [8]
-0.05332818 0.34962735 0.006051361 -0.66896755 -0.39591023 -0.33378252 -0.8955594 -0.5032667
00000000: a66e 5abd 5b02 b33e 7f4a c63b 7541 2bbf
00000010: bfb4 cabe 8be5 aabe 6143 65bf 16d6 00bf

enc1.4.running_var f4 [8]
0.073311485 0.3455479 0.2515043 0.6990324 0.22195397 0.4853291 2.5250907 0.30979118
00000000: 5524 963d a8eb b03e 2cc5 803e caf3 323f
00000010: e747 633e 0e7d f83e 169b 2140 f39c 9e3e

enc2.0.weight f4 [16, 8, 3, 3]
0.09765282 -0.06548943 -0.014586601 -0.025942795 0.16134875 -0.00053421763 -0.08385784 0.092302464
0.077419244 -0.24604501 -0.22733673 -0.19608246 0.1588578 0.12655765 -0.07631238 -0.053830046
-0.058675867 0.02277728 -0.0839872 -0.0099589275 -0.054966036 0.08018831 -0.0561428 0.11253512
0.07688413 -0.026771033 0.20257322 -0.04303616 0.048731964 -0.12405284 0.052767385 -0.05062298
0.26221818 0.0053794538 0.0056407503 0.1557402 -0.17108537 0.01791953 0.0140669495 -0.06708787
-0.20542446 -0.014675118 -0.18816076 -0.23535007 -0.099304125 -0.0002855481 0.036901362 -0.22748384
0.14608823 -0.042439118 0.00042812366 0.21250066 -0.20260862 -0.054555964 0.22295478 -0.023967637
-0.086021826 0.107652396 -0.068158135 -0.07124844 -0.010004325 -0.1364383 -0.10979915 -0.04765813
-0.012812868 0.107481375 0.11240544 -0.12954311 0.25094518 0.09235166 -0.11063182 -0.12147012
0.10032875 -0.22035183 0.21391825 0.01012549 -0.10659682 0.34946114 -0.0054874066 0.045158878
0.14826363 -0.07085853 0.05150957 -0.022619776 -0.015899371 0.12277983 -0.050417244 0.014654861
-0.07676071 0.004601033 -0.13708192 -0.07323467 0.053433053 0.078846134 -0.023768296 0.009352022
-0.03294487 0.019613268 -0.006315183 0.20467922 0.07860217 -0.03711643 -0.11193606 -0.018647155
0.144335 -0.0074329237 -0.2478555 0.07327276 -0.10346786 0.12092162 -0.019845966 0.028287722
0.1127434 0.05871974 0.045433503 -0.004479502 0.06514926 0.04288243 -0.0732717 0.054728817
0.12728634 0.13383211 -0.11677344 0.12032529 0.14488433 0.034594413 -0.08536427 -0.1884403
-0.09632097 -0.028330492 0.04857737 0.10691723 -0.07099057 0.17620683 0.061419833 0.059383355
-0.1634982 0.07775984 -0.05739093 0.02354883 0.06944216 -0.10985276 0.012824205 0.11198639
0.047648765 -0.21917647 0.12439914 -0.12492482 0.038122445 -0.094175965 0.11184612 -0.03812213
0.109458275 0.12794738 -0.07726386 0.032788683 -0.17173795 -0.052214548 0.01511358 -0.16261864
-0.08655082 0.0022741198 -0.031169025 0.15416794 -0.031102195 0.039493427 0.13122177 -0.16867493
0.056731876 0.113073446 0.095026486 -0.099997595 0.13688324 -0.006216821 0.124962784 -0.0149587765
0.009988324 -0.16646726 -0.11643942 0.14086543 -0.039101206 -0.03870597 -0.006413992 0.10648444
0.22791348 0.05407406 0.15034224 0.053374585 -0.11099376 0.10063173 -0.061629932 0.0038383496
-0.05369076 -0.050311137 -0.008745251 0.1272809 -0.2160657 -0.11836704 -0.054788776 -0.09075975
-0.021329222 -0.10099107 -0.0017978121 -0.054998778 0.070802964 0.12177267 0.038136657 -0.12030649
0.10701356 0.029045725 -0.058947958 -0.060029242 -0.006058933 -0.177888 0.035775032 0.04508777
0.13129796 0.3444219 4.6262438e-05 0.024148881 0.13579872 -0.08079601 -0.060077783 0.07717556
-0.09227284 -0.03716736 0.093240425 -0.1460577 -0.05790605 -0.040640604 -0.10605179 0.06533863
0.14436772 -0.06974975 0.0028134522 -0.12427367 -0.15347956 0.043547615 -0.0031689936 0.106893584
-0.006802463 0.06120007 -0.06864848 0.11599498 -0.1320975 -0.10267792 0.05789446 -0.19846316
0.07652582 0.12339635 -0.13656789 -0.15122025 -0.1364899 0.05299108 0.07441498 0.010794031
00000000: 34fe c73d 531f 86bd a4fc 6ebc fc85 d4bc
00000010: 9b38 253e bd0a 0cba a9bd abbd 1309 bd3d
00000020: fb8d 9e3d 39f3 7bbe f6ca 68be d7c9 48be
00000030: 9eab 223e 5498 013e aa49 9cbd e57c 5cbd
00000040: 1b56 70bd 6b97 ba3c 7b01 acbd c52a 23bc
00000050: 1124 61bd c539 a43d fef5 65bd d078 e63d
00000060: 6d75 9d3d ed4e dbbc 5b6f 4f3e af46 30bd
00000070: 2b9b 473d 6a0f febd 9d22 583d 0b5a 4fbd
00000080: 7641 863e 2146 b03b 0bd6 b83b 5c7a 1f3e
00000090: 0131 2fbe facb 923c 1079 663c 5d65 89bd
000000a0: ca5a 52be e86f 70bc 37ad 40be 9cff 70be
000000b0: f65f cbbd 9eb5 95b9 e225 173d 86f1 68be
000000c0: 2798 153e a4d4 2dbd c975 e039 c699 593e
000000d0: a278 4fbe 1376 5fbd 424e 643e c757 c4bc
000000e0: 362c b0bd dc78 dc3d 7e96 8bbd b4ea 91bd
000000f0: 2ee9 23bc 7bb6 0bbe 60de e0bd 2c35 43bd
00000100: 10ed 51bc 321f dc3d d334 e63d f3a6 04be
00000110: e37b 803e de22 bd3d f092 e2bd 54c5 f8bd
00000120: 2979 cd3d e9a3 61be 630d 5b3e 62e5 253c
00000130: 6f4f dabd 92ec b23e b4cf b3bb 84f8 383d
00000140: 6cd2 173e 471e 91bd b3fb 523d 1c4d b9bc
00000150: 663f 82bc fe73 fb3d 5082 4ebd f11a 703c
00000160: b834 9dbd 43c4 963b 345f 0cbe 0ffc 95bd
00000170: 9edc 5a3d 157a a13d bbb5 c2bc 3939 193c
00000180: 33f1 06bd 01ac a03c 98ef cebb 6e97 513e
00000190: 2dfa a03d 6607 18bd bc3e e5bd ebc1 98bc
000001a0: 8ecc 133e e28f f3bb d5cd 7dbe 0710 963d
000001b0: f5e6 d3bd c1a5 f73d 0294 a2bc a7bb e73c
000001c0: 03e6 e63d 1c84 703d 7b18 3a3d c9c8 92bb
000001d0: fa6c 853d 7da5 2f3d 790f 96bd 532b 603d
000001e0: 5a57 023e 490b 093e ea26 efbd 1b6d f63d
000001f0: 8f5c 143e dfb2 0d3d 76d3 aebd 7ef6 40be
00000200: ee43 c5bd 5915 e8bc 10f9 463d 6cf7 da3d
00000210: 8163 91bd 906f 343e 5d93 7b3d f63b 733d
00000220: 126c 27be 8d40 9f3d c012 6bbd 7ae9 c03c
00000230: b137 8e3d 7cfa e0bd 9d1c 523c 1f59 e53d
00000240: 5a2b 433d cc6f 60be fac4 fe3d 96d8 ffbd
00000250: 4826 1c3d 54df c0bd 940f e53d f325 1cbd
00000260: a92b e03d a304 033e 843c 9ebd 6d4d 063d
00000270: 13dc 2fbe ecde 55bd f39e 773c 8085 26be
00000280: 8e41 b1bd 6609 153b 2f56 ffbc 33de 1d3e
00000290: 08ca febc dcc3 213d 005f 063e 1fb9 2cbe
000002a0: af5f 683d 0d93 e73d 3f9d c23d 8acb ccbd
000002b0: 1f2b 0c3e 79b6 cbbb 7dec ff3d a815 75bc
000002c0: 11a6 233c 6576 2abe ca77 eebd 073f 103e
000002d0: 9628 20bd 278a 1ebd 772c d2bb 8414 da3d
000002e0: 2762 693e c37c 5d3d 51f3 193e 4f9f 5a3d
000002f0: b250 e3bd 0218 ce3d ab6f 7cbd d28c 7b3b
00000300: d8ea 5bbd 0d13 4ebd 3e48 0fbc ed55 023e
00000310: 5440 5dbe 6b6a f2bd 326a 60bd 3fe0 b9bd
00000320: 9fba aebc 68d4 cebd 90a4 ebba 6646 61bd
00000330: 2501 913d f363 f93d 2f35 1c3d 4063 f6bd
00000340: ed29 db3d 4df1 ed3c 6a73 71bd 39e1 75bd
00000350: 048a c6bb 4628 36be d788 123d f4ad 383d
00000360: f972 063e 1158 b03e ea09 4238 e0d3 c53c
00000370: d20e 0b3e 6178 a5bd 1f14 76bd 380e 9e3d
00000380: 8bf9 bcbd cd3c 18bd d6f4 be3d 2690 15be
00000390: e52e 6dbd c376 26bd ae31 d9bd 42d0 853d
000003a0: 22d5 133e f5d8 8ebd e561 383b 3283 febd
000003b0: bf29 1dbe fc5e 323d e4ae 4fbb 06eb da3d
000003c0: 32e7 debb edac 7a3d 9397 8cbd c78e ed3d
000003d0: 9144 07be cd48 d2bd be22 6d3d ed39 4bbe
000003e0: 92b9 9c3d 3ab7 fc3d 74d8 0bbe 7bd9 1abe
000003f0: 02c4 0bbe 2d0d 593d e266 983d 73d9 303c

enc2.1.weight f4 [16]
1.0137081 0.99377286 0.9953572 0.9835685 0.99953383 0.9935861 0.96882045 1.0056713
0.99464226 1.0132401 1.0100417 1.0085312 1.0177625 1.0109925 0.9880127 1.0267626
00000000: 30c1 813f e667 7e3f bbcf 7e3f 25cb 7b3f
00000010: 73e1 7f3f a95b 7e3f 9e04 783f d6b9 803f
00000020: e0a0 7e3f dab1 813f 0c49 813f 8d17 813f
00000030: 0b46 823f 3468 813f 66ee 7c3f f56c 833f

enc2.1.bias f4 [16]
0.006188692 -0.045695603 -0.0014623612 -0.015058629 0.00402017 0.032083817 -0.026173076 0.029483974
-0.011204536 0.030661464 0.014148727 -0.03202234 -0.00939513 0.007957505 0.000103444174 0.05348659
00000000: 83ca ca3b 502b 3bbd b3ac bfba 78b8 76bc
00000010: a1bb 833b 526a 033d eb68 d6bc 6088 f13c
00000020: 3b93 37bc c02d fb3c 10d0 673c db29 03bd
00000030: 08ee 19bc 3260 023c 2bf0 d838 c114 5b3d

enc2.1.running_mean f4 [16]
-0.3006278 0.4554213 -0.15504007 -0.17947833 -0.11398747 -0.18420777 -0.10236761 -0.32647127
1.0138116 -0.4023985 0.7564453 0.48885447 0.49456322 0.41568798 0.045208182 0.30594307
00000000: e3eb 99be fb2c e93e d3c2 1ebe 2bc9 37be
00000010: 4372 e9bd f6a0 3cbe 1ca6 d1bd 3e27 a7be
00000020: 94c4 813f 2d07 cebe 66a6 413f 224b fa3e
00000030: 6437 fd3e 0ed5 d43e 372c 393d 92a4 9c3e

enc2.1.running_var f4 [16]
0.64815444 0.3898811 0.24531871 0.25176927 0.6262128 0.25872168 0.40607643 0.36759293
0.7720737 0.28734162 1.4075215 0.4227494 0.3040783 0.32570687 0.21753782 0.24895109
00000000: 73ed 253f 7f9e c73e d434 7b3e e7e7 803e
00000010: 7b4f 203f 2b77 843e 40e9 cf3e 2435 bc3e
00000020: 9fa6 453f 711e 933e aa29 b43f 9c72 d83e
00000030: 27b0 9b3e 0dc3 a63e 3cc2 5e3e 09ed 7e3e

enc2.3.weight f4 [16, 16, 3, 3]
0.19205216 -0.09524769 0.015507671 0.2841385 0.048224803 0.1475528 0.16184896 -0.04009551
-0.16974129 -0.08556887 -0.025712714 -0.048264496 0.03271235 -0.036904316 -0.041181393 0.18236646
-0.052803062 0.08819319 0.07503777 0.07409426 0.04920531 0.12760273 0.14535674 0.059211094
0.0048546046 -0.12048196 -0.10236989 -0.14451021 -0.073050916 -0.044257034 -0.03680132 -0.014868469
-0.05394402 0.0073101693 -0.14575814 0.053179994 0.042854715 -0.19054005 0.20494194 -0.09444109
-0.083620936 0.018305952 0.021249099 -0.07664687 0.0076864897 -0.121678144 0.17605026 -0.0052098637
-0.08475104 0.064996235 -0.21794215 -0.058426946 0.087985575 -0.020530365 -0.12072303 -0.089754134
0.16973206 0.034700803 0.1097674 0.018914934 0.0012213923 -0.07287535 0.045721356 -0.17615275
-0.11657283 -0.25382286 -0.009098057 -0.07817038 -0.08776645 0.05297009 -0.087687336 -0.09360845
0.22302574 0.14221895 -0.047300868 0.13710153 -0.10465642 0.009410065 0.08124779 -0.115245745
0.11851918 0.28505203 -0.07805216 -0.047354348 0.09350794 0.07770233 0.12837139 0.22747655
-0.0006169564 0.018484635 -0.13636006 0.1652147 -0.046773676 -0.0903347 -0.018610759 -0.100869626
0.03768599 -0.08718792 -0.0947049 0.17911999 -0.071665615 0.13209729 -0.030960962 0.17447606
0.09525775 -0.12545198 0.13948946 0.110702574 0.10059388 0.24809203 0.14820288 -0.03185414
0.18011355 0.08822709 0.07687104 -0.107884794 0.054708354 0.1304779 -0.040286038 0.12830825
-0.045747556 -0.03396171 -0.06135521 0.042874455 -0.0798558 0.1659756 0.01296385 0.21128502
-0.08314796 -0.034022838 -0.13410419 0.22054783 -0.2869348 -0.044390462 -0.0630597 0.06733839
-0.08726412 0.050048646 0.15072429 -0.17535707 -0.022875011 -0.00875416 -0.067145444 -0.05981473
-0.038080312 0.03929611 0.067185774 0.10564911 0.2595491 -0.062915444 -0.11216387 0.050857123
0.02194297 -0.15693577 -0.023448538 -0.22991031 -0.17514941 -0.02637007 0.1986703 0.0009289092
0.020990402 -0.0027279488 0.01679986 -0.103046425 -0.21085048 0.047505073 -0.1218817 -0.20141682
-0.09422656 -0.1081395 0.012874529 -0.0017938775 0.05310685 0.114963606 0.08920228 -0.044818778
0.0813283 -0.14282703 0.03714258 0.05532169 0.15951255 0.015888385 -0.2770739 0.10271562
0.07564588 0.0077296887 0.03445197 0.020464558 0.11769531 0.018247077 0.10473061 -0.055710196
0.0105470065 -0.0035241258 0.052302588 0.048314497 -0.0038273884 -0.06054812 0.029696096 0.04416346
0.03922768 0.029156856 -0.11094735 -0.076622464 -0.009539219 0.01593015 0.08252994 0.2007016
-0.01819089 0.14815167 0.16927668 0.028169667 -0.17650503 0.066240646 0.022539433 0.1281689
-0.17392205 -0.045379657 0.01592579 0.14589655 -0.13643156 0.019741887 0.14357631 -0.04984784
-0.17822734 0.17981525 -0.03476909 -0.09059688 0.24677348 -0.16826047 0.29610586 0.22990625
-0.0765597 -0.011791261 0.085411265 0.12527658 -0.118860535 0.21243729 -0.15780967 -0.0137628885
-0.15585712 -0.028203426 0.0057356562 0.15407562 0.10222743 -0.11528086 0.043498006 -0.065322496
0.15875524 -0.09924278 0.08584542 -0.084931344 0.004479307 -0.07899094 -0.11004574 -0.1209392
00000000: 52a9 443e 3911 c3bd e313 7e3c 9a7a 913e
00000010: 5f87 453d 1518 173e bcbb 253e 313b 24bd
00000020: a9d0 2dbe bb3e afbd 78a3 d2bc feb0 45bd
00000030: 63fd 053d fb28 17bd d2ad 28bd 46be 3a3e
00000040: 0648 58bd a29e b43d 67ad 993d bbbe 973d
00000050: 828b 493d 4aaa 023e 66d8 143e 5587 723d
00000060: 6013 9f3b 3fbf f6bd 4ea7 d1bd 7cfa 13be
00000070: b89b 95bd dd46 35bd fbbc 16bd e19a 73bc
00000080: 68f4 5cbd 258a ef3b 9f41 15be 44d3 593d
00000090: 6d88 2f3d ee1c 43be 4ddc 513e 556a c1bd
000000a0: 7441 abbd 5df6 953c 9712 ae3c 09f9 9cbd
000000b0: f3de fb3b 6432 f9bd 8546 343e 81b7 aabb
000000c0: f491 adbd bf1c 853d 3a2c 5fbe 1851 6fbd
000000d0: c831 b43d 4c2f a8bc a33d f7bd 04d1 b7bd
000000e0: 3ece 2d3e 6e22 0e3d bbcd e03d 7ef3 9a3c
000000f0: 2017 a03a ac3f 95bd 5146 3b3d 6361 34be
00000100: bcbd eebd 12f5 81be 0410 15bc cb17 a0bd
00000110: e6be b3bd 2af7 583d 6b95 b3bd c9b5 bfbd
00000120: dc60 643e d8a1 113e 8ebe 41bd 5864 0c3e
00000130: 1b56 d6bd ac2c 1a3c 3e65 a63d f605 ecbd
00000140: 2fba f23d 57f2 913e d0d9 9fbd a2f6 41bd
00000150: 1781 bf3d 6622 9f3d ca73 033e 9def 683e
00000160: 3ebb 21ba 176d 973c f9a1 0bbe 0b2e 293e
00000170: c195 3fbd 6601 b9bd 9775 98bc bc94 cebd
00000180: a05c 1a3d 958f b2bd a5f4 c1bd 3b6b 373e
00000190: 6cc5 92bd 8344 073e d8a1 fdbc daa9 323e
000001a0: 7f16 c33d 7c76 00be 53d6 0e3e 08b8 e23d
000001b0: 2a04 ce3d d60b 7e3e 7fc2 173e 7d79 02bd
000001c0: b06f 383e 68b0 b43d 906e 9d3d b4f2 dcbd
000001d0: de15 603d 009c 053e f902 25bd 3d63 033e
000001e0: ca61 3bbd 6f1b 0bbd 9a4f 7bbd 209d 2f3d
000001f0: 708b a3bd 82f5 293e 5466 543c 1a5b 583e
00000200: 7a49 aabd 885b 0bbd 9c52 09be 4ad7 613e
00000210: 1ee9 92be c6d2 35bd 7225 81bd b6e8 893d
00000220: 88b7 b2bd cfff 4c3d 7857 1a3e ce90 33be
00000230: 6064 bbbc 9c6d 0fbc 8d83 89bd 4a00 75bd
00000240: 1afa 1bbd f5f4 203d b298 893d 905e d83d
00000250: 9fe3 843e d0d9 80bd 2cb6 e5bd 8f4f 503d
00000260: bec1 b33c c5b3 20be 2617 c0bc 9c6d 6bbe
00000270: 5e5a 33be 0c06 d8bc 3a70 4b3e 0b82 733a
00000280: 10f4 ab3c 63c7 32bb dc9f 893c 010a d3bd
00000290: 30e9 57be ae94 423d 1d9d f9bd 3640 4ebe
000002a0: dbf9 c0bd 3e78 ddbd b0ef 523c 8a20 ebba
000002b0: 9186 593d 0a72 eb3d afaf b63d e593 37bd
000002c0: 748f a63d 4041 12be d122 183d ff98 623d
000002d0: 4257 233e 5c28 823c a1dc 8dbe 915c d23d
000002e0: 3aec 9a3d 5449 fd3b 821d 0d3d 4aa5 a73c
000002f0: 3d0a f13d e57a 953c 017d d63d 6030 64bd
00000300: 5acd 2c3c 05f5 66bb 3d3b 563d 6ce5 453d
00000310: ecd4 7abb 4e01 78bd 3a45 f33c bfe4 343d
00000320: 34ad 203d 5cda ee3c 5d38 e3bd 3dec 9cbd
00000330: 624a 1cbc f27f 823c 7505 a93d b884 4d3e
00000340: 1005 95bc 12b5 173e de56 2d3e 13c4 e63c
00000350: bcbd 34be 2da9 873d 9ea4 b83c b53e 033e
00000360: 9f18 32be 05e0 39bd cd76 823c e865 153e
00000370: b7b4 0bbe bdb9 a13c ab05 133e 402d 4cbd
00000380: 3a81 36be 7d21 383e 096a 0ebd db8a b9bd
00000390: 30b2 7c3e 794c 2cbe 309b 973e 8b6c 6b3e
000003a0: 55cb 9cbd 2230 41bc 1aec ae3d 8148 003e
000003b0: 276d f3bd 2989 593e dc98 21be bd7d 61bc
000003c0: 0299 1fbe df0a e7bc 2cf2 bb3b 00c6 1d3e
000003d0: 9d5c d13d 5f18 ecbd f72a 323d cdc7 85bd
000003e0: bc90 223e cc3f cbbd b9cf af3d 7cf0 adbd
000003f0: 27c7 923b 00c6 a1bd a95f e1bd f9ae f7bd

enc2.4.weight f4 [16]
1.0186712 0.98374337 0.9923135 1.0212115 0.98977196 0.9691642 0.97600704 0.9956564
0.9740363 0.98607033 0.98502535 0.9709915 0.9622933 1.0495192 0.99665105 1.0113171
00000000: d163 823f 9bd6 7b3f 4208 7e3f 0fb7 823f
00000010: b261 7d3f 251b 783f 99db 793f 56e3 7e3f
00000020: 715a 793f 1b6f 7c3f 9f2a 7c3f e692 783f
00000030: db58 763f a556 863f 8624 7f3f d772 813f

enc2.4.bias f4 [16]
-0.019144222 -0.01716909 -0.025190827 0.012111604 -0.047917053 -0.033219907 -0.019545883 -0.00223091
0.009630048 -0.035701845 -0.06412746 -0.0078115663 -0.03150259 0.044302028 0.031849183 0.0038802982
00000000: 58d4 9cbc 31a6 8cbc fe5c cebc c06f 463c
00000010: ac44 44bd 9911 08bd b01e a0bc 7534 12bb
00000020: 59c7 1d3c 193c 12bd 4255 83bd 2bf8 ffbb
00000030: dc08 01bd 0b76 353d 4a74 023d 9a4c 7e3b

enc2.4.running_mean f4 [16]
0.40108588 0.25797454 -0.057632238 0.17766485 0.38866988 0.6620658 0.48176742 -0.43633038
-0.61038613 -0.10878937 0.9963498 -0.6227156 0.055883583 -1.0224775 -0.44200134 -0.030399116
00000000: 215b cd3e 3d15 843e c80f 6cbd c6ed 353e
00000010: bdff c63e 257d 293f 38aa f63e b266 dfbe
00000020: 4442 1cbf f6cc debd c810 7f3f 4a6a 1fbf
00000030: 2fe6 643d 8be0 82bf 004e e2be 9107 f9bc

enc2.4.running_var f4 [16]
1.5589049 0.7791656 0.7197312 1.2441595 1.4331 1.2641435 1.4518634 2.1705961
0.6598967 1.0732324 4.8008986 1.848436 0.6912036 0.8618658 0.65502745 1.1450878
00000000: 328a c73f 6677 473f 4e40 383f 9e40 9f3f
00000010: d26f b73f 74cf a13f a9d6 b93f 0ceb 0a40
00000020: fdee 283f ae5f 893f f6a0 9940 8d99 ec3f
00000030: b8f2 303f 3da3 5c3f e1af 273f 3d92 923f

bottleneck.0.weight f4 [32, 16, 3, 3]
-0.17007351 0.048568945 -0.021842843 -0.03753494 0.04036806 -0.05785026 -0.07956809 0.011325998
-0.03716468 -0.0056080986 -0.009720454 -0.024471687 -0.06168938 0.009928638 0.18010703 0.14866705
-0.19440964 -0.047768116 -0.046606537 -0.020645643 0.07241564 0.05990255 -0.11216374 -0.070040286
-0.040091075 -0.051828973 -0.017879179 0.09288973 0.103678055 0.06919838 0.06689283 0.052516975
-0.10122253 -0.03657202 0.054575577 -0.013555254 0.048062958 0.025550477 0.10746368 -0.013750962
0.050168674 -0.04360274 -0.08123745 0.07552321 -0.12321624 0.10118842 -0.05411658 0.034471344
0.015184944 -0.052601326 0.007408 -0.060597185 -0.10451695 -0.011418999 0.116564766 0.06639101
-0.041556735 -0.06383533 -0.11897872 -0.10146629 -0.06410515 -0.0149125615 -0.07865167 0.027111568
-0.1113651 -0.1340051 -0.10780346 -0.08438556 0.076771505 -0.10003993 -0.015689595 0.09753407
0.064861976 0.07767395 0.13812219 -0.023579089 0.12209523 -0.0511472 -0.17135537 0.056127384
-0.038670506 -0.0139523735 0.086337484 0.07497526 0.038144324 0.11364498 0.08777017 0.053365923
-0.043475986 -0.100859895 0.13219161 0.15910718 0.011863036 0.18925965 0.2249786 0.0023855793
0.0025707278 -0.12702268 0.027288545 -0.006986882 -0.033963267 0.0807653 -0.06611211 0.10017038
-0.029009001 -0.06719114 -0.038660314 -0.0881765 -0.078382604 0.22596668 -0.069623746 -0.0876538
0.023693534 0.083641596 -0.06016619 0.030554213 0.063845575 -0.1064794 -0.09737727 0.04129459
-0.028530603 -0.023936357 0.062671855 -0.034965195 0.11143153 0.11741119 -0.045772552 0.06226347
-0.07188092 -0.054755352 -0.012248254 0.059350137 0.019420633 0.2552412 0.11248241 0.09058536
0.10767586 0.016554173 -0.027394358 0.027290981 -0.07211419 0.13084821 -0.055036172 -0.18314677
0.0636159 0.06530111 0.07482605 0.031061206 -0.096767485 -0.13211165 0.015920732 0.018390488
0.043715756 0.07064001 0.08155555 0.08373794 0.047067333 0.048804503 -0.034304842 0.04234287
-0.020841416 0.08514368 -0.003675164 -0.032436214 -0.015839422 -0.05468962 0.01911657 -0.0078001483
0.030233398 0.048382644 0.078317314 0.029677343 0.005196071 0.018310387 0.1670171 -0.005438026
-0.121476546 0.04140542 -0.003444507 0.01512357 0.16332237 -0.039921258 0.039440498 -0.057318717
-0.030547444 -0.020705193 -0.076108724 -0.0093416795 0.04591364 0.12896505 -0.00023691075 0.05044895
-0.07336533 -0.023160547 0.08707768 0.14347655 0.03864012 -0.013602538 0.167593 0.061062172
0.12599735 -0.06942985 0.0132298395 0.046688005 0.013388782 0.09210086 0.021189488 0.0029927157
0.064039625 -0.015281926 -0.1048843 0.044743333 0.09803499 -0.06075063 0.14727074 -0.043855324
-0.0014401623 0.022920497 0.11473993 0.13512385 0.0835962 0.036566246 -0.10787793 -0.06864199
-0.15477036 -0.060716733 0.04112101 -0.14279051 -0.033817176 -0.072751485 -0.16362545 0.09552428
0.1482765 -0.027033895 0.06313875 0.0017146509 0.062506825 -0.08282514 -0.12381864 0.022511415
0.12648341 0.046114713 -0.0010461666 0.06740802 0.02689837 -0.07812432 0.18289162 0.04232627
0.08913179 0.0978548 0.1365914 -0.14215867 -0.15233378 0.085338905 0.078521885 0.16459793
00000000: c027 2ebe 3bf0 463d c3ef b2bc 3dbe 19bd
00000010: fb58 253d 65f4 6cbd 98f4 a2bd ae90 393c
00000020: fe39 18bd 24c4 b7bb 8a42 1fbc d978 c8bc
00000030: 01ae 7cbd baab 223c fa6d 383e 2d3c 183e
00000040: 5213 47be 80a8 43bd 7fe6 3ebd 0d21 a9bc
00000050: a74e 943d 605c 753d 1ab6 e5bd 4871 8fbd
00000060: 8a36 24bd 9e4a 54bd 5b77 92bc f93c be3d
00000070: 2955 d43d e1b7 8d3d 1cff 883d 0a1c 573d
00000080: c24d cfbd 8bcc 15bd a48a 5f3d db16 5ebc
00000090: aadd 443d 3c4f d13c eb15 dc3d b74b 61bc
000000a0: ab7d 4d3d c998 32bd d25f a6bd eaab 9a3d
000000b0: cc58 fcbd e03b cf3d 59a9 5dbd d331 0d3d
000000c0: 45ca 783c 7d74 57bd cfbe f23b c134 78bd
000000d0: fc0c d6bd c116 3bbc 82b9 ee3d 03f8 873d
000000e0: 6537 2abd 19bc 82bd 1dab f3bd 8fcd cfbd
000000f0: 9049 83bd d153 74bc 2014 a1bd 1419 de3c
00000100: 6313 e4bd a238 09be 0fc8 dcbd 56d2 acbd
00000110: 613a 9d3d bce1 ccbd 7787 80bc f1bf c73d
00000120: 5bd6 843d 8513 9f3d e76f 0d3e ef28 c1bc
00000130: 100d fa3d ba7f 51bd c877 2fbe d4e5 653d
00000140: f764 1ebd 7f98 64bc b5d1 b03d a18c 993d
00000150: 393d 1c3d b3be e83d d9c0 b33d 3a96 5a3d
00000160: e013 32bd a28f cebd 3d5d 073e feec 223e
00000170: 2e5d 423c 48cd 413e ca60 663e 6157 1c3b
00000180: a879 283b 3c12 02be 3a8c df3c 37f2 e4bb
00000190: 111d 0bbd 4768 a53d c965 87bd 2126 cd3d
000001a0: 49a4 edbc 829b 89bd 475a 1ebd e195 b4bd
000001b0: 0f87 a0bd cf63 673e e596 8ebd d683 b3bd
000001c0: f118 c23c 494c ab3d d370 76bd d44c fa3c
000001d0: 78c1 823d df11 dabd bc6d c7bd 8424 293d
000001e0: 03b9 e9bc 2e16 c4bc 1a5a 803d aa37 0fbd
000001f0: 3736 e43d 4775 f03d 007c 3bbd fb07 7f3d
00000200: 4e36 93bd 2647 60bd e7ac 48bc 2119 733d
00000210: 0518 9f3c f9ae 823e 2e5d e63d d184 b93d
00000220: 2985 dc3d 9e9c 873c 226a e0bc 5691 df3c
00000230: 9bb0 93bd 13fd 053e 9c6d 61bd d48a 3bbe
00000240: 0e49 823d 97bc 853d 663e 993d 1274 fe3c
00000250: 082e c6bd 4748 07be 326c 823c a6a7 963c
00000260: 4b0f 333d b6ab 903d 9906 a73d cc7e ab3d
00000270: adc9 403d 3be7 473d 3c83 0cbd b86f 2d3d
00000280: 9ebb aabc cf5f ae3d 05db 70bb d6db 04bd
00000290: adc1 81bc 3902 60bd 5a9a 9c3c 6398 ffbb
000002a0: 08ac f73c e12c 463d d464 a03d e61d f33c
000002b0: ce43 aa3b aaff 953c 8806 2b3e 7831 b2bb
000002c0: b2c8 f8bd bb98 293d 3dbd 61bb dac8 773c
000002d0: fb3d 273e 7984 23bd 5c8c 213d 08c7 6abd
000002e0: a23e fabc f09d a9bc e4de 9bbd d80d 19bc
000002f0: f10f 3c3d 6a0f 043e 3f6b 78b9 8fa3 4e3d
00000300: 9040 96bd 30bb bdbc c855 b23d 84eb 123e
00000310: 1a45 1e3d 2edd 5ebc 809d 2b3e 541c 7a3d
00000320: 7305 013e 3d31 8ebd f8c1 583c ec3b 3f3d
00000330: 9f5c 5b3c 609f bc3d 9495 ad3c 7021 443b
00000340: 3527 833d 0b61 7abc 94cd d6bd c944 373d
00000350: 92c6 c83d a7d5 78bd 24ce 163e a4a1 33bd
00000360: d4c3 bcba c4c3 bb3c c5fc ea3d e85d 0a3e
00000370: 7c34 ab3d 7dc6 153d 1bef dcbd 2c94 8cbd
00000380: 1f7c 1ebe 1cb2 78bd 816e 283d ad37 12be
00000390: e183 0abd bbfe 94bd 6e8d 27be 3ca2 c33d
000003a0: cbd5 173e 3076 ddbc e44e 813d 23be e03a
000003b0: 9403 803d 3aa0 a9bd a194 fdbd dc69 b83c
000003c0: de84 013e c8e2 3c3d 871f 89ba 370d 8a3d
000003d0: f859 dc3c a5ff 9fbd f147 3b3e 505e 2d3d
000003e0: ba8a b63d 1968 c83d 9ede 0b3e 0b92 11be
000003f0: 63fd 1bbe 2ac6 ae3d 15d0 a03d 5c8c 283e

bottleneck.1.weight f4 [32]
1.0074592 1.0121467 1.0081037 0.9715792 0.995465 1.0124382 1.0020938 1.0345924
0.97683805 0.96775204 0.9859964 0.9938166 1.0126135 1.0304173 1.0051396 1.0307406
1.0498117 0.9814975 0.96869075 1.0284414 0.95590454 1.0029775 1.0101254 0.9917554
1.0110353 0.9847382 0.97955585 1.0197921 1.0001694 0.9838506 1.0232471 0.99389
00000000: 6cf4 803f 068e 813f 8b09 813f 6ab9 783f
00000010: cbd6 7e3f 9397 813f 9c44 803f 866d 843f
00000020: 0f12 7a3f 99be 773f 436a 7c3f c46a 7e3f
00000030: 529d 813f b7e4 833f 6aa8 803f 4fef 833f
00000040: 3b60 863f 6c43 7b3f 1efc 773f f8a3 833f
00000050: 29b6 743f 9161 803f ca4b 813f afe3 7d3f
00000060: 9b69 813f cd17 7c3f 2cc4 7a3f 8c88 823f
00000070: 8d05 803f a2dd 7b3f c3f9 823f 936f 7e3f

bottleneck.1.bias f4 [32]
-0.016079694 -0.037850555 0.014342548 -0.036818195 -0.0046777576 -0.0069091492 0.0054466757 -0.021827623
0.008886083 -0.026262105 -0.022952214 -0.054313272 0.015561249 -0.0057247197 0.007650854 0.0064805006
0.042352557 -0.031011824 -0.017031113 0.049500234 -0.05800268 -0.013428376 0.0285392 -0.0005225179
0.03717238 -0.021090843 0.0070835934 0.030447306 0.006618095 -0.021097153 -0.043798752 -0.00093610265
00000000: 90b9 83bc 2f09 1bbd 02fd 6a3c adce 16bd
00000010: e047 99bb 2566 e2bb 077a b23b d8cf b2bc
00000020: ef96 113c a023 d7bc 4806 bcbc 9877 5ebd
00000030: 9cf4 7e3c 6e96 bbbb 04b4 fa3b 615a d43b
00000040: e079 2d3d 820c febc d584 8bbc c2c0 4a3d
00000050: 3894 6dbd b102 5cbc 0acb e93c 95f9 08ba
00000060: 1142 183d b4c6 acbc 7d1d e83b a16c f93c
00000070: 9bdc d83b f0d3 acbc 5266 33bd c964 75ba

bottleneck.1.running_mean f4 [32]
0.2892034 0.7843425 0.35779154 0.7941723 1.2646594 0.43174905 0.58119065 -0.11129845
0.5218559 0.8466119 0.2107921 0.20309772 -0.2679667 0.084845975 -0.6510607 0.079849474
-0.5854745 0.6656068 0.8133156 0.19843052 0.7269283 -0.372077 0.15613212 -0.8212389
-0.28816417 0.67324436 0.7886387 -0.41506502 -0.19174117 0.13843264 0.17060363 -0.05359945
00000000: 7812 943e acca 483f 7430 b73e e04e 4b3f
00000010: 5ce0 a13f 360e dd3e e9c8 143f 71f0 e3bd
00000020: 5998 053f 8fbb 583f e2d9 573e d9f8 4f3e
00000030: ee32 89be bac3 ad3d eaab 26bf 1f88 a33d
00000040: a8e1 15bf 3565 2a3f 7335 503f 5f31 4b3e
00000050: f917 3a3f e080 bebe 19e1 1f3e b63c 52bf
00000060: 418a 93be be59 2c3f 3ae4 493f 6783 d4be
00000070: cc57 44be 49c1 0d3e b8b2 2e3e 198b 5bbd

bottleneck.1.running_var f4 [32]
1.2608074 1.1460029 0.60259616 2.1460257 1.2840501 0.69837403 0.5814556 0.4916385
0.6267621 3.8835196 0.5306278 0.30447665 1.2482466 0.3546706 1.1009313 0.33887962
1.7637223 1.9553485 2.6337535 0.48873505 1.3375305 0.7628364 0.4075548 1.8920174
0.9694987 1.2878244 1.1365494 1.3563856 1.292889 0.67249167 0.5798203 0.68247926
00000000: 2362 a13f 39b0 923f be43 1a3f 7c58 0940
00000010: c15b a43f a4c8 323f 46da 143f 0bb8 fb3e
00000020: 7b73 203f 968b 7840 39d7 073f 5de4 9b3e
00000030: 8bc6 9f3f 6397 b53e 51eb 8c3f a181 ad3e
00000040: a7c1 e13f dc48 fa3f 6b8f 2840 7b3b fa3e
00000050: 3334 ab3f 3f49 433f 06ab d03e a02d f23f
00000060: 1131 783f 6ed7 a43f 737a 913f 0b9e ad3f
00000070: 637d a53f 6a28 2c3f 1a6f 143f f6b6 2e3f

bottleneck.3.weight f4 [32, 32, 3, 3]
-0.010767112 0.09934854 -0.039612856 -0.009996326 0.12130808 -0.119041815 0.014871096 0.10125022
-0.07706169 -0.00874106 0.050547797 -0.09542128 -0.132974 -0.124472044 0.09138142 -0.055143535
0.026626559 -0.016495029 -0.066724904 -0.10858281 0.00030892383 -0.056977555 0.08917644 -0.035042606
-0.03162243 -0.08846325 -0.0664607 0.012898122 0.02014888 -0.059812896 0.0486481 0.0715251
-0.13610585 0.059469853 0.06677286 0.015351149 0.044361267 0.007818887 0.0246065 -0.12491126
-0.1118382 -0.0026134872 0.026906962 0.054563157 -0.08507766 0.082604766 -0.047753707 0.07975962
-0.07831085 -0.05181204 -0.19498006 -0.004514722 -0.053502634 -0.13639897 0.15864255 -0.02903783
0.14877248 -0.0635191 -0.28098392 -0.07047272 0.027628945 -0.07051861 0.034986027 0.013522998
0.18402846 0.05230566 -0.008041342 0.14252946 -0.012157935 -0.043035984 -0.011614649 0.21507278
0.052672967 0.08713748 -0.07051274 0.004404083 0.06815654 0.0014163915 0.067329936 0.048310064
0.087295406 -0.056232087 -0.05332975 0.023228759 0.10129335 -0.055152614 0.057273623 -0.11874412
0.015997116 0.06357142 0.02321214 -0.041934446 -0.03129613 0.036111724 -0.1302993 0.15642723
0.14062521 0.025568254 0.13953766 -0.00042996596 -0.08140292 -0.07095953 -0.12821804 0.093235016
-0.023456024 0.086766504 0.033125818 0.1383666 -0.066845424 0.16306654 -0.010057764 0.04655468
0.003421151 -0.12956572 0.15177055 0.010087524 -0.02007598 0.108736806 0.13518669 0.027412843
0.124448635 0.21501996 -0.114276975 -0.009789327 0.032197118 -0.02534533 0.08851461 0.055031847
-0.0074794227 0.16929829 0.07105827 0.014141766 0.023688456 -0.21374714 -0.013483562 -0.08455509
0.105031945 0.013181042 0.087363064 -0.008672591 -0.08961971 0.15736602 0.084511146 0.09241311
-0.09046502 -0.08101347 0.017515795 0.1802201 -0.06252595 -0.01707702 -0.07332739 0.0040600332
0.13936788 -0.17443591 -0.074320875 -0.007427193 0.11198296 0.14702795 -0.021670865 0.03846827
0.089503385 0.023094716 0.040644713 -0.14701276 -0.0383415 0.089060694 -0.0056786197 -0.020885253
0.12197603 -0.1377179 -0.046063814 0.006951957 -0.07268267 0.048085477 -0.09644398 0.012324071
-0.037384994 0.15087044 0.08752876 0.096476346 0.042275306 0.057670858 -0.075689144 -0.13402116
-0.06405221 0.082100116 0.0935477 0.076314576 -0.005908776 0.038894128 -0.17253187 0.11776055
-0.06022963 0.09603087 -0.0759753 -0.0962084 -0.111179255 -0.09807487 0.041722003 -0.07035666
0.10116319 -0.13272291 -0.024718167 0.085464805 -0.12917767 0.0034340038 -0.07500493 -0.03476648
-0.09932258 -0.03887191 0.01726411 0.0629031 0.13673647 0.026880613 -0.12537386 0.074428596
0.07317223 0.05368605 -0.013569866 -0.033738066 0.08194224 0.0650654 -0.2121691 0.14411175
-0.031037899 0.12015636 0.005850772 -0.08637386 0.0060165953 0.0878583 -0.004108125 -0.03673196
0.1085516 -0.0020341505 -0.110488065 0.019867392 -0.07887753 -0.07837595 0.09243973 0.024016475
-0.0473361 -0.01416452 0.08410037 -0.008109513 0.08606692 -0.048648972 0.12515424 -0.03383002
-0.023768168 0.05697595 0.05583284 0.040386017 0.008210168 -0.103421025 -0.06451428 0.05906852
00000000: 8a68 30bc 3f77 cb3d 1741 22bd a1c7 23bc
00000010: 5f70 f83d 32cc f3bd e6a5 733c 465c cf3d
00000020: 85d2 9dbd aa36 0fbc 350b 4f3d 3b6c c3bd
00000030: 562a 08be 33eb febd 2f26 bb3d 30de 61bd
00000040: f11f da3c 9520 87bc 11a7 88bd aa60 debd
00000050: 0ef7 a139 4c61 69bd 23a2 b63d d688 0fbd
00000060: 8586 01bd 382c b5bd 8c1c 88bd a552 533c
00000070: 440f a53c 5efe 74bd 3b43 473d c07b 923d
00000080: 555f 0bbe a996 733d 36c0 883d 6383 7b3c
00000090: 29b4 353d ca1a 003c 9293 c93c 7ad1 ffbd
000000a0: 6d0b e5bd 0a47 2bbb fd6b dc3c 9e7d 5f3d
000000b0: 323d aebd b02c a93d 6499 43bd 0359 a33d
000000c0: 7061 a0bd dd38 54bd daa8 47be 3cf0 93bb
000000d0: 9425 5bbd 2cac 0bbe 3173 223e bee0 edbc
000000e0: d057 183e 4d16 82bd 20dd 8fbe 0054 90bd
000000f0: 1956 e23c 106c 90bd 824d 0f3d 918f 5d3c
00000100: f571 3c3e 763e 563d d5bf 03bc 3ef3 113e
00000110: 1332 47bc 8046 30bd 5e4b 3ebc 0a3c 5c3e
00000120: 9cbf 573d 2375 b23d fc68 90bd 2050 903b
00000130: a895 8b3d 36a6 b93a 47e4 893d c6e0 453d
00000140: efc7 b23d 9e53 66bd 4c70 5abd 3d4a be3c
00000150: e372 cf3d b5e7 61bd bf97 6a3d 1e30 f3bd
00000160: 620c 833c bc31 823d 6327 be3c 74c3 2bbd
00000170: 5f30 00bd e3e9 133d 2e6d 05be 762e 203e
00000180: 0e00 103e 8474 d13c f6e2 0e3e 0e6d e1b9
00000190: 93b6 a6bd 3b53 91bd 974b 03be 00f2 be3d
000001a0: d926 c0bc a3b2 b13d f0ae 073d f9af 0d3e
000001b0: 41e6 88bd eafa 263e 52c9 24bc 1fb0 3e3d
000001c0: 6435 603b e0ac 04be bd69 1b3e 2446 253c
000001d0: 6276 a4bc 67b1 de3d 616e 0a3e e690 e03c
000001e0: edde fe3d 312e 5c3e 0c0a eabd 6a63 20bc
000001f0: 20e1 033d 02a1 cfbc 2647 b53d 1369 613d
00000200: f215 f5bb 885c 2d3e 0087 913d deb2 673c
00000210: 4b0e c23c 88e0 5abe 28ea 5cbc 382b adbd
00000220: fd1a d73d 4cf5 573c 68eb b23d 7c17 0ebc
00000230: 8a8a b7bd 8f24 213e 2e14 ad3d 1643 bd3d
00000240: b945 b9bd 64ea a5bd 497d 8f3c 9e8b 383e
00000250: 9b0d 80bd 1be5 8bbc ac2c 96bd 070a 853b
00000260: 74b6 0e3e 549f 32be 8b35 98bd d05f f3bb
00000270: 5257 e53d 7f8e 163e 1987 b1bc e890 1d3d
00000280: 8d4d b73d 2131 bd3c 127b 263d 838a 16be
00000290: fa0b 1dbd 7465 b63d b713 babb 8d17 abbc
000002a0: 92ce f93d ec05 0dbe 69ad 3cbd 3ecd e33b
000002b0: a7da 94bd 47f5 443d 6c84 c5bd e6ea 493c
000002c0: 0221 19bd c87d 1a3e 4742 b33d 6495 c53d
000002d0: df28 2d3d 4738 6c3d e902 9bbd d83c 09be
000002e0: ce2d 83bd 1b24 a83d f095 bf3d d14a 9c3d
000002f0: 689e c1bb 734f 1f3d 32ac 30be 712c f13d
00000300: 58b3 76bd d5ab c43d f098 9bbd e908 c5bd
00000310: f3b1 e3bd 7adb c8bd b1e4 2a3d 2717 90bd
00000320: a62e cf3d 84e8 07be c17d cabc 2c08 af3d
00000330: 2747 04be 060d 613b 2f9c 99bd 4c67 0ebd
00000340: a369 cbbd 2738 1fbd 766d 8d3c 57d3 803d
00000350: a504 0c3e bb34 dc3c 0162 00be 056e 983d
00000360: 52db 953d e7e5 5b3d 2554 5ebc ed30 0abd
00000370: 55d1 a73d 0241 853d db42 59be 0892 133e
00000380: 3143 febc 8a14 f63d d5b7 bf3b c7e4 b0bd
00000390: dc26 c53b 0def b33d 739d 86bb 4074 16bd
000003a0: 4d50 de3d 624f 05bb 9147 e2bd f1c0 a23c
000003b0: 8b8a a1bd 9283 a0bd 0b51 bd3d 33be c43c
000003c0: 80e3 41bd 4e12 68bc d13c ac3d c3dd 04bc
000003d0: da43 b03d 2544 47bd 6f28 003e 5991 0abd
000003e0: 76b5 c2bc 9d5f 693d fab0 643d cf6b 253d
000003f0: f183 063c 67ce d3bd 1020 84bd d5f1 713d

bottleneck.4.weight f4 [32]
1.0211693 1.0424299 1.0278995 0.99961716 1.0575572 1.0237594 1.0193914 1.0318192
1.0330158 1.0115794 1.021164 0.9825148 1.0036523 1.0250622 1.0104387 0.99610925
1.0449353 0.99029106 1.0158119 1.0411884 1.0248675 1.0112025 1.0040478 1.0171233
0.97993594 0.9827875 1.0213184 1.0508955 1.0125376 0.9788891 1.0151086 0.9863899
00000000: adb5 823f 586e 853f 3692 833f e9e6 7f3f
00000010: 095e 873f 8c0a 833f 6b7b 823f a712 843f
00000020: dd39 843f 6f7b 813f 80b5 823f 1786 7b3f
00000030: ae77 803f 3d35 833f 0e56 813f 0401 7f3f
00000040: 71c0 853f b783 7d3f 2006 823f a945 853f
00000050: dc2e 833f 156f 813f a384 803f 1931 823f
00000060: 15dd 7a3f f697 7b3f 90ba 823f be83 863f
00000070: d59a 813f 7a98 7a3f 14ef 813f 0c84 7c3f

bottleneck.4.bias f4 [32]
-0.023484956 0.028696168 0.024167905 0.024929447 0.0026748434 0.014972627 0.008616915 -0.01615742
0.012745434 -0.03184448 -0.018144123 -0.024116134 0.0031354465 -0.031510994 -0.0022762087 -0.008529129
-0.023274986 -0.016532665 -0.017750753 0.021922482 0.038260095 0.006970179 -0.0065824054 -0.034915447
-0.014798944 -0.04698138 -0.052451227 0.022172807 0.0013788455 -0.031369798 0.03549552 0.00065111526
00000000: 8663 c0bc 3a14 eb3c c5fb c53c d738 cc3c
00000010: 6d4c 2f3b c04f 753c f62d 0d3c 915c 84bc
00000020: 3ad2 503c 5c6f 02bd fca2 94bc 338f c5bc
00000030: 107c 4d3b ac11 01bd 722c 15bb c3bd 0bbc
00000040: 2fab bebc 836f 87bc 076a 91bc c796 b33c
00000050: 9eb6 1c3d 1966 e43b 38b1 d7bb 8003 0fbd
00000060: 4577 72bc 8c6f 40bd 19d7 56bd bfa3 b53c
00000070: 61ba b43a 9e7d 00bd c063 113d 9baf 2a3a

bottleneck.4.running_mean f4 [32]
0.46571872 -0.6624873 -0.15520656 -0.08325945 0.38473034 -0.16552067 -0.27548322 0.31519485
-0.28783563 0.011270239 0.084351644 -0.8908553 -0.10364699 0.17821233 0.5015634 0.036410175
0.62657684 -0.077764176 0.15326622 0.16642632 -0.71610796 0.87664235 0.2690502 0.39736345
-0.22483645 -0.05058812 0.07332301 -1.1052287 -0.2678674 -0.31757298 -1.1714952 0.50440526
00000000: af72 ee3e c598 29bf 78ee 1ebe ee83 aabd
00000010: 60fb c43e 407e 29be 230c 8dbe 3861 a13e
00000020: 315f 93be cfa6 383c 8ec0 ac3d 180f 64bf
00000030: e044 d4bd 4b7d 363e 7566 003f d622 153d
00000040: 5767 203f d342 9fbd d2f1 1c3e a96b 2a3e
00000050: da52 37bf a26b 603f f3c0 893e 3973 cb3e
00000060: 873b 66be 7d35 4fbd 602a 963d 2278 8dbf
00000070: ea25 89be ed98 a2be 8ef3 95bf b420 013f

bottleneck.4.running_var f4 [32]
1.2411634 0.7037909 1.1254908 0.6743709 1.522708 1.4038603 0.5235883 0.5909226
2.0527012 1.0990763 0.7584323 2.314616 1.0026772 1.4279014 1.2337406 1.0282114
1.3255019 1.1053344 1.0983979 1.3193864 2.4931495 4.269842 1.6627079 1.0854498
1.0049846 0.63589895 1.0375699 0.77744603 1.8297645 0.4953725 3.7240305 1.0819979
00000000: 71de 9e3f a42b 343f 1510 903f 92a3 2c3f
00000010: 19e8 c23f b2b1 b33f e209 063f b446 173f
00000020: 755f 0340 88ae 8c3f 9f28 423f ab22 1440
00000030: ba57 803f 79c5 b63f 36eb 9d3f 6e9c 833f
00000040: 0caa a93f 997b 8d3f 4d98 8c3f a7e1 a83f
00000050: c38f 1f40 8ca2 8840 9dd3 d43f 05f0 8a3f
00000060: 56a3 803f 46ca 223f 17cf 843f b406 473f
00000070: b935 ea3f 77a1 fd3e 8456 6e40 e87e 8a3f
